rl_compexp/save/LL_hyper/LunarLander-DQN-64x4/dqn_best.pth (torch, 229110 bytes, 40 tensors)

model.model.model.0.weight f4 [64, 8]
00000000: a6b1 9ebe 4b74 bdbd c226 353f bc4c e53f
00000010: 4375 903e 145c 833f 7f3d 93bd d3c2 243e
00000020: 31ea ffbe 7dc1 2b3e fcb5 b4be 5170 8bbe
00000030: 8c2a d6be 711c e7be fe0b 50bf 5f43 a53e
00000040: 2b41 e23d 67c5 5c3d 662c 19bd 4e88 a3bd
00000050: 9ecc e03e 083b 91bd 88d9 383d df5b 013f
00000060: 2f4c 4abf 96f5 7bbf 6bc6 e7be a2e7 adbe
00000070: ed72 21be 2a24 82be 020b 663e b923 34be
00000080: a595 323f 4505 0dbe aa04 7d3f 4e82 dcbd
00000090: a6fa 36bf 33db 82be 9c99 733e 6439 8cbd
000000a0: d8b8 e1be 20fa 833e d3c9 8abf 17e3 753e
000000b0: 60d7 0b3f ce54 0d3e 7a4a 70bf 7a3f fcbe
000000c0: 757e e8bc 6829 e1be 23fe 33bf c30b 04bf
000000d0: 071f ea3e bf2a 86bc 9f21 b6be ca05 92be
000000e0: 84e6 a0bd d79d 853d 4389 c63e c92c 923e
000000f0: f999 f83c d09b 993f 12a5 d03d 3d98 b43d
00000100: 2079 443e 5283 94bd b387 a1be cd35 253e
00000110: a9a8 aabd 50e2 07bf 85bd ab3d a549 81bf
00000120: e4a7 d23d ea3a 063e 1c15 85bf 3caa 923f
00000130: e7cf 6ebe 6080 ed3e eaf3 5a3c 1b1f 283e
00000140: 6f32 1c3f 64c0 083e 344f 3abf 1fba 00bf
00000150: 71ff 80bd b06a c23d 3ca3 e7be 4c44 733c
00000160: c368 a73e 3715 25be da6c 30bf 47e3 27bf
00000170: c26c 253e 5c5a ff3e a3bb 88be a93b 5d3e
00000180: a4cd 293f ba9d a0bd 1329 833e 9543 7e3d
00000190: a088 a43e 51e3 8a3e ecff 483e 8599 333e
000001a0: 275c 453e d3e2 093f 8f9e 1ebc 5200 933c
000001b0: 59e3 e1be 347c 35be 6014 33bf 75fc 94bf
000001c0: fe6b 9bbd 72c1 31c0 f169 9abe 3964 46bf
000001d0: 856b 0bbf 607f fa3d d176 e53d 42d8 533e
000001e0: 79d4 033f 4aa4 2f3c 15f8 84be 1ba3 a2bc
000001f0: 0935 fc3e 45cd d0bd 2bfb a33d 5a07 18bd
00000200: 322a 4d3c 20d9 9dbe bfcd 19bf 238a 1cbe
00000210: e8af 0c3f cf61 e13e 538e 1d3e 9613 b8be
00000220: c490 84be 3bcb f93b d645 9bbf 5f35 04be
00000230: 12be 733f 148c a63e e133 383e 5ef8 883e
00000240: 4694 d1bd 9a71 9dbf 4612 673f 5742 b53f
00000250: f9c4 37bf e9cf 32be 315a 9e3e e210 773e
00000260: 2f72 023e 6714 86bd a5ae 273f 28d2 c8be
00000270: ef7a 1dbf 6291 b43e f365 ab3c 267a 9a3d
00000280: 89dc 68ba b37f 803e c6ed 40bd 07a5 a43e
00000290: 1560 0e3f 200d e83e 35f8 edbe 10e2 2dbf
000002a0: 7dd2 6d3f 5775 d5be 169c 573e 3717 42bf
000002b0: b439 6b3f fab5 04be c0b2 ae3d ec30 d13d
000002c0: 9c13 353f 86de 8bbf 0cdb 473e 4b5c ab3f
000002d0: 605f 6bbf 88f2 d93e 2bcf 96be 37d4 303e
000002e0: 231a 48bc 3538 b9be cf23 96bd f9cd 34be
000002f0: 8c3e 023e bbe8 553f 5965 8f3c de3c 1d3e
00000300: 08f0 113f 5c22 47bf 12bf 70bf bece 94be
00000310: a974 db3e 3ee4 053e 1ea0 bdbe b593 97bd
00000320: 78a8 fe3d a8bb de3a a0dd 69bf 9e09 2ebf
00000330: 3038 25bf 680f 0bbf 703a 313f cbca 0dbe
00000340: d5bd 2e3e ed25 89bf 1665 d0be 6381 0c3e
00000350: bad1 e6bd 5d3c c83e 6e48 443d 9353 3bbe
00000360: dcc4 94be 8831 003f 37ef a93e d465 2abf
00000370: f489 8e3e 65b4 b13e ee24 e63d 4163 81be
00000380: 690f a6be 7289 e1bf 53ed 833d 2528 f9bd
00000390: c5f8 673e d98e 1b3f 412f febd b8d6 29bf
000003a0: cb36 82be b5b2 1c3d 487f f5bd 7ef2 203d
000003b0: f219 563f bd4c 3f3f fa9d e0be 8b14 4fbf
000003c0: 941b 9abd 26b9 a3be 8393 203f 7942 25bf
000003d0: 14e8 a23e 3648 4a3f 78c5 fc3d 3ec1 5cbe
000003e0: ece0 023d 3081 553d 317d 1a3e 1632 753d
000003f0: ed7d 0a40 2b8e f93d f155 c33d 55a8 24bd
-0.3099491 -0.09250697 0.70762265 1.7914042 0.28214464 1.0262475 -0.07189464 0.16089945
-0.4998336 0.16773029 -0.35295093 -0.27234128 -0.41829336 -0.45138887 -0.812683 0.32277963
0.11047586 0.053899195 -0.037395857 -0.079849824 0.4390611 -0.070913374 0.04512933 0.5053081
-0.79022497 -0.9842161 -0.45268568 -0.33965784 -0.15766497 -0.25418216 0.22465137 -0.17591752
0.6975959 -0.13771541 0.9883524 -0.10767041 -0.7147621 -0.2555786 0.23789066 -0.06846884
-0.44086337 0.25776768 -1.0842842 0.24012409 0.5462551 0.13801882 -0.9386364 -0.4926718
-0.028380612 -0.43976903 -0.70309657 -0.51580447 0.45726797 -0.016377805 -0.35572526 -0.28520042
-0.07856467 0.06524246 0.38776597 0.28549793 0.030346857 1.2000675 0.10187735 0.088181
0.1918683 -0.0725161 -0.31548843 0.16133805 -0.083329506 -0.530797 0.08385757 -1.01006
0.10285929 0.13108411 -1.0397067 1.1458201 -0.23321496 0.46387005 0.013363818 0.16418116
0.61014456 0.13354641 -0.72777104 -0.50284 -0.062987216 0.09493005 -0.45241725 0.014847826
0.32697114 -0.16121374 -0.68916094 -0.6558117 0.16154769 0.49873626 -0.26705655 0.2160479
0.6632941 -0.07842584 0.25617275 0.06207617 0.32135487 0.27126554 0.19628876 0.17539032
0.19273435 0.5386173 -0.009681358 0.017944489 -0.44118765 -0.17723161 -0.69952965 -1.1639544
-0.07588957 -2.777432 -0.30158952 -0.7749668 -0.54460937 0.12231326 0.11204303 0.20687965
0.5149608 0.010720322 -0.25970522 -0.019853165 0.49259213 -0.10195402 0.08006891 -0.037116386
0.012522267 -0.30829716 -0.6007957 -0.1528707 0.5495591 0.44019935 0.15386324 -0.35952443
-0.25891697 0.007623104 -1.2130687 -0.12910984 0.952119 0.32528746 0.1798854 0.2675199
-0.10233359 -1.2300293 0.9026226 1.416087 -0.7178493 -0.17462124 0.30928186 0.24127534
0.1273887 -0.0654686 0.6550086 -0.39222836 -0.61515707 0.35267168 0.020922637 0.07542829
-0.000888296 0.25097427 -0.04710176 0.32157156 0.5561536 0.45322514 -0.4647843 -0.6792307
0.92899305 -0.41691086 0.21055636 -0.75816673 0.91884923 -0.12960044 0.085301876 0.10214409
0.70733047 -1.0927284 0.19517154 1.338754 -0.91942406 0.4256785 -0.29454932 0.17268454
-0.012213263 -0.36175695 -0.07331049 -0.17656697 0.12719172 0.83558244 0.017504381 0.1535525
0.57006884 -0.77786803 -0.9404155 -0.29063982 0.42862442 0.13075349 -0.37036222 -0.0740122
0.124344766 0.0016993182 -0.913538 -0.67983425 -0.6453886 -0.54320383 0.69229794 -0.1384689
0.17064603 -1.0714699 -0.40702122 0.13721232 -0.11270471 0.39108554 0.047920637 -0.182936
-0.29056442 0.5007558 0.3319032 -0.6656163 0.27839625 0.34707943 0.112375125 -0.25271037
-0.32433632 -1.762007 0.064417504 -0.1216586 0.22653492 0.60764843 -0.12411357 -0.6634326
-0.2543243 0.038256366 -0.119871676 0.03929376 0.8363334 0.7472647 -0.43870527 -0.8089072
-0.07524791 -0.31977195 0.62725085 -0.64554554 0.31817687 0.79016435 0.12342352 -0.21558091
0.031952783 0.052125156 0.15086819 0.05986222 2.163936 0.121853195 0.095378764 -0.040199596

model.model.model.0.bias f4 [64]
00000000: f782 be3d 8ff6 7b3e 6acd c4bd ffd8 99be
00000010: 53a4 0d3e 093c 013e 3575 69be 2386 2f3e
00000020: 4f51 383f ecf2 93bd 7b8f 723e 2de5 0d3e
00000030: 674b d93e b685 87be bfbc b43c 0369 213e
00000040: b474 eebe 6ea0 493d b8f1 a3be 3c90 c7be
00000050: 6635 9c3e ddd8 8dbd 0558 d8bd dd2a eabe
00000060: 9de4 813e bad7 fcbd e3b3 6b3e 7606 9bbe
00000070: 5b7c a53e 7e3c 973e 1f27 ee3d 84a7 b93c
00000080: 96ea 37be 92c8 853d 0b8f 923e 6b4f edbd
00000090: 49b2 f43e e824 d63e df53 8abe 2850 f5be
000000a0: 590a 903d a1f1 ba3d dbe1 be3d d845 a2bd
000000b0: 5417 e33e ae27 6f3e c9b1 04bf bf84 463e
000000c0: 4bde a8bd dcc3 dfbe 5b62 eabe 193b a13d
000000d0: a5ac aabe 7e21 833e 3c6a 76be e25e 023d
000000e0: fc0b 0bbe 632e 5d3e 9e55 48bc 3065 bb3d
000000f0: 97ee c0be fe0d b13e 3ab3 6bbe ac7f 623e
0.09302323 0.24605773 -0.09609492 -0.30048367 0.13832216 0.12620558 -0.22798617 0.17141013
0.7199907 -0.07224068 0.23687546 0.13856955 0.4244034 -0.264692 0.022062657 0.15762715
-0.46573412 0.049225263 -0.32020354 -0.3897723 0.3050949 -0.06926129 -0.105636634 -0.45735827
0.2536973 -0.12345834 0.2301784 -0.30278367 0.32321438 0.2953834 0.116285555 0.022662885
-0.17960581 0.065323964 0.28624758 -0.115874134 0.4779227 0.41825032 -0.27017114 -0.47912717
0.07033224 0.09128118 0.09320422 -0.07923478 0.44353735 0.2335498 -0.5183378 0.19386576
-0.08245524 -0.43704116 -0.45778164 0.078726 -0.33334842 0.2561149 -0.24063963 0.03182877
-0.1357879 0.21599726 -0.012227444 0.09150159 -0.3768203 0.34580988 -0.23017588 0.22119015

model.model.model.2.weight f4 [64, 64]
00000000: a344 beba b7f0 12bf fa1e 273e dff4 f13d
00000010: 6302 fdbe ae9d 7b3d e34d d3bd a7a7 26bd
00000020: 9906 48bf de6e 89be f837 11bf 2681 82be
00000030: 8136 bc3d 4037 45bd edfc 02bf d04b 3dbe
00000040: 59c7 24bf 14ca 913e b8e5 7cbe 814f e2be
00000050: 5c8e 5ebc df75 c8bb bc0d b0bd e358 33bf
00000060: 0d1b 33bf 61ce 343d 90b1 343e 08dd e73e
00000070: 61ee dabe af9b f3bc 9e41 dcbd e0df b2be
00000080: dc81 c3bd 035a 6e3b 5737 e6bc 55a4 023e
00000090: eaa8 013d 4789 1ebd 3ca1 ce3d 3f21 66bf
000000a0: 47ee 3abe b876 3cbe 9a72 d7bd 67a9 59bf
000000b0: 0e87 723e bce6 efbe 7be0 3b3e c7ae 39be
000000c0: 30b1 a03e 228d f03d e8bc debc 3dcd e5be
000000d0: ebc7 d23e 5a02 93be 1b99 0abe e302 8fba
000000e0: fdf9 943d 5552 a83e a08b aa3d 0fde 593e
000000f0: d0c4 11be 6bc0 453e adb9 f43e 410b 91be
00000100: 37a1 a63e 11ca 13bd 7e91 223e 7e6d 053e
00000110: fafb 263e cb26 d3bd 9a52 7ebe 9098 c7be
00000120: fbc4 7bbd 57ad 61bf e2d3 3ebe ff79 783e
00000130: c8a4 103e 5a73 bfbd b907 443e 0eb5 b9bd
00000140: 263d d83d 4cf2 95bd 086e 8e3e 0fb7 4cbf
00000150: c934 24bf 242d cb3d 6568 13be ff10 a73e
00000160: 5c48 0ebf 4208 25be e6fd 05be 18f3 e53e
00000170: da01 203f c49b a3be b995 85bd 5de7 85ba
00000180: 7e13 da3e 5cb6 febe 840f 84bb dac4 07bf
00000190: 216b 973d 3bab 963e cf66 b3be 7a66 2a3e
000001a0: c3f3 e53e 3992 283e dbd2 0fbf 269a 03be
000001b0: 777a e43e 6262 de3e c6a5 003f 4429 65be
000001c0: 1eb2 3e3e ba7d 043f 1292 4f3b 2063 4c3f
000001d0: c745 14bf 0d23 c73b 44c3 cb3e c64e 9abe
000001e0: 41b9 573c 0b95 933e 37c6 033f 580b 16be
000001f0: 6bb4 b13d 4729 1a3f 8899 bdbe 9d08 ab3e
00000200: 5409 34be c8ba ed3e 4c64 4e3e b171 283f
00000210: b543 803d 1c2b 0bbf 97d3 753d a3c1 f5ba
00000220: 3ffe 103e 21bc 243f c43e 92be e7d0 1bbe
00000230: 258d bb3e 9ded 5cbf 5788 9bbe 373a 893e
00000240: 41dd 273f 8a3e cb3d 47c7 54bd cf13 03be
00000250: 9aa2 843e 6957 9bbe b08a 18bf 2341 6b3f
00000260: 0873 bc3e 49fd 973d 73a8 853e ce2f 7cbf
00000270: 6d0d 01be 3d5f 0d3e 439a 1abf 8602 313f
00000280: 8f92 d53e 360f dcbe ec5a 033d e416 89bf
00000290: 7113 09be 349f e63e fa66 053f 9623 653f
000002a0: d376 a5bd 90da 80be b0f5 ea3d d13d e73e
000002b0: 2a1f 943e f528 8b3e 67c1 e7be daf7 69bf
000002c0: 3ecd c53e eed4 b3be 22b1 f93e d9be 53be
000002d0: a28c 0b3e 13ce a3be ea50 25bd 06b8 223f
000002e0: eb2b b33d 20d8 9b3e 8f0f ca3e 5fa8 4fbe
000002f0: 71cb 0ebd aa49 703c 8694 94be 62a8 c2be
00000300: 924b 05be 601a e73b 59ed 4bbc aeee 9bbd
00000310: 93dc 08bd 2943 073c 99d0 fcbd ce0a 7e3d
00000320: 7b59 2dbb c644 ccbd 0072 b33d 2d0d 2ebe
00000330: 97ef 9abb c23f 743d 307e e23d 7876 97bc
00000340: 900b 1fbd 74a8 2dbd acbb 803d 08d7 12be
00000350: ea56 32bd fec3 f43c e932 71bc 0aac 56bd
00000360: 5ee6 423d 5441 34bd 3863 d4bc b330 883d
00000370: 24bb f339 c8b8 e3bc e553 71bc decb b33c
00000380: 4d31 8bbd bceb e1bd e6aa a6bc 5ad2 db3c
00000390: 399b c3bc ab72 f0bc b3ba 71bd 3c58 8bbd
000003a0: ccb8 883c 78f4 a2bd 5bed 953d 9bc7 fa3c
000003b0: 4eb9 01bd f6a8 08be a83c 87bd eecf f1bd
000003c0: 0d56 0b3d e30c 41bd 73b8 57bd 7966 08be
000003d0: 4192 0dbc e91c 8dbc dd59 0cbe 136f 9bbd
000003e0: 7e8f c13d 8b87 8abd faee 083d 0f05 853d
000003f0: 0bb0 b53c ac28 01be 43b3 b43c c623 a0bd
-0.0014516305 -0.5739855 0.1632041 0.118142836 -0.49415883 0.061429672 -0.1031759 -0.04068723
-0.7813507 -0.26842397 -0.56726027 -0.25489157 0.09190083 -0.048148394 -0.51167184 -0.18485951
-0.6436668 0.28474486 -0.24697006 -0.44201282 -0.013583746 -0.006117567 -0.085963696 -0.70057505
-0.6996315 0.04414213 0.1764586 0.4528582 -0.42759994 -0.029737322 -0.10754703 -0.34936428
-0.09546253 0.003636957 -0.02810256 0.12758 0.03165523 -0.038705137 0.10089347 -0.8989448
-0.18254958 -0.18404663 -0.105199054 -0.8502411 0.23684332 -0.46855724 0.18347351 -0.18133079
0.31385183 0.11745669 -0.027189687 -0.44883147 0.4116815 -0.28712732 -0.13534968 -0.0010910894
0.07274244 0.32875314 0.083274126 0.21276115 -0.14235234 0.19311683 0.4779791 -0.283289
0.32544872 -0.036081377 0.15875813 0.13030049 0.16307059 -0.103101335 -0.24836197 -0.38983583
-0.061467152 -0.8815512 -0.18635514 0.24265288 0.14125359 -0.093481734 0.19143571 -0.090677366
0.10558538 -0.07321605 0.27818322 -0.79966825 -0.64143044 0.09920719 -0.14395292 0.32630154
-0.5557916 -0.16116431 -0.13085136 0.44912028 0.62502825 -0.31954777 -0.06522698 -0.0010216046
0.42592996 -0.49748504 -0.00403017 -0.53034747 0.0739348 0.29427513 -0.35039374 0.16640654
0.44912538 0.1646203 -0.56181115 -0.12851772 0.44624683 0.43434435 0.5025295 -0.22379023
0.18622634 0.51754344 0.0031672758 0.7983875 -0.5791897 0.0060771764 0.39797413 -0.30138224
0.013166727 0.28824648 0.51474327 -0.14652765 0.0867699 0.60219234 -0.37031198 0.3340501
-0.17581683 0.46431565 0.20155448 0.6579848 0.06262914 -0.54362655 0.06001624 -0.0018749725
0.14159487 0.6434956 -0.2856351 -0.15216409 0.36631122 -0.8630007 -0.30377457 0.26802227
0.6557198 0.09924038 -0.05194786 -0.12800525 0.25905305 -0.30340126 -0.5958662 0.91896266
0.36806512 0.07421357 0.2610508 -0.98510444 -0.12602778 0.13805862 -0.60391635 0.69144475
0.41713378 -0.42980355 0.03206913 -1.0710111 -0.13386323 0.45043337 0.52110255 0.89507425
-0.080793045 -0.2516675 0.114726424 0.4516435 0.28930026 0.27179685 -0.45264742 -0.91393816
0.3863315 -0.3512339 0.48767954 -0.20678271 0.13627866 -0.3199316 -0.04036037 0.6356205
0.08748611 0.30438328 0.39464995 -0.20279072 -0.034861986 0.014666 -0.29019564 -0.3801909
-0.13017109 0.0070527047 -0.012446725 -0.07613884 -0.03341348 0.008255758 -0.12344474 0.062022023
-0.002645104 -0.09974055 0.08761978 -0.16997214 -0.0047282684 0.059631117 0.110592246 -0.018489107
-0.038829386 -0.042396978 0.062857956 -0.1433984 -0.04353992 0.029878613 -0.014721611 -0.052410163
0.047582977 -0.044007614 -0.025926217 0.06649914 0.00046488002 -0.027798072 -0.014729475 0.021947797
-0.06796513 -0.11031291 -0.020345163 0.026833702 -0.023877727 -0.029351553 -0.05901594 -0.06803939
0.01668968 -0.07956785 0.073206626 0.030612757 -0.03167086 -0.13345703 -0.06603366 -0.118072376
0.03401761 -0.04713143 -0.05266614 -0.1332034 -0.008640827 -0.0172257 -0.13706155 -0.07589545
0.09451197 -0.06764134 0.03343103 0.064951055 0.02217867 -0.12613171 0.022058135 -0.07819323

model.model.model.2.bias f4 [64]
00000000: ad87 08be f54e e43d cdbb 04bf ccbd 5dbd
00000010: 3cb1 f3bd de7d cf3d 2437 9ebe e530 8d3e
00000020: 5742 173d 1708 20bd c6f9 de3d 6465 003e
00000030: c682 113e 163b 4739 1d90 473e e4ee f73d
00000040: eff3 26bd 4d74 3d3e 0b22 923e 7c4d 143d
00000050: 372d f5bd 8d8c 19bd 3f3d 0abd 49ed 983d
00000060: ba2c 8a3e 0bf0 73bd 14d1 ed3d bf2f 153e
00000070: 93a2 c7bd 5397 0dbd e2ae 763e fc74 e43e
00000080: 264c fcbd d294 ebbd fc93 28bc 19b5 b93d
00000090: 8165 213e e4a4 34be 5da2 3e3e df35 25be
000000a0: 1b4f 543d 357c 913e 64eb 913e 704e 603e
000000b0: 7a2a a73e 892c 3e3e 8af6 123c 99fb 6ebe
000000c0: 7ed5 44be 0859 1dbe aa60 9fbc 48b9 073d
000000d0: b83f 693e 919c 25bc cf70 6abc f416 36bd
000000e0: 9a87 e23d b3c6 203f f5ce 023e 32ad d53d
000000f0: c3a6 5ebe 48f8 233d d0e7 5b3e d75c f53d
-0.13333006 0.11147872 -0.5184906 -0.054136083 -0.11899039 0.10131429 -0.30901444 0.27576366
0.0369285 -0.039070215 0.10887484 0.12538677 0.14210042 0.0001900013 0.19488569 0.12106112
-0.040759977 0.18501396 0.28541598 0.036206707 -0.11971515 -0.037487555 -0.033749815 0.074671336
0.2698725 -0.059555095 0.11612144 0.14568995 -0.097478054 -0.034568142 0.2409015 0.44620502
-0.12319212 -0.115029946 -0.0102891885 0.09067745 0.15761377 -0.17641026 0.18616624 -0.16133831
0.051833253 0.28415075 0.284999 0.21904922 0.32649595 0.18571676 0.008969912 -0.23338164
-0.19222066 -0.15365994 -0.019455273 0.033135682 0.22778213 -0.010108129 -0.014309122 -0.044455484
0.1106102 0.6280319 0.1277426 0.10433425 -0.21743302 0.0400317 0.21475148 0.119805984

model.model.model.4.weight f4 [64, 64]
00000000: cca8 c5bd 5712 1e3f c786 8dbf a606 b3bd
00000010: 21ad e1bd 2bfb 37be c0fa 71be a92f 003f
00000020: 1e0d 793e 0ba5 ecbe 6b32 d9be fbc8 1e3f
00000030: 0eb1 8d3e bdad b03e 5ca7 abbd 821c cd3e
00000040: 7916 f63d cd56 ddbe 21d9 1a3f c656 87bf
00000050: 930a e33c f154 f43e 61b8 efbb 4b95 23bf
00000060: d1f6 c73e f8ad 9dbc 6957 113f c4c3 acbf
00000070: 8c48 183e 15ea e93e 560b e1be 5fb4 aabf
00000080: 3014 b3be 06a5 acbd 0ac9 cd3e 171e ca3d
00000090: 19dc 3c3d 6435 0d3c d728 a03e f5fb 223d
000000a0: 1c21 05bf b593 86bf ccaa c4be 3dfd 823e
000000b0: 01d1 803e eb32 54bd 685e 883d 1928 c1be
000000c0: 65a5 a9bc 2251 703c 7b69 b2be c94d 183e
000000d0: 8d0a 053e 505a 1b3f e6c7 7bbf 37c8 90bc
000000e0: 3544 abbf 5af4 7dbe 5f64 22be 6175 54bd
000000f0: 9c7e 373e 3a3e 773f c09f 863e d21e 9c3e
00000100: 6a47 50be 3148 143f a929 7fbf 58d2 52bd
00000110: ba19 8d3e 0226 543e a128 89bf 4b26 093e
00000120: a358 edbd 760d bebd fbcb 8f3e cb03 403e
00000130: e531 ce3e c3e7 9e3e d99f cdbd a776 3d3e
00000140: 00eb 093d 93ea 15bf 5923 a23e 60c9 a4bf
00000150: 192e 12be 3f20 bd3e a972 293e cd8d 6bbe
00000160: af4d 253e 6418 0f3d 3fe3 a43e d35e 0ebf
00000170: 9bfc 43bd fdd0 2ebe d9a1 28bd 07af 13c0
00000180: 96cc e23d 140f 943d 9584 753e 14da 033f
00000190: f693 36bd 8420 a23d 96e2 1f3f 6aa9 2fbd
000001a0: d3f5 013e bcf9 5cbf 1643 333e 72c9 a63e
000001b0: 0a5c d13e a98d f6bd 44fc d43d d823 43bf
000001c0: 961f fcbc 63e9 19be a07b 5e3d ab04 893e
000001d0: 97bf 283e 9286 d0ba 34d9 8abf 52cd c5bd
000001e0: 44e2 9bbe 8ba0 24bf b5ec 4a3e 1f5a eabd
000001f0: 49bb ad3e 6182 bc3f d84e 563f aae1 193e
00000200: 0b40 e0bc 0b74 093f 1a22 44bf 60be b6bd
00000210: 5935 c03e 2e1e 6bbd 9d67 49be 9592 e93e
00000220: 4e85 d8bc b7fd 323d fa6c 6d3e 9f79 873e
00000230: 9941 cf3e d656 41be 528e 453e 56ed 353d
00000240: 0213 7abe 3fe8 3bbd 8f63 b43d 63e2 2ebe
00000250: 3ee8 d23d ce4d 4d3f 1d75 c53d d752 703c
00000260: f3b1 5a3e 9a18 b4bd 0985 afbd d45d 39bf
00000270: e46d 853e cd6c e53d 2e0b f13e 830d 32be
00000280: 143e 0abe 50fa 32bc 009d 883f 28a8 293f
00000290: 0cb5 323e 90c4 eebc c37f c53e 22f4 f93c
000002a0: af41 c0be b02d 21bf e02a 573e d0e4 103e
000002b0: 877c 51be 6cc6 ff3d c445 5e3d bba5 ddbe
000002c0: f6c5 26be 233c 933c a8f3 3c3d 28ff 1a3e
000002d0: 3c78 dc3e b89a 833e 888c a13d aeb3 953d
000002e0: 5992 5fbe 6239 363f 3515 c53e b239 b03e
000002f0: c588 5fbd 1e52 553e 48da 3a3f 21ac ca3c
00000300: 444a 2f3e f57f 1f3e a23e 91bf ffd6 c5bd
00000310: add1 043f 81f5 da3d a3d6 d93e 9fdd d03c
00000320: cb10 50bf 0ee2 383c 7001 c13e 063d 163f
00000330: 99d7 963e d036 413f 5f91 52be a93e 4d3e
00000340: a0e1 dabd aa74 36be 0368 0ebd e41e 22bd
00000350: 7f81 4d3d 6235 813e 2f51 04be fba1 593f
00000360: 9c5b 453c 152c 413d 441b 0d3e f659 30bf
00000370: a12b 663d 19f5 fa3e 89b9 d53d 0980 bdbf
00000380: a14c 0d3f 6fc4 4cbd a3ad 87bd a34f 253f
00000390: bd2e 2c3e 0e50 be3d b8dd 6c3e e31b e63d
000003a0: c56e 60bb 975a 6bbf 5cac 373f 9842 833e
000003b0: ef99 c03e 7880 b43d b88b ddbd 9481 84be
000003c0: 391b 823e 04ab 423c 04e7 b5be 1036 803e
000003d0: 5ae0 1e3e fd32 833e d602 27bc 8c72 79bd
000003e0: 8733 923e 2a31 19bf 8468 d83e d8ad 143e
000003f0: 9d7c 883e e7aa 873f de1b 993e 95ad 103d
-0.09651336 0.61746734 -1.1056756 -0.087415025 -0.1101935 -0.17966907 -0.2363081 0.50072724
0.2432141 -0.46219668 -0.42421278 0.6202542 0.27674145 0.34507552 -0.08381531 0.40060812
0.12016005 -0.43230286 0.6048756 -1.0573356 0.027715003 0.47721055 -0.007315681 -0.6389968
0.39055493 -0.019247994 0.56774 -1.3497243 0.14871424 0.45686403 -0.4395396 -1.3336295
-0.3497634 -0.08429913 0.40192443 0.098690204 0.04610834 0.008618686 0.31281158 0.039791066
-0.52003646 -1.0513827 -0.38411558 0.2558383 0.25159457 -0.05180637 0.066586316 -0.37725905
-0.02070875 0.014667781 -0.348461 0.14873423 0.12992306 0.6068468 -0.98351896 -0.017673595
-1.338019 -0.24800244 -0.15858601 -0.051869754 0.17919391 0.96579325 0.26293755 0.30492264
-0.20339742 0.57922655 -0.99672943 -0.05147013 0.2755869 0.20717624 -1.0715524 0.13393514
-0.11589172 -0.09279911 0.28085312 0.18751447 0.40272442 0.31036195 -0.10040254 0.18502294
0.03367138 -0.58561057 0.31667593 -1.2873955 -0.14275397 0.36938664 0.16547646 -0.23003311
0.16142915 0.03493537 0.32204625 -0.5561344 -0.047848325 -0.1707191 -0.041169975 -2.3075578
0.11074178 0.072294384 0.23976357 0.51504636 -0.0445747 0.07916358 0.6245512 -0.042886175
0.12691431 -0.86318564 0.1750606 0.32575566 0.40890533 -0.12038738 0.10399678 -0.7622657
-0.03077678 -0.15030436 0.054317117 0.26761374 0.16479336 -0.0015909246 -1.0847535 -0.09658302
-0.30446064 -0.6430747 0.19816859 -0.114429705 0.3393195 1.4727288 0.83714056 0.1502749
-0.027374288 0.5369269 -0.76614535 -0.0892303 0.375407 -0.05740183 -0.19668432 0.45619646
-0.026430752 0.043698993 0.23186103 0.26459977 0.40479735 -0.18880782 0.19292572 0.044415794
-0.24421313 -0.045875784 0.08808052 -0.17078547 0.10298203 0.80196846 0.09641478 0.014668188
0.21356945 -0.08793755 -0.08570296 -0.72408795 0.26060402 0.11202393 0.47078842 -0.17387967
-0.13500243 -0.010923937 1.0672913 0.6627221 0.17451876 -0.029146463 0.38574037 0.03051192
-0.37550113 -0.6296034 0.2101245 0.14149785 -0.2045766 0.12489018 0.054265752 -0.43290505
-0.16286454 0.017973011 0.046130806 0.15136397 0.43060482 0.2570398 0.07888132 0.07309662
-0.21833171 0.7118131 0.38492742 0.34419018 -0.054573793 0.20832106 0.7298932 0.02474028
0.17118174 0.15576155 -1.1347239 -0.09660148 0.5188244 0.106913574 0.42546567 0.025496302
-0.81275624 0.011284364 0.3769641 0.58686864 0.29461363 0.7547426 -0.20563267 0.20043434
-0.10687566 -0.17817941 -0.034767162 -0.03958024 0.050172325 0.2523604 -0.12921594 0.8501279
0.012045767 0.04716118 0.13779932 -0.6888727 0.05619395 0.4901512 0.10435779 -1.4804698
0.5519505 -0.04999202 -0.066249155 0.6457464 0.16814704 0.09292613 0.23131454 0.11235788
-0.0034245711 -0.91935104 0.71747375 0.25636744 0.37617442 0.08813566 -0.10817665 -0.2588011
0.25411394 0.011881594 -0.35527813 0.25041246 0.15515271 0.25624838 -0.010193547 -0.060900256
0.28554937 -0.59840643 0.4226724 0.14519441 0.26657572 1.059903 0.29904073 0.03532179

model.model.model.4.bias f4 [64]
00000000: 2b6e 72bd 8ebc 5b3e e19f 7e3e 8f2e 9c3e
00000010: 96fb aebd 4051 c7bd 662c c7bd abe4 853e
00000020: 6b16 183c 6afe 103c 9db7 d13e 039e a2be
00000030: 6f80 78be db04 093e cabf fcbd dc8d cabd
00000040: 6f40 01be 6ef1 29be 0290 4fbe 4e0b 97bc
00000050: bd8b 823d 1441 4b3d 8ac6 173e 3706 15be
00000060: f6be 35be e856 493d 10da aabd 91b7 7e3e
00000070: 7f7c 19be b7f1 0bbd c3de 2ebe 3cf3 f2bd
00000080: 0838 72bd 2ec1 2d3e 669e 77bd 4eb2 cb3d
00000090: 504c 15be 8ce7 9c3e 419a 003d dbbf 033f
000000a0: 6b5d 59bd b250 3a3e 6c12 053e d897 ad3e
000000b0: 24a3 233d 650a cc3e 173c ad3e 8003 1ebe
000000c0: 5b1a 063e 58b5 96be 78b4 76be 1ca8 5e3e
000000d0: 1270 f13e 1ec6 583e d27d 073f fb3e 553e
000000e0: a696 0abe cb49 1f3d fb87 f43d b4e7 67be
000000f0: fe20 6ebe 7657 773d a623 62be bcc8 023f
-0.059187096 0.21458647 0.24865676 0.3050427 -0.0854408 -0.09732294 -0.09725265 0.26151022
0.009282689 0.00884972 0.40960398 -0.31761178 -0.24267744 0.13380758 -0.12341268 -0.09890339
-0.12622236 -0.16596004 -0.20269778 -0.018438008 0.06374309 0.04962261 0.1482183 -0.14553152
-0.17748627 0.049155146 -0.08342373 0.24874713 -0.14988898 -0.034166064 -0.17077164 -0.118627995
-0.059135467 0.16968223 -0.060453795 0.09946118 -0.14579892 0.30645406 0.031397108 0.51464623
-0.053067606 0.18194845 0.12995309 0.3390491 0.039950505 0.3985168 0.33834907 -0.15431023
0.13095991 -0.2943523 -0.24092281 0.21743816 0.47155815 0.21169326 0.5292636 0.20824806
-0.1353403 0.038888734 0.11939999 -0.22646981 -0.23254773 0.060386144 -0.22083911 0.51087546

model.model.model.6.weight f4 [64, 64]
00000000: 1122 ac3e 12bf 023f 47f3 053f 1b8b cf3d
00000010: 31fc cf3f 9608 283f beea 98bd b899 d4be
00000020: ffcc 06bd 5d59 673e e333 153f a4e7 9f3e
00000030: 1938 1d3e 276c 88be 34f0 ee3d 8ce5 59bd
00000040: b458 5abf 9da7 b7bc 9c57 3a3f b472 093f
00000050: efc7 803e 2eec 5cbf a829 9d3e 4bdc 9dbc
00000060: 4699 18bd 8c9d c53c 5bc1 01bd 93ee 093f
00000070: a19c 9c3e 1922 ae3d 0663 93be d2e0 9ebd
00000080: da19 693f 8600 883d 3008 3d3e 83bc c93d
00000090: 94d7 193c 8d1a 0d3e dd6a 683e 11a9 d0bd
000000a0: 4a33 aa3d 669f 483e ffd7 9e3e 9f40 b3bd
000000b0: 29d8 703d b215 4fbd 005c d3bd 59ca 45bd
000000c0: c995 f63d 1d4e c13e cdda 9c3e 741e 783e
000000d0: 8a8a 963d d357 87bf c1fa 52bf c2f1 2d3e
000000e0: fe95 c83d 2300 df3d 3c42 ec3d e5a1 a83d
000000f0: 0b02 db3e 6688 e7bd 2bed 993e 966a 283e
00000100: 4fc0 67be 55da 9ebd 7f5d bcbe 2454 b0be
00000110: 4b2a 43bf 44e0 2cbd 8d92 f23d 31c9 ec3e
00000120: 648c 3d3d a0b4 dbbd 4c8d 13be beb0 4e3d
00000130: 27b9 433c 698b 073e 42ca c33d 9c15 663d
00000140: 2b68 ab3b 485c ec3c b3f8 2e3d 97f6 1abe
00000150: 8eb0 663e 0ef7 00bf ccbb 59bf f838 75bd
00000160: 449a 8b3d 7068 ddbd e6e7 8cbd 2a1b 05bf
00000170: 552d 4e3e 26b4 6b3c ee70 87be 787f bf3c
00000180: 9d8d f3bd 8039 fe3e 2999 8abe fe19 0bbf
00000190: aa5f c7bd 61f2 393e 2aa4 0fbe ddf3 febe
000001a0: 5513 aabd 0b99 c63e 6bac 1cbd b6c9 86bf
000001b0: 078a 16be dc34 2e3d 5443 4fbe c894 963c
000001c0: 5f4b f1be b67b 30bf f064 d3bd 8805 0d3f
000001d0: f84e ccbd e3a3 e83e 99a4 7dbf 9d22 5ebf
000001e0: 1a32 afbd 64f6 4f3e 27c5 f7be 2da5 a6be
000001f0: 8f91 59be eb69 6ebd fd7b bbbe c797 89bd
00000200: 91a7 863e a133 9cbd c894 943e cc3e 82be
00000210: 0499 3ebf 9511 f3be fb0d fe3d 66e8 913e
00000220: 10e0 403d 9715 4cbf c16a e13c 4824 c7bd
00000230: eef0 b4be 67e8 a23e 7538 8e3d 96f8 e43d
00000240: 4f1f 41be fa43 83bd 84f2 72be 8b38 ea3e
00000250: 170a 07bf e6b8 58bd f110 13bf bb1f 89bd
00000260: 9893 b23c e935 a63c 2019 04bd fd13 753e
00000270: 5e91 46bf de9b b03d 4b25 873e c0f5 dabb
00000280: 4ca6 abbc c3b3 de3d 8c2d d13e 5980 b53e
00000290: 00c0 f9b8 a1d9 8ebe 547c 07be e58d 3c3f
000002a0: abd2 273d 4c04 0fbf 0608 97bf 66b5 33bc
000002b0: 35f1 4cbe 8d84 2abc 1d2b 04be baa7 91bd
000002c0: 4237 0abf 7fdd e7be ef9b e1bd e170 d9be
000002d0: 4c00 abbe 36b4 033f 43f8 7b3f 365d 033e
000002e0: 4025 8dbb ff8d a5bd 476c c5be ed0d 1bbf
000002f0: 631a 6bbe e0f0 95be 0441 253f 36df 3e3f
00000300: 1bac 2e3f 3cca 323f c983 4a3e 05ac 1e3f
00000310: 48eb a03f 8154 2a3f a61c 453e 5f3a 9dbe
00000320: 95e3 d63d 45db 9c3e 2642 a13f 72ef 7b3e
00000330: 0723 c63d d4c9 72bd 2c1c 75bd 3473 243d
00000340: c70b 7abd 825f f8bd 1eea 683f cc85 343f
00000350: 20c7 ea3d d8f2 16bf f992 403e 4768 2f3d
00000360: 60ca aa3d f3e9 c43c 7a7c e2bd 8434 793e
00000370: 9dd7 ed3e d794 cabd b4b5 533e a3a3 a7bc
00000380: 2157 833f 3406 143f 6346 b23e 760d 6b3e
00000390: 0d89 89bd d507 443d 6c1a 433e 4523 11be
000003a0: 4a6a 293f 7e5f 533d 4438 8e3e c0e6 493d
000003b0: 4ba4 f3bc 4c0f 3abc f44a e93a 9beb 9bbd
000003c0: 80c8 9c3e 671b 863e d0f0 fb3e 909f 80bc
000003d0: 3d57 043e bb84 27bf 1faa 58bf 47a5 653e
000003e0: 59c6 b9bb 9eba 843e f290 9c3d 2ff3 c23e
000003f0: 7296 f73e 5257 bc3f 5f7f 103f 243a 5a3d
0.3361974 0.510728 0.52324337 0.10133954 1.6248838 0.656381 -0.074666485 -0.41523528
-0.032910343 0.22592683 0.582823 0.31231415 0.15353431 -0.26645014 0.11666909 -0.05319743
-0.852916 -0.022418791 0.7278993 0.5369065 0.25152537 -0.8629788 0.30695844 -0.019270083
-0.037255548 0.024122976 -0.03167854 0.5387966 0.30588248 0.08502597 -0.28786486 -0.07757725
0.9105507 0.06640725 0.18460155 0.09850409 0.009389777 0.1377966 0.22697015 -0.10188497
0.08310564 0.19592056 0.31024167 -0.0875256 0.058799896 -0.0505578 -0.10320282 -0.048288677
0.12040288 0.37754908 0.30635682 0.24230367 0.07350643 -1.0573677 -0.8241387 0.16986755
0.09794234 0.10888698 0.11536071 0.08234004 0.42774996 -0.11305313 0.30063757 0.1644691
-0.22631954 -0.07756487 -0.36790082 -0.34439194 -0.7623641 -0.042206064 0.118443586 0.46247247
0.046276465 -0.10727811 -0.14409369 0.050461523 0.011945999 0.13236775 0.09560062 0.056172952
0.0052309236 0.028852597 0.042717647 -0.15133129 0.22528288 -0.50376976 -0.8505218 -0.059868783
0.06816533 -0.108109355 -0.068801686 -0.51994574 0.2013448 0.014386212 -0.26453346 0.023376212
-0.11892245 0.49653244 -0.27069977 -0.54336536 -0.09735043 0.18158866 -0.14027467 -0.49795428
-0.083044685 0.38788638 -0.038250368 -1.0530307 -0.14701091 0.04253088 -0.20240527 0.018381491
-0.47127816 -0.6893877 -0.10321987 0.55086565 -0.099759996 0.45437536 -0.9907928 -0.86771566
-0.08554478 0.20308834 -0.48392603 -0.32547894 -0.21246932 -0.05820648 -0.36618033 -0.06718402
0.26299718 -0.07627035 0.2901976 -0.25438535 -0.74452233 -0.47474352 0.1240501 0.28497618
0.047088683 -0.79720443 0.027516725 -0.09723717 -0.35340065 0.31817934 0.06944362 0.111802265
-0.188596 -0.0640945 -0.23725325 0.45746264 -0.5274977 -0.052910708 -0.57447726 -0.06695505
0.021798894 0.020289378 -0.032250524 0.23933406 -0.7756556 0.08623479 0.2639564 -0.0066821277
-0.02095332 0.108741306 0.40855062 0.35449484 -0.00011909008 -0.27900413 -0.13231021 0.73654014
0.040972393 -0.5586593 -1.1799324 -0.010968542 -0.20013888 -0.010407579 -0.12907071 -0.071120694
-0.53990567 -0.45286176 -0.1101607 -0.42468932 -0.33398664 0.51446855 0.9842569 0.12828526
-0.004307419 -0.08083724 -0.38559172 -0.60568124 -0.22959284 -0.29285336 0.6455233 0.7455934
0.6823136 0.69839835 0.19776835 0.6198123 1.2571802 0.6653519 0.1924921 -0.30708596
0.104926266 0.3063604 1.2598312 0.2460306 0.0967465 -0.05927451 -0.05984132 0.04014893
-0.061046388 -0.12127592 0.90982234 0.7051666 0.11463761 -0.589643 0.18806066 0.042824056
0.08339381 0.024037337 -0.11058898 0.2433644 0.46453562 -0.0989167 0.20674783 -0.02046377
1.0260965 0.57821965 0.34819326 0.22954354 -0.067155935 0.04785903 0.19053048 -0.1417361
0.6617781 0.05160474 0.27777302 0.049292326 -0.029741427 -0.011356186 0.0017798827 -0.076132976
0.3062172 0.2619278 0.49207163 -0.015701085 0.12923904 -0.65436906 -0.84634584 0.2242633
-0.005669397 0.25923628 0.076448336 0.3807616 0.48356968 1.4714148 0.5644435 0.053278103

model.model.model.6.bias f4 [64]
00000000: ab10 e1bd 421d 513e ea98 dd3e 36a9 e23d
00000010: da0a 0bbe 49ab 96bd edc1 f4bc 4c70 313d
00000020: 7b5c d2bd 2929 05be e298 bdbd 0bbc 1a3e
00000030: 2691 053d de3b d93d 3e3e 1c3f a9c2 d53d
00000040: 77b6 c13e 577f 393f 7d22 0e3f 4364 c2bb
00000050: 9d61 1ebd 5536 31be c0b2 833e 4437 aebe
00000060: 356c e13e 650f 1dbe fe4b 33be de6b 5c3e
00000070: 4815 c1bd 8707 29be eea0 9cbe 3a85 813e
00000080: eeb7 49be 38e3 b5bc 0cb3 af3d dd34 cd3e
00000090: b5a4 b8bc 09a7 23be c3ea c1be 2ae2 6c3f
000000a0: 91f8 36bc bda1 acbd e296 ae3e a2a6 783f
000000b0: 01d0 933e f037 40be f11a e5bd f45f 5ebe
000000c0: 5629 b53e 5f43 073f d580 17be e3f6 c0be
000000d0: 2f78 94be 3030 47bc 6f21 9c3d a2b3 253f
000000e0: d2f9 46be 289a f93d 443c 9d39 8bf7 e2be
000000f0: 1fce 86bd 8ae9 843e 7674 c93e b5fb f7bd
-0.10989507 0.20421317 0.43280727 0.11067431 -0.13578358 -0.07356889 -0.029877627 0.043319985
-0.102715455 -0.13003983 -0.09257676 0.15110795 0.032609127 0.10607122 0.61032474 0.10437519
0.37834522 0.7245993 0.55521375 -0.0059323623 -0.03866731 -0.17305882 0.25722313 -0.3402654
0.44027868 -0.15337904 -0.17509457 0.21525523 -0.09427887 -0.16506778 -0.3059153 0.25296956
-0.1969907 -0.022203073 0.08579072 0.40079394 -0.022539476 -0.15981688 -0.3787442 0.925326
-0.011167661 -0.08429287 0.3409949 0.9712926 0.28869632 -0.18771338 -0.11186779 -0.2171629
0.353831 0.52837175 -0.1479524 -0.3768836 -0.28997943 -0.012157485 0.076235645 0.6472722
-0.19431236 0.12187606 0.00029990275 -0.44329485 -0.06582283 0.25959426 0.39346665 -0.12108556

model.model.model.8.weight f4 [4, 64]
00000000: 8930 c73d 48ec 0540 c8dd 9e3f da99 8cbe
00000010: e1e3 cb3e bc2b c5be 625d b83d 2e0b c93e
00000020: efe5 df3e ea16 8a3d 596c 4dbf 7cec a2bf
00000030: 3fe3 d53c 5820 6cbf 6a4e 013f 3a2b 87bf
00000040: 836e 80bf ad0e e43e 8597 0a3f f2dd 4dbf
00000050: 6a59 f8bc 7d24 45bf e6bd 48bf 5d01 0ebf
00000060: 15e6 8fbf 9c29 24bf 0dff b0be d64d 21bf
00000070: 5c78 31bf 3f8f 1e3c 3aad 5abf d0af 8a3f
00000080: 30ae e33d 8085 323b 930e 80be a75d 5c3f
00000090: 3060 193f 2b90 bbbe 8572 cf3e c1f1 ba3f
000000a0: 40b1 103e e5f3 55bd 9fa8 343f cdee 6e3f
000000b0: 25d9 663f e99b 89be a48b 72be af01 0abe
000000c0: efb9 383f 3fbf fb3f 2d1e 3dbf 29a3 bbbe
000000d0: ffdd fa3d 4b36 2dbf 8ce2 a0be f3b0 513f
000000e0: 0f18 daba 54e5 1a3d c819 ea3d 6285 0bbf
000000f0: 0b97 c7bd b044 073f 6e11 503f 814c d8be
00000100: 8da6 4abe 868a 3cbe 57da 903f 77f4 aabe
00000110: fc63 bcbe d270 8cbe d0ae 2a3c f8e9 b93d
00000120: 0117 70be d637 a3bd 498d c1be 4636 b3bf
00000130: 0487 f6bd 7a2d c43d 9f0c fa3e 5a9c a5be
00000140: 3fbc 45bf 1f8a 6abe f601 a03f 6736 fcbe
00000150: 9974 ddbe 11dd b6bb abea b7be 6aa7 b7be
00000160: e6b0 61bf 7ca2 fcbe af29 a2be 6d64 45bf
00000170: c6b7 61bf a6e5 e63d 88f9 21bf a1b1 0d3f
00000180: 1404 8abe daa6 813d d630 9dbe 55b5 a03f
00000190: ff21 61bf 06de 95be 6f37 30be 5d5c 873f
000001a0: 0e56 c6be 4357 f8bd 39b8 87bf 5d65 8b3f
000001b0: a09f 0abe 4681 39be 9914 9abe 9d9b c3be
000001c0: e7e7 bd3f cb74 c73f 1cbc 4abf eb72 1bbe
000001d0: f227 873e 0bb2 a2be a9e8 acbe e57c f73e
000001e0: fe20 563d f124 bebf 34b1 3e3d e60e f7be
000001f0: d773 81be f605 d73e 7a9e f73f afb2 34bf
00000200: 2e4a b2be cc67 753e 1618 4f3f 5fef abbe
00000210: 3c89 48bf 2f1d b2be ba61 173c 48bf 903e
00000220: add7 9bbe 1c8a c93d 8346 bcbe b779 3abf
00000230: 7f92 3bbd 4c7e 733e 73ef 1a3b 2b4b 43be
00000240: 6599 f6bd 4a12 053f f10e 4fbe 4d04 5abe
00000250: 7274 b3be b984 cebe 7bc7 36be c6a0 b7be
00000260: 7a9b eabb 2585 b6be abb4 a2be b462 8fbd
00000270: 2dbb a23f d8c6 babc eee9 bfbe 50b7 9f3d
00000280: 5ff7 8dbe 1e5b a03d ac74 b6be 1289 083f
00000290: 1406 ce3e 7ac0 bcbe ce60 32bf 1262 b13f
000002a0: 32c5 bdbe 9586 0a3f aa3b 933f 5c78 b13f
000002b0: 693a 183f eda5 febe 0fb3 b8be 455f d6be
000002c0: 1648 b13f 6d98 f33f e152 a6be ebb9 04be
000002d0: b846 a2be f17d 7ebe d679 c4be 32f1 8c3f
000002e0: eeae cf3c 2962 05bf be79 e1be 7916 c0be
000002f0: a494 c8be 2edb a43e 05f3 403f 3d06 64be
00000300: 0116 4ebe 4291 d63e f8e0 903f f4c0 96be
00000310: d14f 1bbd 217f c2be e31e 80bc ce09 2dbe
00000320: 2b11 0c3c 64ea 7fbd 6da8 4dbe 1b25 05bf
00000330: ce9e 133e 3b5a 75bf 8788 df3f cb45 0ebf
00000340: 9697 11bf 1838 303f d798 343f d2a6 fdbe
00000350: b41c 1fbf 684a f4be 6e49 b1be d0d1 92be
00000360: 6257 983f 655c 8ebe ce5b bfbe 96a6 89be
00000370: 40db 443c 3eda f1bd 72b5 ffbe add2 0c40
00000380: 0d8f 43bf 0a73 a4bd bec1 c7be cd9c 383f
00000390: 47d2 77be fc49 bfbe dc4c 16be 6f66 cb3f
000003a0: 05dc 19be ed63 24be c782 393f 645d 0040
000003b0: c6bf df3e 35d2 9dbe 4626 b3be 1303 10bf
000003c0: f3eb 823f e4ea 803f 3ae5 9fbe 6e95 cabd
000003d0: 9567 fbbe 779b c7be c0cc 84be 4f18 323f
000003e0: 5b66 5d3d 3674 103f f308 3fbf b5fd d1be
000003f0: 4bb6 aebe 7ad2 f63e 4537 acbe 26f5 00bf
0.09726054 2.0925465 1.2411432 -0.2746113 0.39822295 -0.3850993 0.09002186 0.39266342
0.43730113 0.06742652 -0.8024345 -1.2728419 0.026109336 -0.9223685 0.50510275 -1.0560067
-1.0033726 0.44542447 0.5413745 -0.80416787 -0.030316073 -0.770088 -0.7841476 -0.5547083
-1.124209 -0.6412599 -0.34569588 -0.63009393 -0.6932428 0.009677707 -0.8542057 1.0834904
0.11117208 0.0027240217 -0.2501112 0.860804 0.59912395 -0.3663343 0.4051706 1.4605027
0.14130116 -0.05223455 0.70569795 0.9333313 0.90175086 -0.26876763 -0.23686081 -0.13477205
0.7215871 1.9667739 -0.7387417 -0.3664792 0.12249374 -0.6766097 -0.31422842 0.8191063
-0.001663925 0.03781636 0.11430699 -0.545004 -0.09745606 0.52839184 0.81276596 -0.42245868
-0.19790097 -0.18412217 1.1316632 -0.33389637 -0.36795032 -0.27429825 0.010417655 0.09077829
-0.23446275 -0.07969634 -0.37803105 -1.4000938 -0.12037471 0.095789865 0.48837754 -0.3234585
-0.77240366 -0.22904252 1.2500598 -0.49260256 -0.4325302 -0.0055805524 -0.35921225 -0.35869914
-0.8816055 -0.49342716 -0.31672427 -0.7710636 -0.8817104 0.11274271 -0.6327138 0.55349165
-0.26956236 0.063306525 -0.3070132 1.2555338 -0.879425 -0.29270953 -0.17208646 1.0575062
-0.3873753 -0.12126019 -1.0603095 1.0890309 -0.13537455 -0.1811572 -0.3009384 -0.3820466
1.4836396 1.5582517 -0.7919328 -0.15180556 0.26397663 -0.3177646 -0.33771256 0.48337474
0.052277558 -1.4855024 0.046555713 -0.48253554 -0.2528369 0.41996735 1.9345238 -0.7058515
-0.3482222 0.23965377 0.8089613 -0.33581063 -0.78334403 -0.3478789 0.009239608 0.28270936
-0.30437985 0.098407954 -0.36772546 -0.7284197 -0.045794006 0.23778647 0.0023641258 -0.19071643
-0.120409764 0.5198103 -0.20220543 -0.21290703 -0.35049778 -0.40335634 -0.17849533 -0.35864848
-0.0071596475 -0.35648456 -0.31778464 -0.07001248 1.2713372 -0.022799894 -0.37483162 0.07798636
-0.27727792 0.07829879 -0.3563589 0.5333415 0.40239012 -0.36865598 -0.6967896 1.3858054
-0.3706451 0.54111606 1.1502583 1.3864856 0.59464127 -0.49735966 -0.3607411 -0.4186956
1.3850124 1.9030892 -0.32485107 -0.12961547 -0.3169458 -0.2485273 -0.38374203 1.1011107
0.025351968 -0.52102906 -0.44038194 -0.37517145 -0.39175904 0.3219847 0.7537082 -0.22268005
-0.20125581 0.41907698 1.1318655 -0.29444087 -0.037917916 -0.37987617 -0.015639728 -0.16898271
0.008549015 -0.06247939 -0.2008378 -0.52009743 0.14416048 -0.95840806 1.746354 -0.55575246
-0.56871927 0.6883559 0.70545715 -0.49541336 -0.6215317 -0.47713017 -0.34626335 -0.286757
1.1901667 -0.27804866 -0.3737473 -0.26884907 0.012015164 -0.118092045 -0.4994312 2.2003586
-0.76390153 -0.080297545 -0.39015 0.7211426 -0.24201308 -0.37361133 -0.14677757 1.5890635
-0.15025337 -0.16053744 0.72465175 2.0057 0.43701 -0.30824438 -0.34990138 -0.5625469
1.0228256 1.0071683 -0.31229573 -0.09891783 -0.49102464 -0.38985798 -0.25937462 0.6956834
0.054052692 0.56427324 -0.7462303 -0.41013876 -0.34123453 0.48207456 -0.33635917 -0.50374067

model.model.model.8.bias f4 [4]
00000000: 8153 e2bd 5976 d4bd dc9b c93e 1c66 153e
-0.11051083 -0.103741355 0.39376724 0.14589733

model_old.model.model.0.weight f4 [64, 8]
00000000: 25b1 9abe 2814 99bd 12f5 323f 583e e83f
00000010: 8c0b 933e 8e43 813f bfbf a9bd 8b58 283e
00000020: b097 f8be b7af 1a3e 4ce7 adbe 1c26 7dbe
00000030: a2a5 ddbe 4823 ebbe 480a 51bf 8152 a33e
00000040: d553 b63d c1f3 003d 70af 20bd bbef 3ebd
00000050: 3244 e23e 1ddd aabd d5e6 333d cfa5 023f
00000060: d085 48bf b016 6abf 07b7 e7be 2365 b2be
00000070: f8f5 35be ff3e 66be bd39 623e f34d 39be
00000080: 6e85 2f3f f8a4 0ebe 88ea 793f 23e1 e1bd
00000090: 0ac7 2fbf aabf 84be 3fd5 883e 7fbe 77bd
000000a0: 709b d7be cd10 803e 8eb6 89bf 693d 653e
000000b0: 193b 063f 491e 4b3e a924 73bf 1c98 0abf
000000c0: 4255 d4bc 2feb e4be ec82 35bf d13c 04bf
000000d0: 34a5 e23e e8ff 37bc 3cd2 a1be 7dc9 8fbe
000000e0: e1b8 a1bd 396e 793d 4f60 be3e 8825 9f3e
000000f0: 4a6e 383d 1ce8 973f 179b e93d be61 c93d
00000100: 2a44 273e 9530 c2bd 7363 97be ff12 2a3e
00000110: 27a1 99bd aa1e 0abf bd10 dc3d 5477 83bf
00000120: de29 b33d 3830 013e f827 82bf 4395 983f
00000130: 12c9 87be ab8e e93e 6f45 673c 8080 293e
00000140: 06ba 103f 529b 143e b395 3abf 8693 04bf
00000150: 2029 43bd 286a 123e 9168 e3be 21fb 653c
00000160: 1224 a43e e121 26be 31ed 34bf 5928 26bf
00000170: 6ea5 2f3e 51cc f53e e5c5 87be f054 6c3e
00000180: 1b88 243f 7103 c6bd 6a5f 823e 4aa7 a23d
00000190: 428c b13e b5fd 853e 9f53 523e 711d 3c3e
000001a0: b4df 4b3e 932d 073f 6792 2c3c cb1d 0abc
000001b0: 54db e7be d5b6 01be 6014 33bf 75fc 94bf
000001c0: d43b acbd e140 30c0 d16f 9ebe e4fe 46bf
000001d0: 7c66 0dbf 5e6a d43d db3b ee3d aaad 513e
000001e0: b243 063f a272 2a3c a964 79be 6a16 ac39
000001f0: 4e7e fb3e 2829 eebd 26fa ae3d 5163 0cbd
00000200: 4c4c 12bc f700 acbe 7a88 16bf edc4 07be
00000210: 5fc3 093f d7c5 e23e c19d 363e 1d39 bebe
00000220: 7720 79be c9ce 0a3d 44c3 9bbf 193f 01be
00000230: 0ddc 703f 179a 963e e5f5 2c3e e44b 853e
00000240: 78bc ecbd fde5 9bbf 15ca 693f 00a7 b03f
00000250: d63a 3cbf c440 44be 80a3 a23e e4c2 713e
00000260: 8cda e43d 8053 79bd 4371 243f 43ca c3be
00000270: c887 1cbf 568b be3e 8888 183d c9f3 a33d
00000280: 69b9 4bbc c8e5 733e fbc8 6ebd 7eaf b03e
00000290: a393 0b3f d8b8 d53e 9939 e7be c612 2cbf
000002a0: af5a 723f cbb9 d4be 23cc 5e3e 9500 40bf
000002b0: 834d 663f 441c 26be bcd8 923d 0491 cf3d
000002c0: e1e4 313f ced8 8bbf 61d7 4b3e 9e04 a83f
000002d0: 4433 69bf b7b4 e73e 6fbd 8fbe 207c 423e
000002e0: a6fd cfbb 3810 d0be ea09 68bd 76e1 45be
000002f0: e0ab f23d 0bd9 553f 74ed d63c 3ba8 253e
00000300: af0a 183f 4ba4 41bf 1cff 6fbf b5f9 8cbe
00000310: f8fd cb3e a4d9 133e 4fce c1be baef bcbd
00000320: be7f 073e 2366 1f3b 9946 6cbf 2daa 2cbf
00000330: 920b 27bf 21fd 0cbf 291d 303f e0c0 12be
00000340: 9e37 2f3e 1be4 84bf 1bdd dabe 1355 0c3e
00000350: f8fa a7bd d01b c43e 5dec 3f3d 934d 2bbe
00000360: 5d31 8fbe f83e ff3e 1f3f ae3e 9510 2dbf
00000370: 411f 7c3e 0fb3 ad3e 3e9c cc3d faab 79be
00000380: b6e4 99be eb8b debf 70f3 8d3d 23df 84bd
00000390: cd34 603e 7a41 1c3f 002e 0abe c367 29bf
000003a0: 9ba4 86be c052 e03c c091 f1bd cf3b 293d
000003b0: e9d0 563f 3267 3d3f bde7 ccbe 037c 4bbf
000003c0: 8b95 aabd bcc0 aabe 5e99 293f 0b43 21bf
000003d0: 03bc ac3e 1bfa 483f 54bc f63d 5b14 4dbe
000003e0: 1b41 023d c216 513d f967 123e 3591 543d
000003f0: 360d 0c40 cf92 f03d fdc6 cc3d 466e 28bd
-0.30213276 -0.074745476 0.699052 1.8144026 0.28719747 1.0098741 -0.08288526 0.16440026
-0.48553228 0.15106092 -0.33965528 -0.24721569 -0.4329043 -0.45925355 -0.8165631 0.31898883
0.089027084 0.03148246 -0.03922981 -0.046615344 0.44192654 -0.08342955 0.04392131 0.51034254
-0.7832918 -0.9144087 -0.45256826 -0.34842786 -0.17769611 -0.22484969 0.22092338 -0.18096142
0.6856297 -0.13930118 0.9762349 -0.110292695 -0.68663085 -0.25927478 0.26725194 -0.060484406
-0.42110777 0.25012818 -1.0758836 0.22386707 0.52433926 0.19835772 -0.94977814 -0.5413835
-0.02591956 -0.4471068 -0.70902896 -0.516553 0.44266665 -0.011230446 -0.3160571 -0.2808341
-0.07896591 0.060896132 0.37182853 0.31083322 0.045027055 1.1867709 0.11406534 0.09833096
0.16334596 -0.094819225 -0.2956806 0.16608809 -0.075014405 -0.5395304 0.1074538 -1.0270791
0.0874822 0.1261605 -1.0168447 1.1920551 -0.26520592 0.4561666 0.014115675 0.16552925
0.5653385 0.14512375 -0.7288467 -0.517876 -0.04764664 0.14298308 -0.44415715 0.014036925
0.3205877 -0.16223861 -0.70674425 -0.64905316 0.1715295 0.48007444 -0.2651817 0.23079276
0.6427018 -0.09668625 0.2546342 0.07942064 0.3467732 0.26170126 0.20539711 0.18370606
0.19909555 0.52803916 0.010532952 -0.008429955 -0.45284522 -0.12667401 -0.69952965 -1.1639544
-0.08409849 -2.75396 -0.30944684 -0.7773268 -0.55234504 0.103718504 0.1163251 0.20476404
0.52447045 0.010403307 -0.24354805 0.00032823096 0.491198 -0.11628944 0.08543806 -0.034274403
-0.008929323 -0.33594486 -0.58801997 -0.13258715 0.5381374 0.44291565 0.17833616 -0.3715295
-0.2432879 0.033888612 -1.2168965 -0.12621726 0.9408577 0.29414436 0.16890676 0.26034462
-0.11559385 -1.2179562 0.9132398 1.3800964 -0.73527277 -0.19165331 0.31765366 0.23609501
0.11174497 -0.060870647 0.64235324 -0.3824025 -0.61144686 0.3721568 0.03723958 0.08005483
-0.012434342 0.23818123 -0.05829714 0.3450889 0.5452215 0.41742587 -0.4516113 -0.67216146
0.9466962 -0.41548 0.2175756 -0.7500089 0.89962023 -0.1622172 0.07170245 0.101350814
0.69489866 -1.0925539 0.1990638 1.3126409 -0.9109385 0.45255062 -0.28074214 0.18992662
-0.006347376 -0.40637374 -0.05665008 -0.19324288 0.11849189 0.83534306 0.026236273 0.16177456
0.593913 -0.75641316 -0.9374864 -0.2753426 0.398422 0.14438492 -0.37852713 -0.09225412
0.13232324 0.0024322353 -0.92295223 -0.6744717 -0.6525203 -0.55073744 0.68794495 -0.14331388
0.1711106 -1.0382112 -0.42746815 0.13704328 -0.08202165 0.3830247 0.046856273 -0.16728811
-0.2796735 0.4985273 0.34032533 -0.6760343 0.24621297 0.33925673 0.09990738 -0.2438201
-0.30057305 -1.738645 0.06931198 -0.064878725 0.21895142 0.6103741 -0.1349411 -0.6617395
-0.2629746 0.027383208 -0.11795378 0.041316804 0.8391252 0.7398559 -0.40020552 -0.794861
-0.08329304 -0.3335017 0.66249645 -0.62992924 0.33737192 0.7850663 0.120476395 -0.20027296
0.03180037 0.051047094 0.14297475 0.051896293 2.1883063 0.117467515 0.099988915 -0.04112079

model_old.model.model.0.bias f4 [64]
00000000: dc57 a43d a7fe 793e 0089 c3bd 459f 9cbe
00000010: 0040 123e ff01 e93d 6ea2 64be d554 343e
00000020: cf9d 393f ca4e 92bd 7e29 5b3e 4b0e 103e
00000030: aa61 dd3e d66a 88be 5834 cb3c 500f 2a3e
00000040: a608 f0be 6f7f 773d 8a4b a1be a210 c8be
00000050: edba 983e 116d 9fbd 364c e9bd e264 e4be
00000060: 49eb 683e 0f78 09be 6b0a 733e 3024 96be
00000070: f641 a03e d623 9d3e db7e 013e 1f08 b53c
00000080: 996c 31be 189d 8b3d 8a45 943e e6cf fabd
00000090: 7f0a f53e aec5 d23e 68bb 8ebe cf43 fdbe
000000a0: 362c 8f3d a72d b23d 6fdd c33d fbee d8bd
000000b0: eb4a e23e 5999 6e3e d84c 01bf 9e1a 583e
000000c0: 54ff b8bd 5881 e0be 95bf dfbe ae8b 8d3d
000000d0: 32d5 acbe af82 633e fedf 84be 280a 433d
000000e0: 963b 08be f7d4 5b3e a7dd cabb 79fc c23d
000000f0: f2e3 c1be 6dfe af3e 4656 70be d13e 7a3e
0.0802457 0.24413548 -0.09547615 -0.30590263 0.14282227 0.11377334 -0.22327587 0.17610486
0.7250642 -0.07143934 0.21402547 0.14067952 0.43238574 -0.2664401 0.024805233 0.16607404
-0.46881598 0.060424265 -0.31502944 -0.3907519 0.29830113 -0.07784475 -0.11391489 -0.44608217
0.22746004 -0.13424705 0.23734443 -0.29324484 0.31300324 0.30691403 0.12646048 0.022098599
-0.17326583 0.06817073 0.28959304 -0.12246685 0.4785957 0.41166443 -0.27877355 -0.49465796
0.069908544 0.08700114 0.095637195 -0.10592457 0.44197783 0.23300685 -0.5050788 0.21103904
-0.09033075 -0.4384868 -0.43700853 0.069114074 -0.33756405 0.2221782 -0.25952142 0.047617108
-0.1330398 0.21467958 -0.006190974 0.095208116 -0.3786922 0.343738 -0.2347041 0.24438025
