rl_compexp/save/Blackjack2-DQN64/dqn_best.pth (torch, 41282 bytes, 12 tensors)

model.model.model.0.weight f4 [64, 3]
-0.73302776 0.22984853 0.16045202 -0.03503666 0.03622803 0.16087344 0.2171112 -0.38828802
0.026940182 -0.5621385 0.6137151 1.0888855 -0.19810402 0.19187787 -0.859573 0.100349754
-0.5369719 -0.21594986 -0.17504916 0.086631656 -0.43765408 0.18108773 -0.29479644 0.04857032
-0.752479 0.28982666 -0.20983708 -0.2025534 -0.088804714 -0.40465483 -0.15287034 -0.2966235
-0.94277495 -0.04776368 -0.30160952 -0.3372525 -0.44357094 0.17822978 -0.2177736 -0.42791492
-0.42380163 -0.48471957 -0.00746922 -0.32627064 -0.24136943 -0.55539256 -0.46581653 0.103774145
0.0038377205 -0.32444975 -0.89286894 0.14407681 -0.0017544354 0.1928051 -0.30747646 -0.52139705
-0.19622539 -0.53555775 0.03513336 -0.5606289 0.08762706 0.15714279 -0.06838433 -0.17434494
-0.38230035 0.20855445 0.014949659 -0.112006575 -0.21176434 -0.09206995 -0.031850025 0.7464714
0.11328217 -0.10981021 0.52537113 -0.16245492 0.44633228 -0.06456094 -0.46148965 0.21221271
0.26313007 0.11089477 -0.06715635 0.24114116 -0.24246128 0.0149591565 0.46477616 -0.05779242
-0.15337533 -0.347949 0.095171675 0.12051596 0.007921981 -0.01418078 -0.13886537 0.2721627
-0.062342376 0.00074907887 -0.44805506 0.3046848 -0.03596994 -0.80457133 -0.35774043 -0.56102365
-0.24507189 0.016333774 -0.05939315 -0.82850456 -0.07174909 -0.25618002 0.4999883 -0.61701375
0.19399133 -0.0634776 0.08886478 -0.37695435 -0.37420794 0.00941592 -0.45665246 -0.23209727
0.028152619 -0.40066493 -0.6266699 -0.2540128 -0.14695252 -0.43112648 -0.20594555 -0.42667717
0.28689536 0.11997867 0.010627541 -0.34403408 0.2564007 -0.3158212 0.7743337 -0.0009135565
-0.45616755 -0.6985219 -0.5016477 0.3104458 0.37177145 0.08081316 0.15530418 -0.5480965
-0.17386799 0.09851801 -0.31772694 -0.49495772 0.14820534 -0.5272468 -0.118221134 6.9239854e-07
1.0039287 -0.19355978 0.23382688 0.0074994434 0.18000716 -0.043192346 -0.88422036 -0.5497829
0.23858003 -0.1854151 0.0045246906 0.08871952 -0.002306538 -0.47310328 0.0071069915 -0.4160428
0.06994626 -1.1292804 0.13894299 -0.57287025 -0.43327534 -0.5731215 0.1618533 -0.0037991519
1.0336971 0.14933634 -0.12914817 -0.42061174 -0.5465252 0.08213733 -0.10974276 0.031864233
-0.83104193 -0.049938574 0.0006615911 -0.7548096 0.34227484 -0.10303056 -0.32221112 -0.5555314
00000000: b5a7 3bbf 6a5d 6b3e 894d 243e 9a82 0fbd
00000010: d863 143d 02bc 243e 6652 5e3e b0cd c6be
00000020: a8b1 dc3c 4fe8 0fbf 6f1c 1d3f 9a60 8b3f
00000030: c8db 4abe a27b 443e fa0c 5cbf 2c84 cd3d
00000040: fe76 09bf f621 5dbe 1640 33be f06b b13d
00000050: 3214 e0be 106f 393e 8fef 96be acf1 463d
00000060: 77a2 40bf 2964 943e 88df 56be 296a 4fbe
00000070: 3fdf b5bd eb2e cfbe 0b8a 1cbe 09df 97be
00000080: b359 71bf d9a3 43bd 906c 9abe 5cac acbe
00000090: bb1b e3be de81 363e 0b00 5fbe aa17 dbbe
000000a0: 87fc d8be 2a2d f8be 5cc0 f4bb f20c a7be
000000b0: 8c29 77be 352e 0ebf 817f eebe 8a87 d43d
000000c0: 4482 7b3b 471e a6be 0f93 64bf df88 133e
000000d0: 15f5 e5ba b36e 453e 8e6d 9dbe 477a 05bf
000000e0: 4fef 48be 501a 09bf 00e8 0f3d 6085 0fbf
000000f0: d175 b33d 0aea 203e 150d 8cbd 7b87 32be
00000100: dfbc c3be 4c8f 553e 6aef 743c b463 e5bd
00000110: c0d8 58be 2c8f bcbd 2c75 02bd c018 3f3f
00000120: 7b00 e83d 2de4 e0bd b97e 063f 955a 26be
00000130: aa85 e43e 8738 84bd 5f48 ecbe 4a4e 593e
00000140: fcb8 863e cc1c e33d 4589 89bd b5ed 763e
00000150: c547 78be 4017 753c 24f7 ed3e bfb7 6cbd
00000160: 6c0e 1dbe 5f26 b2be 5ee9 c23d 12d1 f63d
00000170: 32cb 013c 8156 68bc b932 0ebe e958 8b3e
00000180: b85a 7fbd d55d 443a 7967 e5be a5ff 9b3e
00000190: 3755 13bd 63f8 4dbf c129 b7be 3f9f 0fbf
000001a0: 20f4 7abe 68ce 853c 3b46 73bd e018 54bf
000001b0: 30f1 92bd 072a 83be 77fe ff3e 9df4 1dbf
000001c0: aaa5 463e 8b00 82bd bdfe b53d 2900 c1be
000001d0: 2f98 bfbe 3b45 1a3c 5ace e9be e8aa 6dbe
000001e0: 52a0 e63c f423 cdbe 706d 20bf f70d 82be
000001f0: b97a 16be 9cbc dcbe 64e3 52be 6e75 dabe
00000200: f3e3 923e 60b7 f53d 231f 2e3c 3c25 b0be
00000210: f446 833e 51b3 a1be bc3a 463f bd7b 6fba
00000220: cb8e e9be 55d2 32bf fc6b 00bf c0f2 9e3e
00000230: d458 be3e 5f81 a53d 0f08 1f3e 0d50 0cbf
00000240: 730a 32be cfc3 c93d 1bad a2be 196b fdbe
00000250: 24c3 173e a5f9 06bf ec1d f2bd 44dd 3935
00000260: bc80 803f 8934 46be 5070 6f3e e4bd f53b
00000270: cc53 383e 75ea 30bd 445c 62bf 92be 0cbf
00000280: 534e 743e 75dd 3dbe db43 943b 94b2 b53d
00000290: 4929 17bb 983a f2be c4e1 e83b 9003 d5be
000002a0: fc3f 8f3d 438c 90bf 1247 0e3e a0a7 12bf
000002b0: 44d6 ddbe 17b8 12bf dfbc 253e 31fb 78bb
000002c0: 3050 843f a0eb 183e 6b3f 04be 6c5a d7be
000002d0: 13e9 0bbf 9e37 a83d d0c0 e0bd 1284 023d
000002e0: 2abf 54bf 648c 4cbd a16e 2d3a 343b 41bf
000002f0: a63e af3e b001 d3bd dbf8 a4be 4e37 0ebf

model.model.model.0.bias f4 [64]
0.6165126 -0.22682667 -1.769719 0.6443663 -0.60746366 -1.5823966 -0.19224185 -1.5675832
0.104756765 0.88612777 0.90734464 0.48973554 -0.02967046 -0.4371747 0.33557874 -0.31593955
0.23550601 -1.5781485 0.010986686 -0.11345934 -1.5518234 -0.16658644 -0.49264386 0.38778776
-1.8691576 -0.63671046 -0.28977737 -1.6126567 0.21763957 1.353525 -2.0544565 1.6421709
0.2388782 -1.9086782 -0.15757085 -0.29002768 0.5414551 0.524633 1.4028536 0.25587758
-0.21526696 1.1572524 -0.020478068 -1.6216596 -1.8035793 0.4514191 -1.1139095 -1.2472609
-0.30765793 0.49659294 0.40812445 1.7682949 -1.6350131 -0.19343823 -0.9827836 -0.39467874
1.1520045 -0.3778186 -1.7891489 -1.5601771 -0.46519282 0.85914224 0.38468394 0.7260003
00000000: c5d3 1d3f 4045 68be 2786 e2bf 31f5 243f
00000010: bd82 1bbf f98b cabf 0cdb 44be 91a6 c8bf
00000020: b78a d63d 45d9 623f bd47 683f 9ebe fa3e
00000030: 770f f3bc 5dd5 dfbe fad0 ab3e d4c2 a1be
00000040: 7d28 713e c500 cabf 8001 343c 5f5d e8bd
00000050: 26a2 c6bf a395 2abe d13b fcbe 1e8c c63e
00000060: 8e40 efbf 75ff 22bf b35d 94be 896b cebf
00000070: e8dc 5e3e 4f40 ad3f 377c 03c0 a832 d23f
00000080: 7d9c 743e 914f f4bf 415a 21be 827e 94be
00000090: cd9c 0a3f 594e 063f b590 b33f 6302 833e
000000a0: f16e 5cbe d920 943f 9fc1 a7bc 8b92 cfbf
000000b0: b0db e6bf 6720 e73e 9694 8ebf 3fa6 9fbf
000000c0: 5785 9dbe 6e41 fe3e b0f5 d03e 7d57 e23f
000000d0: 1c48 d1bf ac14 46be b597 7bbf 5513 cabe
000000e0: e274 933f 7171 c1be d502 e5bf e2b3 c7bf
000000f0: c12d eebe bff0 5b3f 4bf5 c43e 28db 393f

model.model.model.2.weight f4 [64, 64]
0.059932005 -0.0082740635 -0.13433117 0.07871328 -0.16474645 0.08930686 0.0057499856 -0.12491203
-0.09236749 -0.007903865 0.011290614 0.026071366 0.011677701 -0.09580362 0.00083737075 0.048814
-0.20380828 -0.006978018 0.071769565 -0.075185776 -0.10222127 0.09943752 -0.07424559 0.051183213
-0.064014085 -0.0878254 -0.075172484 -0.0772817 -0.021474257 -0.14642861 0.017328296 0.11270444
0.036141213 -0.20683861 -0.01356025 -0.08680836 -0.038683996 -0.023421016 0.0087244585 -0.05682377
0.0823229 -0.0010009048 -0.084845215 0.0711096 -0.03923673 -0.000530494 0.005728268 -0.23372139
-0.11852972 -0.07545385 -0.1191863 -0.014821354 -0.088604026 0.105945915 -0.09002017 -0.095962405
-0.2111761 0.07521501 0.030141665 -0.0029414296 -0.106407 -0.068509676 -0.0330965 0.11817012
-0.061785314 0.03345859 -0.03584343 0.093292445 -0.16843763 -0.15852948 0.02251787 -0.22877167
0.13355699 0.024094077 0.01792587 0.0761142 -0.15613845 0.00029349327 0.094570026 -0.019479439
-0.0009021931 -0.0090764975 -0.021519154 -0.026186123 -0.14118825 0.034068584 0.06458716 -0.017216736
-0.2371507 -0.073606156 -0.030300248 -0.7935359 0.09674823 -0.17144166 -0.2831457 0.04611242
-0.036357395 -0.15685184 0.05195716 0.084645234 -0.089774944 0.032929234 -0.2329769 0.07261079
-0.35352126 -0.20097892 -0.019981846 -0.23675683 -0.6094793 0.0549168 0.0026446828 0.028439742
0.0050961873 -0.18539451 -0.13929112 -0.09668955 0.07035356 0.00057492545 0.057312824 0.11960541
0.13250767 0.06761354 0.0014132748 -0.51366717 0.07910265 -0.015813401 -0.13828313 -0.016717633
-0.13516812 -0.054465204 -0.4101591 0.030335506 0.027038185 0.021056607 0.12085416 -0.12048054
-0.038277514 0.06668167 -0.2145073 -0.13034922 0.043864988 0.03306146 -0.026699692 0.12144165
-0.12884472 -0.110983625 -0.034344375 0.07530564 -0.18374254 0.11301981 0.09829669 -0.15044521
-0.13328183 0.05961547 0.0922168 -0.120960385 -0.064616695 0.1019897 0.0070000975 -0.05785271
-0.13777626 -0.35993803 -0.07372312 -0.028607402 0.036139876 -0.10340609 -0.10054983 -0.26303932
0.08111477 -0.009488039 0.08705722 -0.08114108 -0.62009686 -0.17718394 0.029649163 0.0067800153
0.09691408 -0.05972659 -0.1312393 -0.06393438 -0.611034 -0.01970285 -0.09741404 -0.100068435
0.094551995 -0.05148825 -0.4271109 -0.12438296 0.030201629 -0.11541368 -0.058893576 -0.01559875
-0.0021389937 0.007798046 -0.20777349 0.068034895 -0.11517386 -0.19678158 0.123969674 -0.15670669
0.027985694 0.008740174 0.105481826 0.011892833 -0.05031367 0.021598682 0.10040325 -0.08171034
0.016500635 -0.32591626 -0.031917676 0.0130288005 -0.3022947 -0.11407827 -0.072511524 -0.04305627
-0.046370406 0.057042036 -0.10979237 -0.27178258 0.04560128 -0.042638388 -0.16084933 -0.041034304
0.07793056 0.008073036 0.006961018 0.011629823 -0.09609576 -0.045093827 -0.028549753 0.02407537
-0.035099193 -0.32039395 -0.108869 0.013992236 -0.26743606 0.075894244 0.00794877 -0.13731757
0.070314154 -0.036332037 -0.3687692 -0.13141407 -0.15333563 -0.039615788 -0.087151535 0.015690863
0.05309333 -0.11855355 -0.22545986 -0.27840117 0.1035489 0.4482691 -0.087749444 -0.14122541
00000000: 437b 753d f08f 07bc 1c8e 09be 6e34 a13d
00000010: 4bb3 28be 84e6 b63d 606a bc3b e1d1 ffbd
00000020: 2b2b bdbd 367f 01bc 44fc 383c 9e93 d53c
00000030: d453 3f3c b034 c4bd 0083 5b3a 30f1 473d
00000040: 1eb3 50be dca7 e4bb ecfb 923d 00fb 99bd
00000050: 6359 d1bd e6a5 cb3d 120e 98bd 7da5 513d
00000060: d119 83bd cedd b3bd 08f4 99bd de45 9ebd
00000070: c8ea afbc 62f1 15be 12f4 8d3c 96d1 e63d
00000080: cf08 143d 80cd 53be d02b 5ebc 95c8 b1bd
00000090: 1c73 1ebd 6edd bfbc 08f1 0e3c 0bc0 68bd
000000a0: e998 a83d cb30 83ba 54c3 adbd e9a1 913d
000000b0: b2b6 20bd da10 0bba 32b4 bb3b a954 6fbe
000000c0: b6bf f2bd 8c87 9abd f217 f4bd 44d5 72bc
000000d0: 0776 b5bd 2cfa d83d 7f5c b8bd f087 c4bd
000000e0: 8c3e 58be 540a 9a3d a7eb f63c 00c5 40bb
000000f0: eaeb d9bd cd4e 8cbd 3290 07bd 2d03 f23d
00000100: 9912 7dbd e00b 093d 8fd0 12bd 1c10 bf3d
00000110: ea7a 2cbe 8d55 22be 6577 b83c 1f43 6abe
00000120: 2ac3 083e f160 c53c 46d9 923c c3e1 9b3d
00000130: c2e2 1fbe 00e0 9939 eead c13d 5893 9fbc
00000140: 2781 6cba 97b5 14bc f048 b0bc 4884 d6bc
00000150: a793 10be 808b 0b3d 4646 843d 1d0a 8dbc
00000160: a2d7 72be d3be 96bd 3a38 f8bc 2b25 4bbf
00000170: f023 c63d 678e 2fbe 79f8 90be 60e0 3c3d
00000180: 7eeb 14bd c59d 20be 08d1 543d 7b5a ad3d
00000190: eddb b7bd cee0 063d 7f91 6ebe f7b4 943d
000001a0: bd00 b5be 6bcd 4dbe f8b0 a3bc 6270 72be
000001b0: d606 1cbf 70f0 603d 6a52 2d3b 76fa e83c
000001c0: ebfd a63b 0fd8 3dbe 55a2 0ebe 2c05 c6bd
000001d0: 8715 903d 98b6 163a dac0 6a3d aef3 f43d
000001e0: 17b0 073e f878 8a3d a23d b93a b17f 03bf
000001f0: 9200 a23d 1b8b 81bc 189a 0dbe 6bf3 88bc
00000200: 8369 0abe e816 5fbd 6000 d2be 2b82 f83c
00000210: 2f7f dd3c e87e ac3c 6382 f73d 80be f6bd
00000220: e2c8 1cbd 6690 883d cda7 5bbe 447a 05be
00000230: c6ab 333d 746b 073d 50b9 dabc 66b6 f83d
00000240: dfef 03be 624b e3bd b0ac 0cbd d839 9a3d
00000250: 0127 3cbe ee76 e73d c64f c93d 4f0e 1abe
00000260: 087b 08be 5a2f 743d 29dc bc3d 14ba f7bd
00000270: c255 84bd fadf d03d 1361 e53b f7f6 6cbd
00000280: 3815 0dbe cc49 b8be 26fc 96bd 125a eabc
00000290: 6807 143d 92c6 d3bd 12ed cdbd 17ad 86be
000002a0: 801f a63d b873 1bbc 0e4b b23d 4b2d a6bd
000002b0: abbe 1ebf b56f 35be cde2 f23c e42a de3b
000002c0: e47a c63d dea3 74bd 9863 06be 07f0 82bd
000002d0: b96c 1cbf df67 a1bc 0381 c7bd aef0 ccbd
000002e0: 7aa4 c13d 58e5 52bd 48ae dabe 7ebc febd
000002f0: 6869 f73c 025e ecbd 643a 71bd e691 7fbc
00000300: 5c2e 0cbb c086 ff3b 93c2 54be e155 8b3d
00000310: 46e0 ebbd 1c81 49be d0e3 fd3d b877 20be
00000320: 4142 e53c f232 0f3c db06 d83d 28da 423c
00000330: b515 4ebd b8ef b03c 38a0 cd3d c057 a7bd
00000340: 572c 873c 7fde a6be 1cbc 02bd c076 553c
00000350: 5fc6 9abe dea1 e9bd ec80 94bd c55b 30bd
00000360: e5ee 3dbd e9a4 693d d2da e0bd 1627 8bbe
00000370: 68c8 3a3d 97a5 2ebd b0b5 24be 9613 28bd
00000380: 0f9a 9f3d c444 043c 4019 e43b 038b 3e3c
00000390: dbcd c4bd 4eb4 38bd 2ce1 e9bc b639 c53c
000003a0: 2cc4 0fbd ad0a a4be b6f6 debd b13f 653c
000003b0: 61ed 88be 716e 9b3d 8f3b 023c fa9c 0cbe
000003c0: de00 903d e7d0 14bd 51cf bcbe 6991 06be
000003d0: 0404 1dbe 2a44 22bd 817c b2bd 208a 803c
000003e0: 6478 593d 34cc f2bd f3de 66be 998a 8ebe
000003f0: 7211 d43d 8783 e53e fbb5 b3bd 659d 10be

model.model.model.2.bias f4 [64]
-0.11552106 0.101712756 -0.13982694 -0.04061865 0.03476119 -0.025707364 -0.2457473 -0.057073634
0.05003789 0.06832386 0.021213047 -0.30845076 -0.040266577 0.1275309 -0.85849607 0.18883684
-0.02327529 0.36994064 -0.22960384 0.10141682 0.043042187 -0.7468419 0.14867917 -0.063315585
0.039607763 0.090390965 -0.044511713 0.012116938 -0.97334486 -0.03438175 -0.6306819 -0.04504782
-0.048023123 -0.17290103 0.54682624 -0.11932939 0.024479896 -0.115777135 -0.8838478 -0.105308436
-0.012713512 0.32724112 -0.06717645 -0.20354414 0.51253396 -0.12570517 -0.16343173 -0.037043635
0.4467657 -0.010531021 -0.2177703 -0.13218844 0.039682474 0.5272308 -0.19382855 0.05127861
-0.064077035 -0.074570306 0.03722492 0.02086502 -0.60990125 -0.120851114 -0.03909328 0.53657067
00000000: 4e96 ecbd c74e d03d cb2e 0fbe be5f 26bd
00000010: c061 0e3d 4098 d2bc 2ea5 7bbe 0bc6 69bd
00000020: 88f4 4c3d 61ed 8b3d fcc6 ad3c 42ed 9dbe
00000030: 91ee 24bd 7697 023e 66c6 5bbf 725e 413e
00000040: d2ab bebc dc68 bd3e 451d 6bbe 9fb3 cf3d
00000050: 014d 303d 0831 3fbf 5a3f 183e 9aab 81bd
00000060: c03b 223d e61e b93d ea51 36bd 1f86 463c
00000070: 212d 79bf e1d3 0cbd 5e74 21bf 1084 38bd
00000080: e5b3 44bd f80c 31be cefc 0b3f f862 f4bd
00000090: 108a c83c 901c edbd d943 62bf f3ab d7bd
000000a0: 564c 50bc 268c a73e ce93 89bd e06d 50be
000000b0: 6d35 033f dbb8 00be a65a 27be 11bb 17bd
000000c0: 79be e43e 4e8a 2cbc 2dff 5ebe 685c 07be
000000d0: 178a 223d 99f8 063f fe7a 46be 8509 523d
000000e0: d23a 83bd 51b8 98bd 2879 183d 1eed aa3c
000000f0: 7d22 1cbf ca80 f7bd 4620 20bd b25c 093f

model.model.model.4.weight f4 [2, 64]
-0.09541267 -0.11096839 -0.09772294 -0.049958564 -0.28077355 0.006426091 0.077951446 0.053950172
-0.23222554 -0.13634257 0.08119638 -0.044784788 -0.1092699 -0.81065947 0.27252808 -0.09097906
0.025330422 -0.19541758 -0.23619401 0.037426382 -0.100734964 0.015834188 -0.06915205 -0.049153306
0.0032930626 -0.03887254 0.014579559 -0.0050098053 0.37078935 -0.047986783 -0.22191398 -0.0053256275
-0.08769496 -0.003004258 -0.34396598 -0.0032910751 0.022359338 -0.09831226 0.09057483 -0.001020849
-0.037218172 -0.050949186 -0.00075445836 -0.0009656047 -0.16374971 0.036663674 -0.7654886 -0.022911813
0.29794386 -0.14083166 0.00012646828 -0.040078446 -0.035269402 -0.16296993 -0.0069150697 0.007862978
-0.36895013 -0.05241045 0.099774696 0.07485438 -0.1481944 -0.038793724 0.24474062 -0.27012473
0.015982663 0.21855448 -0.0065920036 -0.0865257 -0.15796457 0.016119998 -0.18904833 -0.005315853
0.050836995 -0.08365924 -0.002252174 -0.064262986 -0.00589232 -0.35193127 0.12407104 0.5251661
-0.19615167 -0.08264124 0.47495815 0.15837182 -0.003870305 0.15530346 -0.46156225 -0.13652489
0.00092708843 0.3231062 0.005398895 -0.011217655 0.1569883 -0.21763746 -0.07881719 -0.107804716
0.34952033 0.0055581233 0.3083909 0.017266823 0.124694146 0.0009209525 -0.388743 -0.0024429574
-0.12775278 0.19008744 0.19541822 0.0130109135 0.043929137 0.27328417 -0.08484553 0.2773877
-0.051473033 -0.12859511 -0.0024624716 0.10715337 -0.08383826 0.4045247 0.029900331 0.003962031
0.27687472 0.04676122 -0.04915894 -0.092245705 -0.2680257 0.08259297 0.2199403 -0.06132099
00000000: b867 c3bd 6543 e3bd f722 c8bd 5aa1 4cbd
00000010: 8dc1 8fbe f591 d23b 02a5 9f3d dbfa 5c3d
00000020: 88cc 6dbe 639d 0bbe 4a4a a63d 4170 37bd
00000030: e6c8 dfbd 6187 4fbf cd88 8b3e 3b53 babd
00000040: bf81 cf3c 8c1b 48be d8dc 71be 684c 193d
00000050: 224e cebd b3b6 813c 979f 8dbd fa54 49bd
00000060: 6cd0 573b d038 1fbd 1adf 6e3c 4b29 a4bb
00000070: 1ad8 bd3e ca8d 44bd 6b3d 63be 9a82 aebb
00000080: 6a99 b3bd 16e3 44bb 4f1c b0be 14af 57bb
00000090: ee2a b73c f057 c9bd 4c7f b93d 02ce 85ba
000000a0: 1572 18bd 18b0 50bd d8c6 45ba a220 7dba
000000b0: 01ae 27be a62c 163d 10f7 43bf 8eb1 bbbc
000000c0: 198c 983e 2d36 10be 929c 0439 4c29 24bd
000000d0: a676 10bd 97e1 26be cf97 e2bb b8d3 003c
000000e0: 08e7 bcbe 57ac 56bd ad56 cc3d 414d 993d
000000f0: 46c0 17be 2be6 1ebd 499d 7a3e ca4d 8abe
00000100: 13ee 823c bfcc 5f3e bc01 d8bb 6334 b1bd
00000110: 77c1 21be 160e 843c e395 41be 9b30 aebb
00000120: 743a 503d 8955 abbd 3699 13bb 509c 83bd
00000130: 5d14 c1bb 5630 b4be f518 fe3d 4971 063f
00000140: fcdb 48be cf3f a9bd b72d f33e 392c 223e
00000150: f1a4 7dbb df07 1f3e e351 ecbe 2ecd 0bbe
00000160: da07 733a 2d6e a53e 37e9 b03b 41ca 37bc
00000170: 8ac1 203e 5bdc 5ebe e86a a1bd b8c8 dcbd
00000180: 54f4 b23e eb20 b63b 69e5 9d3e 2773 8d3c
00000190: a55f ff3d 136c 713a 5309 c7be 061a 20bb
000001a0: a0d1 02be 48a6 423e b71b 483e ba2b 553c
000001b0: 0aef 333d e7eb 8b3e 7ec3 adbd c305 8e3e
000001c0: 63d5 52bd 70ae 03be 6b61 21bb 3a73 db3d
000001d0: 65b3 abbd dd1d cf3e 8af1 f43c edd3 813b
000001e0: 86c2 8d3e b188 3f3d e25a 49bd 51eb bcbd
000001f0: aa3a 89be 8126 a93d 0838 613e b82b 7bbd

model.model.model.4.bias f4 [2]
-0.40519994 -0.14249182
00000000: 5e76 cfbe 60e9 11be

model_old.model.model.0.weight f4 [64, 3]
-0.73302776 0.22984853 0.16045202 -0.03503666 0.03622803 0.16087344 0.21912503 -0.3845526
0.041450553 -0.5688317 0.606998 1.0906223 -0.19942744 0.19259724 -0.859573 0.100349754
-0.5369719 -0.21594986 -0.17504916 0.086631656 -0.43765408 0.17901917 -0.29634643 0.056598723
-0.752479 0.28982666 -0.20983708 -0.2025534 -0.088804714 -0.40465483 -0.15287034 -0.2966235
-0.94277495 -0.04776368 -0.30160952 -0.3372525 -0.44357094 0.17822978 -0.2177736 -0.42791492
-0.42380163 -0.48471957 -0.00746922 -0.32627064 -0.24136943 -0.55539256 -0.46581653 0.103774145
0.0038377205 -0.32444975 -0.89286894 0.14297473 -0.0017819008 0.20006718 -0.30747646 -0.52139705
-0.19622539 -0.53555775 0.03513336 -0.5606289 0.085852176 0.15823469 -0.063434474 -0.17434494
-0.38230035 0.20855445 0.014949659 -0.112006575 -0.21176434 -0.09206995 -0.031850025 0.7464714
0.1150193 -0.10503123 0.5274103 -0.16680455 0.44264135 -0.06503852 -0.46148965 0.21221271
0.26313007 0.10945871 -0.06622275 0.23980561 -0.24246128 0.0149591565 0.46477616 -0.055021074
-0.14894715 -0.35193732 0.097488254 0.11994914 0.016877968 -0.014781695 -0.13974956 0.27145517
-0.062342376 0.00074907887 -0.44805506 0.30419755 -0.035621513 -0.79802024 -0.35774043 -0.56102365
-0.24507189 0.016333774 -0.05939315 -0.82850456 -0.07174909 -0.25618002 0.4999883 -0.61701375
0.19399133 -0.0634776 0.08869713 -0.37700585 -0.38269827 0.00941592 -0.45665246 -0.23209727
0.028152619 -0.40066493 -0.6266699 -0.2540128 -0.14695252 -0.43112648 -0.20594555 -0.42667717
0.28689536 0.120632015 0.01305031 -0.33866352 0.25590804 -0.31451708 0.779993 -0.0009135565
-0.45616755 -0.6985219 -0.5016477 0.3104458 0.37177145 0.07803479 0.15349033 -0.54385257
-0.17386799 0.09851801 -0.31772694 -0.49495772 0.14820534 -0.5272468 -0.118221134 6.9239854e-07
1.0039287 -0.1921038 0.23485956 0.011864814 0.18067849 -0.04464832 -0.87374437 -0.5497829
0.23858003 -0.1854151 0.0045246906 0.08871952 -0.002306538 -0.47310328 0.0071069915 -0.4160428
0.07389236 -1.1254116 0.14521639 -0.57287025 -0.43327534 -0.5731215 0.16325364 -0.0021450063
1.0408248 0.14964531 -0.12810776 -0.41796896 -0.5465252 0.08213733 -0.10974276 0.032182444
-0.83114743 -0.04367238 0.0006615911 -0.7548096 0.34227484 -0.10303056 -0.32221112 -0.5555314
00000000: b5a7 3bbf 6a5d 6b3e 894d 243e 9a82 0fbd
00000010: d863 143d 02bc 243e 5062 603e 14e4 c4be
00000020: 0ec8 293d f49e 11bf 3964 1b3f 8399 8b3f
00000030: b536 4cbe 3638 453e fa0c 5cbf 2c84 cd3d
00000040: fe76 09bf f621 5dbe 1640 33be f06b b13d
00000050: 3214 e0be cd50 373e b8ba 97be 10d4 673d
00000060: 77a2 40bf 2964 943e 88df 56be 296a 4fbe
00000070: 3fdf b5bd eb2e cfbe 0b8a 1cbe 09df 97be
00000080: b359 71bf d9a3 43bd 906c 9abe 5cac acbe
00000090: bb1b e3be de81 363e 0b00 5fbe aa17 dbbe
000000a0: 87fc d8be 2a2d f8be 5cc0 f4bb f20c a7be
000000b0: 8c29 77be 352e 0ebf 817f eebe 8a87 d43d
000000c0: 4482 7b3b 471e a6be 0f93 64bf f867 123e
000000d0: ab8e e9ba 69de 4c3e 8e6d 9dbe 477a 05bf
000000e0: 4fef 48be 501a 09bf 00e8 0f3d 6085 0fbf
000000f0: 44d3 af3d 4608 223e efe9 81bd 7b87 32be
00000100: dfbc c3be 4c8f 553e 6aef 743c b463 e5bd
00000110: c0d8 58be 2c8f bcbd 2c75 02bd c018 3f3f
00000120: 3d8f eb3d 9d1a d7bd 5d04 073f d0ce 2abe
00000130: e3a1 e23e ea32 85bd 5f48 ecbe 4a4e 593e
00000140: fcb8 863e e32b e03d cb9f 87bd 9a8f 753e
00000150: c547 78be 4017 753c 24f7 ed3e c75d 61bd
00000160: 9a85 18be 2131 b4be eca7 c73d e5a7 f53d
00000170: aa43 8a3c ec2e 72bc 821a 0fbe 2cfc 8a3e
00000180: b85a 7fbd d55d 443a 7967 e5be c8bf 9b3e
00000190: dde7 11bd 0e4b 4cbf c129 b7be 3f9f 0fbf
000001a0: 20f4 7abe 68ce 853c 3b46 73bd e018 54bf
000001b0: 30f1 92bd 072a 83be 77fe ff3e 9df4 1dbf
000001c0: aaa5 463e 8b00 82bd d7a6 b53d e906 c1be
000001d0: 07f1 c3be 3b45 1a3c 5ace e9be e8aa 6dbe
000001e0: 52a0 e63c f423 cdbe 706d 20bf f70d 82be
000001f0: b97a 16be 9cbc dcbe 64e3 52be 6e75 dabe
00000200: f3e3 923e eb0d f73d f8d0 553c 4e65 adbe
00000210: 6106 833e 6208 a1be 9fad 473f bd7b 6fba
00000220: cb8e e9be 55d2 32bf fc6b 00bf c0f2 9e3e
00000230: d458 be3e b4d0 9f3d 922c 1d3e ec39 0bbf
00000240: 730a 32be cfc3 c93d 1bad a2be 196b fdbe
00000250: 24c3 173e a5f9 06bf ec1d f2bd 44dd 3935
00000260: bc80 803f dcb6 44be 067f 703e a364 423c
00000270: c803 393e 28e1 36bd b6ad 5fbf 92be 0cbf
00000280: 534e 743e 75dd 3dbe db43 943b 94b2 b53d
00000290: 4929 17bb 983a f2be c4e1 e83b 9003 d5be
000002a0: e154 973d 7d0d 90bf 9bb3 143e a0a7 12bf
000002b0: 44d6 ddbe 17b8 12bf f62b 273e 3c93 0cbb
000002c0: bf39 853f 9f3c 193e ae2e 03be 0700 d6be
000002d0: 13e9 0bbf 9e37 a83d d0c0 e0bd bdd1 033d
000002e0: 14c6 54bf cfe1 32bd a16e 2d3a 343b 41bf
000002f0: a63e af3e b001 d3bd dbf8 a4be 4e37 0ebf

model_old.model.model.0.bias f4 [64]
0.6165126 -0.22682667 -1.7667966 0.63833946 -0.60650164 -1.5823966 -0.19224185 -1.5705096
0.104756765 0.88612777 0.90734464 0.48973554 -0.02967046 -0.4371747 0.33557874 -0.31593955
0.23550601 -1.5791928 0.010986686 -0.11345934 -1.5535553 -0.16658644 -0.49264386 0.38778776
-1.867876 -0.6406491 -0.28977737 -1.6143327 0.21763957 1.3567266 -2.0525637 1.6417719
0.2388782 -1.909084 -0.15757085 -0.29002768 0.5414551 0.524633 1.4042078 0.25587758
-0.21526696 1.1572524 -0.020478068 -1.6207527 -1.8056558 0.4514191 -1.1139095 -1.250977
-0.30765793 0.49659294 0.40812445 1.7695777 -1.6342281 -0.19343823 -0.9827836 -0.39467874
1.1556422 -0.3778186 -1.7869359 -1.5602088 -0.46519282 0.8590368 0.38468394 0.7260003
00000000: c5d3 1d3f 4045 68be 6426 e2bf 376a 233f
00000010: b143 1bbf f98b cabf 0cdb 44be 7506 c9bf
00000020: b78a d63d 45d9 623f bd47 683f 9ebe fa3e
00000030: 770f f3bc 5dd5 dfbe fad0 ab3e d4c2 a1be
00000040: 7d28 713e fd22 cabf 8001 343c 5f5d e8bd
00000050: e6da c6bf a395 2abe d13b fcbe 1e8c c63e
00000060: 9016 efbf 9401 24bf b35d 94be 74a2 cebf
00000070: e8dc 5e3e 38a9 ad3f 345d 03c0 9525 d23f
00000080: 7d9c 743e dd5c f4bf 415a 21be 827e 94be
00000090: cd9c 0a3f 594e 063f 15bd b33f 6302 833e
000000a0: f16e 5cbe d920 943f 9fc1 a7bc d374 cfbf
000000b0: bb1f e7bf 6720 e73e 9694 8ebf 0420 a0bf
000000c0: 5785 9dbe 6e41 fe3e b0f5 d03e 8681 e23f
000000d0: 632e d1bf ac14 46be b597 7bbf 5513 cabe
000000e0: 15ec 933f 7171 c1be 51ba e4bf ecb4 c7bf
000000f0: c12d eebe d6e9 5b3f 4bf5 c43e 28db 393f

model_old.model.model.2.weight f4 [64, 64]
0.059932005 -0.0082740635 -0.13433117 0.07871328 -0.16474645 0.08930686 0.0057499856 -0.12491203
-0.09236749 -0.007903865 0.011290614 0.026071366 0.011677701 -0.09580362 0.00083737075 0.048814
-0.20380828 -0.006978018 0.071769565 -0.075185776 -0.10222127 0.09943752 -0.07424559 0.051183213
-0.064014085 -0.0878254 -0.075172484 -0.0772817 -0.021474257 -0.14642861 0.017328296 0.11270444
0.036141213 -0.20683861 -0.01356025 -0.08680836 -0.038683996 -0.023421016 0.0087244585 -0.05682377
0.0823229 -0.0010009048 -0.084845215 0.0711096 -0.03923673 -0.000530494 0.005728268 -0.23372139
-0.11852972 -0.07545385 -0.1191863 -0.014821354 -0.088604026 0.105945915 -0.09002017 -0.095962405
-0.2111761 0.07521501 0.030141665 -0.0029414296 -0.106407 -0.068509676 -0.0330965 0.11817012
-0.061785314 0.03345859 -0.03584343 0.093292445 -0.16843763 -0.15852948 0.02251787 -0.22877167
0.13355699 0.024094077 0.01792587 0.0761142 -0.15613845 0.00029349327 0.094570026 -0.019479439
-0.0009021931 -0.0090764975 -0.021519154 -0.026186123 -0.14118825 0.034068584 0.06458716 -0.017216736
-0.2371507 -0.073606156 -0.030300248 -0.7935359 0.09674823 -0.17144166 -0.2831457 0.04611242
-0.036357395 -0.15685184 0.05195716 0.084645234 -0.089774944 0.032929234 -0.2329769 0.07261079
-0.35352126 -0.20097892 -0.019981846 -0.23675683 -0.6094793 0.0549168 0.0026446828 0.028439742
0.0050961873 -0.18539451 -0.13929112 -0.09668955 0.07035356 0.00057492545 0.057312824 0.11960541
0.13250767 0.06761354 0.0014132748 -0.51366717 0.07910265 -0.015813401 -0.13828313 -0.016717633
-0.13516812 -0.054465204 -0.4101591 0.030335506 0.027038185 0.021056607 0.12085416 -0.12048054
-0.038277514 0.06668167 -0.2145073 -0.13034922 0.043864988 0.03306146 -0.026699692 0.12144165
-0.12884472 -0.110983625 -0.034344375 0.07530564 -0.18374254 0.11301981 0.09829669 -0.15044521
-0.13328183 0.05961547 0.0922168 -0.120960385 -0.064616695 0.1019897 0.0070000975 -0.05785271
-0.13777626 -0.35993803 -0.07372312 -0.028607402 0.036139876 -0.10340609 -0.10054983 -0.26303932
0.08111477 -0.009488039 0.08705722 -0.08114108 -0.62009686 -0.17718394 0.029649163 0.0067800153
0.09691408 -0.05972659 -0.1312393 -0.06393438 -0.611034 -0.01970285 -0.09741404 -0.100068435
0.094551995 -0.05148825 -0.4271109 -0.12438296 0.030201629 -0.11541368 -0.058893576 -0.01559875
-0.0021389937 0.007798046 -0.20777349 0.068034895 -0.11517386 -0.19678158 0.123969674 -0.15670669
0.027985694 0.008740174 0.105481826 0.011892833 -0.05031367 0.021598682 0.10040325 -0.08171034
0.016500635 -0.32591626 -0.031917676 0.0130288005 -0.3022947 -0.11407827 -0.072511524 -0.04305627
-0.046370406 0.057042036 -0.10979237 -0.27178258 0.04560128 -0.042638388 -0.16084933 -0.041034304
0.07793056 0.008073036 0.006961018 0.011629823 -0.09609576 -0.045093827 -0.028549753 0.02407537
-0.035099193 -0.32039395 -0.108869 0.013992236 -0.26743606 0.075894244 0.00794877 -0.13731757
0.070314154 -0.036332037 -0.3687692 -0.13141407 -0.15333563 -0.039615788 -0.087151535 0.015690863
0.05309333 -0.11855355 -0.22545986 -0.27840117 0.1035489 0.4482691 -0.087749444 -0.14122541
00000000: 437b 753d f08f 07bc 1c8e 09be 6e34 a13d
00000010: 4bb3 28be 84e6 b63d 606a bc3b e1d1 ffbd
00000020: 2b2b bdbd 367f 01bc 44fc 383c 9e93 d53c
00000030: d453 3f3c b034 c4bd 0083 5b3a 30f1 473d
00000040: 1eb3 50be dca7 e4bb ecfb 923d 00fb 99bd
00000050: 6359 d1bd e6a5 cb3d 120e 98bd 7da5 513d
00000060: d119 83bd cedd b3bd 08f4 99bd de45 9ebd
00000070: c8ea afbc 62f1 15be 12f4 8d3c 96d1 e63d
00000080: cf08 143d 80cd 53be d02b 5ebc 95c8 b1bd
00000090: 1c73 1ebd 6edd bfbc 08f1 0e3c 0bc0 68bd
000000a0: e998 a83d cb30 83ba 54c3 adbd e9a1 913d
000000b0: b2b6 20bd da10 0bba 32b4 bb3b a954 6fbe
000000c0: b6bf f2bd 8c87 9abd f217 f4bd 44d5 72bc
000000d0: 0776 b5bd 2cfa d83d 7f5c b8bd f087 c4bd
000000e0: 8c3e 58be 540a 9a3d a7eb f63c 00c5 40bb
000000f0: eaeb d9bd cd4e 8cbd 3290 07bd 2d03 f23d
00000100: 9912 7dbd e00b 093d 8fd0 12bd 1c10 bf3d
00000110: ea7a 2cbe 8d55 22be 6577 b83c 1f43 6abe
00000120: 2ac3 083e f160 c53c 46d9 923c c3e1 9b3d
00000130: c2e2 1fbe 00e0 9939 eead c13d 5893 9fbc
00000140: 2781 6cba 97b5 14bc f048 b0bc 4884 d6bc
00000150: a793 10be 808b 0b3d 4646 843d 1d0a 8dbc
00000160: a2d7 72be d3be 96bd 3a38 f8bc 2b25 4bbf
00000170: f023 c63d 678e 2fbe 79f8 90be 60e0 3c3d
00000180: 7eeb 14bd c59d 20be 08d1 543d 7b5a ad3d
00000190: eddb b7bd cee0 063d 7f91 6ebe f7b4 943d
000001a0: bd00 b5be 6bcd 4dbe f8b0 a3bc 6270 72be
000001b0: d606 1cbf 70f0 603d 6a52 2d3b 76fa e83c
000001c0: ebfd a63b 0fd8 3dbe 55a2 0ebe 2c05 c6bd
000001d0: 8715 903d 98b6 163a dac0 6a3d aef3 f43d
000001e0: 17b0 073e f878 8a3d a23d b93a b17f 03bf
000001f0: 9200 a23d 1b8b 81bc 189a 0dbe 6bf3 88bc
00000200: 8369 0abe e816 5fbd 6000 d2be 2b82 f83c
00000210: 2f7f dd3c e87e ac3c 6382 f73d 80be f6bd
00000220: e2c8 1cbd 6690 883d cda7 5bbe 447a 05be
00000230: c6ab 333d 746b 073d 50b9 dabc 66b6 f83d
00000240: dfef 03be 624b e3bd b0ac 0cbd d839 9a3d
00000250: 0127 3cbe ee76 e73d c64f c93d 4f0e 1abe
00000260: 087b 08be 5a2f 743d 29dc bc3d 14ba f7bd
00000270: c255 84bd fadf d03d 1361 e53b f7f6 6cbd
00000280: 3815 0dbe cc49 b8be 26fc 96bd 125a eabc
00000290: 6807 143d 92c6 d3bd 12ed cdbd 17ad 86be
000002a0: 801f a63d b873 1bbc 0e4b b23d 4b2d a6bd
000002b0: abbe 1ebf b56f 35be cde2 f23c e42a de3b
000002c0: e47a c63d dea3 74bd 9863 06be 07f0 82bd
000002d0: b96c 1cbf df67 a1bc 0381 c7bd aef0 ccbd
000002e0: 7aa4 c13d 58e5 52bd 48ae dabe 7ebc febd
000002f0: 6869 f73c 025e ecbd 643a 71bd e691 7fbc
00000300: 5c2e 0cbb c086 ff3b 93c2 54be e155 8b3d
00000310: 46e0 ebbd 1c81 49be d0e3 fd3d b877 20be
00000320: 4142 e53c f232 0f3c db06 d83d 28da 423c
00000330: b515 4ebd b8ef b03c 38a0 cd3d c057 a7bd
00000340: 572c 873c 7fde a6be 1cbc 02bd c076 553c
00000350: 5fc6 9abe dea1 e9bd ec80 94bd c55b 30bd
00000360: e5ee 3dbd e9a4 693d d2da e0bd 1627 8bbe
00000370: 68c8 3a3d 97a5 2ebd b0b5 24be 9613 28bd
00000380: 0f9a 9f3d c444 043c 4019 e43b 038b 3e3c
00000390: dbcd c4bd 4eb4 38bd 2ce1 e9bc b639 c53c
000003a0: 2cc4 0fbd ad0a a4be b6f6 debd b13f 653c
000003b0: 61ed 88be 716e 9b3d 8f3b 023c fa9c 0cbe
000003c0: de00 903d e7d0 14bd 51cf bcbe 6991 06be
000003d0: 0404 1dbe 2a44 22bd 817c b2bd 208a 803c
000003e0: 6478 593d 34cc f2bd f3de 66be 998a 8ebe
000003f0: 7211 d43d 8783 e53e fbb5 b3bd 659d 10be

model_old.model.model.2.bias f4 [64]
-0.11552106 0.101712756 -0.13982694 -0.04061865 0.034299746 -0.025707364 -0.2454189 -0.057073634
0.05003789 0.06832386 0.021213047 -0.30845076 -0.040266577 0.12618822 -0.85752404 0.18883684
-0.02327529 0.368807 -0.22960384 0.104736425 0.043042187 -0.7468419 0.15107046 -0.063315585
0.039607763 0.090390965 -0.044511713 0.012116938 -0.9740051 -0.03438175 -0.63044024 -0.04504782
-0.048023123 -0.17290103 0.5483386 -0.11932939 0.024479896 -0.115777135 -0.8849072 -0.105308436
-0.012713512 0.3301063 -0.06684529 -0.20354414 0.5157418 -0.12570517 -0.16343173 -0.037043635
0.44484538 -0.010531021 -0.2177703 -0.13218844 0.039682474 0.52607256 -0.19382855 0.05127861
-0.059216972 -0.074570306 0.03722492 0.02086502 -0.61169636 -0.120851114 -0.035339944 0.5373293
00000000: 4e96 ecbd c74e d03d cb2e 0fbe be5f 26bd
00000010: e47d 0c3d 4098 d2bc 184f 7bbe 0bc6 69bd
00000020: 88f4 4c3d 61ed 8b3d fcc6 ad3c 42ed 9dbe
00000030: 91ee 24bd 7c37 013e b286 5bbf 725e 413e
00000040: d2ab bebc 45d4 bc3e 451d 6bbe 0d80 d63d
00000050: 014d 303d 0831 3fbf 37b2 1a3e 9aab 81bd
00000060: c03b 223d e61e b93d ea51 36bd 1f86 463c
00000070: 6658 79bf e1d3 0cbd 8864 21bf 1084 38bd
00000080: e5b3 44bd f80c 31be eb5f 0c3f f862 f4bd
00000090: 108a c83c 901c edbd 4789 62bf f3ab d7bd
000000a0: 564c 50bc b103 a93e 2fe6 88bd e06d 50be
000000b0: a807 043f dbb8 00be a65a 27be 11bb 17bd
000000c0: c6c2 e33e 4e8a 2cbc 2dff 5ebe 685c 07be
000000d0: 178a 223d b1ac 063f fe7a 46be 8509 523d
000000e0: 7f8d 72bd 51b8 98bd 2879 183d 1eed aa3c
000000f0: 2298 1cbf ca80 f7bd 9ec0 10bd 6a8e 093f

model_old.model.model.4.weight f4 [2, 64]
-0.09541267 -0.11096839 -0.09772294 -0.049958564 -0.28077355 0.006426091 0.075007066 0.053950172
-0.23222554 -0.13634257 0.08119638 -0.044784788 -0.1092699 -0.81065947 0.27438545 -0.09097906
0.025330422 -0.19657163 -0.23619401 0.044128757 -0.100734964 0.015834188 -0.06915205 -0.049153306
0.0032930626 -0.03887254 0.014579559 -0.0050098053 0.3713431 -0.047986783 -0.2217523 -0.0053256275
-0.08769496 -0.003004258 -0.35600603 -0.0032910751 0.022359338 -0.09831226 0.090444006 -0.001020849
-0.037218172 -0.046254057 -0.00075445836 -0.0009656047 -0.16550942 0.036663674 -0.7654886 -0.022911813
0.29728472 -0.14083166 0.00012646828 -0.040078446 -0.035269402 -0.16296993 -0.0069150697 0.007862978
-0.36895013 -0.05241045 0.099774696 0.07485438 -0.14793347 -0.038793724 0.24710582 -0.2707061
0.015982663 0.21855448 -0.0065920036 -0.0865257 -0.15906726 0.016119998 -0.19132024 -0.005315853
0.050836995 -0.08365924 -0.002252174 -0.064262986 -0.00589232 -0.35039276 0.135679 0.5251661
-0.19615167 -0.080811374 0.47495815 0.16310439 -0.003870305 0.15530346 -0.45895654 -0.13652489
0.00092708843 0.3231062 0.005398895 -0.011217655 0.1559422 -0.21763746 -0.07881719 -0.107804716
0.34952033 0.0055581233 0.30897194 0.017266823 0.124694146 0.0009209525 -0.38673916 -0.0024429574
-0.12775278 0.19391741 0.19757721 0.0130109135 0.04637461 0.27328417 -0.08484553 0.2773877
-0.04963111 -0.12859511 -0.0024624716 0.10715337 -0.08383826 0.40482682 0.029900331 0.003962031
0.27524376 0.04676122 -0.04915894 -0.092245705 -0.2680257 0.08259297 0.22221795 -0.06428034
00000000: b867 c3bd 6543 e3bd f722 c8bd 5aa1 4cbd
00000010: 8dc1 8fbe f591 d23b 4e9d 993d dbfa 5c3d
00000020: 88cc 6dbe 639d 0bbe 4a4a a63d 4170 37bd
00000030: e6c8 dfbd 6187 4fbf 407c 8c3e 3b53 babd
00000040: bf81 cf3c 134a 49be d8dc 71be 5bc0 343d
00000050: 224e cebd b3b6 813c 979f 8dbd fa54 49bd
00000060: 6cd0 573b d038 1fbd 1adf 6e3c 4b29 a4bb
00000070: af20 be3e ca8d 44bd 0913 63be 9a82 aebb
00000080: 6a99 b3bd 16e3 44bb 6c46 b6be 14af 57bb
00000090: ee2a b73c f057 c9bd b53a b93d 02ce 85ba
000000a0: 1572 18bd e574 3dbd d8c6 45ba a220 7dba
000000b0: 4d7b 29be a62c 163d 10f7 43bf 8eb1 bbbc
000000c0: b435 983e 2d36 10be 929c 0439 4c29 24bd
000000d0: a676 10bd 97e1 26be cf97 e2bb b8d3 003c
000000e0: 08e7 bcbe 57ac 56bd ad56 cc3d 414d 993d
000000f0: df7b 17be 2be6 1ebd 4f09 7d3e fd99 8abe
00000100: 13ee 823c bfcc 5f3e bc01 d8bb 6334 b1bd
00000110: 87e2 22be 160e 843c 74e9 43be 9b30 aebb
00000120: 743a 503d 8955 abbd 3699 13bb 509c 83bd
00000130: 5d14 c1bb ae66 b3be 70ef 0a3e 4971 063f
00000140: fcdb 48be 6f80 a5bd b72d f33e d604 273e
00000150: f1a4 7dbb df07 1f3e 5afc eabe 2ecd 0bbe
00000160: da07 733a 2d6e a53e 37e9 b03b 41ca 37bc
00000170: 50af 1f3e 5bdc 5ebe e86a a1bd b8c8 dcbd
00000180: 54f4 b23e eb20 b63b 9231 9e3e 2773 8d3c
00000190: a55f ff3d 136c 713a ad02 c6be 061a 20bb
000001a0: a0d1 02be 4992 463e ae51 4a3e ba2b 553c
000001b0: 4ef3 3d3d e7eb 8b3e 7ec3 adbd c305 8e3e
000001c0: fe49 4bbd 70ae 03be 6b61 21bb 3a73 db3d
000001d0: 65b3 abbd 7645 cf3e 8af1 f43c edd3 813b
000001e0: c0ec 8c3e b188 3f3d e25a 49bd 51eb bcbd
000001f0: aa3a 89be 8126 a93d 1a8d 633e 69a5 83bd

model_old.model.model.4.bias f4 [2]
-0.40731266 -0.14020552
00000000: 498b d0be 0992 0fbe
