rl_compexp/save/Blackjack2-DQN64/weights.npy (npy, 640 bytes, 1 tensors)

array (column-major) f4 [64, 2]
0	0xbdc367b8	-0.09541267
1	0xbde34365	-0.11096839
2	0xbdc822f7	-0.09772294
3	0xbd4ca15a	-0.049958564
4	0xbe8fc18d	-0.28077355
5	0x3bd291f5	0.006426091
6	0x3d9fa502	0.077951446
7	0x3d5cfadb	0.053950172
8	0xbe6dcc88	-0.23222554
9	0xbe0b9d63	-0.13634257
10	0x3da64a4a	0.08119638
11	0xbd377041	-0.044784788
12	0xbddfc8e6	-0.1092699
13	0xbf4f8761	-0.81065947
14	0x3e8b88cd	0.27252808
15	0xbdba533b	-0.09097906
16	0x3ccf81bf	0.025330422
17	0xbe481b8c	-0.19541758
18	0xbe71dcd8	-0.23619401
19	0x3d194c68	0.037426382
20	0xbdce4e22	-0.100734964
21	0x3c81b6b3	0.015834188
22	0xbd8d9f97	-0.06915205
23	0xbd4954fa	-0.049153306
24	0x3b57d06c	0.0032930626
25	0xbd1f38d0	-0.03887254
26	0x3c6edf1a	0.014579559
27	0xbba4294b	-0.0050098053
28	0x3ebdd81a	0.37078935
29	0xbd448dca	-0.047986783
30	0xbe633d6b	-0.22191398
31	0xbbae829a	-0.0053256275
32	0xbdb3996a	-0.08769496
33	0xbb44e316	-0.003004258
34	0xbeb01c4f	-0.34396598
35	0xbb57af14	-0.0032910751
36	0x3cb72aee	0.022359338
37	0xbdc957f0	-0.09831226
38	0x3db97f4c	0.09057483
39	0xba85ce02	-0.001020849
40	0xbd187215	-0.037218172
41	0xbd50b018	-0.050949186
42	0xba45c6d8	-0.00075445836
43	0xba7d20a2	-0.0009656047
44	0xbe27ae01	-0.16374971
45	0x3d162ca6	0.036663674
46	0xbf43f710	-0.7654886
47	0xbcbbb18e	-0.022911813
48	0x3e988c19	0.29794386
49	0xbe10362d	-0.14083166
50	0x39049c92	0.00012646828
51	0xbd24294c	-0.040078446
52	0xbd1076a6	-0.035269402
53	0xbe26e197	-0.16296993
54	0xbbe297cf	-0.0069150697
55	0x3c00d3b8	0.007862978
56	0xbebce708	-0.36895013
57	0xbd56ac57	-0.05241045
58	0x3dcc56ad	0.099774696
59	0x3d994d41	0.07485438
60	0xbe17c046	-0.1481944
61	0xbd1ee62b	-0.038793724
62	0x3e7a9d49	0.24474062
63	0xbe8a4dca	-0.27012473
64	0x3c82ee13	0.015982663
65	0x3e5fccbf	0.21855448
66	0xbbd801bc	-0.0065920036
67	0xbdb13463	-0.0865257
68	0xbe21c177	-0.15796457
69	0x3c840e16	0.016119998
70	0xbe4195e3	-0.18904833
71	0xbbae309b	-0.005315853
72	0x3d503a74	0.050836995
73	0xbdab5589	-0.08365924
74	0xbb139936	-0.002252174
75	0xbd839c50	-0.064262986
76	0xbbc1145d	-0.00589232
77	0xbeb43056	-0.35193127
78	0x3dfe18f5	0.12407104
79	0x3f067149	0.5251661
80	0xbe48dbfc	-0.19615167
81	0xbda93fcf	-0.08264124
82	0x3ef32db7	0.47495815
83	0x3e222c39	0.15837182
84	0xbb7da4f1	-0.003870305
85	0x3e1f07df	0.15530346
86	0xbeec51e3	-0.46156225
87	0xbe0bcd2e	-0.13652489
88	0x3a7307da	0.00092708843
89	0x3ea56e2d	0.3231062
90	0x3bb0e937	0.005398895
91	0xbc37ca41	-0.011217655
92	0x3e20c18a	0.1569883
93	0xbe5edc5b	-0.21763746
94	0xbda16ae8	-0.07881719
95	0xbddcc8b8	-0.107804716
96	0x3eb2f454	0.34952033
97	0x3bb620eb	0.0055581233
98	0x3e9de569	0.3083909
99	0x3c8d7327	0.017266823
100	0x3dff5fa5	0.124694146
101	0x3a716c13	0.0009209525
102	0xbec70953	-0.388743
103	0xbb201a06	-0.0024429574
104	0xbe02d1a0	-0.12775278
105	0x3e42a648	0.19008744
106	0x3e481bb7	0.19541822
107	0x3c552bba	0.0130109135
108	0x3d33ef0a	0.043929137
109	0x3e8bebe7	0.27328417
110	0xbdadc37e	-0.08484553
111	0x3e8e05c3	0.2773877
112	0xbd52d563	-0.051473033
113	0xbe03ae70	-0.12859511
114	0xbb21616b	-0.0024624716
115	0x3ddb733a	0.10715337
116	0xbdabb365	-0.08383826
117	0x3ecf1ddd	0.4045247
118	0x3cf4f18a	0.029900331
119	0x3b81d3ed	0.003962031
120	0x3e8dc286	0.27687472
121	0x3d3f88b1	0.04676122
122	0xbd495ae2	-0.04915894
123	0xbdbceb51	-0.092245705
124	0xbe893aaa	-0.2680257
125	0x3da92681	0.08259297
126	0x3e613808	0.2199403
127	0xbd7b2bb8	-0.06132099
