rl_compexp/save/LL_hyper/LunarLander-DQN-128x2/dqn.pth (torch, 299316 bytes, 24 tensors)

model.model.model.0.weight f4 [128, 8]
00000000: 1467 dcbe c959 293f 5f73 cb3e d01f 3d3f
00000010: 5f56 083f 0c4c 9b3e 1ea6 753f f3df d4be
00000020: 96c9 6cbe 3584 1ac0 9624 f2bf bdc1 363f
00000030: 02f3 563f fe95 c7bf 8b89 793d bfff 593e
00000040: 2e4f 4dbc 1ef0 10c0 40de 1c40 2194 2540
00000050: 6f22 91be a510 433f 93e8 dabd 0a82 c63e
00000060: 372b 143f 65f2 febf c046 093f 6df2 c8bf
00000070: 8ffd 05bf c865 a1bd 1f33 74bd b3c0 823e
00000080: 1407 8b3f 0f00 61c0 5b14 93bf 1b79 443f
00000090: aae6 5fbf 719f 0cbf cb5e 3d3e d9c1 203e
000000a0: ba5e 57be 4be3 1cbe d254 843f 242a d2be
000000b0: 3f14 41bf b083 033f 1679 da3e 5d9b a93e
000000c0: fb74 c33d 9575 03c0 0d5a 203f 7d89 adbf
000000d0: 7dd9 84bf 62d5 91bf 89d3 ac3e 64b3 b13d
000000e0: e31a c8be fbd2 293f a762 27be d3c2 9abe
000000f0: a42c 453d a238 53be 9fb1 0f3f 6e33 6ebe
00000100: bfd4 03bf d6a6 19bf 6fbd c33d 6f94 13bf
00000110: 08be 02c0 c119 253f add2 263e f0a7 8abe
00000120: 09a2 473e 7ffe 20bf 1433 55bf 760e 0d40
00000130: 966c a6bf 01f8 2dbf 3018 203e 4a9e 713e
00000140: d865 543f 07d2 ad3e 7f29 85be cb09 883e
00000150: 05d2 ba3e 5fd7 5c3d 1d1c 8f3e 4075 0bbf
00000160: 9d74 c13e caa9 82c0 e760 94bf ecf1 093e
00000170: 0a69 1c3f 7c63 6dbf de42 cf3d db89 083f
00000180: ae92 213f b7d2 54be 7c37 ddbe b05a 363f
00000190: 1f4f 2040 dead 17be d55c 5cbe c4e4 053f
000001a0: a3d2 3dbf eb1b e9be 153a 303e 701e 76bf
000001b0: cbf4 51bf 6e50 733e 6638 53bf 3322 3cbf
000001c0: 24f4 d7be 8f0b 1abf 38f9 1cbf d0cc 66be
000001d0: 7986 9e3f 8773 80be a3ec 60bd 58d7 7b3e
000001e0: 4f58 703e 485c 93be b91e 5c40 10ec fb3f
000001f0: 3eec ba3f c24c 0a3f 6dbd a23d d1ef 0c3c
00000200: 9869 08bd 0a5b 0b3e e54c 74bf 39b5 fd3e
00000210: 37d7 433f 4b8f 493f 40b3 c8be 99ba 183f
00000220: 6273 a93e 5911 773e f29e 63bf 0ec9 eebe
00000230: ff0b ad3e af75 933e 59b5 203f 07d3 913e
00000240: cebd 2cbf f189 c8bc 1216 133e 6a57 883e
00000250: ea8e fd3e 9aba b3bf 824c cd3e 8f1f 103d
00000260: a030 b13c ad1e af3e b8b9 65be c6f8 30bf
00000270: 9393 35bf 76e5 25bf b2ce a3be d997 363d
00000280: 5d06 01bf 2866 12be 7140 933e 5271 6bbe
00000290: 7a6b 4abe 53d9 99bf 6e74 253f e791 a3be
000002a0: 6209 743f d7e3 cdbd b061 a63e 6f9a 41be
000002b0: 87fd 1dbd f924 b23e f94b 033e b284 a03d
000002c0: cdd2 d53d 7d92 b53e 9ee5 83be f6f2 6cbe
000002d0: a634 803f 3e30 7d3f e0a2 3cbf d4d8 23be
000002e0: d9df b1bf 50bb 02bf 8f3b 79bf 6766 43bf
000002f0: eff4 d63f a1f6 9d3f fe56 573e 3397 493e
00000300: 4194 243f 8eac 85bf b3cc f7bf 11b3 063f
00000310: 0cf2 3940 e057 53bf 58e3 3abe de70 9b3e
00000320: 9781 21bf fe8e 043f 6aef cabe b436 89bf
00000330: d6d0 433f 2ab7 8f3e 13a9 af3e 53f4 b5be
00000340: fbff de3e 0936 3dc0 540c 00bf 6cf4 0bbf
00000350: f23e 143f 7be7 993e ba10 453e eb46 0a3e
00000360: e824 abbe 354d f2bf 8cc6 9cbf a35a a7bf
00000370: 0316 f73f bae7 9d3e a4ab b7bc 9239 0b3e
00000380: 4b49 3dbf 6006 a9bd 1349 3e3f abc0 2abe
00000390: ab46 873f ba69 053e 28b6 71be 136b 023e
000003a0: 58a4 10bf 0a35 3dbd 8d9c 643f 8732 20bf
000003b0: 26cc ba3f bd64 de3e 928c 03bd f461 73be
000003c0: e6b3 adbe eab4 25bd 885f 553d d59c e7be
000003d0: 52ea f33e 980f b13f 3ca1 3fbe b39d ddbe
000003e0: b579 193f e7fc 053f 5c49 48bd e4a5 6fbf
000003f0: 373b 9ebe 435a 26be 7454 5bbb 9a87 1dbf
-0.43047392 0.66152626 0.3973646 0.7387667 0.5325679 0.30331457 0.959566 -0.4157711
-0.23123774 -2.4143193 -1.8917415 0.7138937 0.8396455 -1.5592649 0.060922187 0.21288966
-0.012531085 -2.2646556 2.451065 2.587166 -0.28346583 0.7619727 -0.10688891 0.38771087
0.5787844 -1.9917723 0.5362358 -1.5698982 -0.52340025 -0.07880741 -0.059619065 0.25537643
1.0861535 -3.5156286 -1.1490587 0.7674729 -0.8746134 -0.5493079 0.18493192 0.15698947
-0.21032229 -0.1532108 1.0338385 -0.41047776 -0.7542152 0.51372814 0.42670506 0.33126345
0.09543797 -2.0540516 0.62637407 -1.3557583 -1.0378872 -1.1393244 0.3375514 0.08676794
-0.39083013 0.66337556 -0.16346227 -0.30226764 0.048138276 -0.20627072 0.56130403 -0.23261806
-0.514965 -0.60020196 0.09557616 -0.57648367 -2.0428486 0.6449242 0.16291304 -0.2708125
0.19495405 -0.6288833 -0.83281064 2.2040076 -1.3001888 -0.6795655 0.15634227 0.23595539
0.829679 0.339493 -0.26008222 0.2656997 0.36488357 0.05391633 0.27951136 -0.54475784
0.3778428 -4.083226 -1.1592072 0.13471192 0.61097777 -0.92729926 0.10120176 0.5333535
0.6311444 -0.20783506 -0.43206394 0.7123213 2.5048292 -0.14812419 -0.21519788 0.52302194
-0.7414953 -0.45529112 0.17209657 -0.96140194 -0.8201415 0.2376115 -0.8250793 -0.73489684
-0.42178452 -0.60173887 -0.6131778 -0.22539067 1.2384788 -0.2508814 -0.054913174 0.24593866
0.23471187 -0.28781343 3.4393752 1.9681416 1.4603345 0.54023373 0.07946286 0.008602099
-0.033303827 0.13608947 -0.9542983 0.49552324 0.76500267 0.7873427 -0.39199257 0.59659725
0.33095843 0.24127711 -0.88914406 -0.46637768 0.33798215 0.28800723 0.62776715 0.28481314
-0.6747712 -0.024479838 0.14363888 0.26629192 0.49523097 -1.4041321 0.40097433 0.035186347
0.021629632 0.3420309 -0.22434127 -0.691296 -0.70928305 -0.64803255 -0.31993634 0.044578407
-0.50400335 -0.14296782 0.28760102 -0.22992447 -0.19767562 -1.2019447 0.6463078 -0.31947252
0.9532682 -0.100532226 0.32496405 -0.18906568 -0.03857186 0.34793833 0.1282195 0.078378096
0.10440598 0.35463324 -0.25761122 -0.23139557 1.0016067 0.98901737 -0.7368603 -0.16000682
-1.3896438 -0.51067066 -0.97356504 -0.7632813 1.6793498 1.234089 0.21029279 0.19686584
0.6428872 -1.0443285 -1.9359344 0.52616984 2.9053984 -0.8255596 -0.18250787 0.30359548
-0.63088363 0.5178069 -0.39635783 -1.0719819 0.76490533 0.2806943 0.3430868 -0.35537967
0.43554673 -2.956423 -0.5001881 -0.54669833 0.57908547 0.30059418 0.19244662 0.13503616
-0.33426595 -1.8929812 -1.2248092 -1.3074535 1.9303592 0.30840856 -0.022420712 0.1359618
-0.7393996 -0.08253169 0.7433025 -0.1667506 1.0568441 0.13028613 -0.23604643 0.12736158
-0.5650077 -0.04619316 0.8930138 -0.625771 1.4593551 0.43436232 -0.03211648 -0.23767835
-0.33926314 -0.040455736 0.05209306 -0.4523684 0.4763971 1.3832884 -0.1871385 -0.43284377
0.59951335 0.52339023 -0.048898086 -0.93612504 -0.30904552 -0.1624537 -0.0033467086 -0.61535037

model.model.model.0.bias f4 [128]
00000000: 9b9a 013e 43d0 30be 7c15 8dbe 00a2 16be
00000010: a073 e0bd d02c 3ebe 4d3c 69be 49ca 703d
00000020: 7c15 8d3e e110 babe da86 eabd 93b1 20be
00000030: dc50 163e e0b9 753e da9b 293f 09b7 fbbd
00000040: 0d7f b63e 651a eabe 2e04 c63e 32ce 823d
00000050: 0782 9ebe db95 333e b097 59bb a610 3abe
00000060: f6ea ae3e 9620 a7bc ff8d 0bbe 34d5 d9bd
00000070: 7245 9a3e a2a1 953d 6d62 25be 2619 f03e
00000080: 6883 823d cc63 36be 5eba 7abe 55b2 53bd
00000090: 31d0 6f3e 03b0 c83e 151f 0f3f 4002 90be
000000a0: f0e8 86bc c1b0 b2be 6ae5 bf3e 7d88 fdbd
000000b0: 0cca 833e 4bfe 993b 8d00 50be 44f3 cb3b
000000c0: aedc e53e 87ad 9a3e 7846 6c3e 058b 5f3e
000000d0: 061f c53e 42c0 79be cba5 1fbe 035d 993d
000000e0: 2f0f 8a3e f99a e5be 9fc3 82bb ac92 c7bd
000000f0: 38cc 49bd 3085 043e 9f5b 313f 8642 b1be
00000100: bee1 0cbf 8bd9 743a 572c 0a3f a381 c9be
00000110: 2999 d4be b88c 1f3e 0170 133f ee8c 693d
00000120: cac8 ea3e 6f00 eebe 538d 3b3e 38ea 543e
00000130: af5a 4dbe 2bd6 f03e c108 1f3e 62a7 423d
00000140: 6637 8abe 65b7 a33d 7f03 ae3e 02b9 a03e
00000150: d231 203d a4a7 d23e ecb5 9e3e 8657 a03e
00000160: 38e2 ae3e 1934 c63e ac8c 2b3f 4465 253e
00000170: bc8f d83e 3233 be3e 26d2 3c3e a190 d63d
00000180: e153 0cbe 293c 8c3e 6ff4 2a3f ad01 673e
00000190: cd57 723e 88dd afbe f4d0 653e 32f4 0cbf
000001a0: b865 2e3e ca58 f23e fd88 433e d985 d53e
000001b0: 5db7 fc3d 58f6 ca3e 848c ec3e f279 bb3d
000001c0: f1fd f9bd 9fa6 1bbf cd47 2ebe 0835 26be
000001d0: 675e a8be 0d95 f03e e008 53bd c953 9abd
000001e0: 42b4 823d 1cd5 013e f716 2b3e 11e2 66bf
000001f0: d2a9 d93e a2f9 4b3f 9e60 ce3d 3443 653e
0.12656634 -0.17266946 -0.27555454 -0.14710236 -0.10959554 -0.18571782 -0.22776909 0.058786664
0.27555454 -0.36341003 -0.11451502 -0.15692739 0.14679283 0.23996687 0.66253436 -0.122907706
0.35643807 -0.45723262 0.38675064 0.06386985 -0.30958578 0.17537634 -0.0033201985 -0.18170413
0.34163636 -0.02040128 -0.13628386 -0.106363684 0.30131108 0.0730622 -0.16150828 0.46894187
0.0637272 -0.17811507 -0.24485156 -0.051683743 0.23419262 0.39196786 0.559068 -0.28126717
-0.016468495 -0.34900478 0.37479717 -0.12379549 0.25740087 0.0046995035 -0.2031271 0.006224068
0.44894928 0.30210516 0.23073757 0.21830375 0.38500232 -0.24389747 -0.15590589 0.07488444
0.2696471 -0.44844797 -0.003990605 -0.09744772 -0.049267024 0.12941432 0.6928043 -0.34621066
-0.55031955 0.0009340278 0.5397391 -0.39356717 -0.41523102 0.15581024 0.5759278 0.057019167
0.45856315 -0.46484706 0.1831563 0.20792472 -0.20054124 0.47038397 0.15530683 0.04752291
-0.2699539 0.07993964 0.33987042 0.3139115 0.039110012 0.41143525 0.3099817 0.31316775
0.34156966 0.38711622 0.67011523 0.16151911 0.4229716 0.37148434 0.1843954 0.104768045
-0.13703872 0.2738965 0.66779226 0.22559233 0.23666306 -0.34348702 0.2244299 -0.5506011
0.1703099 0.47333366 0.19095226 0.4170368 0.12339661 0.3964107 0.46200955 0.091541186
-0.122066386 -0.6080112 -0.17019577 -0.16231167 -0.32884523 0.46988717 -0.051522136 -0.07535512
0.06382038 0.12678951 0.16707979 -0.901887 0.42512375 0.79677784 0.10077022 0.22388917

model.model.model.2.weight f4 [128, 128]
00000000: 4a4a 2d3e f0ed 2b3f e2b9 8e3f 6515 993e
00000010: 0c13 c63e 830b 9cbe 03c9 10bd 5e18 25be
00000020: da08 b9be 66c0 f73e 0a6d ecbe c581 c33e
00000030: 871e 483e 64ef 513d eb1d 863e 4b70 a83e
00000040: f1df 3abd da67 64be d35e 393e 37da 9bbe
00000050: e143 00be 077b da3d 2d21 acbe 3fdb db3e
00000060: 06c7 2f3e 2971 e83c a7dc cf3e 3002 9f3e
00000070: 63c5 0a3f 79ed 3ebf 8109 063f b34a 7ebd
00000080: bcb0 47bf 00a6 013f 73d6 a93e 78c6 0b3e
00000090: 2468 bf3e 39b3 68bc a0f6 573c 4033 963e
000000a0: c859 813e c54b 3fbf 5ce0 49be 9286 8abf
000000b0: 31f9 853e e418 913d e7f7 0bbf 9015 9ebf
000000c0: 7184 683e cd2e 413e 5e2b 473d 48ef 603f
000000d0: b831 093e ee99 1a3f 0fd3 0a3d adf4 873e
000000e0: 6d3a ca3e f775 28bf 6b16 86be 10bb 833f
000000f0: ca2b 9dbe 3b65 dabd c5f6 9bbc a746 eb3e
00000100: 214a a13e 71e9 38bf fb9c b63d 665f a2be
00000110: f9ce 1fbf 1239 e63e b1d9 37be e0d5 88be
00000120: 1e15 a13e 3880 b3bd 470a 0e3d aaa1 f1bd
00000130: b16d 2f3e da8f cbba 3df1 423e 940d 5cbe
00000140: b61c 88bd a3d1 63bf ff96 333f 9549 f1bc
00000150: ad76 c53d f7eb c1bd 5efd 193e 3350 083e
00000160: 3e49 8cbf bf53 f73d c915 3f3d 5cf2 b93e
00000170: 46a8 f23d 6ab9 6c3d 0216 89bd c305 1f3e
00000180: 4986 f1bf bd02 6bbd 82b8 c9bd db1a b43c
00000190: 9117 a13e 9ae7 cf3e 236e 443e 8301 233f
000001a0: f16f 1cbe 02f0 213e ee17 973d eb28 933d
000001b0: 4001 9bbe 6ea2 4abe 765e d43d 854b 80bd
000001c0: 72b8 473f 33f5 353f 0848 b03f 37f1 0fbf
000001d0: 5b97 89bc 16e4 8d3d 9d35 6a3d caf0 2f3f
000001e0: 98d7 49be 9805 713c 2a15 9abd fc7d 22bf
000001f0: 94e3 79bd 6d30 0fc0 220b 463e 7bb4 ba3c
00000200: 38fc bdbd 6128 83bd 76be a7bb 716c 8abd
00000210: 4475 743b 2359 8abd 69ad a1bc 2be5 47bc
00000220: 4cba 1abc 7088 4b3d 09ad 853c b57a 17bd
00000230: 0a47 63bd 1ff9 50bc 1916 913d b185 a9bd
00000240: baff b6bd 20df b8bd 4ebb 853d bc46 c0bd
00000250: 92f9 633d 151c 79bd fb46 0b3d ffe7 a2bd
00000260: d71d 49bd f7dc a6bd 3b35 7fbd fccd 03bd
00000270: 2c8f 9a3a 4837 983c ebb9 c8bd 3cea b6bc
00000280: 7eab 10bd 9f00 833d d64e bfbd 78fd 84bd
00000290: 1f31 b9bd 86a0 87bc 502f e8bc eec0 65bd
000002a0: 0243 9cbd 15a3 0cbd 393a 11bd 7ab6 643d
000002b0: 88e2 b1bd 1672 24bd f3f1 7d3d 1218 a1bd
000002c0: 5d52 3bbc cab8 333d 5f24 1d3d 21f9 fbbc
000002d0: 555b 31bd 29e0 00bd 1085 6abd 9676 9dbd
000002e0: c6c2 2bbd a989 b1bc 73e5 5abb 8d81 f1bc
000002f0: e061 273c 470d c23c 1ef4 273c a5f3 4cbd
00000300: bfc3 ff3c bf48 9bbd 78ff 0cbc 5863 4d3d
00000310: 9967 0e3b 8c2d d5bc 1c26 d8bd d11f 00bb
00000320: e395 673d b151 dbbd 098d c93c 9fa6 6c3d
00000330: 28ce 993d d5ea 0abd 62c5 38bd 19f1 aebd
00000340: 106c 513d 722b a2bd fa55 68bd d66e 2fbd
00000350: 2c8e 9f3d e03c 70bd 541b a5bd 8e9f adbd
00000360: 9c46 f2bc 207d 6dbd ae41 63bd 5f9f 5e3d
00000370: 8321 f5bc 3878 71bd 4fc6 64bc b621 513c
00000380: 2a20 dfbd 1b68 2abd 33a3 52bd 3259 84bd
00000390: 8b13 8bbd e814 a93c c875 8dbd 2753 10bd
000003a0: fb49 613d 79be f43c bd5c 363d 92eb 39bc
000003b0: d9ad 473d 0e7d 97bd d1ea b3bd 5147 a33c
000003c0: c93e 203d c79c 56bd b5b5 d8bc 6ba7 693d
000003d0: b74b 73bd d293 3f3d 0f88 0c3d 9a71 36bc
000003e0: b3a7 c9bd a340 373c 1680 1bbd 8fff b73d
000003f0: 1cc8 b4bd bc86 bc3c 97b3 ea3a 1e74 54bd
0.1692287 0.6715994 1.1150477 0.29899135 0.38686407 -0.30477533 -0.03534795 -0.16122577
-0.36139566 0.48388976 -0.4617694 0.38184944 0.19542895 0.05125369 0.261947 0.32898173
-0.045623723 -0.22305241 0.18102579 -0.30439922 -0.12525894 0.10667997 -0.3361906 0.4294071
0.17165765 0.028374271 0.40598032 0.31056356 0.5420744 -0.74581105 0.5235825 -0.062082957
-0.7800405 0.5064392 0.33171424 0.13649929 0.3738414 -0.014202886 0.013181359 0.29335976
0.2526381 -0.7472499 -0.19714493 -1.0822318 0.2616668 0.07084826 -0.54675144 -1.235033
0.22706772 0.1886551 0.048625343 0.87865114 0.13397872 0.6039113 0.033892687 0.2655386
0.394977 -0.65805 -0.2618898 1.0291462 -0.3069747 -0.106638394 -0.019038567 0.4595234
0.31501868 -0.72231203 0.089166604 -0.31713408 -0.6242519 0.44965416 -0.17954136 -0.26725674
0.31461424 -0.0876469 0.03467777 -0.11798413 0.17131688 -0.0015530542 0.19037338 -0.21489555
-0.06646101 -0.88991755 0.70152277 -0.029454032 0.09641776 -0.09468835 0.15038058 0.13311844
-1.0959852 0.1207652 0.046651635 0.36317718 0.11848502 0.057794012 -0.06693651 0.15529542
-1.8869106 -0.05737566 -0.09849645 0.021985462 0.31463292 0.40606385 0.19182639 0.6367418
-0.15277077 0.15814212 0.07377611 0.07185539 -0.3027439 -0.19788525 0.103695795 -0.06264404
0.78015816 0.7107727 1.3771982 -0.5622744 -0.016795805 0.069282696 0.057180036 0.6872679
-0.19711149 0.014710806 -0.07523568 -0.63473487 -0.06100805 -2.2373307 0.19340184 0.022791138
-0.092766225 -0.06404186 -0.0051191403 -0.06758965 0.003730134 -0.06755283 -0.019736009 -0.012200634
-0.009443831 0.049690664 0.016317861 -0.036982257 -0.05548767 -0.012754708 0.07084293 -0.08277453
-0.08935495 -0.09026933 0.06529866 -0.093884915 0.05565793 -0.060817797 0.03400324 -0.07954406
-0.049100723 -0.081476144 -0.062306624 -0.032178864 0.0011791936 0.018581048 -0.09801086 -0.022328489
-0.035319798 0.06396603 -0.09341209 -0.06493658 -0.09042572 -0.016556036 -0.028342873 -0.056092195
-0.07629968 -0.034335215 -0.035455916 0.055838086 -0.086857855 -0.040147863 0.06199832 -0.07865919
-0.011433211 0.0438774 0.038364764 -0.030758442 -0.04329999 -0.031463776 -0.057255805 -0.07688634
-0.041933797 -0.021672087 -0.0033400923 -0.02948072 0.010216206 0.023687972 0.010251073 -0.050037045
0.031221269 -0.075822346 -0.00860583 0.05014357 0.002172923 -0.026022695 -0.10554144 -0.0019550214
0.056539427 -0.10708941 0.024603384 0.05777609 0.07510024 -0.03391536 -0.045110114 -0.085420795
0.051128447 -0.07918443 -0.05672262 -0.04283031 0.07790789 -0.058651805 -0.08061853 -0.08477698
-0.029574685 -0.057980657 -0.05548256 0.054351207 -0.029923206 -0.05895254 -0.013963296 0.012764385
-0.10894807 -0.04160319 -0.05142517 -0.06462325 -0.06790837 0.020639852 -0.069072306 -0.03523555
0.055002194 0.02987598 0.044522036 -0.011347668 0.04874978 -0.07396899 -0.08785022 0.019931467
0.039122377 -0.05239561 -0.026453832 0.057044428 -0.05939838 0.04677183 0.034309443 -0.011135483
-0.09846439 0.011184844 -0.03796395 0.08984291 -0.0882723 0.023013465 0.0017906305 -0.05186855

model.model.model.2.bias f4 [128]
00000000: b55f f2bc cfee a2bd 097a 90bd 7113 9e3d
00000010: b34f 253c 6184 183e ab29 823e 0321 013e
00000020: e004 abbd 8798 96bb 2559 843e 7447 053e
00000030: 153d 603e e089 1a3d 9af7 acbd a175 673d
00000040: e881 be3d 8837 833d eec6 2bbd 4bbb b3ba
00000050: dd83 9ebd e208 7d3d 7116 78bd 06de c0bc
00000060: 9b9c 7d3e fe2c 88bd a757 cabd d6c5 80bd
00000070: 84a0 903e 0544 e73b 8591 f5bc 0bd8 fc3d
00000080: cbab 1bbd 5fef 923c 2cd9 a33d ac2e 613c
00000090: 50df 31bd 0c04 09bd 3502 97bd 4d6f 85bd
000000a0: ee9f 3b3d d373 e43d c98c 453d 3fbd f33e
000000b0: bf2f 33bd 5bd1 143e 9584 543b 54b3 da3d
000000c0: 6833 923d 7d40 483e 7e12 3f3e 78fb 063f
000000d0: 5993 a5ba 52b7 a8be 7bab 04bd efac 46bd
000000e0: 89e1 4b3d 8866 7abd 1621 003e 42da 21bb
000000f0: cc39 b0b9 72ea 8cbc 231a 833d 6346 bf3d
00000100: d5e7 133e aba5 e03b fa6f 533d 83e3 1dbd
00000110: 4368 ea3e 906f 5c3e 3e45 753d d8cb 4fbd
00000120: d911 853c ed52 8e3d f947 153a 4bdc 813d
00000130: e7ad cd3c b6a3 1f3e e34d ea3d ec74 c13d
00000140: 6bf8 74bd 1051 febc e20d b3bd fb22 05be
00000150: fa28 013a fa16 f2b9 d60a 8ebd 0478 babc
00000160: f769 b93d 1066 be3d 916b 9cbc 9325 273e
00000170: a716 233c 9466 f03d fee6 783d e1c3 453d
00000180: 435c ccbd 964a 703d 0c1e 3f3d 9bb1 cc3c
00000190: e909 e63a e4c3 103d ad31 a03c 8a64 b13c
000001a0: a82d 8e3d 7b85 533d da03 adbe 8efa 0f3f
000001b0: 01fa 2bbd 868a 363d 8c41 c83c 150d 1abc
000001c0: c07c ce3d eba3 2f3e c9fc 75bd b84d 10bd
000001d0: b619 24bc 3265 76bd 2b4e 7bbd 271a 0ebd
000001e0: 3d7d 74bd 5d9b 8d3c c3ac 903d 759f c53e
000001f0: 011c 333c 3dea 73bd 693f a33e 407e d73e
-0.029586652 -0.079557054 -0.07054526 0.07718552 0.010089803 0.14894249 0.25422415 0.12610249
-0.08350539 -0.0045958194 0.25849262 0.13015538 0.21898301 0.037729144 -0.08445664 0.056508664
0.093021214 0.06407076 -0.04193776 -0.0013712434 -0.07739995 0.06177605 -0.060568277 -0.023543369
0.24766771 -0.066492066 -0.098799996 -0.06287734 0.28247464 0.007057669 -0.029976616 0.123458944
-0.03800563 0.017936407 0.080004066 0.013744038 -0.043425858 -0.033451125 -0.07373468 -0.065153696
0.045806818 0.11154904 0.048229966 0.4760532 -0.043746706 0.14532988 0.0032427658 0.106787354
0.07138711 0.1955585 0.18659398 0.5272746 -0.0012632414 -0.32952362 -0.0323901 -0.048504766
0.049775634 -0.061132938 0.12512621 -0.0024696742 -0.00033612398 -0.017201636 0.064014696 0.09339597
0.14443906 0.0068556867 0.05162046 -0.03854705 0.4578267 0.21526933 0.059880488 -0.05073151
0.016243862 0.069494106 0.00056946237 0.06340846 0.025107337 0.15589795 0.11440637 0.09446129
-0.059807222 -0.031044513 -0.08742882 -0.13001625 0.00049270655 -0.00046174956 -0.069356605 -0.022762306
0.09053414 0.092968106 -0.01909426 0.16322927 0.009954131 0.11738315 0.060767166 0.048282508
-0.09978535 0.05866488 0.046659514 0.024987033 0.0017550561 0.035343066 0.019554937 0.021654386
0.06942302 0.05164097 -0.33792 0.5624169 -0.04198647 0.0445657 0.024445318 -0.009402533
0.10082388 0.17152373 -0.060055528 -0.03523037 -0.010015896 -0.0601551 -0.061353844 -0.03469291
-0.05968975 0.017285997 0.07064202 0.3859822 0.01093197 -0.05954956 0.31884316 0.4208851

model.model.model.4.weight f4 [4, 128]
00000000: 463c 39bf eb75 1a3d 517b 003f a191 ddbf
00000010: 5c65 51bf 6e38 dbbe b320 31be 529a 313e
00000020: 3216 e13c d176 693f 6e58 bb3f 0ee1 b0bc
00000030: 02a5 22bf 16ba d6be 6190 80bd c2f1 2bbf
00000040: dd74 cdbe 7ded 0cbf d978 ceba 532c 40bf
00000050: c740 b9bd b18c 1abf fa3d 8a3c d8ec 033d
00000060: 9520 b33f c823 6bbe e6f7 a93d d8bb 283d
00000070: 7279 44bf aad8 7e3e 6beb 27bf 72fb febe
00000080: 43a4 373d 79d0 463d fe48 f73f 4de0 8ebd
00000090: dc61 0abf 5214 74bf fbda 8e3d 2366 29ba
000000a0: 5192 1bbf d47c bebf 41d7 b4be 5d2a 1b3f
000000b0: 93a2 4cbf 57f0 d0be ac6d 02bd 34cf 21bf
000000c0: 8553 e7be 05ef f73f a327 413e a0d7 913f
000000d0: 2f1e d1be 40f1 57bf 08f8 0abd e996 47bf
000000e0: 8a6a 2cbf d84b 6dbf be76 bdbd f632 773c
000000f0: b1b1 abbf 8c31 c83b e03d 763c 1da1 10bf
00000100: cba5 c6be 9b05 3dbf bed1 8fbe c5f0 ecbc
00000110: b604 763f 3b63 a7bf 2d50 6fbf 5a9b 7abf
00000120: 09d8 dfbe 5773 b9be 4a1c c9bb cbed 5ebf
00000130: 4659 5ebf f586 813e e830 5ebf 25ba c13e
00000140: bf37 a13a e965 b63c 188f b13d 50e2 d0bf
00000150: 8471 26bf eaa7 82bf 7386 6dbf f90d b4bf
00000160: 39a4 2240 2794 0bbf ecb7 aebd 8ce5 8bbe
00000170: 7b56 d0bf b031 21bf 47c3 c0bf 11b0 4dbf
00000180: e5f3 e6bc e742 27bf aa8f debe 5ec9 71bf
00000190: 1b5a 5e3a 11d1 a5be 3327 73bd 6a62 4fbf
000001a0: bcf9 06bf fff4 38bf 6d27 65be 0146 943f
000001b0: c000 63bd ffae b8bb e059 7bbf 49bf 40bf
000001c0: 90e3 babe c086 b0be c961 643d e27b 87bf
000001d0: e101 3fbf 98ac 4a3d c89b 6d3d 82bd 34bf
000001e0: 722a ae3d aaef 42bf aaca 6dbf a804 f63f
000001f0: ef1c 65bf e9c6 57bf bc10 d93e 4ef9 d93f
00000200: 23b2 0cbf 1bac dbbb effa 3fbe 25ad 3fbe
00000210: 6530 95bf 5df3 2ebf 93ac 68bf e755 0dbf
00000220: bdc8 c73b 970b 9a3f d50f 9e3f a4c4 0c3f
00000230: 980a 26bf af6a c83d a8f4 683d 355a 55bf
00000240: 4fd0 55bf 2eac 90bf acdf 2e3d 272d 85bf
00000250: b032 703c c661 c7be f76b 5fbd c129 a6bd
00000260: 4d67 993f bf1e e73e cbca fdbc 96f8 89bc
00000270: 4fa9 ab3e 6ee6 4dbe 1c90 19bf 26e8 2ebf
00000280: e6f2 973d 499f cabc a9c5 743f 3e10 22bd
00000290: 0833 9abe 95a6 11be 970b b3bc c397 4bbd
000002a0: 0f01 22bf 7a00 10bd 2f75 2abf 0632 6b3f
000002b0: 7276 39bf 0ec7 55be 6c20 de3c ebed adbe
000002c0: c5e2 0abf f9d4 e63f 1d6c 053f 8ea4 7d3f
000002d0: b05a b5be bff4 e4be a742 a4bb fc26 55bf
000002e0: db94 16bf 5793 88bf 3fb9 42bf b601 48bd
000002f0: af31 b5be f2ab a4bd 43dd bbbd 62e7 fabe
00000300: 0f09 26bf 4730 4ebf 1e21 22bf 216c fbbc
00000310: 2152 143f f5eb 393d c581 c2be f3f2 9dbf
00000320: 6475 00bf 7130 6ebf 8f06 9b3c 7f93 22bf
00000330: fe0f fa3c 2806 f13e f5ef 44bf ef3f 8d3f
00000340: b220 403d 9498 e13c 714f 8a3c ff6a cb3e
00000350: d803 85be f827 8bbf be12 cabe 7a0a a2be
00000360: f807 f43f 06ef efbe e834 f0be 2348 ffbf
00000370: 2497 5cbf a2f8 20bf 0319 113f a79e 5cbf
00000380: e08c 6e3c 42cb d5be ea0c 2bbf b3ff cb3f
00000390: 850d 40bb d35e 00bf e612 40bd 2eb6 47bf
000003a0: 0c3d 00bf cc34 24bf 955b 5cbe 1167 8a3f
000003b0: ffb6 b73c 99cf c8bd b076 74bf 3531 38bf
000003c0: 7a55 0cbf 2ca6 d6be 26e6 9abc 8a03 8bbf
000003d0: 8978 00bf d6f1 6fbc f2d0 9bbd 4965 4fbf
000003e0: 2155 663e 94a6 fabe 399c 7abf 7eab ab3f
000003f0: 5a98 75bf 8c08 09bf a1eb 5cbf 00a1 f13f
-0.72357595 0.03771011 0.50188166 -1.7310067 -0.8179529 -0.4281649 -0.1729763 0.17344025
0.027476404 0.91196924 1.4636362 -0.02159169 -0.6353303 -0.41938847 -0.06277538 -0.6716577
-0.40128222 -0.5504988 -0.0015752568 -0.75067633 -0.090455584 -0.6037093 0.016875256 0.032208294
1.3994318 -0.22962868 0.08299236 0.041194767 -0.7674781 0.24887338 -0.65593594 -0.49801213
0.044834387 0.04853866 1.931915 -0.06976376 -0.5405557 -0.95343506 0.06975361 -0.0006462058
-0.60770136 -1.4881845 -0.35320476 0.60611516 -0.7993557 -0.40808365 -0.031842873 -0.6320679
-0.45180908 1.9369818 0.18862776 1.1393929 -0.4084334 -0.84352493 -0.033927947 -0.77964646
-0.67350066 -0.92693853 -0.09251164 0.015087834 -1.3413602 0.006109422 0.015029401 -0.5649584
-0.38798365 -0.7383668 -0.28089708 -0.028923402 0.9610094 -1.3077158 -0.93481714 -0.978933
-0.4371951 -0.3622081 -0.0061374055 -0.87081593 -0.8685497 0.25298277 -0.86793375 0.3783733
0.0012299939 0.022265391 0.08669871 -1.6319065 -0.6501696 -1.0207493 -0.9278328 -1.4066764
2.5412734 -0.5452294 -0.08531174 -0.27323568 -1.6276392 -0.6296644 -1.5059594 -0.8034678
-0.02819247 -0.6533646 -0.43468982 -0.94447887 0.00084820547 -0.32386068 -0.059363555 -0.8100954
-0.52724814 -0.72248834 -0.22378321 1.1583863 -0.055420637 -0.0056360955 -0.98184013 -0.7529188
-0.3650174 -0.34477806 0.055757318 -1.0584681 -0.7461224 0.049481004 0.058009893 -0.70601666
0.085041896 -0.7614695 -0.92887366 1.9220171 -0.89497274 -0.8428789 0.4239558 1.7029207
-0.54959315 -0.006703866 -0.18748067 -0.18718393 -1.1655394 -0.6834009 -0.9088833 -0.552092
0.006096928 1.2034787 1.2348582 0.5498755 -0.64859915 0.09785973 0.056873947 -0.8334077
-0.8352098 -1.1302545 0.04269378 -1.0404404 0.014660522 -0.38941783 -0.054546323 -0.08113433
1.198465 0.45140645 -0.030980488 -0.016842168 0.3352761 -0.20107433 -0.5998552 -0.6832298
0.07419376 -0.024734156 0.95614105 -0.03956627 -0.3011706 -0.14223702 -0.021856112 -0.049705278
-0.63282865 -0.035156704 -0.6658506 0.91873205 -0.7244636 -0.20876715 0.02711507 -0.3397058
-0.5425227 1.8033744 0.5211809 0.99079216 -0.35420752 -0.44717976 -0.0050128284 -0.8326261
-0.58820885 -1.0669965 -0.76063913 -0.048829757 -0.35389468 -0.080406085 -0.09173062 -0.49004656
-0.6485757 -0.80542415 -0.6333178 -0.030691208 0.5793782 0.04539104 -0.3798963 -1.2339767
-0.50179124 -0.93042666 0.018924026 -0.6350631 0.030525204 0.4707501 -0.76928645 1.1035136
0.04690618 0.027538575 0.016883584 0.3973007 -0.25979495 -1.0871572 -0.39467424 -0.31648618
1.9064932 -0.46862048 -0.46915364 -1.9943889 -0.8616812 -0.62879384 0.5667879 -0.86179584
0.014559954 -0.41756636 -0.6681658 1.5937408 -0.0029304933 -0.5014469 -0.046893023 -0.7801236
-0.5009315 -0.6414306 -0.21519311 1.0812703 0.022426127 -0.09805221 -0.954936 -0.71950084
-0.54817927 -0.41923654 -0.018908571 -1.0860455 -0.5018392 -0.0146450605 -0.076082125 -0.81013924
0.22493412 -0.48955214 -0.97894627 1.341171 -0.95935595 -0.53528666 -0.8629704 1.8877258

model.model.model.4.bias f4 [4]
00000000: 9993 343e 1b30 c73c 5891 373e 2c78 4fbd
0.17634429 0.02431493 0.17926538 -0.050651714

model_old.model.model.0.weight f4 [128, 8]
00000000: aacb e9be 463e 283f dac8 c13e 38cb 3d3f
00000010: 4036 0a3f d9d9 8a3e 9afb 763f 4801 cfbe
00000020: e864 6bbe 66bd 17c0 bcef f3bf 8a8b 303f
00000030: 1c39 5b3f 1195 c3bf 1568 3d3d 70af 533e
00000040: 71ec 153d 2da4 0cc0 2446 1e40 0a4f 2840
00000050: 86aa 8cbe cb36 433f 4765 dfbd 88e6 c53e
00000060: 08a2 0c3f b80b 02c0 f5f7 053f 91ea c6bf
00000070: 82eb 04bf a7cc abbd 8065 93bd af68 7e3e
00000080: 5d79 843f 34b8 5ac0 346b 95bf 9127 453f
00000090: 56e6 62bf 6e21 02bf bb3d 3f3e 6da2 183e
000000a0: 993f 5abe e827 1fbe 83d0 823f e5b6 debe
000000b0: c141 39bf d9d6 053f 16a9 d83e 5d2e ad3e
000000c0: 5aab 833d 6a27 04c0 8b38 253f d900 aebf
000000d0: adfe 87bf f8e8 8fbf e051 af3e ea18 933d
000000e0: 8559 e0be e609 293f 68a6 0fbe 8f86 91be
000000f0: 44b4 133d 5c3a 22be b49c 0d3f 7c2b 82be
00000100: 846f 01bf a379 15bf 1f47 b63d 4af7 12bf
00000110: 970f 02c0 f21a 293f 1382 1f3e 7d6e 8bbe
00000120: be60 773e e40b 0ebf adbb 46bf c868 0c40
00000130: 8965 a9bf e92e 2cbf 09aa 183e 1883 793e
00000140: 9fa6 583f 4fdf ac3e b829 7ebe d35d 7f3e
00000150: 3c22 b83e 3bfd 203d 98e5 8d3e 4075 0bbf
00000160: 1273 a73e 0913 82c0 fcf0 99bf 8349 e23d
00000170: 0dc0 1b3f dc5f 67bf 2e12 d43d f48b 0a3f
00000180: f007 243f ed54 18be b9f7 ddbe be48 453f
00000190: 6988 1b40 861d 04be 83aa 5cbe 6a19 063f
000001a0: a27c 35bf 42eb cebe 8820 183e 903c 79bf
000001b0: 6ef4 47bf 6f35 583e 0a16 48bf 93fe 32bf
000001c0: 9948 c4be 54fd 14bf 49d5 1bbf 0ccc 6abe
000001d0: f1b3 993f 3a84 4fbe d75c 33bd b27e 7f3e
000001e0: 4ea5 623e 7b23 94be c334 5b40 8cee f63f
000001f0: 27d8 bb3f 7033 083f 2a93 a43d 9eff d43b
00000200: ba35 7dbd 7478 0a3e c094 72bf 7876 013f
00000210: d592 393f 1735 4c3f 47f7 c9be d54c 193f
00000220: 4375 923e de8a 863e c827 61bf bf62 f2be
00000230: 4e1e a03e c03f 9b3e 5a51 1f3f d2e4 8f3e
00000240: 79a3 38bf 4fbb e0bc 6f44 b13d 12ed 883e
00000250: e5b5 f73e ff8c afbf 3179 cb3e 6b55 ff3c
00000260: b8be 1b3c 7f9a b03e d12e 62be 9561 30bf
00000270: d58d 2bbf ffa9 29bf 3da1 9bbe 9c60 903d
00000280: 4e83 e1be 49fe 3ebe e972 8e3e 6442 46be
00000290: 0bc5 57be e4d6 98bf ffda 283f 4b75 a6be
000002a0: 7a4a 6e3f a983 9fbd c37e 903e 73f8 50be
000002b0: 3bdd ab3a 20f3 c93e f6ce 083e bf11 9a3d
000002c0: 08b0 883d 2566 af3e 848d 88be 86f6 72be
000002d0: f275 763f dfb6 7f3f 4f05 3cbf b545 46be
000002e0: fac8 aebf 2e88 09bf d8ad 71bf 241e 46bf
000002f0: f35a d93f 1142 9e3f 1e6c 573e bf49 473e
00000300: 7a51 1f3f ee18 7ebf 9f67 fcbf 2ed2 0a3f
00000310: 9985 3540 cd84 52bf 0517 47be 000a 993e
00000320: dc0c 1fbf 28a8 023f c306 9ebe 56ac 8abf
00000330: 2c3c 443f ab8d aa3e 2574 b43e e59e b0be
00000340: 88e0 de3e caea 3ac0 2701 10bf 756e 10bf
00000350: 813a 1a3f b4c6 a03e a226 4a3e 6e95 103e
00000360: 2a75 a3be c0a4 ecbf 9f89 9fbf 0171 a9bf
00000370: 191c f63f 0629 933e ad26 01bd f71b 093e
00000380: 1f6b 3ebf fbba a9bd a488 3f3f 7fcd 29be
00000390: e69f 893f c3fe 063e a869 71be 416c f43d
000003a0: 7130 13bf d834 06bd e53a 6a3f acd5 1dbf
000003b0: cd30 b93f 4e22 e63e dd6b 2ebd 6e45 70be
000003c0: 2394 babe 858b cabc 8b66 4cbb 03b2 ecbe
000003d0: cd16 043f a419 ad3f bbaf 46be 676a ebbe
000003e0: a987 163f f17c 053f b9f8 64bd aee0 70bf
000003f0: b3fb 8ebe 1b64 0bbe 736a 173d 4694 1cbf
-0.45663196 0.6572002 0.3784855 0.7413821 0.5398903 0.2711933 0.96477664 -0.40430665
-0.22987711 -2.370935 -1.9057536 0.6896292 0.85634017 -1.5279866 0.04624184 0.20672393
0.03660244 -2.1975205 2.473031 2.6298242 -0.2747385 0.7625548 -0.10907989 0.38652444
0.5493474 -2.0319653 0.5233148 -1.5540334 -0.51921856 -0.08388644 -0.07197094 0.24844621
1.0349537 -3.4174929 -1.1673341 0.770135 -0.88632715 -0.5083226 0.18675892 0.1490571
-0.21313323 -0.15542567 1.0219883 -0.43498912 -0.7236596 0.52280957 0.42316502 0.33824435
0.06429167 -2.0649056 0.645394 -1.3594009 -1.0624596 -1.1242971 0.34242153 0.07182486
-0.43818298 0.6603073 -0.14028323 -0.28422973 0.036060587 -0.15842575 0.55317235 -0.254238
-0.50560784 -0.5838873 0.08900284 -0.57408583 -2.0322015 0.6605674 0.15576963 -0.27232733
0.24157998 -0.55486894 -0.7763012 2.1938953 -1.3234111 -0.6725908 0.14908613 0.24366415
0.84629244 0.3376412 -0.24820602 0.24938135 0.3596362 0.039304 0.2771423 -0.54475784
0.3270498 -4.0648236 -1.2026668 0.110491775 0.6083992 -0.90380645 0.1035503 0.541198
0.6407461 -0.14876147 -0.4335306 0.7706412 2.4302008 -0.12901887 -0.2154942 0.5238253
-0.708933 -0.40413862 0.1485616 -0.97358036 -0.78107345 0.21114133 -0.7815863 -0.699197
-0.38336638 -0.5819905 -0.6087232 -0.229294 1.2008039 -0.20265284 -0.04378971 0.24950674
0.22133371 -0.2893332 3.4250953 1.9291549 1.467534 0.5320349 0.08035882 0.0065001985
-0.061818816 0.13522512 -0.94758224 0.50571394 0.7248967 0.7976851 -0.3944647 0.5988286
0.2860509 0.26277822 -0.87951326 -0.47340962 0.3127312 0.30322075 0.6223351 0.28104264
-0.7212444 -0.027433066 0.08655631 0.2674337 0.48380962 -1.3714904 0.397409 0.03116866
0.00950592 0.3449287 -0.22088172 -0.688989 -0.67013294 -0.6627502 -0.30396453 0.07049677
-0.4404549 -0.1865169 0.27822044 -0.19361264 -0.2107126 -1.194058 0.6595916 -0.32511362
0.9308239 -0.07788784 0.28221712 -0.20407276 0.0013112196 0.39443302 0.133602 0.07522916
0.066742 0.34257618 -0.26670468 -0.23726854 0.9627372 0.99888414 -0.734456 -0.19362529
-1.3655083 -0.5372342 -0.9440589 -0.7738974 1.698088 1.2363912 0.21037337 0.19461726
0.622337 -0.9925679 -1.9719123 0.5422696 2.8362792 -0.8223389 -0.19442375 0.29890442
-0.62128997 0.51037836 -0.30864534 -1.0833843 0.76654315 0.3331121 0.3524486 -0.34496227
0.4353068 -2.9205804 -0.5625176 -0.56418544 0.6024552 0.31401598 0.197413 0.14119503
-0.31925327 -1.8487778 -1.2463874 -1.3237611 1.9227325 0.28742236 -0.031531025 0.13389574
-0.74382204 -0.08287617 0.7481787 -0.16582297 1.0751922 0.13183121 -0.23575461 0.1193471
-0.5749579 -0.03276524 0.91496116 -0.6165416 1.4468018 0.44948047 -0.042583335 -0.23463985
-0.36441144 -0.024724731 -0.003118905 -0.46229562 0.5159729 1.352345 -0.19402973 -0.45979616
0.5880075 0.5214377 -0.055901263 -0.94092834 -0.27926406 -0.13612406 0.036966752 -0.6116375

model_old.model.model.0.bias f4 [128]
00000000: 9142 013e ffd6 3dbe fc67 8cbe ceee 0bbe
00000010: 0f98 fdbd 17f7 35be 70b7 67be d2f6 2a3d
00000020: 9fd0 853e 58ca b8be 5712 d7bd 305e 28be
00000030: 9f5e 083e dea3 693e 071b 2c3f 3574 f6bd
00000040: 9228 b63e 0b85 e8be fc98 be3e 5edc b43d
00000050: db6f 9cbe 5110 373e 6762 213b ba18 49be
00000060: 7b44 a93e 4572 5cbc 6be5 04be c67e f3bd
00000070: 02b7 983e dff6 853d bbca 2cbe 0dd9 ee3e
00000080: a945 8c3d db06 2ebe fd7c 82be 1138 5abd
00000090: 0eb6 613e f507 c73e bea6 0e3f c774 99be
000000a0: 0d37 c33a be60 b1be efed bd3e ea7f 09be
000000b0: 247d 813e ca9a 80bc 890c 58be d0c9 6f3c
000000c0: 2937 e33e 0b17 993e c154 593e 46d3 3f3e
000000d0: a803 c33e 77a5 7bbe 0a59 17be 5270 9a3d
000000e0: 7176 893e 3de0 eabe b89f 543c 5a6d d2bd
000000f0: 3fe1 30bd 2966 f63d 3ad7 2b3f 2d2f b1be
00000100: f366 11bf a5e8 423b 06b5 073f f7a5 c7be
00000110: a3de dabe c60a 123e 38e6 123f f052 703d
00000120: ad81 e53e 9feb eabe 0982 353e 47ba 4d3e
00000130: da69 47be 1cd3 e83e 9aab 243e 0126 9f3c
00000140: 55e4 93be 1037 8f3d dbad ab3e 1b43 9f3e
00000150: 7a60 863d 43a3 d03e 95f7 9e3e 6787 9f3e
00000160: 4f51 ad3e b0e0 c43e f7e8 273f eaa7 2c3e
00000170: 6d57 d73e d393 bc3e 5835 3e3e 28d1 c83d
00000180: f7c4 0bbe d8e9 8e3e b0ab 273f b0cb 693e
00000190: 4354 833e 271a b5be 4c77 5d3e d9bd 09bf
000001a0: f60c 253e f6b7 ed3e bf24 3e3e 84b0 d23e
000001b0: b2d9 fa3d 4156 c83e 7588 ef3e bd84 c93d
000001c0: 8c50 01be 9fa6 1bbf e61e 30be fc86 1abe
000001d0: ae5b b0be 0229 ee3e f5ee 34bd 4999 aebd
000001e0: fd99 953d 79a8 003e 7335 323e 11e2 66bf
000001f0: 8d1b ce3e e1aa 473f 6bf8 e23d 34e0 5e3e
0.1262305 -0.18539046 -0.27423084 -0.13665316 -0.123825185 -0.17770039 -0.2262857 0.041739292
0.26135728 -0.36091876 -0.10501545 -0.1644218 0.13317345 0.22816417 0.6722874 -0.120338835
0.35577828 -0.45414004 0.37226093 0.08831094 -0.3055409 0.17877318 0.0024625303 -0.19638339
0.3306006 -0.013454978 -0.12978141 -0.118894145 0.29827124 0.065412275 -0.1687421 0.46649972
0.06849224 -0.16994803 -0.25485983 -0.053276125 0.22042105 0.38873258 0.5572318 -0.29971907
0.0014893726 -0.3464412 0.3709559 -0.13427702 0.25290787 -0.01569881 -0.21098532 0.014635518
0.4437802 0.29900393 0.21223737 0.18732938 0.38088727 -0.24574839 -0.1478006 0.07540955
0.26848176 -0.45874205 0.012977533 -0.102747634 -0.04318356 0.12031204 0.67125285 -0.34606305
-0.56797713 0.0029740718 0.53010595 -0.3899381 -0.42747983 0.14261922 0.57382536 0.058672845
0.44825497 -0.4588289 0.17725386 0.2009059 -0.19473973 0.45473564 0.16081086 0.019427301
-0.2888514 0.06992924 0.3353108 0.31105885 0.0656137 0.4074956 0.31048265 0.3115799
0.33851096 0.38452673 0.6558985 0.16860929 0.42058888 0.3683153 0.18575037 0.098055184
-0.13649355 0.27912784 0.6549635 0.22831607 0.25650224 -0.35371515 0.2162754 -0.5380531
0.16118225 0.46429414 0.18568705 0.41150296 0.12248553 0.39128307 0.46783796 0.09839771
-0.12628382 -0.6080112 -0.17199287 -0.15090555 -0.34444946 0.4651566 -0.0441732 -0.085253306
0.073047616 0.12564267 0.17403202 -0.901887 0.40255395 0.77995116 0.11082538 0.21765214

model_old.model.model.2.weight f4 [128, 128]
00000000: 78af 213e 299b 203f b5b7 8d3f 33e9 983e
00000010: 721b af3e cf89 9dbe 6c1c 40bd f747 2fbe
00000020: 92a8 c2be 868f db3e 876a f5be 5fc4 bc3e
00000030: 880a 433e 0059 873d d1ad 823e 731a a53e
00000040: eba6 59bd ab5c 65be 6d8d 2e3e 8214 a1be
00000050: ad1e 1abe cb5e ec3d b3c6 b5be 97e7 db3e
00000060: 4c28 1d3e 6dd6 e83c 0b01 d03e d32b a03e
00000070: 052a 093f 81a6 3ebf 41db 033f 814f 71bd
00000080: 004c 49bf aae9 003f 15ed a33e fa9d 093e
00000090: a7e7 bc3e 0768 a2bb f930 3f3c e233 933e
000000a0: 554c 913e e014 42bf a6c8 4ebe f906 8cbf
000000b0: d8de 823e 6813 823d fca4 0fbf 6202 9fbf
000000c0: 4a09 633e b8e7 353e 4dcc 7f3d 7aff 613f
000000d0: b42a 053e fd16 163f e324 1e3d 1452 853e
000000e0: d451 c83e d602 2abf 4217 86be d334 823f
000000f0: 5ede 9fbe fb1b e9bd 0ebb 2fbc 1925 fd3e
00000100: 199a b83e 7449 3abf 9ab8 b63d 7ef0 adbe
00000110: 312d 1ebf fb20 e83e 65f7 3abe 3e60 8dbe
00000120: bb7f a23e b52b 0ebe b030 ec3c 73c0 ccbd
00000130: 6550 293e c768 cb3b e03c 573e b369 63be
00000140: 00a1 1cbd 0df9 67bf 7b6a 313f 8863 21bd
00000150: 88a9 bc3d 6bfa bfbd 39d5 163e 35db 083e
00000160: 4939 8bbf 4988 013e a903 303d e82f b53e
00000170: aa31 ee3d 4b7f 583d 7788 73bd 90ba 183e
00000180: 789b eebf 9bd7 4fbd 458c bdbd bd0b 903c
00000190: da93 a63e cc2d d83e 8ced 543e 8301 233f
000001a0: 49d9 22be e46e 1c3e 6e7d 833d 85cf 993d
000001b0: 29b3 9ebe eb5a 49be 2214 cc3d 5d9b 90bd
000001c0: 7a41 463f 33f5 353f 2089 ac3f ee69 0fbf
000001d0: 9fbe e7bc 1f5b 873d 3b8e 1c3d 25b5 2b3f
000001e0: 0a83 4ebe c343 8f3b 0687 a0bd fc7d 22bf
000001f0: d316 81bd b83e 10c0 7960 413e 4b0e 0f3d
00000200: 38fc bdbd 6128 83bd 76be a7bb 716c 8abd
00000210: 4475 743b 2359 8abd 69ad a1bc 2be5 47bc
00000220: 4cba 1abc 7088 4b3d 09ad 853c b57a 17bd
00000230: 0a47 63bd 1ff9 50bc 1916 913d b185 a9bd
00000240: baff b6bd 20df b8bd 4ebb 853d bc46 c0bd
00000250: 92f9 633d 151c 79bd fb46 0b3d ffe7 a2bd
00000260: d71d 49bd f7dc a6bd 3b35 7fbd fccd 03bd
00000270: 2c8f 9a3a 4837 983c ebb9 c8bd 3cea b6bc
00000280: 7eab 10bd 9f00 833d d64e bfbd 78fd 84bd
00000290: 1f31 b9bd 86a0 87bc 502f e8bc eec0 65bd
000002a0: 0243 9cbd 15a3 0cbd 393a 11bd 7ab6 643d
000002b0: 88e2 b1bd 1672 24bd f3f1 7d3d 1218 a1bd
000002c0: 5d52 3bbc cab8 333d 5f24 1d3d 21f9 fbbc
000002d0: 555b 31bd 29e0 00bd 1085 6abd 9676 9dbd
000002e0: c6c2 2bbd a989 b1bc 73e5 5abb 8d81 f1bc
000002f0: e061 273c 470d c23c 1ef4 273c a5f3 4cbd
00000300: bfc3 ff3c bf48 9bbd 78ff 0cbc 5863 4d3d
00000310: 9967 0e3b 8c2d d5bc 1c26 d8bd d11f 00bb
00000320: e395 673d b151 dbbd 098d c93c 9fa6 6c3d
00000330: 28ce 993d d5ea 0abd 62c5 38bd 19f1 aebd
00000340: 106c 513d 722b a2bd fa55 68bd d66e 2fbd
00000350: 2c8e 9f3d e03c 70bd 541b a5bd 8e9f adbd
00000360: 9c46 f2bc 207d 6dbd ae41 63bd 5f9f 5e3d
00000370: 8321 f5bc 3878 71bd 4fc6 64bc b621 513c
00000380: 2a20 dfbd 1b68 2abd 33a3 52bd 3259 84bd
00000390: 8b13 8bbd e814 a93c c875 8dbd 2753 10bd
000003a0: fb49 613d 79be f43c bd5c 363d 92eb 39bc
000003b0: d9ad 473d 0e7d 97bd d1ea b3bd 5147 a33c
000003c0: c93e 203d c79c 56bd b5b5 d8bc 6ba7 693d
000003d0: b74b 73bd d293 3f3d 0f88 0c3d 9a71 36bc
000003e0: b3a7 c9bd a340 373c 1680 1bbd 8fff b73d
000003f0: 1cc8 b4bd bc86 bc3c 97b3 ea3a 1e74 54bd
0.15789592 0.62736756 1.1071688 0.29865417 0.34200627 -0.30769202 -0.046902105 -0.17117296
-0.38019234 0.42882937 -0.47932836 0.3686857 0.19046986 0.06608772 0.25523236 0.32246742
-0.0531377 -0.22398631 0.17046137 -0.3146096 -0.15050764 0.11541518 -0.35503158 0.42950127
0.15347403 0.028422559 0.40625796 0.31283435 0.5357974 -0.74472815 0.5150643 -0.05891371
-0.7863159 0.50356543 0.32016817 0.1343917 0.36895487 -0.0049562487 0.011669391 0.2875052
0.2837855 -0.758131 -0.20193729 -1.0939628 0.2556064 0.06351358 -0.5611112 -1.2422602
0.22171512 0.17764175 0.062450696 0.8828045 0.13004571 0.5862883 0.038609397 0.26039183
0.3912493 -0.6641058 -0.2618962 1.0172371 -0.3122434 -0.1138229 -0.01072575 0.49442366
0.36055067 -0.7276833 0.08921929 -0.33972543 -0.61787707 0.45337662 -0.18258436 -0.2761249
0.31738076 -0.1388386 0.02883181 -0.09997644 0.16534574 0.006207559 0.21019316 -0.2220829
-0.03823948 -0.90614396 0.693031 -0.03940156 0.09212023 -0.09373935 0.14729775 0.13364871
-1.0876857 0.12649645 0.04297224 0.35388112 0.116305664 0.05285577 -0.059456315 0.14914918
-1.8641195 -0.050742727 -0.0925527 0.017583722 0.32534677 0.4222244 0.20793742 0.6367418
-0.159032 0.15276676 0.06420408 0.07510284 -0.30996063 -0.19663589 0.099647775 -0.07060883
0.7744366 0.7107727 1.3479347 -0.5602101 -0.028289137 0.06609177 0.03822158 0.6707328
-0.20167175 0.0043720915 -0.07838254 -0.63473487 -0.063031815 -2.253828 0.18884458 0.03492574
-0.092766225 -0.06404186 -0.0051191403 -0.06758965 0.003730134 -0.06755283 -0.019736009 -0.012200634
-0.009443831 0.049690664 0.016317861 -0.036982257 -0.05548767 -0.012754708 0.07084293 -0.08277453
-0.08935495 -0.09026933 0.06529866 -0.093884915 0.05565793 -0.060817797 0.03400324 -0.07954406
-0.049100723 -0.081476144 -0.062306624 -0.032178864 0.0011791936 0.018581048 -0.09801086 -0.022328489
-0.035319798 0.06396603 -0.09341209 -0.06493658 -0.09042572 -0.016556036 -0.028342873 -0.056092195
-0.07629968 -0.034335215 -0.035455916 0.055838086 -0.086857855 -0.040147863 0.06199832 -0.07865919
-0.011433211 0.0438774 0.038364764 -0.030758442 -0.04329999 -0.031463776 -0.057255805 -0.07688634
-0.041933797 -0.021672087 -0.0033400923 -0.02948072 0.010216206 0.023687972 0.010251073 -0.050037045
0.031221269 -0.075822346 -0.00860583 0.05014357 0.002172923 -0.026022695 -0.10554144 -0.0019550214
0.056539427 -0.10708941 0.024603384 0.05777609 0.07510024 -0.03391536 -0.045110114 -0.085420795
0.051128447 -0.07918443 -0.05672262 -0.04283031 0.07790789 -0.058651805 -0.08061853 -0.08477698
-0.029574685 -0.057980657 -0.05548256 0.054351207 -0.029923206 -0.05895254 -0.013963296 0.012764385
-0.10894807 -0.04160319 -0.05142517 -0.06462325 -0.06790837 0.020639852 -0.069072306 -0.03523555
0.055002194 0.02987598 0.044522036 -0.011347668 0.04874978 -0.07396899 -0.08785022 0.019931467
0.039122377 -0.05239561 -0.026453832 0.057044428 -0.05939838 0.04677183 0.034309443 -0.011135483
-0.09846439 0.011184844 -0.03796395 0.08984291 -0.0882723 0.023013465 0.0017906305 -0.05186855

model_old.model.model.2.bias f4 [128]
00000000: 51a2 09bd cfee a2bd 097a 90bd 73b9 953d
00000010: a17f 1c3b 2419 103e ff8e 853e e7f7 ea3d
00000020: e004 abbd ec47 acba f27b 873e aecf 003e
00000030: bb88 603e 7423 193d 9af7 acbd d370 4a3d
00000040: b17d a43d e2f4 873d eec6 2bbd 5a03 813b
00000050: dd83 9ebd aa4b 653d 7116 78bd 06de c0bc
00000060: f534 753e 90c0 93bd a757 cabd d6c5 80bd
00000070: cd92 873e 0544 e73b fe9b d4bc dd13 043e
00000080: cbab 1bbd 5fef 923c 6936 a13d ac2e 613c
00000090: 2e52 86bd 5b2e 09bd 3502 97bd 4d6f 85bd
000000a0: d858 2d3d a679 dc3d c718 4c3d 8bfd ec3e
000000b0: 6dd8 2abd 4e97 153e 9584 543b e0d0 db3d
000000c0: 935c 893d b3ae 433e 61ab 3b3e 3541 063f
000000d0: c256 a7bb 2588 aabe 7bab 04bd 51b2 46bd
000000e0: 2a6e 393d 4195 76bd 8e9b f33d 42da 21bb
000000f0: a2ca 34ba 72ea 8cbc 231a 833d 2b3d c03d
00000100: 4b0a 113e 5855 9d3b 5596 363d 83e3 1dbd
00000110: a04f e83e 4672 563e e996 623d 41a2 28bd
00000120: 6d17 383c 37e4 973d f947 153a 97a9 6e3d
00000130: 9dbe fa3c c670 323e ea72 e93d 7f9e b33d
00000140: 6bf8 74bd 1051 febc e20d b3bd 3d88 0bbe
00000150: 837a 51bb 7657 ab3b be3d 90bd 8fbd a8bc
00000160: 3673 9f3d 2ea9 b43d 3a8f 78bc 4cff 323e
00000170: e05d e03b 0c4a eb3d ac0a 453d 9d3f 5c3d
00000180: 435c ccbd ccb4 803d 70ae 263d 1ba2 ca3c
00000190: e909 e63a ce7a a83c ad31 a03c a7c2 8d3c
000001a0: cdd7 883d 1d31 493d da03 adbe 76aa 0f3f
000001b0: 01fa 2bbd 868a 363d 33ed ca3c ffff 4abc
000001c0: 8b15 bc3d dc6e 2d3e c9fc 75bd 3089 f1bc
000001d0: 105f 84bc 3265 76bd 2b4e 7bbd 11f2 f8bc
000001e0: 5421 6abd 4549 133c d895 993d ee75 c53e
000001f0: 14b3 9a3c bdaa 86bd 962b 9d3e aafc d33e
-0.033602063 -0.079557054 -0.07054526 0.07310762 0.0023879784 0.1407209 0.2608566 0.11473065
-0.08350539 -0.0013143993 0.2646175 0.12579224 0.21927159 0.037387326 -0.08445664 0.049424004
0.08031786 0.066385046 -0.04193776 0.003937167 -0.07739995 0.055980362 -0.060568277 -0.023543369
0.23945983 -0.07214463 -0.098799996 -0.06287734 0.26479188 0.007057669 -0.02595329 0.12898202
-0.03800563 0.017936407 0.07871706 0.013744038 -0.06558643 -0.033491474 -0.07373468 -0.065153696
0.042321056 0.1076539 0.049828317 0.46287188 -0.041710306 0.146085 0.0032427658 0.10733199
0.0670711 0.19109611 0.18327095 0.5244325 -0.005106778 -0.33306995 -0.0323901 -0.0485099
0.045271076 -0.060200933 0.11894904 -0.0024696742 -0.000689665 -0.017201636 0.064014696 0.09386667
0.14164083 0.0048014335 0.04457696 -0.03854705 0.4537325 0.2094203 0.0553197 -0.041170362
0.011236054 0.074165754 0.00056946237 0.058267202 0.03060847 0.17425832 0.11398871 0.08770465
-0.059807222 -0.031044513 -0.08742882 -0.1362619 -0.0031963892 0.005228932 -0.070430264 -0.020598201
0.077856466 0.08821331 -0.015170867 0.174802 0.0068471283 0.11488733 0.04810588 0.053771604
-0.09978535 0.06284484 0.0406937 0.024735501 0.0017550561 0.02056637 0.019554937 0.017304732
0.06681786 0.049119104 -0.33792 0.5611948 -0.04198647 0.0445657 0.024771309 -0.012390136
0.091837965 0.16936821 -0.060055528 -0.029484361 -0.01615861 -0.0601551 -0.061353844 -0.030388864
-0.05716069 0.008989637 0.074992836 0.38566536 0.01888422 -0.065755345 0.30697316 0.41403705

model_old.model.model.4.weight f4 [4, 128]
00000000: a8b3 36bf eb75 1a3d 517b 003f 109b d8bf
00000010: 1675 52bf a4bb d8be b922 49be 032e 303e
00000020: 3216 e13c 57ad 6f3f 90ed b93f 782b ea3b
00000030: 7cd0 20bf 2d89 e4be 6190 80bd 3e5f 28bf
00000040: b49a d3be 81eb f8be d978 ceba 3e0a 35bf
00000050: c740 b9bd 7612 1bbf fa3d 8a3c d8ec 033d
00000060: dfaa b13f 302d 81be e6f7 a93d d8bb 283d
00000070: 849c 41bf aad8 7e3e 4902 29bf a031 d1be
00000080: 43a4 373d 79d0 463d c07c f63f 4de0 8ebd
00000090: ac21 11bf ddc7 71bf fbda 8e3d 2366 29ba
000000a0: 8654 18bf 4241 bcbf eae0 a2be 234e 183f
000000b0: 2697 48bf 6c58 d9be ac6d 02bd fdd0 1fbf
000000c0: cded e3be dd27 f73f 1e50 3b3e e9fd 8f3f
000000d0: 0327 e3be 52b8 51bf 08f8 0abd 5f3c 42bf
000000e0: af85 28bf 0ba2 5ebf 7079 b1bd f632 773c
000000f0: d986 aabf 8c31 c83b e03d 763c 7979 0dbf
00000100: dfb4 c0be 6d63 2dbf bc7c 8bbe c5f0 ecbc
00000110: 024d 753f 2865 a4bf bb02 6fbf 0a33 65bf
00000120: 115a dabe 12bd afbe 4a1c c9bb 88ee 5cbf
00000130: ab33 5fbf e740 053e 8042 5abf 1ea2 b83e
00000140: bf37 a13a e965 b63c 188f b13d 2851 cebf
00000150: d85c 24bf 4b62 6ebf 6332 6ebf 3e4f b4bf
00000160: 8f26 2040 6d5d 09bf 26a3 a1bd ff9a 5dbe
00000170: 0fa2 d0bf 5e74 1fbf c787 b6bf dda3 42bf
00000180: e5f3 e6bc 2d6f 22bf 7177 d9be 07ed 6fbf
00000190: 1b5a 5e3a d059 a3be 3327 73bd 60fb 41bf
000001a0: ed9a 03bf 7d63 37bf 6d27 65be f66d 933f
000001b0: c000 63bd ffae b8bb 1dcf 6dbf 0811 3dbf
000001c0: 80f8 b5be a93e a9be c961 643d 6f86 83bf
000001d0: 4743 3bbf 98ac 4a3d c89b 6d3d add2 2abf
000001e0: 8356 ad3d bb11 41bf 1a5e 5fbf bf2f f33f
000001f0: 1c0b 4ebf 090e 5abf af6b d03e 3bdf d83f
00000200: 2fa7 0bbf 1bac dbbb effa 3fbe dca2 37be
00000210: 1c22 95bf 8294 2fbf 1a06 66bf c7d3 0abf
00000220: bdc8 c73b 2dbe 983f df63 9e3f 72e3 043f
00000230: 5fec 2cbf 9d9d 7d3d a8f4 683d cff6 48bf
00000240: 3418 56bf 6087 8fbf acdf 2e3d 6752 85bf
00000250: b032 703c 24e2 cbbe f76b 5fbd c129 a6bd
00000260: 1928 993f 0cf5 e13e cbca fdbc 96f8 89bc
00000270: 56a7 b03e 6ee6 4dbe 8c56 1fbf bf3b 30bf
00000280: e6f2 973d 499f cabc 4a10 753f 3e10 22bd
00000290: 1d0f a2be 8ed2 13be 970b b3bc c397 4bbd
000002a0: 3145 22bf 56cc 9ebc 9301 2abf 14ab 6c3f
000002b0: 60eb 38bf 1a2d 6cbe 6c20 de3c 5429 abbe
000002c0: 240e 0bbf 954a e73f a582 053f 5352 803f
000002d0: 1741 b0be 2a6b d2be a742 a4bb 3e08 4fbf
000002e0: d8ba 15bf d6bc 87bf 6f7a 3fbf b601 48bd
000002f0: b36c cbbe f2ab a4bd 43dd bbbd 4ea3 04bf
00000300: a239 25bf a1f3 4dbf ebd0 22bf 216c fbbc
00000310: 38cf 143f 41e1 323d cfa8 c2be 5d75 9dbf
00000320: f99a 00bf e99f 6ebf 8f06 9b3c a1b2 21bf
00000330: bc1f b93c 2212 f43e 6dca 34bf 6001 8a3f
00000340: b220 403d 9498 e13c 714f 8a3c fea5 c93e
00000350: c845 94be 53f4 8abf 76f4 bcbe 7a0a a2be
00000360: 5bc7 e83f b5ac edbe 2263 04bf 6a63 00c0
00000370: 4cea 59bf 5062 26bf 26d2 123f 12a4 5bbf
00000380: e08c 6e3c 9007 d7be 2f4a 24bf fd0d c63f
00000390: 850d 40bb 276c 01bf e612 40bd 58a4 47bf
000003a0: 5bdd ffbe 23d5 21bf 955b 5cbe ce25 8a3f
000003b0: ffb6 b73c 99cf c8bd bcd5 73bf 4f75 37bf
000003c0: 14af 0dbf f4f9 e3be 26e6 9abc 6839 8abf
000003d0: 73fe 01bf d6f1 6fbc f2d0 9bbd ab33 4ebf
000003e0: b38b 6f3e 965f 07bf b0a4 79bf ad78 aa3f
000003f0: 55ab 74bf ee36 0bbf ba66 5dbf f567 f23f
-0.71367884 0.03771011 0.50188166 -1.6922321 -0.8220991 -0.42330658 -0.19642152 0.17205052
0.027476404 0.9362387 1.4525623 0.007146295 -0.6281812 -0.44635907 -0.06277538 -0.6577033
-0.41328967 -0.48617175 -0.0015752568 -0.70718753 -0.090455584 -0.60575044 0.016875256 0.032208294
1.3880271 -0.25229788 0.08299236 0.041194767 -0.7562945 0.24887338 -0.6601911 -0.40858173
0.044834387 0.04853866 1.9256821 -0.06976376 -0.56692004 -0.9444559 0.06975361 -0.0006462058
-0.5950397 -1.4707415 -0.3181222 0.5949423 -0.78355634 -0.42450273 -0.031842873 -0.62428266
-0.44517365 1.930904 0.18292281 1.1249362 -0.443657 -0.81921875 -0.033927947 -0.7587337
-0.65828985 -0.8696601 -0.086657405 0.015087834 -1.3322402 0.006109422 0.015029401 -0.5526348
-0.37637994 -0.67729837 -0.27243602 -0.028923402 0.9582063 -1.284337 -0.9336354 -0.89531004
-0.4264684 -0.34323937 -0.0061374055 -0.8630147 -0.87188214 0.1301304 -0.8525772 0.36061186
0.0012299939 0.022265391 0.08669871 -1.6118517 -0.6420417 -0.93118733 -0.93045634 -1.4086683
2.5023534 -0.5365818 -0.07892446 -0.21641158 -1.6299456 -0.6228694 -1.4260186 -0.76031286
-0.02819247 -0.6345089 -0.4247394 -0.9372105 0.00084820547 -0.3190446 -0.059363555 -0.7577419
-0.51408273 -0.7163618 -0.22378321 1.1517932 -0.055420637 -0.0056360955 -0.92894155 -0.7385411
-0.35541153 -0.33055618 0.055757318 -1.0275401 -0.7314953 0.049481004 0.058009893 -0.66727716
0.084637664 -0.7541768 -0.8725296 1.8998946 -0.804857 -0.85177666 0.40707156 1.6943125
-0.54551977 -0.006703866 -0.18748067 -0.1793322 -1.1651034 -0.6858598 -0.8985306 -0.54229397
0.006096928 1.1933037 1.2374228 0.51909554 -0.67548174 0.06191789 0.056873947 -0.785016
-0.8363068 -1.1213188 0.04269378 -1.0415772 0.014660522 -0.3982097 -0.054546323 -0.08113433
1.1965362 0.44132268 -0.030980488 -0.016842168 0.34502667 -0.20107433 -0.62241435 -0.68841165
0.07419376 -0.024734156 0.9572798 -0.03956627 -0.31652156 -0.14435789 -0.021856112 -0.049705278
-0.6338683 -0.019384544 -0.6640865 0.92448545 -0.72234154 -0.2306408 0.02711507 -0.33429968
-0.5431845 1.8069636 0.5215247 1.0025123 -0.3442466 -0.41097385 -0.0050128284 -0.8087195
-0.58488226 -1.0604503 -0.74796194 -0.048829757 -0.39731368 -0.080406085 -0.09173062 -0.51811683
-0.64541066 -0.80449873 -0.63600034 -0.030691208 0.5812869 0.04367185 -0.38019416 -1.2301441
-0.5023647 -0.93212754 0.018924026 -0.6316319 0.02259814 0.47670084 -0.7062138 1.078167
0.04690618 0.027538575 0.016883584 0.39384454 -0.2895949 -1.0855812 -0.3690526 -0.31648618
1.8185838 -0.46420828 -0.51713765 -2.0060678 -0.85123134 -0.6499376 0.5735191 -0.85797226
0.014559954 -0.41997957 -0.64175695 1.5473019 -0.0029304933 -0.5055565 -0.046893023 -0.77985144
-0.49973568 -0.63215846 -0.21519311 1.0792787 0.022426127 -0.09805221 -0.9524801 -0.71663374
-0.55345273 -0.44526637 -0.018908571 -1.0798769 -0.50778884 -0.0146450605 -0.076082125 -0.8054759
0.23393135 -0.5288023 -0.9751692 1.3318077 -0.9557393 -0.5438069 -0.86484873 1.8937975

model_old.model.model.4.bias f4 [4]
00000000: ae3b 2d3e 4ead d53c 2d69 373e 4964 36bd
0.16917297 0.026083615 0.17911215 -0.044529233
