rl_compexp/save/LL_hyper/LunarLander-DQN-128x2/dqn_best.pth (torch, 300766 bytes, 24 tensors)

model.model.model.0.weight f4 [128, 8]
00000000: 305b 85be e563 243f d945 753e 3ccf 3e3f
00000010: dadb 803e dfe9 643e 668a 6d3f b1c9 c5be
00000020: 256a a6bd b6b2 f9bf 1034 00c0 bb8c e93e
00000030: d4af 863f 2c7d cebf 4675 b0bc c442 523e
00000040: 1dd3 523c 7977 00c0 0da9 0540 f6b9 c83f
00000050: 07c0 8fbe fec1 4f3f 4628 12be 5648 ba3e
00000060: 590b 073d 804d d1bf 5f01 ff3e 70b6 91bf
00000070: 68df c5bd a7d1 bbbc b914 853d cbb9 603e
00000080: d1a9 243f 3de1 0fc0 b094 b0bf 3797 5a3f
00000090: da2b 3abf a1b0 09bf 6fd5 633e ef88 393d
000000a0: 2d16 d0bd 9e45 83be 8dcf 8c3f 4945 9bbe
000000b0: 4df8 71bf c554 f23e 8653 bc3e ce1e c53e
000000c0: 6824 9cbe bb5e aebf ed94 913e e73f a8bf
000000d0: df2f 80bf fb06 98bf 7697 cf3e cc46 04be
000000e0: 928c d6be 172c 1d3f af66 143d b04e 20be
000000f0: f269 f03d 81b8 8dbd 1591 033f b9ca 7ebe
00000100: 6cc4 a1be a2ad 97be 9664 72bd aec9 10bf
00000110: 4fdf d6bf 62ce 9b3e 238d eb3c ab45 7fbe
00000120: b1f4 663d 1643 25be 5088 a2be 0b18 0440
00000130: 182f 81bf c5a8 55bf e532 cf3d d7b9 603e
00000140: 21e1 6e3f 31ef 993e cc1c 81be 62aa 1b3e
00000150: 6259 173f 6ce6 c33d 04e3 c03e e0cd f6be
00000160: 8350 253d 313e 63c0 13b4 a3bf 2f6e 30bd
00000170: 1cf4 203f cb6d 38bf 1f8c 3c3e e794 0e3f
00000180: 7ed9 133f 3262 b03d 6a9c 803d e4b2 193f
00000190: 8746 d23f 71ab 1c3d 6ece 8cbe 8788 003f
000001a0: 07e8 62bf 728a 3bbe f1da 923e 7bed 41bf
000001b0: 94c4 2dbf 14fc b8bd 1671 04bf 2340 27bf
000001c0: 630a 78be 868e 1dbf 8f68 21bf 8309 7bbe
000001d0: a992 783f b62a 413c 2ab4 4a3c 21cb 733e
000001e0: 9067 7b3e dfb6 b5be f2e4 5740 2a6e 9e3f
000001f0: 83c7 a83f db5c 353f 2563 563d b3d3 1b3c
00000200: 37cb e0bd 4691 1f3e d75b 18bf 59bc d33e
00000210: 0eae c53e e954 643f 933c d5be 1c0b 1a3f
00000220: 1291 e93e 42e5 833e 197b 87bf 3215 d6be
00000230: 6dd4 093d 3976 d73e 7c88 0f3f 272f 2e3e
00000240: 4cc7 14bf 8fbf 96bd d121 023e 82f6 ad3e
00000250: c4c8 6b3e 7a0d 91bf 5861 a23e 0ac6 6bbd
00000260: 7823 a5be c204 b23e 78df c5bd b6cc 19bf
00000270: 2e5c 02bf e01b 1dbf 52d6 29be ec57 533e
00000280: d3cb d7bd 8fb3 863d a059 233e fc2a 88bd
00000290: 916c a2bd 2bbd 92bf c29a 053f 203b 08bf
000002a0: 560d 3d3f 965a 7dbd cd86 0d3e 2937 5abe
000002b0: 9e32 793e f95b 973e 8fce 4c3e e073 143e
000002c0: 293d 5abe 68aa 953e e533 18bf 3295 89be
000002d0: 36ca 6b3f c37e 3e3f c08d 69bf e0ae 89be
000002e0: 3210 97bf ff29 46bf 8556 59bf f461 57bf
000002f0: 1e07 be3f 8236 a63f 6297 3a3e 0b01 243e
00000300: b178 dd3e ac9f 2ebf adbf bbbf 6c80 5f3e
00000310: 5fec 0940 206e 2cbf b1d8 5bbe 171a 893e
00000320: b395 25bf 93d6 f23e 29af 59be bc9f 7bbf
00000330: 5078 4e3f 02b5 0b3f 1a78 b23e 41cc b6be
00000340: c342 4a3e 3015 2cc0 c1c1 2dbf 6369 01bf
00000350: 94f6 173f 745f 9c3e 7e7b 543e d8bc 5b3e
00000360: 2479 98be 97e8 b6bf 1b03 a0bf c629 bbbf
00000370: 0db6 e53f 4be5 2abd 0b50 86bd bcf6 473e
00000380: 921c 17bf 638b 02be 8c58 353f 4cc4 7cbe
00000390: ca8f 623f 322c 883e 151e 95be 9c36 473d
000003a0: 18d0 f2be d512 b83c 7f7d 4c3f d5e4 2dbf
000003b0: 2be5 b63f e08b a73e f3cc 6ebd 2246 05bf
000003c0: f691 dcbe 70df e83c 9773 a63e 37af 77be
000003d0: d500 7d3e 1a7f b53f a492 51be 4d04 b6be
000003e0: 5595 913d 5800 013f b55f 38be 6247 5cbf
000003f0: a857 203f 8d7b 3d3d 784a d83d 1c3d 35bf
-0.26046133 0.64214927 0.23952426 0.74534965 0.25167733 0.2235484 0.92789304 -0.3863044
-0.08125714 -1.9507663 -2.0031776 0.4561518 1.0522408 -1.613195 -0.021540295 0.20533282
0.012867716 -2.007292 2.088443 1.5681751 -0.28076193 0.81155384 -0.14273176 0.36383313
0.032969806 -1.6351776 0.49805734 -1.13838 -0.09661752 -0.022927118 0.06498093 0.21945874
0.6432162 -2.2481225 -1.3795376 0.85386986 -0.7272316 -0.5378514 0.22249387 0.045296606
-0.1016048 -0.2563905 1.100084 -0.30326298 -0.945195 0.473303 0.36782473 0.38500065
-0.30496526 -1.362266 0.28433934 -1.3144501 -1.0014609 -1.187713 0.40545243 -0.12917632
-0.41904122 0.613954 0.03623074 -0.15655017 0.117389575 -0.06919957 0.5139325 -0.2488202
-0.3159517 -0.2962466 -0.059177957 -0.5655774 -1.6786898 0.30430895 0.028753823 -0.2492892
0.0563857 -0.16138873 -0.31744623 2.0639675 -1.0092497 -0.83460647 0.10117129 0.21945892
0.9331227 0.300653 -0.25217283 0.15201715 0.5912076 0.09565434 0.376732 -0.48203945
0.040359985 -3.5506709 -1.2789329 -0.04307383 0.6287248 -0.7204253 0.18412827 0.55695957
0.5775374 0.08612479 0.062798336 0.6003859 1.6427773 0.038249437 -0.27501243 0.50208324
-0.88635296 -0.18314531 0.28682664 -0.7575299 -0.6787808 -0.09032455 -0.51735055 -0.6533224
-0.24222712 -0.615456 -0.6305017 -0.24515347 0.97098786 0.011789968 0.012372056 0.23807956
0.24551225 -0.35491082 3.3733487 1.2377369 1.3185886 0.7084481 0.052340645 0.009510922
-0.1097626 0.15582761 -0.59515136 0.41354635 0.38609356 0.8919206 -0.41647777 0.601732
0.45618492 0.25760847 -1.0584441 -0.41813046 0.03364985 0.42082384 0.56067634 0.17010175
-0.581166 -0.07360756 0.12708212 0.33977133 0.23025805 -1.1332238 0.31714892 -0.05756191
-0.32253623 0.34769255 -0.09661764 -0.6007799 -0.50921905 -0.6137066 -0.16585663 0.20639008
-0.10536923 0.06577217 0.15952158 -0.066488236 -0.07930864 -1.146398 0.52189267 -0.5321522
0.73848474 -0.061853968 0.13820954 -0.21310104 0.24335715 0.29562357 0.20000671 0.14497328
-0.21312393 0.29231572 -0.59454185 -0.2687164 0.92105424 0.74412173 -0.9123192 -0.26891232
-1.1801817 -0.7740783 -0.84897643 -0.8413384 1.4845922 1.2985384 0.1822181 0.16016023
0.43256143 -0.6821239 -1.466787 0.21826333 2.155052 -0.6735554 -0.2146938 0.26777717
-0.6468155 0.47429332 -0.21258225 -0.9829061 0.8065233 0.5457307 0.34857255 -0.35702708
0.1975203 -2.6887932 -0.6787377 -0.5055143 0.59360623 0.30541575 0.20750234 0.21458757
-0.29779923 -1.4289731 -1.2500948 -1.4622123 1.7946182 -0.041722577 -0.06558236 0.19527715
-0.5902797 -0.12748484 0.70838237 -0.24684256 0.88500655 0.26596218 -0.29124513 0.048636064
-0.47424388 0.022469917 0.7987899 -0.67927295 1.4288687 0.32723904 -0.058300924 -0.5206014
-0.4308011 0.028426856 0.32510063 -0.24187933 0.24707349 1.4179413 -0.20466095 -0.35550156
0.07108561 0.5039115 -0.1800526 -0.8604642 0.6263375 0.046260405 0.10561079 -0.7079637

model.model.model.0.bias f4 [128]
00000000: 5f64 e53d 84d4 4abe e1f4 5cbe 06e7 76be
00000010: ab9e 15be 8d83 2abe 1ff2 75be b3a8 a5bc
00000020: 80ce 413e acce a4be 4723 72bd 443b 04be
00000030: 33f3 8c3d 6098 433e f975 293f e22e c0bd
00000040: 99b0 a43e bf0b f5be 5f94 a03e b469 883d
00000050: 976c bfbe 47e0 713e 38dd 853d 9e1b aebe
00000060: a9c2 b83e 8dad 3bbd 5b24 d0bd 0327 00be
00000070: c0bf 763e 1bf0 043d 4e01 cbbe 3f47 c13e
00000080: d892 a03c 8ba0 30be 80fa 8abe 61ef 02be
00000090: 5d51 053e d600 d83e a693 fc3e 3a7a 98be
000000a0: 14bd ee3d 20f2 a0be b67e 9f3e b033 4ebd
000000b0: 257c 613e 0afd 73bc 8787 68be 7ba0 223c
000000c0: 30ba dd3e b7fa a53e d589 7e3e 2218 20be
000000d0: ab52 ab3e 6d6a cebe 8dac 553d fb45 b33d
000000e0: af14 a23e c342 e1be 8a44 58b9 657f 04be
000000f0: d0ab 67bd 3c8c 183d dc71 0a3f 7130 cabe
00000100: ad89 f6be f493 26bc 02c1 023f f2a2 abbe
00000110: 49aa d9be 1fab 843d 07d1 073f 875f 983d
00000120: 3487 cc3e 7d4e b9be 2efb 243e 763f 5d3e
00000130: 6d12 32be 1c2f b83e c891 d53d 0ae7 903d
00000140: 9af6 51be 91da bfbc 6ef1 ac3e abbf 903e
00000150: 1ed7 063d 273e c83e 3353 a63e 857a b33e
00000160: 103c b73e 7b2a 943e 8129 073f 585e f63d
00000170: fc43 ad3e cadc 873e 852f 513e b93f 2b3e
00000180: ead7 8bbe f624 8b3e d174 0c3f 10d8 503e
00000190: 742b 8d3e d5f8 dbbe 394f 4d3e b69f febe
000001a0: e3de ed3d c475 d53e 498f 923d e40f dd3e
000001b0: 30c9 713d ea31 a03e b518 f53e d3b0 d13d
000001c0: f1b1 3cb7 eea5 04bf a3cb 14be 0b5a cd3b
000001d0: be79 a3be 4c44 d93e e751 913c b4fd bfbd
000001e0: 65a6 a03d 2e00 0e3e 80f2 1a3e 9ddb 5abf
000001f0: fa8c c33e 610a d73e 2870 a33d e0c6 7b3e
0.11200785 -0.19807631 -0.21577789 -0.24111566 -0.14611308 -0.16651745 -0.24018143 -0.020222044
0.1892643 -0.32188928 -0.059115674 -0.12913233 0.06882324 0.19101095 0.66195637 -0.09383942
0.32165983 -0.47860524 0.31363198 0.06660786 -0.37387535 0.23620711 0.06536335 -0.34005445
0.36086014 -0.045819808 -0.10163184 -0.12514882 0.24096584 0.032455545 -0.39649433 0.3774967
0.01960127 -0.17248742 -0.2714424 -0.12786628 0.13019319 0.42188138 0.49331397 -0.2978075
0.116571575 -0.31434727 0.3115136 -0.05034226 0.22020014 -0.014891872 -0.2270795 0.009925957
0.43306112 0.32417843 0.24857266 -0.15634206 0.33461508 -0.4031557 0.05216651 0.08753582
0.31656405 -0.43996248 -0.00020624898 -0.12939222 -0.056560338 0.037243113 0.54079986 -0.39490083
-0.48151913 -0.010167111 0.51075757 -0.33522755 -0.4251273 0.06477951 0.53053325 0.074400954
0.39946902 -0.36192694 0.16111442 0.2160624 -0.17389841 0.35973442 0.10428196 0.07075317
-0.20504227 -0.02341965 0.33777946 0.2827123 0.032919995 0.39109918 0.3248535 0.35054412
0.35788012 0.2893866 0.52797705 0.120297134 0.3384093 0.26535636 0.20428284 0.16723527
-0.27313167 0.27176636 0.5486575 0.20394921 0.27572215 -0.4296328 0.20049752 -0.49731225
0.11614778 0.4169141 0.07156236 0.43176186 0.059029758 0.3128808 0.47870412 0.10238805
-1.1247103e-05 -0.5181569 -0.14530806 0.0062668375 -0.3192882 0.4243492 0.01773925 -0.09374562
0.07844237 0.13867256 0.15131569 -0.85491353 0.38193494 0.42000106 0.079803765 0.24587584

model.model.model.2.weight f4 [128, 128]
00000000: cfeb db3d fd60 d43e bc55 e23e d330 863e
00000010: 68b4 183f 94a5 78be f646 acbc 9081 2ebe
00000020: 6457 8bbe 737d 0ebc 3b8f 2cbf a3e5 873e
00000030: 9f70 473e a7ae 3d3c 0c55 6d3e e6fd ad3e
00000040: c7aa 43bd 6c2d 05be 4dbc fc3d e596 19be
00000050: 212d 1abf a93a 5a3e 0c4c 95be 405e c53e
00000060: 830a d53d 8606 053d b7c4 df3e 7b5e 9a3e
00000070: d101 b53e 12d8 4abf dace 1b3f d1a4 5ebd
00000080: 65f9 61bf fdff e83e a7fc 603e 1c40 573e
00000090: f26b 713e 22de 2c3d 3cfe 4f3d b6d8 653f
000000a0: be50 233e 5c16 04bf cdcf e3bd 2e76 6fbf
000000b0: 43e1 7a3e 6246 673b 9472 eebe 5faa 96bf
000000c0: 1888 453e 04ec cd3d f4bf d63d e037 133f
000000d0: b7a5 873d 15b3 213f 9d5b 283e 4b48 a13e
000000e0: 5108 c33e 4c0d 30bf deb7 4dbe ca71 403f
000000f0: b97d 2cbe 6441 6e3c 16af cf3b f3bd 2f3f
00000100: b6f7 993e 330b 4ebf bcf2 c53d e313 87bd
00000110: 79de 67bf 1516 f13e 350a 0ebe 8b14 3ebe
00000120: 30dc a43e 8fe0 07bf 3f34 473e 811f ac3d
00000130: cd5d 543e 1563 163d 2ab0 b83e 2ee8 51be
00000140: 85b0 303e 2eab 7dbf f1e2 1f3f 4d37 c7bd
00000150: d04d 2d3d 1c0d 11bd 5281 3d3e 8f2d 153e
00000160: a7dd 79bf 68fa 4b3e a57e 613d 4d01 b43e
00000170: 1298 073e 7671 023c 13e7 b33d 4de5 553e
00000180: a80b ccbf 937d 6c3c 6cdb 5fbd 6006 a53d
00000190: 5ae2 a13e 06ae 363f 892f 2a3e a32c 2b3f
000001a0: a0a0 b7bd d278 f73d a522 453d ce75 1d3e
000001b0: ed7a 03be bf0b 4cbd 4b55 fc3d 4f23 8fbd
000001c0: f15b 203f 6fb2 473f 1d5e 7c3f affa b9be
000001d0: 6034 1cbc d76d d73d d8bf e53d 74b8 e73e
000001e0: 5c32 9dbd 4c60 653e adb9 da3c c305 2ebf
000001f0: 5a4d a23c f5e0 1ec0 a20d 4b3e dcd0 0d3e
00000200: 38fc bdbd 6128 83bd 76be a7bb 716c 8abd
00000210: 4475 743b 2359 8abd 69ad a1bc 2be5 47bc
00000220: 4cba 1abc 7088 4b3d 09ad 853c b57a 17bd
00000230: 0a47 63bd 1ff9 50bc 1916 913d b185 a9bd
00000240: baff b6bd 20df b8bd 4ebb 853d bc46 c0bd
00000250: 92f9 633d 151c 79bd fb46 0b3d ffe7 a2bd
00000260: d71d 49bd f7dc a6bd 3b35 7fbd fccd 03bd
00000270: 2c8f 9a3a 4837 983c ebb9 c8bd 3cea b6bc
00000280: 7eab 10bd 9f00 833d d64e bfbd 78fd 84bd
00000290: 1f31 b9bd 86a0 87bc 502f e8bc eec0 65bd
000002a0: 0243 9cbd 15a3 0cbd 393a 11bd 7ab6 643d
000002b0: 88e2 b1bd 1672 24bd f3f1 7d3d 1218 a1bd
000002c0: 5d52 3bbc cab8 333d 5f24 1d3d 21f9 fbbc
000002d0: 555b 31bd 29e0 00bd 1085 6abd 9676 9dbd
000002e0: c6c2 2bbd a989 b1bc 73e5 5abb 8d81 f1bc
000002f0: e061 273c 470d c23c 1ef4 273c a5f3 4cbd
00000300: bfc3 ff3c bf48 9bbd 78ff 0cbc 5863 4d3d
00000310: 9967 0e3b 8c2d d5bc 1c26 d8bd d11f 00bb
00000320: e395 673d b151 dbbd 098d c93c 9fa6 6c3d
00000330: 28ce 993d d5ea 0abd 62c5 38bd 19f1 aebd
00000340: 106c 513d 722b a2bd fa55 68bd d66e 2fbd
00000350: 2c8e 9f3d e03c 70bd 541b a5bd 8e9f adbd
00000360: 9c46 f2bc 207d 6dbd ae41 63bd 5f9f 5e3d
00000370: 8321 f5bc 3878 71bd 4fc6 64bc b621 513c
00000380: 2a20 dfbd 1b68 2abd 33a3 52bd 3259 84bd
00000390: 8b13 8bbd e814 a93c c875 8dbd 2753 10bd
000003a0: fb49 613d 79be f43c bd5c 363d 92eb 39bc
000003b0: d9ad 473d 0e7d 97bd d1ea b3bd 5147 a33c
000003c0: c93e 203d c79c 56bd b5b5 d8bc 6ba7 693d
000003d0: b74b 73bd d293 3f3d 0f88 0c3d 9a71 36bc
000003e0: b3a7 c9bd a340 373c 1680 1bbd 8fff b73d
000003f0: 1cc8 b4bd bc86 bc3c 97b3 ea3a 1e74 54bd
0.10738336 0.41480246 0.44206035 0.26209125 0.5965028 -0.24281913 -0.02102993 -0.17041612
-0.2721511 -0.008696902 -0.6740605 0.26542386 0.19476555 0.011577285 0.23176974 0.33982772
-0.047770288 -0.13005608 0.12340603 -0.14998968 -0.6022511 0.2131144 -0.29159582 0.3854847
0.104023956 0.032476924 0.4370477 0.30150208 0.35352948 -0.7923595 0.60862505 -0.0543564
-0.8827117 0.45507804 0.21971379 0.2102055 0.23576334 0.04220403 0.050779566 0.897838
0.1594877 -0.5159662 -0.11123619 -0.935397 0.24499993 0.0035289754 -0.4657179 -1.1770743
0.19290197 0.10054782 0.10485831 0.57507133 0.066234045 0.6316388 0.16441198 0.31500468
0.38092282 -0.6877029 -0.20089671 0.7517363 -0.16844834 0.0145419575 0.0063380105 0.68649215
0.300718 -0.8048584 0.096654385 -0.0659559 -0.9057384 0.4708716 -0.13871081 -0.18562524
0.3219924 -0.53077024 0.19453524 0.084044464 0.20738907 0.036715586 0.36071903 -0.20498726
0.17254837 -0.99089324 0.6245566 -0.09727345 0.042310536 -0.035412893 0.18506363 0.1456816
-0.9760384 0.19919741 0.05505242 0.35157242 0.13241604 0.0079616215 0.08784308 0.20888253
-1.5941057 0.014434236 -0.054652616 0.080578566 0.31618005 0.7135929 0.16619696 0.66864985
-0.08966184 0.120835915 0.048128743 0.1537697 -0.12839861 -0.04981589 0.12320956 -0.069891565
0.6264029 0.78006643 0.98581105 -0.3632407 -0.009533972 0.10518997 0.11218232 0.45257914
-0.07675621 0.22400016 0.026699865 -0.6797754 0.019812275 -2.4824803 0.1982942 0.13849205
-0.092766225 -0.06404186 -0.0051191403 -0.06758965 0.003730134 -0.06755283 -0.019736009 -0.012200634
-0.009443831 0.049690664 0.016317861 -0.036982257 -0.05548767 -0.012754708 0.07084293 -0.08277453
-0.08935495 -0.09026933 0.06529866 -0.093884915 0.05565793 -0.060817797 0.03400324 -0.07954406
-0.049100723 -0.081476144 -0.062306624 -0.032178864 0.0011791936 0.018581048 -0.09801086 -0.022328489
-0.035319798 0.06396603 -0.09341209 -0.06493658 -0.09042572 -0.016556036 -0.028342873 -0.056092195
-0.07629968 -0.034335215 -0.035455916 0.055838086 -0.086857855 -0.040147863 0.06199832 -0.07865919
-0.011433211 0.0438774 0.038364764 -0.030758442 -0.04329999 -0.031463776 -0.057255805 -0.07688634
-0.041933797 -0.021672087 -0.0033400923 -0.02948072 0.010216206 0.023687972 0.010251073 -0.050037045
0.031221269 -0.075822346 -0.00860583 0.05014357 0.002172923 -0.026022695 -0.10554144 -0.0019550214
0.056539427 -0.10708941 0.024603384 0.05777609 0.07510024 -0.03391536 -0.045110114 -0.085420795
0.051128447 -0.07918443 -0.05672262 -0.04283031 0.07790789 -0.058651805 -0.08061853 -0.08477698
-0.029574685 -0.057980657 -0.05548256 0.054351207 -0.029923206 -0.05895254 -0.013963296 0.012764385
-0.10894807 -0.04160319 -0.05142517 -0.06462325 -0.06790837 0.020639852 -0.069072306 -0.03523555
0.055002194 0.02987598 0.044522036 -0.011347668 0.04874978 -0.07396899 -0.08785022 0.019931467
0.039122377 -0.05239561 -0.026453832 0.057044428 -0.05939838 0.04677183 0.034309443 -0.011135483
-0.09846439 0.011184844 -0.03796395 0.08984291 -0.0882723 0.023013465 0.0017906305 -0.05186855

model.model.model.2.bias f4 [128]
00000000: 1a91 9abc cfee a2bd 097a 90bd 4959 173d
00000010: 730a 00bc ead6 063e ddab 833e b0e5 da3d
00000020: e004 abbd 3d94 9d3d 2fd7 813e fcf2 063e
00000030: 048c 513e 96de 033c 9af7 acbd 9f56 923d
00000040: 8780 e23d 2e0f 1b3e eec6 2bbd 04aa 173d
00000050: dd83 9ebd b07a 053d 7116 78bd 06de c0bc
00000060: 0c5d 453e db11 f5bb a757 cabd d6c5 80bd
00000070: 712a 433e 0544 e73b 9fdd 0c3c 9209 153e
00000080: cbab 1bbd 5fef 923c f8b4 c3bc ac2e 613c
00000090: d164 e1bc e7c9 6cbc 3502 97bd 4d6f 85bd
000000a0: ef31 3f3d 4c31 063e 1a5a 003e e15e cc3e
000000b0: e6ad cbbc c5a0 d53d 9584 543b cbb2 bb3d
000000c0: 1574 7c3d 9635 173e 5b6b d63d 5217 f23e
000000d0: 6c79 39bb 67af a2be 7bab 04bd 78a9 a8b9
000000e0: 5fba 8f3d 706b c3bc 6052 8a3d 42da 21bb
000000f0: 74a7 b9bc 72ea 8cbc 231a 833d 0b9a 8c3d
00000100: 1b18 e33d 086f 563c 134b aa3c 83e3 1dbd
00000110: 0b9d bc3e 86c5 1a3e 4e70 a13d c352 0e3d
00000120: 1979 eb3a 9a6b b43d f947 153a ee40 973d
00000130: 4f99 ec3c 6368 4e3e bec2 0c3e 7816 9b3d
00000140: 6bf8 74bd 1051 febc d42e 36bd a717 a4bd
00000150: 5ca0 77bc 8b03 933d f066 47bd 87a7 e03b
00000160: fb70 603d c4af af3d 8fde 7b3b 304c 743e
00000170: f256 df3c 25a9 ca3d 385c 26be 2395 bd3d
00000180: 435c ccbd 62e3 af3d 995c 5f3d 923c 643d
00000190: e909 e63a 0c23 513c ad31 a03c 56d3 8b3c
000001a0: 178b 6a3d 0a99 903d 9c9c 9fbe d906 f73e
000001b0: 01fa 2bbd 868a 363d 56a7 d23c e3cc a23b
000001c0: e84d 9a3d 9993 e93d c9fc 75bd b6c4 be3c
000001d0: 7671 1a3b 3265 76bd 2b4e 7bbd fa70 0e3c
000001e0: dea2 8dbb fd29 133d e84f c03d 4f3e 913e
000001f0: 919c 993d 673f 29bd 9650 7a3e bc0a ad3e
-0.018868018 -0.079557054 -0.07054526 0.036950383 -0.007814991 0.1316792 0.2571706 0.10688341
-0.08350539 0.0769429 0.25359485 0.13178629 0.20463568 0.008048674 -0.08445664 0.07145428
0.11059671 0.1514251 -0.04193776 0.037027374 -0.07739995 0.032587707 -0.060568277 -0.023543369
0.19273776 -0.007478935 -0.098799996 -0.06287734 0.19059159 0.007057669 0.00859776 0.14554432
-0.03800563 0.017936407 -0.023890004 0.013744038 -0.027513893 -0.014452434 -0.07373468 -0.065153696
0.04667848 0.13104743 0.12534371 0.39916137 -0.024863195 0.10431055 0.0032427658 0.091649614
0.061634142 0.14766535 0.10469695 0.47283417 -0.0028301133 -0.31774446 -0.0323901 -0.0003216972
0.07017969 -0.023854941 0.06753993 -0.0024696742 -0.022662856 -0.017201636 0.064014696 0.06865319
0.11088582 0.013087995 0.020787751 -0.03854705 0.36838564 0.15114412 0.078827485 0.034746896
0.0017965167 0.08809586 0.00056946237 0.07385431 0.028881697 0.20157008 0.13746163 0.07572645
-0.059807222 -0.031044513 -0.044478253 -0.08012324 -0.015113916 0.0717841 -0.048682153 0.0068559083
0.054795247 0.085784465 0.0038432216 0.23857188 0.027263138 0.09895543 -0.16246116 0.09256961
-0.09978535 0.08588292 0.054531667 0.055721827 0.0017550561 0.0127647035 0.019554937 0.017068546
0.057261553 0.0706044 -0.3117417 0.48247412 -0.04198647 0.0445657 0.025714558 0.004968272
0.07534391 0.11405105 -0.060055528 0.023287158 0.0023566163 -0.0601551 -0.061353844 0.008693928
-0.004322394 0.035928715 0.09390241 0.2836785 0.07500566 -0.04132023 0.24444804 0.33797252

model.model.model.4.weight f4 [4, 128]
00000000: 799a e2be eb75 1a3d 517b 003f 3819 9abf
00000010: aef8 10bf f0dc d1be 0b45 82be 3aff 97bb
00000020: 3216 e13c 0cba 6b3f 3629 a73f cb8a c8be
00000030: 32d0 bbbe cbe2 b7be 6190 80bd 9ea5 a8be
00000040: 4c16 7abe 13d3 8cbe d978 ceba 3950 f8be
00000050: c740 b9bd 5ff0 dfbe fa3d 8a3c d8ec 033d
00000060: 4b53 a43f b43c f0bd e6f7 a93d d8bb 283d
00000070: e253 dabe aad8 7e3e b704 c6be 6f7e c2bd
00000080: 43a4 373d 79d0 463d 9343 e63f 4de0 8ebd
00000090: 9f73 19bf d354 0cbf fbda 8e3d 2366 29ba
000000a0: 3987 13bf 30db 81bf a928 a0be 5870 103f
000000b0: a450 13bf 8cb9 9fbe ac6d 02bd 658d b0be
000000c0: 4634 d3be 3bac e53f 95ff d53d 9021 7f3f
000000d0: cd93 b3be 13ad 68be 08f8 0abd 3d6d ffbe
000000e0: b13f c3be 0ba3 0ebf 0a18 24be f632 773c
000000f0: 3f2c 84bf 8c31 c83b e03d 763c 69da 9cbe
00000100: 10d5 bfbe 3a7f 02bf 1466 95be c5f0 ecbc
00000110: 9ce6 6d3f 7351 74bf a1d4 2bbf ca08 f4be
00000120: e3f8 ccbe c445 a3be 4a1c c9bb 4a54 3ebf
00000130: 9bd4 13bf a7da d3be e186 f6be a4b7 ea3d
00000140: bf37 a13a e965 b63c 03ed 3d3d 0712 9ebf
00000150: a2d1 babe 89ad 0bbf bd36 18bf 0a2e 83bf
00000160: 4a3a fb3f 4d57 cbbe 04bf 8bbe ba0f b6bd
00000170: d003 a9bf 2080 c8be 0daf 3ebf 918f dbbe
00000180: e5f3 e6bc c678 9dbe bb59 1ebe c979 71bf
00000190: 1b5a 5e3a 3c9e babe 3327 73bd 6dd5 12bf
000001a0: 014f e8be 8af6 0cbf 6d27 65be 1da6 823f
000001b0: c000 63bd ffae b8bb 3a90 17bf 77c8 07bf
000001c0: f955 b8be e0d9 84be c961 643d 1f5d 27bf
000001d0: 7042 cfbe 98ac 4a3d c89b 6d3d ebc6 e7be
000001e0: cf85 b63d 2f81 e0be b157 0dbf 0918 b23f
000001f0: 137d fbbe a46d 2abf 5ea7 5e3e 7555 ca3f
00000200: 0649 19bf 1bac dbbb effa 3fbe d41d 8abd
00000210: 0b90 53bf ae89 04bf c22e 4cbf 39b4 a8be
00000220: bdc8 c73b a694 9a3f 2489 9c3f 5866 9ebe
00000230: d9ab 39bf 137e 86be a8f4 683d 7cb9 15bf
00000240: 789a 3cbf c5d8 24bf acdf 2e3d e864 0bbf
00000250: b032 703c 8232 07bf f76b 5fbd c129 a6bd
00000260: 6b02 633f 2f18 7d3e cbca fdbc 96f8 89bc
00000270: 9b5c 433e 6ee6 4dbe de9b 17bf d4c2 15bf
00000280: e6f2 973d 499f cabc c74c 683f 3e10 22bd
00000290: 6a7d f3be b5da d3be 970b b3bc c397 4bbd
000002a0: 9c6c d1be 9863 483d f7ac a1be eb91 413f
000002b0: 6602 11bf 36bd d3be 6c20 de3c f669 adbe
000002c0: 7c7f b4be b4ce db3f 78c1 ae3e 0e2e 783f
000002d0: 52a6 cebe 36c9 3d3d a742 a4bb 9902 cbbe
000002e0: ec7b ddbe 490d 1bbf 7586 babe b601 48bd
000002f0: 72dc f5be f2ab a4bd 43dd bbbd 1e12 24bf
00000300: e0c8 9bbe 4316 c4be b303 97be 216c fbbc
00000310: e038 143f 165c ba3d ec59 c1be 43f4 01bf
00000320: 2851 b0be dd41 32bf 8f06 9b3c 11d9 9ebe
00000330: ffbd c0be e944 883e 3b28 08bf 0e91 273f
00000340: b220 403d 9498 e13c 7b5b 35bc 2a21 fc3e
00000350: 8eb1 05bf 338f efbe 54b7 f6be 5212 e0be
00000360: c8ea bc3f 492d 8dbe 57c3 1cbf cf03 d5bf
00000370: 5ac7 33bf 77fc 2dbf 7a78 de3e b2fe 0dbf
00000380: e08c 6e3c 5280 07bf 6f2b 1abf fdcf b53f
00000390: 850d 40bb bd11 a4be e612 40bd 0995 e5be
000003a0: afc2 a0be a6b8 05bf 955b 5cbe 0b93 7a3f
000003b0: ffb6 b73c 99cf c8bd 63ed fabe 07b5 01bf
000003c0: d457 6ebe 698c 2bbf 26e6 9abc fce7 1dbf
000003d0: b1e2 03bf d6f1 6fbc f2d0 9bbd 0e6a 0bbf
000003e0: b105 513e 3e77 15bf 7bce fabe 1495 873f
000003f0: d1bb fcbe 9dc8 05bf 54bb 3fbf 7d44 ea3f
-0.44258478 0.03771011 0.50188166 -1.2038946 -0.56629455 -0.40988874 -0.254433 -0.0046385797
0.027476404 0.9208076 1.3059452 -0.3916839 -0.36682278 -0.35915217 -0.06277538 -0.32938856
-0.24422568 -0.27504787 -0.0015752568 -0.48498705 -0.090455584 -0.43738076 0.016875256 0.032208294
1.2837919 -0.11730328 0.08299236 0.041194767 -0.42642123 0.24887338 -0.38675472 -0.094967715
0.044834387 0.04853866 1.7989372 -0.06976376 -0.5994205 -0.5481693 0.06975361 -0.0006462058
-0.5762821 -1.0145016 -0.3128102 0.5642142 -0.5754492 -0.3119625 -0.031842873 -0.34482875
-0.4125082 1.7943186 0.10449139 0.9966059 -0.350737 -0.22722273 -0.033927947 -0.4988803
-0.3813453 -0.55717534 -0.16024795 0.015087834 -1.0326003 0.006109422 0.015029401 -0.30635384
-0.3746724 -0.5097538 -0.29179442 -0.028923402 0.92930007 -0.9543678 -0.6712132 -0.47662956
-0.40033635 -0.31889164 -0.0061374055 -0.74347365 -0.57746285 -0.41377756 -0.4814978 0.11460808
0.0012299939 0.022265391 0.04636861 -1.2349252 -0.36488062 -0.5456167 -0.59458524 -1.0248425
1.9627163 -0.39715043 -0.2729417 -0.08889718 -1.3204288 -0.39160252 -0.74485856 -0.4288297
-0.02819247 -0.30756205 -0.15463917 -0.94326454 0.00084820547 -0.36448848 -0.059363555 -0.5735691
-0.45372775 -0.5506369 -0.22378321 1.0206944 -0.055420637 -0.0056360955 -0.5920445 -0.5304026
-0.36003092 -0.25947475 0.055757318 -0.65376467 -0.40480375 0.049481004 0.058009893 -0.4526895
0.08912241 -0.4384856 -0.5521193 1.3913585 -0.49118862 -0.6657355 0.21743533 1.580733
-0.5987705 -0.006703866 -0.18748067 -0.067439705 -0.8264167 -0.5177258 -0.79758847 -0.3295
0.006096928 1.2076614 1.2229352 -0.30937457 -0.72527844 -0.26268062 0.056873947 -0.5848615
-0.736732 -0.64393264 0.04269378 -0.54450846 0.014660522 -0.52811444 -0.054546323 -0.08113433
0.88675565 0.24716257 -0.030980488 -0.016842168 0.19078295 -0.20107433 -0.5922221 -0.5850041
0.07419376 -0.024734156 0.9074215 -0.03956627 -0.4755662 -0.41377798 -0.021856112 -0.049705278
-0.40903175 0.048923105 -0.31577274 0.7561328 -0.56644285 -0.41355294 0.02711507 -0.33869904
-0.35253513 1.7172456 0.3413198 0.96945274 -0.40361267 0.046334468 -0.0050128284 -0.3965042
-0.43258607 -0.60567147 -0.36430708 -0.048829757 -0.4801975 -0.080406085 -0.09173062 -0.64090145
-0.30426693 -0.38298234 -0.2949501 -0.030691208 0.57899284 0.09099595 -0.37763917 -0.5076334
-0.34436917 -0.6963175 0.018924026 -0.31024984 -0.37644956 0.26615074 -0.53186387 0.6545571
0.04690618 0.027538575 -0.011069174 0.49244052 -0.5222405 -0.4678894 -0.48186743 -0.43763977
1.475915 -0.27573612 -0.61235565 -1.6641787 -0.7022606 -0.67963356 0.4345129 -0.5546676
0.014559954 -0.52930176 -0.60222524 1.4204098 -0.0029304933 -0.32044783 -0.046893023 -0.44840267
-0.31398532 -0.52234876 -0.21519311 0.9788062 0.022426127 -0.09805221 -0.49009237 -0.5066685
-0.23275691 -0.67011124 -0.018908571 -0.61682105 -0.5151778 -0.0146450605 -0.076082125 -0.544587
0.20412327 -0.58385074 -0.48985657 1.059237 -0.49362043 -0.52259237 -0.74895215 1.8302151

model.model.model.4.bias f4 [4]
00000000: ae85 873d d19d bebc 8ffb 2e3e 4048 7dbc
0.06617294 -0.023268612 0.1708815 -0.01545912

model_old.model.model.0.weight f4 [128, 8]
00000000: 6a8d 8dbe 3fa7 203f 4997 993e 8234 393f
00000010: de38 5d3e d5da 793e e2eb 6d3f 233f cfbe
00000020: 6d12 43be 3f7b dbbf 5577 edbf 11ca f93e
00000030: 3787 923f 4517 d0bf 47df 1ebc bdd9 543e
00000040: 1884 fd3c 25cd fcbf d880 0340 1705 bc3f
00000050: 3367 32be 976f 463f 7056 23be 421c ba3e
00000060: 24a1 853d b54a 97bf 2123 dc3e e813 65bf
00000070: f620 1bbe 614e 50bd 895e ec3d f445 4d3e
00000080: 0b1b 253f 2a97 fabf 572f a2bf 1e89 693f
00000090: f0c4 39bf 271a 0fbf 233e 6b3e 8c16 513d
000000a0: d3c7 c7bd 8747 c8be 8c5c 903f 2dba c2be
000000b0: b34e 7abf 4429 ec3e 4240 b93e a4fa c93e
000000c0: ca69 94be 36fb 7bbf 4f47 cb3d 62f7 9bbf
000000d0: feca 8cbf c2fc 9dbf 57fc dc3e bb30 19be
000000e0: ea82 d4be 7012 1e3f 33d8 843c 3d5d 2fbe
000000f0: 8a8f dd3d ce0f 02bd b8c4 003f eab3 6fbe
00000100: 87f1 adbe 7ce6 8bbe 9559 b7bd 006d 12bf
00000110: 2cf1 c5bf 29a0 983e 3ed1 063d e35d 64be
00000120: 9a55 2a3d 4c31 1fbe 4d56 92be 6337 fe3f
00000130: 276e 77bf 2939 5cbf 5d32 d93d 2e82 523e
00000140: df20 653f 2314 a53e ded8 8fbe 213b 703e
00000150: b292 213f 677d f63d 0c1f c33e 5897 e4be
00000160: 9e9a 5f3a 8aaf 4ac0 2058 96bf 47c0 a4bc
00000170: 2718 1c3f 6c6e 3abf e07f 443e 9c8d 0d3f
00000180: 805d ff3e e7d5 bf3d 95f6 0c3e 64a2 283f
00000190: 0a8f cd3f 7cee 803c efca 98be 7133 fe3e
000001a0: 5269 51bf 3dba 46be 970c 813e f8cb 52bf
000001b0: 4673 47bf bff9 f7bd 2f7e f5be bb3e 34bf
000001c0: 30ad 8cbe 6ae8 1ebf 1f3c 17bf 3fac 82be
000001d0: a462 703f d8b2 14bd 4180 fc3b d7f4 713e
000001e0: 304d 633e 04dc b8be 7aac 5340 a4ec 963f
000001f0: 7a3c b03f 6fba 383f a295 723d b770 cf3c
00000200: f6cb b7bd 9f54 163e 7b77 19bf b276 9f3e
00000210: 7677 d03e 406a 573f 861e dcbe 99d8 173f
00000220: 6c0d dc3e 8056 873e 5499 80bf 14f2 e5be
00000230: e976 8e3d fecb c63e 9d7e 093f 8eb6 2a3e
00000240: dbbc 0dbf a3a4 a3bd 1ab9 fd3d 2434 a63e
00000250: 8e78 393e b5a5 8fbf 5867 a43e d829 b0bd
00000260: fb14 a1be 44f7 b53e dcb9 d3bd af47 17bf
00000270: 71f9 ddbe 81b7 05bf 6a72 27be 007b 623e
00000280: ee55 15be 7d61 c23d 4928 4e3e c8a0 2a3e
00000290: 6380 67be 17f6 82bf d7e5 f93e c873 fabe
000002a0: 6f88 3a3f 75a6 e93c b53b ee3d 4897 d4bd
000002b0: ba0b 913e 2c52 983e 5076 503e dca1 163e
000002c0: a8ce 36be ba83 9d3e 8630 1ebf ce64 77be
000002d0: 4042 523f 3e7f 2a3f fa00 82bf 9e02 96be
000002e0: df2f 99bf dc20 06bf a771 5abf 1a9f 32bf
000002f0: b3ff ba3f 9522 a93f c79b 403e 9bbf 0a3e
00000300: 000d af3e 455f 44bf 82f0 a5bf e64f 4d3e
00000310: 4a5f 0740 2714 3fbf 542c 59be c478 903e
00000320: 7d50 27bf b436 fe3e d9b5 5bbe 2d42 69bf
00000330: 6d0b 4d3f deca 093f db1a 943e 3100 d3be
00000340: 30c8 273e 321e 18c0 74bb 25bf 4f16 acbe
00000350: 701b 173f 0e32 ab3e c1af 583e f2a9 5b3e
00000360: 837d bfbe 9ece 82bf 8bf5 9fbf 076c aabf
00000370: 3c4e e33f 03ac 98bd ddb1 4bbd 2fc2 453e
00000380: cc16 19bf fa3f f1bd 979a 233f 0352 46be
00000390: 534f 623f 5f5c 6c3e 8b5c 9bbe f5aa 1a3d
000003a0: 7c1d f6be 236c d53c 6a81 583f 74d8 20bf
000003b0: bbd6 bc3f 01a2 ac3e 1428 40bd dcfd fdbe
000003c0: 41f3 cabe b2f1 1e3d 5ba9 b53e 8862 4ebe
000003d0: c9d6 a53e ed8a b33f 6854 94be 21d2 c0be
000003e0: 98d4 a03c f473 033f 5e59 11be d224 57bf
000003f0: 721f 1d3f c24a 06bb b177 ba3c c7e7 52bf
-0.27646953 0.627552 0.29998234 0.72345746 0.21603724 0.24399884 0.92938054 -0.40477857
-0.19049998 -1.7146987 -1.8552042 0.48786977 1.1447514 -1.6257101 -0.009696788 0.20786186
0.030946776 -1.9750105 2.054739 1.4689053 -0.1742218 0.7751402 -0.15950942 0.36349684
0.06524876 -1.1819674 0.4299555 -0.894835 -0.15149292 -0.050855998 0.11541469 0.20046216
0.6449439 -1.9577382 -1.2670697 0.9122485 -0.7256613 -0.5589928 0.22972922 0.051046893
-0.0975491 -0.3911707 1.1278243 -0.38032666 -0.97776335 0.46125233 0.36181837 0.39449036
-0.2898696 -0.9843019 0.099257104 -1.218487 -1.0999448 -1.234276 0.4316127 -0.14959995
-0.4150613 0.61746883 0.016216373 -0.17125411 0.108183935 -0.031753354 0.5030017 -0.23408476
-0.33973333 -0.27324283 -0.08952633 -0.5719757 -1.5464225 0.29809693 0.032914393 -0.2230144
0.041585542 -0.15546149 -0.28581467 1.9860653 -0.96652454 -0.8602472 0.10605309 0.20557472
0.8950328 0.32241926 -0.28095144 0.23460056 0.63114464 0.12035637 0.38109624 -0.44646716
0.00085298147 -3.166964 -1.1745644 -0.020111216 0.60974354 -0.7282474 0.19189405 0.55294204
0.49876022 0.093669705 0.13765939 0.6587279 1.6059277 0.015738718 -0.29842326 0.49648622
-0.8180133 -0.19406982 0.25204918 -0.8234248 -0.7791027 -0.12108182 -0.47947833 -0.7040822
-0.27475882 -0.62073386 -0.5907611 -0.25522038 0.93900514 -0.03630337 0.0077057187 0.23628555
0.22197413 -0.3610536 3.3074021 1.1790967 1.3768456 0.72159475 0.059224732 0.025322301
-0.08974449 0.14680718 -0.5994794 0.31145245 0.4071614 0.841465 -0.42992038 0.59314877
0.4297899 0.26433182 -1.0046792 -0.44911253 0.06956274 0.3882751 0.5370882 0.16671202
-0.55366296 -0.07990386 0.12388821 0.32461655 0.18112394 -1.1222445 0.32110095 -0.08601731
-0.3146132 0.3554021 -0.10338184 -0.59093755 -0.4335437 -0.5223313 -0.16352239 0.22117233
-0.14583561 0.09491251 0.20132555 0.16662896 -0.2260757 -1.0231351 0.48808166 -0.4891646
0.7286443 0.028521756 0.11632482 -0.10380417 0.2832926 0.29750192 0.20357633 0.14710182
-0.1785227 0.30764562 -0.6179279 -0.24159548 0.8213234 0.66600406 -1.0156548 -0.29298872
-1.1967734 -0.5239389 -0.8532967 -0.6977402 1.4609283 1.3213679 0.18809424 0.13549654
0.34189606 -0.7670787 -1.2964022 0.2005001 2.115191 -0.74640125 -0.21208316 0.28217137
-0.6535719 0.4965111 -0.21456088 -0.911166 0.8009556 0.53825176 0.2892674 -0.41211084
0.16384959 -2.376843 -0.64739156 -0.3361077 0.5902624 0.33436626 0.21160795 0.21451548
-0.37400445 -1.0219305 -1.2496809 -1.3314217 1.775825 -0.07454684 -0.04973017 0.19312356
-0.5980041 -0.11779781 0.6390776 -0.19367222 0.8840229 0.23082112 -0.30344042 0.037760694
-0.4806937 0.02605254 0.8457247 -0.6283028 1.475303 0.3371735 -0.04691322 -0.49607742
-0.39638713 0.038804717 0.3548077 -0.20154774 0.3239043 1.4026772 -0.28970647 -0.37660316
0.019632623 0.51348805 -0.14194247 -0.8404056 0.61376107 -0.0020491336 0.022762151 -0.82384914

model_old.model.model.0.bias f4 [128]
00000000: 34d3 c73d 3605 43be 6b5d 57be 346a 9ebe
00000010: 4303 13be 3b0d 2ebe be9a 6abe d049 36bc
00000020: 1e84 543e df57 a2be 8296 3abd e0e9 f0bd
00000030: 7313 6a3d 56e4 563e 147b 2a3f df41 c1bd
00000040: 928a a23e a166 fabe 8de8 a23e ead0 8d3d
00000050: 86e7 ccbe d948 733e 253d 903d 0dd6 b7be
00000060: c004 bd3e 6a69 a1bd 89f0 f0bd f5e2 d3bd
00000070: 9f20 703e 8fe8 353d 1e6e d7be d976 be3e
00000080: 1eb9 b33c c110 3dbe 9968 6dbe e6cd dabd
00000090: e900 0f3e d4db d73e ddd8 fb3e 2293 9bbe
000000a0: 18b5 e33d 9850 9fbe 9a98 9e3e ad49 56bd
000000b0: d0cd 643e 0381 80bc b0d9 64be 186b 533c
000000c0: 1a2a dc3e df03 a53e 744b 803e 2218 20be
000000d0: 6f28 a43e 73fb debe 58d4 a13d 584b cb3d
000000e0: 4153 a23e fa18 e0be f82b 1e3c 2491 08be
000000f0: 0898 a8bd 09f0 2b3d 839b 0a3f 7130 cabe
00000100: ad89 f6be 7417 51bc be44 033f b4e2 a9be
00000110: e47c ddbe 93f8 fe3c ca49 073f b657 bb3d
00000120: c880 d53e fce8 98be 445f 293e ee19 643e
00000130: 01a3 35be 02df af3e 300b e13d a75e b43d
00000140: 766b 5ebe d683 c7bc 0fa4 a73e 8783 8a3e
00000150: 835f 063d c4e1 c53e 58e8 a63e 970a b43e
00000160: 9124 b43e 0fd3 903e 2879 073f 4287 f43d
00000170: 67af ac3e b3a8 813e bd58 6b3e 9059 323e
00000180: be8b 79be 7532 873e 49fd 0a3f 9ea5 503e
00000190: 37a4 843e d5f8 dbbe 54b9 5f3e e5d3 03bf
000001a0: adfd e13d c6ff d43e 70b0 3b3d 20e0 da3e
000001b0: 6973 533d 6605 9b3e 5e75 f43e 94f9 df3d
000001c0: 9a69 4f3b eea5 04bf 5df5 1abe abff 023d
000001d0: d741 8dbe 77fc d73e cfe3 e03c 7d51 babd
000001e0: 7cae b53d d221 203e 0135 273e 9ddb 5abf
000001f0: 5a69 c03e 3b55 c43e 9b33 c13d fca1 7c3e
0.09757081 -0.19044957 -0.2103173 -0.30940402 -0.14356713 -0.16997235 -0.22910592 -0.011125997
0.20753524 -0.31707665 -0.04555369 -0.11763358 0.057147454 0.20985541 0.6659405 -0.09436392
0.31746346 -0.48906425 0.31818047 0.06924613 -0.40020388 0.23758258 0.070429124 -0.35905495
0.36917686 -0.07881434 -0.117646284 -0.10346023 0.23449944 0.04441124 -0.420762 0.3720005
0.021938857 -0.18463422 -0.23184432 -0.10683803 0.13965191 0.42159903 0.4918889 -0.3038569
0.11118525 -0.31116176 0.309758 -0.052316356 0.22344136 -0.015686518 -0.22348666 0.012903951
0.4300087 0.32229516 0.25057566 -0.15634206 0.32062098 -0.43551216 0.079018295 0.0992648
0.31704143 -0.43769056 0.009654038 -0.13336617 -0.08232123 0.041976962 0.5414354 -0.39490083
-0.48151913 -0.012761939 0.5127677 -0.33180773 -0.43259346 0.031124389 0.5284697 0.09147589
0.41699815 -0.29865253 0.16540247 0.22275516 -0.17737962 0.3434983 0.10988462 0.08807116
-0.2172068 -0.024354856 0.32742354 0.27053472 0.03280593 0.38648808 0.3259914 0.3516433
0.35184148 0.28286025 0.52919245 0.11939861 0.3372757 0.2532402 0.2298307 0.17416978
-0.24369714 0.26405683 0.5429273 0.20375678 0.25906536 -0.4296328 0.21848041 -0.514952
0.11034713 0.4160139 0.04582256 0.4274912 0.051623736 0.30277556 0.47745794 0.10936275
0.0031648637 -0.5181569 -0.15132661 0.031982105 -0.27589294 0.42184803 0.027452378 -0.09097574
0.08871171 0.15637901 0.16328813 -0.85491353 0.37580377 0.38346276 0.09433671 0.24671167

model_old.model.model.2.weight f4 [128, 128]
00000000: 7d9b d93d 48ad bd3e ac1e f53e 20ef 193e
00000010: 9786 0b3f 30b0 83be b335 fcbd b553 33be
00000020: 3658 87be bcfd 02bd 6f67 2cbf 6abe 5f3e
00000030: 1244 593e 2292 033d 8330 663e 28c0 b33e
00000040: ca74 04bd 919d 17be bf4f e43d 05d7 2cbe
00000050: 21d1 06bf 9b86 533e de54 7fbe 9a3b c53e
00000060: c122 b43d 4d98 553d 667f c63e eab8 853e
00000070: a0ea b73e 04f0 43bf 327b 2b3f b0d8 f8bc
00000080: 70ed 61bf 745f ea3e 0c24 443e 9e5f 403e
00000090: 4edf 6d3e 434b 0a3d 3875 663d 5f10 5c3f
000000a0: 3055 183e 1bdd 09bf 7018 f9bd 7f94 77bf
000000b0: 26d7 6f3e 2b10 a83a ec94 edbe e3fa 97bf
000000c0: 0f48 3c3e e0aa c33d f6c2 c63d e037 133f
000000d0: 50c8 9c3d 9e31 133f 1ee6 0f3e 75f2 9d3e
000000e0: 392e c03e f876 30bf 4b8a 75be 423b 423f
000000f0: d297 4bbe 091f 7abc 0f87 f33c f3bd 2f3f
00000100: b6f7 993e 29ce 50bf fb2f ca3d 8b5c 97bd
00000110: e706 64bf 0fd4 ed3e ae59 15be 3877 38be
00000120: ace7 a83e bb8e 04bf ecd7 233e 1638 943d
00000130: 6909 e33d 5b99 473d 7da1 b53e 1c35 4ebe
00000140: c452 083e 2a2a 78bf 8fed 183f d96d fabd
00000150: d353 033d 7fb4 28bd 3f0f 333e f675 0c3e
00000160: 015b 76bf 943e 443e e537 8e3d 2f21 be3e
00000170: 0185 053e 60ea bf3c 572e 1c3d cefa 473e
00000180: 0264 debf 7dfd bb3b 97d4 63bd e158 9a3d
00000190: 4d9a 9e3e 06ae 363f 3f82 203e a6c6 233f
000001a0: ccc2 b8bd ded7 e73d 4149 7b3d 45f0 123e
000001b0: b652 0dbe 0e47 73bd 0ba7 e63d 147b 97bd
000001c0: 20d4 1a3f 6fb2 473f 7185 753f 03a0 a7be
000001d0: 9eb1 8fbc d860 ba3d f6f1 9c3d dc44 e53e
000001e0: def8 afbd da1b 473e db1c 9f3c c305 2ebf
000001f0: 2333 703c c255 1dc0 291b 423e e4c1 063e
00000200: 38fc bdbd 6128 83bd 76be a7bb 716c 8abd
00000210: 4475 743b 2359 8abd 69ad a1bc 2be5 47bc
00000220: 4cba 1abc 7088 4b3d 09ad 853c b57a 17bd
00000230: 0a47 63bd 1ff9 50bc 1916 913d b185 a9bd
00000240: baff b6bd 20df b8bd 4ebb 853d bc46 c0bd
00000250: 92f9 633d 151c 79bd fb46 0b3d ffe7 a2bd
00000260: d71d 49bd f7dc a6bd 3b35 7fbd fccd 03bd
00000270: 2c8f 9a3a 4837 983c ebb9 c8bd 3cea b6bc
00000280: 7eab 10bd 9f00 833d d64e bfbd 78fd 84bd
00000290: 1f31 b9bd 86a0 87bc 502f e8bc eec0 65bd
000002a0: 0243 9cbd 15a3 0cbd 393a 11bd 7ab6 643d
000002b0: 88e2 b1bd 1672 24bd f3f1 7d3d 1218 a1bd
000002c0: 5d52 3bbc cab8 333d 5f24 1d3d 21f9 fbbc
000002d0: 555b 31bd 29e0 00bd 1085 6abd 9676 9dbd
000002e0: c6c2 2bbd a989 b1bc 73e5 5abb 8d81 f1bc
000002f0: e061 273c 470d c23c 1ef4 273c a5f3 4cbd
00000300: bfc3 ff3c bf48 9bbd 78ff 0cbc 5863 4d3d
00000310: 9967 0e3b 8c2d d5bc 1c26 d8bd d11f 00bb
00000320: e395 673d b151 dbbd 098d c93c 9fa6 6c3d
00000330: 28ce 993d d5ea 0abd 62c5 38bd 19f1 aebd
00000340: 106c 513d 722b a2bd fa55 68bd d66e 2fbd
00000350: 2c8e 9f3d e03c 70bd 541b a5bd 8e9f adbd
00000360: 9c46 f2bc 207d 6dbd ae41 63bd 5f9f 5e3d
00000370: 8321 f5bc 3878 71bd 4fc6 64bc b621 513c
00000380: 2a20 dfbd 1b68 2abd 33a3 52bd 3259 84bd
00000390: 8b13 8bbd e814 a93c c875 8dbd 2753 10bd
000003a0: fb49 613d 79be f43c bd5c 363d 92eb 39bc
000003b0: d9ad 473d 0e7d 97bd d1ea b3bd 5147 a33c
000003c0: c93e 203d c79c 56bd b5b5 d8bc 6ba7 693d
000003d0: b74b 73bd d293 3f3d 0f88 0c3d 9a71 36bc
000003e0: b3a7 c9bd a340 373c 1680 1bbd 8fff b73d
000003f0: 1cc8 b4bd bc86 bc3c 97b3 ea3a 1e74 54bd
0.1062536 0.37046266 0.47874963 0.15032625 0.5450224 -0.25720358 -0.1231493 -0.175124
-0.26434487 -0.03198026 -0.6734533 0.21849981 0.21217373 0.032121785 0.22479443 0.3510754
-0.03233794 -0.148062 0.11148023 -0.16878898 -0.52662855 0.20656817 -0.24934718 0.38522035
0.08795691 0.0521472 0.38769072 0.2611764 0.35921192 -0.7653811 0.66984856 -0.030376762
-0.88252926 0.4577595 0.19154376 0.18786475 0.23229715 0.03376318 0.056264132 0.8596248
0.14876246 -0.53853005 -0.12162864 -0.9671096 0.23421916 0.0012822201 -0.4640268 -1.187344
0.18386863 0.09554076 0.097051546 0.57507133 0.07655394 0.57497585 0.14052626 0.30849043
0.37535265 -0.6893153 -0.23978536 0.7587167 -0.19882134 -0.015266188 0.029727487 0.68649215
0.300718 -0.81564575 0.09872433 -0.07390698 -0.8907303 0.4645085 -0.14584991 -0.18014228
0.32989252 -0.5178029 0.16000336 0.0723726 0.11085779 0.048730236 0.35474768 -0.20137447
0.13312823 -0.9693934 0.59737486 -0.12227983 0.032062363 -0.04118776 0.17486285 0.13716874
-0.9623261 0.19164497 0.06944255 0.37134692 0.13039018 0.023427188 0.03813013 0.19529268
-1.737427 0.0057370053 -0.055622663 0.075364836 0.30977097 0.7135929 0.15674685 0.6397499
-0.090215296 0.1132047 0.061349157 0.14349468 -0.13801083 -0.059393935 0.1126233 -0.07396522
0.6047993 0.78006643 0.9590674 -0.32739267 -0.01754075 0.09100503 0.07663338 0.44779098
-0.085923895 0.19444218 0.019422939 -0.6797754 0.014660629 -2.4583592 0.18955673 0.13159901
-0.092766225 -0.06404186 -0.0051191403 -0.06758965 0.003730134 -0.06755283 -0.019736009 -0.012200634
-0.009443831 0.049690664 0.016317861 -0.036982257 -0.05548767 -0.012754708 0.07084293 -0.08277453
-0.08935495 -0.09026933 0.06529866 -0.093884915 0.05565793 -0.060817797 0.03400324 -0.07954406
-0.049100723 -0.081476144 -0.062306624 -0.032178864 0.0011791936 0.018581048 -0.09801086 -0.022328489
-0.035319798 0.06396603 -0.09341209 -0.06493658 -0.09042572 -0.016556036 -0.028342873 -0.056092195
-0.07629968 -0.034335215 -0.035455916 0.055838086 -0.086857855 -0.040147863 0.06199832 -0.07865919
-0.011433211 0.0438774 0.038364764 -0.030758442 -0.04329999 -0.031463776 -0.057255805 -0.07688634
-0.041933797 -0.021672087 -0.0033400923 -0.02948072 0.010216206 0.023687972 0.010251073 -0.050037045
0.031221269 -0.075822346 -0.00860583 0.05014357 0.002172923 -0.026022695 -0.10554144 -0.0019550214
0.056539427 -0.10708941 0.024603384 0.05777609 0.07510024 -0.03391536 -0.045110114 -0.085420795
0.051128447 -0.07918443 -0.05672262 -0.04283031 0.07790789 -0.058651805 -0.08061853 -0.08477698
-0.029574685 -0.057980657 -0.05548256 0.054351207 -0.029923206 -0.05895254 -0.013963296 0.012764385
-0.10894807 -0.04160319 -0.05142517 -0.06462325 -0.06790837 0.020639852 -0.069072306 -0.03523555
0.055002194 0.02987598 0.044522036 -0.011347668 0.04874978 -0.07396899 -0.08785022 0.019931467
0.039122377 -0.05239561 -0.026453832 0.057044428 -0.05939838 0.04677183 0.034309443 -0.011135483
-0.09846439 0.011184844 -0.03796395 0.08984291 -0.0882723 0.023013465 0.0017906305 -0.05186855

model_old.model.model.2.bias f4 [128]
00000000: cc76 c7bc cfee a2bd 097a 90bd 33f2 2c3d
00000010: 8194 83bc d0b9 093e bc23 883e a367 a53d
00000020: e004 abbd f83e a93d 65bf 683e 0d7c f83d
00000030: 52e9 4c3e ab26 303c 9af7 acbd 7d62 a63d
00000040: e109 d93d 5f40 223e eec6 2bbd 2d8a 2b3d
00000050: dd83 9ebd 5aa0 053d 7116 78bd 06de c0bc
00000060: 4794 4c3e 6ec4 38bc a757 cabd d6c5 80bd
00000070: 65ba 453e 0544 e73b 5ddf 7a3c 178f 233e
00000080: cbab 1bbd 5fef 923c 05d4 e2bc ac2e 613c
00000090: 121b bbbc 11da 2dbc 3502 97bd 4d6f 85bd
000000a0: 4d7a 683d 8c6d 143e b1a7 123e b179 ca3e
000000b0: 876f c1bc 00de d33d 9584 543b 7d38 663d
000000c0: 3ac8 7d3d b6f4 103e ff4f dd3d 1e3c ee3e
000000d0: c0c1 433b 67af a2be 7bab 04bd 02e0 ff3b
000000e0: 0867 a03d 8f0d b4bc 60b8 843d 42da 21bb
000000f0: 9f9f bcbc 72ea 8cbc 231a 833d ebbe 903d
00000100: d427 e53d c80a 633c c083 9f3c 83e3 1dbd
00000110: e23a b93e 3d7d 173e 510a b93d c735 1e3d
00000120: 9f90 3d3b 6182 ad3d f947 153a 1234 963d
00000130: ca13 133d 9eeb 453e 497b 0a3e f9ab 973d
00000140: 6bf8 74bd 1051 febc d42e 36bd 34a2 9fbd
00000150: 1615 86bc 1d5a 9e3d ea43 1cbd 89d0 943c
00000160: 7b7a 6f3d 0324 a23d 80fe 193c 6741 723e
00000170: 920a de3c b380 c33d d844 26be be7a bd3d
00000180: 435c ccbd e29d a53d e99d 973d 7805 4a3d
00000190: e909 e63a c16b 473c ad31 a03c c25f a03c
000001a0: e8ed 733d 2838 8a3d 5aff 84be ff2c f33e
000001b0: 01fa 2bbd 868a 363d 2edd fd3c 0115 323a
000001c0: c826 ad3d 88cc d23d c9fc 75bd 7758 253d
000001d0: c7e1 6739 3265 76bd 2b4e 7bbd 406b ec3b
000001e0: 579b 03bc 31d4 ea3c 5523 c63d 70be 8b3e
000001f0: 45d1 aa3d 3dc5 33bd 8da1 823e a1a0 aa3e
-0.024348639 -0.079557054 -0.07054526 0.042223167 -0.016062023 0.13449788 0.26589763 0.08076408
-0.08350539 0.082639635 0.22729261 0.12133036 0.2001088 0.010751407 -0.08445664 0.08124254
0.105975874 0.15844868 -0.04193776 0.04187982 -0.07739995 0.032623626 -0.060568277 -0.023543369
0.19978438 -0.011277301 -0.098799996 -0.06287734 0.19309385 0.007057669 0.015312043 0.15972553
-0.03800563 0.017936407 -0.02768899 0.013744038 -0.022840057 -0.010611073 -0.07373468 -0.065153696
0.05675726 0.14494914 0.14321782 0.39545968 -0.02361275 0.103450775 0.0032427658 0.056206215
0.06195853 0.1415585 0.10806274 0.4653024 0.0029870123 -0.31774446 -0.0323901 0.0078086862
0.07832152 -0.021979121 0.06480479 -0.0024696742 -0.023025332 -0.017201636 0.064014696 0.07067665
0.11189237 0.013857551 0.019472003 -0.03854705 0.36177737 0.14793868 0.09035171 0.038625505
0.0028925312 0.084721334 0.00056946237 0.073341504 0.035907544 0.19328162 0.13523592 0.07405848
-0.059807222 -0.031044513 -0.044478253 -0.0779461 -0.016367476 0.077320315 -0.038150705 0.018165844
0.058466416 0.07917025 0.009399056 0.23657762 0.02710465 0.09546032 -0.162372 0.09251927
-0.09978535 0.080867544 0.07403166 0.04932162 0.0017550561 0.012171687 0.019554937 0.01957691
0.059553057 0.06748992 -0.25976068 0.47495267 -0.04198647 0.0445657 0.030989256 0.0006793291
0.084546626 0.102929175 -0.060055528 0.04036757 0.00022113985 -0.0601551 -0.061353844 0.0072149336
-0.008032641 0.028665634 0.09674708 0.2729373 0.08340696 -0.043889273 0.25513878 0.33325675

model_old.model.model.4.weight f4 [4, 128]
00000000: ca92 d6be eb75 1a3d 517b 003f ccbf 93bf
00000010: eac9 00bf 3ead babe db17 69be 726d 45bd
00000020: 3216 e13c ce64 733f aadd 9e3f c0d3 bebe
00000030: cbc4 b4be 8409 aabe 6190 80bd 3394 9abe
00000040: cf5d 4fbe 09c3 84be d978 ceba 171a debe
00000050: c740 b9bd 2a9b d0be fa3d 8a3c d8ec 033d
00000060: d887 a53f db50 adbd e6f7 a93d d8bb 283d
00000070: deb6 bbbe aad8 7e3e 5804 b2be b315 c0bd
00000080: 43a4 373d 79d0 463d 6cf0 e13f 4de0 8ebd
00000090: 0961 05bf ac92 01bf fbda 8e3d 2366 29ba
000000a0: d1e9 02bf ca62 6fbf e7a5 99be 4b00 073f
000000b0: 3038 04bf fba4 9cbe ac6d 02bd 1852 7bbe
000000c0: 763b bcbe e1d1 e03f 0226 e03d ddd4 713f
000000d0: 9029 97be 13ad 68be 08f8 0abd c866 e8be
000000e0: 1c56 a8be 0a59 f8be b737 1cbe f632 773c
000000f0: aa61 82bf 8c31 c83b e03d 763c c79d 9abe
00000100: 5f5b bcbe 00d5 e8be 45cd 90be c5f0 ecbc
00000110: 0106 703f d98c 69bf 287f 1cbf 570f d9be
00000120: 599c b8be 8b1a 92be 4a1c c9bb a63b 32bf
00000130: dfb1 08bf 8eab c0be 0d75 e8be 4848 093e
00000140: bf37 a13a e965 b63c 03ed 3d3d 1bd1 96bf
00000150: 9edf b5be a283 02bf 5e16 01bf f1fe 69bf
00000160: 53e9 f73f 792e babe 6d7d 79be a1a3 12be
00000170: 3323 9ebf 0721 c3be 0daf 3ebf 482f b7be
00000180: e5f3 e6bc 7baf 93be 9eac 14be 5886 7abf
00000190: 1b5a 5e3a 2253 acbe 3327 73bd 1328 07bf
000001a0: e0d1 d6be ad1f fabe 6d27 65be 7931 7e3f
000001b0: c000 63bd ffae b8bb c1b9 09bf 4ec1 efbe
000001c0: 15b0 a8be 277b 96be c961 643d 0d9f 12bf
000001d0: f8b0 bbbe 98ac 4a3d c89b 6d3d 604e c9be
000001e0: 52f6 d03d fd65 cebe 9040 fabe fc6a a13f
000001f0: 42cf dfbe 3839 1bbf c1e3 4e3e 9ae5 c13f
00000200: 3d4e 08bf 1bac dbbb effa 3fbe cbea 7fbd
00000210: c39a 4dbf 5575 02bf 201a 4bbf 6d43 91be
00000220: bdc8 c73b 45c0 9c3f e4c9 9f3f 7b28 a1be
00000230: 3ab5 26bf 5089 61be a8f4 683d 5607 09bf
00000240: 015c 36bf 52b1 1bbf acdf 2e3d bc5c f1be
00000250: b032 703c 9061 f4be f76b 5fbd c129 a6bd
00000260: 01e8 653f a0f6 643e cbca fdbc 96f8 89bc
00000270: 6376 193e 6ee6 4dbe d913 0dbf 869e 09bf
00000280: e6f2 973d 499f cabc 8828 6a3f 3e10 22bd
00000290: 1f21 f6be c980 d4be 970b b3bc c397 4bbd
000002a0: c081 bdbe 9086 4f3d 6431 97be 1901 463f
000002b0: a4cd 08bf 0e59 c0be 6c20 de3c 69e1 9fbe
000002c0: 49df abbe d99d dc3f 0676 a73e 701a 7a3f
000002d0: 3953 cebe 36c9 3d3d a742 a4bb f7e5 9dbe
000002e0: 91fe cebe 9c92 0fbf f05d 7ebe b601 48bd
000002f0: c09b b8be f2ab a4bd 43dd bbbd d3ce 0dbf
00000300: 3e69 7fbe f0cb a1be e25b 78be 216c fbbc
00000310: 795a 143f f174 a83d d6d7 a8be 2f85 dfbe
00000320: db18 acbe e095 18bf 8f06 9b3c bd24 8cbe
00000330: 3700 a6be 9d67 6a3e f3ff d1be 956b 0c3f
00000340: b220 403d 9498 e13c 7b5b 35bc 6f59 f83e
00000350: 83d9 d9be a192 dbbe f81f 00bf 24cb efbe
00000360: 5d2f bd3f 74fb 99be 39c4 10bf a850 ccbf
00000370: 78e8 2dbf 5d19 1bbf 7a78 de3e bd7a 07bf
00000380: e08c 6e3c f492 febe cda6 07bf d63f b73f
00000390: 850d 40bb 55b2 9bbe e612 40bd e259 cfbe
000003a0: df25 9cbe 1a69 03bf 955b 5cbe 1041 773f
000003b0: ffb6 b73c 99cf c8bd 5f76 d5be 69d7 fabe
000003c0: 3ca8 4abe 3cfe 1fbf 26e6 9abc 266d 0fbf
000003d0: a303 f5be d6f1 6fbc f2d0 9bbd 81fd 02bf
000003e0: 143f 4b3e 4900 08bf b065 efbe 4de2 843f
000003f0: 09fd ddbe e03a fcbe e32c 3ebf a88f e93f
-0.41908866 0.03771011 0.50188166 -1.1542907 -0.50308096 -0.36460298 -0.22763006 -0.04820008
0.027476404 0.9507569 1.2411397 -0.37270927 -0.3530639 -0.33210385 -0.06277538 -0.30191192
-0.20250629 -0.2593005 -0.0015752568 -0.4337928 -0.090455584 -0.4074338 0.016875256 0.032208294
1.2932081 -0.084626876 0.08299236 0.041194767 -0.36662954 0.24887338 -0.3476894 -0.09379139
0.044834387 0.04853866 1.7651496 -0.06976376 -0.5210119 -0.5061443 0.06975361 -0.0006462058
-0.51138026 -0.93510115 -0.30009386 0.5273482 -0.51648235 -0.3059462 -0.031842873 -0.24543035
-0.36764115 1.756405 0.109447494 0.9446543 -0.29523897 -0.22722273 -0.033927947 -0.45390916
-0.32878196 -0.4850543 -0.15255629 0.015087834 -1.0186055 0.006109422 0.015029401 -0.301985
-0.3678846 -0.45475006 -0.28281608 -0.028923402 0.9375916 -0.9123054 -0.61131525 -0.42394516
-0.36056784 -0.28535876 -0.0061374055 -0.69622266 -0.5339641 -0.37630886 -0.45401803 0.1340648
0.0012299939 0.022265391 0.04636861 -1.1782564 -0.3552217 -0.50982106 -0.50424755 -0.91404635
1.936808 -0.3636358 -0.24364252 -0.14320232 -1.2354492 -0.38111135 -0.74485856 -0.3577826
-0.02819247 -0.28844818 -0.14518973 -0.9786124 0.00084820547 -0.33657175 -0.059363555 -0.52795523
-0.41956997 -0.48852292 -0.22378321 0.9929424 -0.055420637 -0.0056360955 -0.5379906 -0.46827167
-0.3294684 -0.29390833 0.055757318 -0.5727394 -0.36658454 0.049481004 0.058009893 -0.39317608
0.10203232 -0.40312186 -0.48877382 1.2610774 -0.43712813 -0.60634184 0.20204069 1.5148194
-0.5324438 -0.006703866 -0.18748067 -0.062479775 -0.8031427 -0.50960284 -0.7933674 -0.28371754
0.006096928 1.2246176 1.2483487 -0.31476197 -0.6512028 -0.22025037 0.056873947 -0.5352682
-0.71234137 -0.60817444 0.04269378 -0.47141063 0.014660522 -0.47730684 -0.054546323 -0.08113433
0.89807135 0.22359705 -0.030980488 -0.016842168 0.14986567 -0.20107433 -0.5510841 -0.5375751
0.07419376 -0.024734156 0.91468096 -0.03956627 -0.48072144 -0.41504505 -0.021856112 -0.049705278
-0.37013054 0.05066544 -0.2952987 0.77345425 -0.5343878 -0.37567943 0.02711507 -0.31226662
-0.3356879 1.7235671 0.32707232 0.9769659 -0.4029787 0.046334468 -0.0050128284 -0.30839512
-0.40428594 -0.56083083 -0.24840522 -0.048829757 -0.36056328 -0.080406085 -0.09173062 -0.55393714
-0.2494249 -0.31600904 -0.242538 -0.030691208 0.5795055 0.0822543 -0.3297717 -0.436563
-0.33612713 -0.5960369 0.018924026 -0.2737178 -0.3242204 0.22891088 -0.41015586 0.5485166
0.04690618 0.027538575 -0.011069174 0.48505732 -0.4254876 -0.42885306 -0.5004878 -0.46834671
1.4780079 -0.30074656 -0.5654941 -1.5962114 -0.67932844 -0.60585576 0.4345129 -0.5292166
0.014559954 -0.4972149 -0.5298889 1.4316356 -0.0029304933 -0.30409494 -0.046893023 -0.40498263
-0.30497643 -0.5133225 -0.21519311 0.9658365 0.022426127 -0.09805221 -0.41691872 -0.4899247
-0.19790739 -0.62497306 -0.018908571 -0.5602592 -0.47854337 -0.0146450605 -0.076082125 -0.51168066
0.19848281 -0.53125435 -0.4675727 1.0381562 -0.43357113 -0.49263668 -0.7428724 1.8246965

model_old.model.model.4.bias f4 [4]
00000000: d6d8 563d cd5a e0bc 6ea0 333e 2338 c8bb
0.052452885 -0.027387047 0.17541668 -0.0061102076
