rl_compexp/save/LL_hyper/LunarLander-DQN-64x3/dqn.pth (torch, 157358 bytes, 32 tensors)

model.model.model.0.weight f4 [64, 8]
000000 8a fc 5d be ee 23 d3 3e 49 49 8a 3e e6 c8 68 3f
       -0.21678367 0.4123835 0.27009037 0.90931547
000010 55 ca 20 bf 2c 8e 21 3f be 88 5f 3f 7c 08 4f 3e
       -0.62808734 0.6310756 0.87318027 0.2021808
000020 44 1c 28 bd 15 6c 76 be 08 04 88 be b5 25 35 3f
       -0.04104258 -0.24064668 -0.26565576 0.7076066
000030 a6 01 81 3e 1f e4 20 be 1f 3e 57 bf b0 9c 39 bf
       0.2519657 -0.15712021 -0.84079164 -0.7250471
000040 52 fc 33 3f 1e e9 23 3e fc 78 fa 3e 8e e0 97 bc
       0.70306885 0.16006896 0.4892043 -0.018539693
000050 d3 ec cb be bc 3e 80 bf 0c 61 76 be c2 03 1d 3e
       -0.3982912 -1.0019145 -0.24060458 0.15333465
000060 97 27 10 3e 3f c2 21 3c 94 f1 97 bf 7a b5 51 bf
       0.14077602 0.009872972 -1.1870599 -0.81917536
000070 43 1d 06 bc 8f 7d 44 3e e8 f7 11 3d cd 42 b3 3d
       -0.0081856875 0.19188522 0.035636812 0.087529756
000080 65 1e 2c 3f 97 45 47 3d 56 cb 42 3f b6 19 e2 3d
       0.6723388 0.04865035 0.76091516 0.1104006
000090 59 ab 73 bf 09 aa bb 3c 88 69 9f be 15 0f bc 3d
       -0.9518333 0.022908228 -0.311352 0.09182564
0000a0 f9 1d 60 be df dd 15 3d b2 5a ac bf e3 af 18 3f
       -0.21886434 0.036588546 -1.3465178 0.5964338
0000b0 03 2d 8f 3e 1d 9d 1a 3d ec e3 e9 3d e2 65 91 3e
       0.2796403 0.03774749 0.11420426 0.28398043
0000c0 22 53 b1 3e 56 b9 f6 bd 36 0a 8b be 96 4a 3e 40
       0.34633738 -0.12047069 -0.27156228 2.9733024
0000d0 a9 db f5 be 55 5d f9 be 86 bb bf 3e 3c 37 a6 be
       -0.4801915 -0.4870402 0.37447757 -0.32464015
0000e0 2e a9 c9 3d 55 41 b4 3e 0e bb dc be 62 47 c2 3e
       0.098467216 0.35206094 -0.4311146 0.37945086
0000f0 c4 65 f3 bd 11 81 85 3e 62 09 26 bf 7f e7 5f bf
       -0.11884645 0.26075032 -0.6485807 -0.8746261
000100 49 63 77 be 2c 33 ba 3d 45 1b e1 3d 7c 61 28 bb
       -0.24158968 0.090917915 0.109915294 -0.002569287
000110 0c f3 64 3e 65 e0 c8 be d2 c2 dd bd 5d 81 d7 bd
       0.2235834 -0.392337 -0.10828175 -0.10522721
000120 59 19 33 bf d8 68 e7 bd b8 12 b5 be 98 fd cf 3e
       -0.6996055 -0.11299294 -0.35365844 0.40623164
000130 f5 a2 0c bf 99 07 2f bf de 0e 58 bf 1f a7 94 3d
       -0.5493615 -0.6837097 -0.84397686 0.07258438
000140 f4 fa 25 3d c6 1b bb bd 79 3d e3 bd 08 ae 10 be
       0.04052253 -0.09136157 -0.11095709 -0.14128888
000150 83 c0 d2 bf 92 c2 08 3b 95 5e 4d 3f bd 20 ea bc
       -1.6465 0.0020867926 0.80222446 -0.028580064
000160 62 0b 0f 3e bb 83 0b be 29 6f 5f be c9 b2 04 bf
       0.13969186 -0.1362447 -0.21819748 -0.51835304
000170 d3 ff 88 3f ab 3b e9 3c 28 c7 de 3e df 5c e8 3e
       1.0703071 0.028470835 0.4351132 0.45383355
000180 1f 7f 0f 3f 70 53 66 be 28 4c 94 be 89 d5 29 be
       0.56053346 -0.22492766 -0.28964353 -0.16585363
000190 61 a6 20 3f 37 3b 65 3d 47 ff 04 3f 76 67 bb 3e
       0.62753874 0.055964675 0.5195202 0.36602372
0001a0 4a 4a 43 be a2 4d c3 be 65 8f f0 be 7f 0b d7 be
       -0.19071308 -0.38145167 -0.469844 -0.42000958
0001b0 b6 66 7f bd b8 18 81 3f be d3 eb 3d 72 af 0f bf
       -0.062353812 1.0085669 0.11514996 -0.56127083
0001c0 b8 d1 62 be aa 78 c1 be 2d 39 9a bf 78 94 99 3e
       -0.22150314 -0.37787372 -1.2048699 0.29996085
0001d0 97 37 07 3d ae c1 9d be f1 4c b5 bd 88 7c 04 bf
       0.033012 -0.30811828 -0.08852566 -0.5175252
0001e0 69 4f b2 be e1 98 98 bf 96 f9 72 3e 5d b0 49 bf
       -0.3482621 -1.1921655 0.23728022 -0.78784734
0001f0 e6 da ec be cf 6e a0 be f5 72 46 bf e6 f3 72 bd
       -0.46260756 -0.3133454 -0.7751916 -0.05931463
000200 6a 15 ca bd 56 47 55 be 37 c0 6c be 10 62 f2 be
       -0.09867366 -0.20827994 -0.23120199 -0.4734044
000210 a5 9f dc 3e fd ad 00 3e 72 d4 f5 be 2e 1a df 3d
       0.4309055 0.12566371 -0.48013645 0.10893665
000220 2c b5 2c be 4a 01 b7 bc 1f 10 6d bf 68 4f 76 3e
       -0.16865987 -0.022339482 -0.92602724 0.24053729
000230 4b db 69 3f 1a cb f0 bd 4a 27 cc 3e 0f 03 39 3e
       0.9135024 -0.117574885 0.39873725 0.18067573
000240 a5 eb c3 3e 86 ab c7 3d 5b 91 b6 3e ac 14 ab bd
       0.3826572 0.097495124 0.35657772 -0.08353552
000250 05 ed 0d bf ba 17 84 bf 9f f5 f3 bb b6 2a 86 be
       -0.5543979 -1.0319741 -0.007445052 -0.2620446
000260 5c aa f0 be 74 9a 98 bd 35 ad 52 bf 13 fa 9a 3f
       -0.47004974 -0.074513346 -0.8229554 1.2107567
000270 3d e5 0e 3c aa 8f d5 3e 43 93 9b 3e 09 a8 0b bc
       0.008721647 0.4171117 0.3038579 -0.008523949
000280 84 4e 1a 3e 71 8f 0e 3d 74 a7 5b bd aa 62 d1 3e
       0.15069014 0.034804765 -0.053626493 0.40895587
000290 b3 a1 8b 3f 1d 64 8c 3f 3b c6 5c 3e 7e 24 ca be
       1.0908722 1.0968052 0.21559994 -0.39480966
0002a0 62 87 4b bf ba 4d db bf 5b f1 d1 bd cd c5 4e be
       -0.7950345 -1.7133095 -0.10251113 -0.20192643
0002b0 8c e0 0d be 66 51 7b 3e 4c 9f ef 3e 1b c4 66 3e
       -0.13855189 0.2454277 0.4680122 0.22535746
0002c0 23 2e 5f 3d 8e 31 87 3e 65 5a 02 3f 65 b7 84 3e
       0.05448736 0.26404995 0.5091918 0.2592117
0002d0 7f 2e 45 bf c8 f2 30 3f 18 20 bd be bb f2 b2 3d
       -0.7702407 0.69120455 -0.36938548 0.087377034
0002e0 bc cb 7f 3c a2 0d b8 bd db 4a 53 be 11 ec 1b be
       0.015612539 -0.08986975 -0.20634024 -0.15226771
0002f0 19 04 5d 3f 05 ff 8d 3f 2d d9 3f 3e e7 ae 07 bf
       0.8633438 1.1093451 0.1873519 -0.53001255
000300 ed 4c 10 bf 00 d9 ec be f3 1d db be 66 b1 95 3e
       -0.5636738 -0.46259308 -0.42796287 0.29236907
000310 72 b6 3f 3f 8d 27 52 bd 6c 3e 1d 3e c2 8e 1d 3e
       0.74887764 -0.05130725 0.15355843 0.15386489
000320 e3 01 59 3f 19 53 c3 3e 9b 7d 3c bf 1d a0 26 bf
       0.84768504 0.38149336 -0.7362916 -0.65088063
000330 25 ba 24 3e 46 33 f0 be 95 a3 25 be fc a2 9b be
       0.16086634 -0.4691412 -0.16175683 -0.30397785
000340 19 84 00 3f 6c 42 f6 be 23 a6 8c 3d f0 9f dd be
       0.50201565 -0.4809755 0.068676256 -0.43286085
000350 69 cf d3 be a6 02 27 3e 01 2d 1d 3f 5a 06 8b 3d
       -0.4136918 0.16309604 0.61396796 0.06788321
000360 d3 52 29 bf 8d 0e 90 bf b9 ab 21 bf 71 71 64 be
       -0.66142005 -1.125444 -0.6315265 -0.223089
000370 db fb 1d 3f 5c 48 1f 3d 65 c7 94 3e 17 f6 99 3d
       0.61712426 0.038887367 0.29058376 0.07517641
000380 d9 8b ab 3c 25 e5 c1 be 0d 10 e9 3e 38 87 d7 be
       0.020940708 -0.37870136 0.45520058 -0.4209535
000390 2b 4c 24 bf c4 c2 07 3f 88 99 07 3f db 8d 56 bf
       -0.64178723 0.53031564 0.52968645 -0.83810204
0003a0 63 4c 76 3e ca 00 9b 3e 1f d3 4b 3f 77 e8 82 be
       0.24052577 0.3027404 0.7961902 -0.25567982
0003b0 32 87 94 3f 72 26 a0 3e 44 90 ae 3d 84 79 12 bf
       1.1603758 0.3127933 0.0852361 -0.5721667
0003c0 15 98 3b 3e 0b 70 21 3e 91 fe 59 be 79 88 e8 bd
       0.18319733 0.15765397 -0.21288516 -0.11354155
0003d0 44 66 48 3f 62 8b 35 3f c9 40 b5 3e 48 02 c8 bd
       0.78281045 0.70915806 0.3540099 -0.0976606
0003e0 1d 9a f3 3c 4b f2 f6 3e 93 bf 47 3f e2 ae fe be
       0.029736573 0.4823173 0.78026694 -0.497428
0003f0 38 3c 9d 3f 0f b0 84 3e a2 3d 1d 3e a6 21 2e be
       1.2284002 0.25915572 0.15355542 -0.17005023

model.model.model.0.bias f4 [64]
000000 c9 60 bf 3e f7 ad b7 3e 1f 57 39 3e 54 30 bc 3b
       0.3737853 0.35874912 0.1809964 0.005743066
000010 74 ed c9 3e 3f b6 17 3d 13 fd 0c 3d b6 89 ad 3d
       0.39438975 0.037039038 0.034421038 0.08473532
000020 fd 4f 80 3e ef 6f 2a be ce d2 82 3e 6c ab 09 3e
       0.25061026 -0.16644262 0.25551456 0.13444299
000030 41 76 01 3f 5d bf 0d be 24 38 59 3d 72 44 04 bd
       0.50571066 -0.1384253 0.053032055 -0.032291837
000040 da 66 35 bf a5 3e 9d 3e b7 56 1a bd 1e 68 13 bf
       -0.70860064 0.30711856 -0.037680354 -0.57580745
000050 24 59 c1 3e 79 12 01 bf aa a4 f6 be 9d f7 4b be
       0.3776332 -0.5041881 -0.48172504 -0.19918676
000060 fc 0f 00 bf 54 4c 93 3e c8 15 dc 3e 2b 7b a9 be
       -0.5002439 0.2876917 0.42985368 -0.33101782
000070 03 03 14 3f 11 e0 d6 3e b2 34 6c be aa 48 18 3e
       0.57817096 0.41967824 -0.23066977 0.14871469
000080 29 85 0e be bf ec a7 3c 4b 84 31 be 1d 00 1e bd
       -0.13917984 0.020498632 -0.17335622 -0.038574327
000090 e9 b8 96 3e ca 13 37 bd b8 a0 ee 3c bd 7d cd be
       0.2943795 -0.044696607 0.029129371 -0.40134993
0000a0 f7 cd 11 3f f0 5d 31 bc a4 7a 90 3e 8e 8c 66 be
       0.569549 -0.010825619 0.28218567 -0.22514555
0000b0 59 1e c5 3e f1 00 a3 3e 21 12 51 bf 4b 14 0f 3f
       0.38499716 0.31836656 -0.8166829 0.5589034
0000c0 b5 77 19 be 30 88 2a be 17 f4 28 be 1c 31 ca 3e
       -0.14987071 -0.16653514 -0.16499363 0.39490592
0000d0 dc 8d a5 3d 0d ca a4 3e fa c8 4a bd 45 8f 3b be
       0.08083698 0.32185403 -0.049508072 -0.18316372
0000e0 ce a6 bb bc 5a a4 ab 3c 3c 35 9d 3d 8a 56 7f 3e
       -0.022906687 0.020952392 0.07676169 0.24935356
0000f0 f1 bc 85 be 43 90 e9 3e 2a 28 2c be c1 59 36 3e
       -0.26120713 0.45617875 -0.16812196 0.17807676

model.model.model.2.weight f4 [64, 64]
000000 7c 52 05 bf f6 be 5e be a8 fe 6f 3e d7 b0 2c be
       -0.52078986 -0.21752533 0.23436987 -0.16864334
000010 de 67 1d 3e 4a a5 d4 be 5d 4c 6e 3d fa ea 0a bf
       0.15371653 -0.41532356 0.058178294 -0.54264796
000020 64 e5 15 bf 6a e2 5f be 09 cb c9 be 50 4e 20 bf
       -0.5855315 -0.21863714 -0.39412716 -0.62619495
000030 f0 ba c3 3c f7 6e 7f 3d 1a e7 98 3e cf 28 8e 3d
       0.02389285 0.062361684 0.29863816 0.06941377
000040 9e ab 8d 3d cf eb 1c be 9d 06 aa 3e 4e 99 81 3f
       0.06917499 -0.15324329 0.3320817 1.012491
000050 00 29 5c bf 79 c7 1b 3d 06 c4 3d be 57 4c ee 3d
       -0.8600006 0.03803203 -0.18531808 0.116356544
000060 f6 83 21 bf bb ff c7 bd 64 a9 f5 3e a3 95 28 3c
       -0.6309198 -0.097655736 0.47980797 0.010289582
000070 40 f3 31 3e 9f b8 f7 be b7 23 ba 3c 47 31 be be
       0.17377949 -0.48383042 0.022722108 -0.3714697
000080 a7 62 28 bf 20 c9 b9 3d ab db 33 3e f8 b0 b7 be
       -0.6577553 0.09071565 0.17564265 -0.35877204
000090 06 5e 09 be 71 73 40 3f 4e f9 ab 3e e3 82 82 bf
       -0.13414773 0.7517615 0.33588642 -1.0196193
0000a0 26 37 09 be 61 4a 89 be a7 4d 75 be f2 4d 01 3f
       -0.13399944 -0.2681456 -0.23955403 0.5050956
0000b0 f6 6f c4 3b 47 45 36 bf 86 31 12 bf 5e c6 3c bf
       0.005994792 -0.7119946 -0.57106817 -0.73740184
0000c0 72 89 02 3e 8f 6f b3 bd 1d fc 0c 3e 9d b8 99 be
       0.12747744 -0.087615125 0.13768049 -0.3002366
0000d0 68 a1 98 3e 49 dc c3 bc bb f3 5d bd 15 50 c1 be
       0.29810643 -0.023908751 -0.054187518 -0.3775641
0000e0 ea ad 91 3e 81 07 d6 3e b0 4a d9 bd 7d b9 8e be
       0.28452998 0.418026 -0.10609949 -0.2787589
0000f0 d6 5c 96 3e 71 6a ad 3d f7 ee 12 bd 46 68 49 be
       0.29367703 0.08467568 -0.035872426 -0.19668683
000100 e0 2e ed 3d e2 d6 f3 3d f5 78 59 3e 72 f0 48 bf
       0.11581206 0.1190622 0.21237548 -0.7849189
000110 ca 4d c6 3c d4 57 8c bf de f1 0a c0 17 7b c9 bd
       0.024207015 -1.0964303 -2.1710124 -0.09837931
000120 c0 2c c2 3d 8c e3 c5 bc 0c 59 2b 3d 25 f5 1e be
       0.09481192 -0.024156354 0.04183297 -0.15523203
000130 a0 0c 83 3e ff 26 15 3e c2 7a 07 3f 18 7e 12 bf
       0.2559557 0.14565657 0.5292169 -0.57223654
000140 1e 9c c4 3d 70 c2 61 3d 4f a2 dd 3e 5e 0c 98 3e
       0.096000895 0.05511707 0.43287894 0.29696935
000150 20 f7 a9 be d3 ce 66 3f c3 c0 c8 be 8a 0e f2 be
       -0.33196354 0.9015934 -0.39209566 -0.47276717
000160 3e 66 c5 be 01 82 01 3f 99 d2 e1 3d 1e 97 35 3f
       -0.38554567 0.50588995 0.110264964 0.7093371
000170 9e 15 86 3d 65 78 08 bf 63 ff ae be 89 f8 61 be
       0.06547092 -0.5330871 -0.3417922 -0.22067465
000180 17 7f 50 3f 31 7b ba bc a1 95 59 bd f0 5f 9e be
       0.81443924 -0.02276382 -0.053121213 -0.3093257
000190 0e fe 19 3e b6 ba ee 3d 04 5c 95 3e 5c 73 0c c0
       0.1503832 0.11656706 0.29171765 -2.194541
0001a0 42 79 c3 bc f1 c1 22 bd ef 76 ca be 62 05 37 3f
       -0.023861531 -0.03973574 -0.39543864 0.7149259
0001b0 3b 93 b2 3e 99 7d 20 bf 8d 11 83 be 31 50 c6 bd
       0.34877953 -0.62691647 -0.25599328 -0.09683264
0001c0 7a 39 29 3e 3d 2d 74 3d fc cc 72 bd cb cf a2 3d
       0.16525832 0.059613455 -0.05927752 0.079497896
0001d0 df d1 a6 3c 04 99 3e 3e ed b2 59 bd 8a c6 43 bf
       0.020363746 0.18613058 -0.053149153 -0.7647482
0001e0 c4 99 96 bc 33 bf af 3e 9b 9b 49 3e 0e ac 00 bd
       -0.018383868 0.3432556 0.19688265 -0.031414084
0001f0 80 04 e5 3e cc 6e 8a 3e 65 ec cf 3e 55 67 21 be
       0.44729996 0.27037656 0.40610042 -0.15762074
000200 74 ff f5 be c0 26 1f 3f fb 7c 9c be 9b d9 32 3f
       -0.48046458 0.621685 -0.30564103 0.6986329
000210 ce 7c fc bd a1 b1 06 3e 47 e3 7f bf df 93 60 be
       -0.12328492 0.13153698 -0.9995617 -0.21931408
000220 d7 de 32 be b6 a8 39 bf 7b 9b 4d 3e 4b f7 1e bd
       -0.17467819 -0.7252306 0.20078842 -0.038810056
000230 78 da 83 3e 4c 65 3c 3f 0d 26 fd 3e dc 93 86 3f
       0.25752616 0.73592067 0.49443093 1.0513873
000240 d1 a5 e1 be 7d 31 aa 3d 26 cc 16 be 1d 74 88 3f
       -0.4407182 0.083102204 -0.14726314 1.0660435
000250 cb ab 2e 3e 55 fe 07 3f 03 ec 4a 3e 93 7f d4 3d
       0.17057721 0.53122455 0.19816594 0.10375895
000260 5e fe a6 bf cf bf 7e 3e 7b 89 09 3f 6d c3 9e 3e
       -1.3046377 0.24877857 0.53725404 0.31008473
000270 23 63 12 3f e0 ed 3a bf 5d 7a 7f 3e 36 1e 11 bf
       0.5718252 -0.7301922 0.24949022 -0.56686723
000280 99 55 8d bf ed 17 9e be 40 a1 8d 3e 38 13 87 be
       -1.1041747 -0.3087763 0.27662086 -0.2638185
000290 7f 55 40 3e 21 0b a7 3f 97 33 da 3e 64 f4 02 c0
       0.18782614 1.3050271 0.42617485 -2.0461664
0002a0 c5 11 12 3f 07 b3 54 3d 54 06 ad 3e bd 7a a8 3e
       0.57058364 0.051928546 0.3379389 0.32906142
0002b0 11 bb 1e 3e bd b3 a5 be d0 5e 05 c0 3c 88 36 bf
       0.15501048 -0.32363692 -2.083912 -0.7130163
0002c0 7f a5 31 3f d1 34 ff 3e 27 47 91 3e f5 98 43 3e
       0.6939315 0.49844983 0.28374597 0.19101317
0002d0 23 90 33 3f 74 75 d0 bd f5 59 47 bf 48 1c f0 3e
       0.7014181 -0.101786524 -0.7787164 0.46896577
0002e0 15 cc d4 3e 0a a7 54 3f 62 d9 c4 3d 4f 54 e2 bd
       0.41561952 0.8306738 0.09611775 -0.11051237
0002f0 1d 81 1d 3e 3c d6 57 3e ce a3 41 bf f6 1e 80 be
       0.15381284 0.21077818 -0.7564057 -0.2502362
000300 c6 b8 80 39 de cb 19 be a1 eb 5d 3e ed e8 09 c0
       0.0002455173 -0.15019175 0.21671917 -2.1548417
000310 d2 61 4a 3e 2c d3 c0 bf df 34 8d bf 96 51 6f 3e
       0.19763878 -1.5064445 -1.103176 0.23370966
000320 1b 14 16 3d dc 4f 70 3e 31 ef 50 3e b2 6f d5 be
       0.036640268 0.23467964 0.20403744 -0.4168678
000330 9e e0 40 3e 41 9e 1d 3e 00 e9 a3 3e 7e 48 5e bf
       0.18835685 0.153924 0.32013702 -0.86829364
000340 91 a1 0c bd 3d 24 22 3e c9 d9 e4 be 07 18 3e 3f
       -0.03433377 0.15834136 -0.44697407 0.7425541
000350 a2 a2 a8 3e 17 6c e8 3e 26 54 6e bf 76 6c 1b be
       0.3293658 0.45394966 -0.9309715 -0.15178093
000360 4e 5b 20 bf d3 4d 20 be 22 ab 6a 3e d6 95 0d bd
       -0.6263932 -0.15654688 0.22916844 -0.034566723
000370 75 5d e3 3e 31 44 1f be 14 88 78 3f 61 57 8a bd
       0.4440724 -0.15553357 0.9708264 -0.067549475
000380 9b 98 77 3f 01 c6 08 3d b3 db 8a 3e ea 75 fd be
       0.9671723 0.033391956 0.27120742 -0.49504024
000390 73 f1 a9 3e a0 45 c8 be bc df ab 3d 4b 52 96 bf
       0.33192024 -0.3911562 0.08392283 -1.1743864
0003a0 f2 45 97 bf 26 0a 95 bf 0c f8 11 bf 29 e5 db 3e
       -1.1818221 -1.1643722 -0.57019114 0.42948273
0003b0 2d b5 80 3e 2a 7d d7 bf 45 39 b6 3e c5 e4 8d be
       0.25138226 -1.6835072 0.35590568 -0.277136
0003c0 de c3 cb 3d 66 3c 4d bf 94 74 d3 3f b9 fc 8c 3e
       0.09949468 -0.80170286 1.6519952 0.27536562
0003d0 82 82 df be 6d ee 89 be 58 78 64 be 89 8a 60 bf
       -0.43654257 -0.26939717 -0.22311532 -0.8771139
0003e0 b7 cf df 3e b5 ea d2 3e a6 28 e7 3e 91 05 af 3e
       0.4371316 0.41194692 0.451482 0.34183934
0003f0 75 1d 08 3f 37 03 9c 3d 49 88 99 3b 78 61 d1 bd
       0.5316995 0.07617801 0.004685436 -0.10223669

model.model.model.2.bias f4 [64]
000000 ed 82 de be 4f f4 d6 bd e6 e4 6d be 31 12 75 bb
       -0.43459263 -0.10495817 -0.23231849 -0.0037394876
000010 fe 00 46 be 3a 46 de 3d 30 6c 09 bf fc ff 04 bd
       -0.19336316 0.108532384 -0.53680706 -0.03247069
000020 d0 3d a0 3e 78 67 aa be 53 b1 18 3e 11 56 0b 3e
       0.3129716 -0.33282065 0.14911394 0.1360705
000030 69 74 6a bd f8 0c 46 3c 6b a2 b0 3e e6 e0 a4 3d
       -0.057239924 0.012088053 0.34498915 0.080507085
000040 48 06 16 3e 6f b0 6b 3e 85 61 8a be 5f ce 4c be
       0.14650834 0.23016523 -0.27027526 -0.200006
000050 c1 a4 35 be 1d 32 e7 bd ef ea d2 3e b1 32 77 3d
       -0.1773863 -0.11288855 0.41194865 0.060351077
000060 d3 68 c4 3e 4c ad 29 bd c8 fe 08 3e 96 1f f0 bd
       0.38361225 -0.041425034 0.13378441 -0.117247745
000070 f9 2e f1 3d bd 66 1d 3b ee fb 32 3d ac da 1f 3f
       0.117765374 0.0024017536 0.04369729 0.6244304
000080 bc 89 00 3e 77 ac 04 be ad a0 0e bd 19 b0 6a 3d
       0.12552541 -0.12956415 -0.0348212 0.057296846
000090 ee 42 b2 bc 54 8e d0 be ea 3c ee 3d 6d 58 fd bd
       -0.02176043 -0.40733588 0.11632712 -0.123703815
0000a0 a9 a5 dd bd af b9 6a bd 1f 5b b1 3d 04 1d c0 be
       -0.10822613 -0.057305988 0.08659958 -0.37522137
0000b0 f4 23 03 3e 35 e7 04 3d c5 0a 3e 3e e1 17 1c be
       0.12806684 0.03244706 0.18558796 -0.15243484
0000c0 83 dc 23 bd 5f d0 de bd 9b fa 03 be 9f 0e 76 3e
       -0.04000522 -0.108795874 -0.12888567 0.24029015
0000d0 fb 31 bc bc bf df 38 3e a6 6b b6 bd 53 f8 98 3d
       -0.022973051 0.18054102 -0.08907251 0.07469239
0000e0 21 b8 9e 3d 2e 42 ed 3e d6 fa e3 3c 8f 24 ff 3d
       0.077499636 0.46339554 0.027829569 0.12458145
0000f0 93 05 1c be b1 dc dc be 06 88 9a bd 47 d6 72 3e
       -0.15236501 -0.43137124 -0.07545476 0.23714553

model.model.model.4.weight f4 [64, 64]
000000 21 72 5e 3d 53 22 12 3c de ca 21 be 47 c9 59 bd
       0.05430806 0.008919316 -0.15800044 -0.05317047
000010 7f 80 a3 3c e3 28 14 be e8 62 11 bd 93 21 41 3d
       0.019958733 -0.14468722 -0.035494715 0.04715116
000020 b2 db 9e 3d e5 ed 4b bd ce 0c 6d be 59 05 97 bd
       0.07756747 -0.04978742 -0.23149416 -0.07374067
000030 41 84 2d bd 94 46 a0 bd 24 36 97 bd 73 a3 f1 bc
       -0.042362455 -0.07825962 -0.073833734 -0.029496884
000040 8c 6b 59 bc 82 b0 6b be 39 4d 87 3b e0 9a 1b be
       -0.01327027 -0.23016551 0.0041290787 -0.15195799
000050 d4 36 7d 3c 2a b0 01 3e 37 b4 4d 3d d2 29 5f bd
       0.015454967 0.12664858 0.050220694 -0.054483242
000060 38 3f 15 bc f8 ad 9d bc 74 c9 71 bd a4 07 0a be
       -0.009109311 -0.019247994 -0.05903001 -0.13479477
000070 0e 2a 54 3d 65 28 57 3d 16 39 ab bd a4 f2 cc bd
       0.05179792 0.052528758 -0.08360498 -0.100072175
000080 ad 25 32 be 06 a5 ac bd 69 f2 4d 3d b8 f7 25 be
       -0.17397185 -0.08429913 0.05028001 -0.16207778
000090 af 8f a9 3c 33 e5 1a 3d 28 ea 35 bd f2 53 04 bd
       0.020698396 0.037816238 -0.044412762 -0.03230662
0000a0 70 6a 77 bc 99 97 45 be f5 b1 da bd 11 af cb 3d
       -0.01510106 -0.19296111 -0.10678474 0.09945501
0000b0 08 32 3e bd 04 94 97 3d 4f ad 82 3d 94 09 ed bd
       -0.046434432 0.074012786 0.06380712 -0.115740925
0000c0 e6 8b 28 be 20 88 5e 3c 81 8d 31 bd 18 da bb bc
       -0.16459617 0.013582259 -0.04334784 -0.022931144
0000d0 71 7d c4 bd f3 19 16 bd 87 93 ae bd 0d d5 be bc
       -0.095942385 -0.03664584 -0.08524232 -0.02329495
0000e0 9e fd e5 bd 8b 51 9f 3d 93 b1 75 3d b3 8b 1e bd
       -0.11230014 0.07779225 0.0599838 -0.038707446
0000f0 3e 66 c3 3c ba 78 22 3c 1b 0b 02 3d 22 2a 94 3d
       0.023852464 0.009916479 0.031748872 0.07234599
000100 09 00 1a 3f 8f 1c 39 bf f6 6b 90 3f b5 e2 2e 3f
       0.60156304 -0.723092 1.1282947 0.6831468
000110 c5 eb 5f 3e c2 b9 bd 3e 19 8b a4 3e 3c 48 e2 bd
       0.21867283 0.37055784 0.32137373 -0.11048934
000120 64 fc cd 3e 38 59 f1 3e 2d 65 33 3f aa b3 05 bf
       0.4023162 0.4713838 0.70076257 -0.5222727
000130 c6 e9 c0 3e 44 f7 99 3e 0c 19 08 3e de 92 b1 3e
       0.37678355 0.3007146 0.13290805 0.34682363
000140 f9 f5 fb 3e fa 3d 04 bd fd 69 84 be a7 22 21 3f
       0.492111 -0.032285668 -0.25862113 0.629435
000150 bc 32 89 3e 0e c2 9e 3d b6 4b 13 bf 81 9c 48 3e
       0.2679652 0.07751857 -0.575374 0.19590952
000160 34 8a b6 be 88 5a 59 3d ee d5 60 3e c2 66 3e 3f
       -0.35652316 0.053064853 0.21956608 0.74375546
000170 19 3b c2 3e e7 d8 90 3e 69 76 d1 3c 17 8e 88 bc
       0.37935713 0.28290483 0.025569158 -0.016669316
000180 80 35 ae 3e 3e dd 5f 3d 82 30 25 3f 31 64 00 3f
       0.34025192 0.054654352 0.6452714 0.5015288
000190 62 54 bf bd d2 4a 22 3f d4 ec 87 3e e2 f6 f3 3e
       -0.093422666 0.63395417 0.26547873 0.47649294
0001a0 ef a2 56 bd f3 38 fa 3e de d6 ab bd 64 de 43 3f
       -0.05240148 0.48871574 -0.08390592 0.76511216
0001b0 96 84 84 3f de 00 0c 3f bd 74 0a 3f b5 dc ea 3c
       1.0352962 0.54688823 0.5408438 0.028669694
0001c0 dd e1 d6 3e a0 0b b9 bd e8 f6 3c 3e ba b4 99 3d
       0.41969195 -0.090354204 0.18453562 0.07505174
0001d0 56 87 66 3f c1 2b 89 bf d7 c9 7e 3f 03 fe 50 3e
       0.90050256 -1.0716478 0.99526733 0.20409398
0001e0 db 8a 12 3e a5 55 8f 3e bc cf 38 3f f9 48 08 bf
       0.14310782 0.2799503 0.7219198 -0.5323635
0001f0 47 77 82 3e 3c 1d 7e bf 14 81 a9 be 88 43 e0 3e
       0.25481626 -0.9926336 -0.3310629 0.43801522
000200 0b 1c 1e be d7 dc f3 3e 41 3f 8b be a9 65 c8 3c
       -0.15440385 0.47629425 -0.27196696 0.024462538
000210 0d 07 2f 3e e4 7b 9b bd 18 d4 6d be 02 0e af 3d
       0.17092533 -0.0759199 -0.23225439 0.08547594
000220 eb f0 81 3e 25 c1 73 be d3 dc 61 be 2a f8 59 3f
       0.25379118 -0.23804148 -0.22056894 0.85144293
000230 ee 69 84 bd 44 1f a2 be b7 92 29 bd 30 53 b9 bd
       -0.06465517 -0.3166448 -0.041399684 -0.0904907
000240 e1 97 53 3e 02 39 88 3d 64 bc 4c be 16 55 47 bf
       0.20663406 0.066514984 -0.1999374 -0.77864206
000250 c0 d3 23 be f2 29 a5 bd 5d a8 12 3f ea 0e 90 be
       -0.15998745 -0.08064641 0.5728815 -0.2813638
000260 01 cb 0e 3f 9a 18 b4 bd ff e9 a8 3d 9b a8 f7 3e
       0.5577851 -0.08793755 0.08247756 0.48370823
000270 35 ae f7 3e 51 ce a3 3d 91 7c 5c be 61 ff 2f 3e
       0.48375097 0.07998336 -0.21531893 0.17187263
000280 30 24 82 3e 58 15 71 bc 93 4b 4c 3f 08 04 f7 3e
       0.25418234 -0.014714561 0.7980282 0.48245263
000290 c7 3c 72 3e 61 40 63 be fb 4c 02 3e 4a 0f ed bc
       0.23655997 -0.22192527 0.12724678 -0.028937954
0002a0 67 c7 1c be ef 25 6e bd 14 d6 8c 3e d0 93 60 be
       -0.15310441 -0.058141645 0.2750708 -0.21931386
0002b0 a0 4c 72 be f8 b2 3b 3e 66 10 34 3e 27 b4 90 bd
       -0.23662043 0.1832999 0.1758438 -0.07065611
0002c0 61 69 44 be 8f 01 2d 3d 5a 5e 76 be c3 b1 23 be
       -0.19180824 0.042237815 -0.2405943 -0.1598578
0002d0 97 5c 97 3e c0 02 0c 3f bf 98 2f be a2 3d dd 3d
       0.29562828 0.54691696 -0.17148112 0.10802771
0002e0 d2 c6 4e be b5 bb 56 3e a8 3c a7 3d dd 82 f0 3e
       -0.20193031 0.20970042 0.08165866 0.4697484
0002f0 73 b3 38 3d 22 c6 2c bf 35 59 f7 3e 4a 10 34 bf
       0.04509301 -0.67489827 0.48310247 -0.70337355
000300 7c b4 2d 3f be c5 22 bf e1 cf 98 3f 76 3e 7a 3e
       0.6785352 -0.6358298 1.193844 0.2443789
000310 ff 82 7f 3d b6 76 9c 3e 5a 62 d0 3e ed 7b 61 be
       0.062380787 0.3055932 0.40700036 -0.2201993
000320 0c d1 12 3f 3a ee 2a 3f f0 90 11 3f a4 f2 d3 bf
       0.5735023 0.66769755 0.5686178 -1.6558423
000330 e1 37 98 3e 2d 5d d0 3e e8 43 20 3e 2f 23 86 3e
       0.29730132 0.40696087 0.15650904 0.26198718
000340 cc de 7b 3e da 88 f8 bd 52 ef 65 bf 3a dd 03 3f
       0.24596709 -0.12135477 -0.898183 0.5150944
000350 8b 0b e9 3e 63 ed e2 3c 59 b7 e3 be 90 e6 b7 3e
       0.4551662 0.027701085 -0.4447582 0.35918093
000360 33 e5 66 be 04 b7 85 3d 46 c1 1c 3e b7 3a 15 3f
       -0.2254837 0.06529048 0.15308103 0.58292717
000370 3e 41 30 3e 8d ce 04 3e 68 99 3e bd 14 c1 07 3c
       0.17212388 0.12969418 -0.04653302 0.0082857795
000380 21 73 9e 3e 09 05 8d bd 99 f0 09 3f d0 31 99 3e
       0.3094721 -0.06885726 0.5388275 0.29920816
000390 99 31 60 3e 0d 34 65 3f ba 4e fb 3c 2a 6d f7 3e
       0.2189392 0.8953255 0.030677188 0.48325473
0003a0 e0 b9 d0 3d 7b fb f0 3e 3a ba a2 bd 06 c7 27 3f
       0.10191703 0.47066864 -0.07945676 0.6553806
0003b0 c6 87 28 be 16 cd ff 3e 37 01 c3 bd b7 0f d7 3d
       -0.16458043 0.49961156 -0.09521716 0.10501044
0003c0 34 ff f4 3e 69 6a 20 3d 3c 29 d3 3d 53 92 f7 3d
       0.47850955 0.03916398 0.10310599 0.12088456
0003d0 4a da 44 3f cf 22 e2 be 0c a5 84 3f 94 8b 51 3e
       0.7689558 -0.44167182 1.0362868 0.20463401
0003e0 39 66 44 3e 8e 1d 2d 3d 80 fa df 3e 81 dd 0f bf
       0.1917962 0.042264514 0.43745804 -0.56197363
0003f0 04 51 4f 3e 96 5b 6e bf ee 67 a5 be fb da 94 3e
       0.20245749 -0.931085 -0.32305855 0.2907332

model.model.model.4.bias f4 [64]
000000 8e 1d 1e bc ac 79 23 3e 29 54 8e bd 99 25 cf 3e
       -0.009650601 0.15964383 -0.06949646 0.40458372
000010 a8 ce a6 3e 88 37 ca 3e 33 a4 be 3d 04 45 97 3a
       0.3257954 0.39495492 0.09308662 0.0011540954
000020 c5 1d 31 bf a3 bc 35 3f b9 d0 85 3e be 13 65 bd
       -0.6918605 0.7099096 0.26135805 -0.05592703
000030 4f 7a 04 be ec db 0f 3d 3b 53 70 bd 42 5a 95 bc
       -0.12937282 0.035121843 -0.058673125 -0.018231515
000040 e6 f6 26 3e de 01 06 be 2a 47 45 3d 41 63 9e be
       0.16305122 -0.1308665 0.04816357 -0.309351
000050 61 c2 ea bc 32 3b 5d bd 63 f2 b4 bd 9f 15 32 be
       -0.02865714 -0.05401153 -0.08835294 -0.1739106
000060 78 9c 31 3e 3b 23 cc 3e 51 42 0b bd 12 e3 25 be
       0.17344844 0.3987063 -0.03399879 -0.16199902
000070 cc cb 5a bf 9b 8e b0 3d 85 2c c6 bd 61 5d 23 be
       -0.8546722 0.0862095 -0.0967646 -0.1595359
000080 5e 3b 9f 3e 82 2d fd 3d 2a 4b 93 bc 1d 8a 2b 3d
       0.3109998 0.123621956 -0.017980177 0.041879762
000090 a8 e9 ed bd d1 37 8a 3e 49 9a 97 3f 2a d8 1a 3e
       -0.11616832 0.2699571 1.1843959 0.15121523
0000a0 94 9d 8a 3d e0 74 02 bb 1c 4b 04 3e a5 6a 23 3e
       0.06768337 -0.0019906089 0.12919277 0.1595865
0000b0 8f dc 57 bc 1e 92 74 3e 3b d8 bf 3d a6 38 28 bd
       -0.013175144 0.23883864 0.093674146 -0.04106965
0000c0 cc b5 0b bf e9 83 18 3d d8 d6 20 3e 04 7b b4 3e
       -0.54574275 0.037235174 0.15706956 0.35250103
0000d0 7e 33 83 3e 08 f7 fb 3d 30 9d 3b 3f 71 30 c1 bc
       0.25625223 0.12302977 0.73286724 -0.023582669
0000e0 78 b5 1a be 1c 15 d9 bd ce f4 bd 3d 6f 03 04 3e
       -0.15108287 -0.105997294 0.092752084 0.12891935
0000f0 02 53 74 bb c9 a2 05 3e cd e3 9c 3d ca 5c 1f 3e
       -0.0037280922 0.13050379 0.07660637 0.1556274

model.model.model.6.weight f4 [4, 64]
000000 76 07 47 bd fc e9 da be 32 02 a5 3e 2c e4 99 be
       -0.0485911 -0.4275664 0.32228237 -0.30056894
000010 2b 72 a9 be 37 3f 1d 3f d4 95 a9 be 96 09 8a ba
       -0.33094916 0.61424583 -0.33122122 -0.0010531421
000020 6f 7f e7 3c 40 30 2f 3f 79 4d db 3e b8 f9 1b 3c
       0.028259007 0.68433 0.42832544 0.009519987
000030 6f ab 01 bf c0 3f b9 be fa 42 99 3d 04 fd 48 3e
       -0.5065221 -0.3618145 0.07483478 0.19627768
000040 cb d1 d1 be 3c 1b 09 3d 14 bd 73 3f 02 b0 0d be
       -0.40980372 0.03347324 0.95210385 -0.13836673
000050 8e 08 83 3d e2 45 f5 be 02 45 c1 be ac 63 1a bd
       0.06398116 -0.4790488 -0.3774796 -0.03769271
000060 72 d6 0a 3f 4d 60 fd be e8 4a b8 3b b4 75 51 3d
       0.5423347 -0.49487534 0.005624164 0.05113764
000070 a1 dc 74 3e b6 13 84 3e e6 2b c1 be f2 13 b6 bd
       0.23912288 0.25796288 -0.37728804 -0.08890523
000080 56 48 f5 3f 33 d4 a4 be 02 e2 7e 3f 81 29 a2 3d
       1.91627 -0.32193145 0.9956361 0.079180725
000090 c8 43 a5 bc f5 ec e5 3e 35 8e 80 3f 12 a1 88 be
       -0.020173922 0.44907346 1.0043398 -0.26685387
0000a0 8b 60 9c 3d b1 5c 62 3d e3 55 51 3f 10 e3 b1 be
       0.076356016 0.05526418 0.8177168 -0.34743547
0000b0 2d 3f 66 3d b5 07 01 40 fc 58 cd be fd 7a 13 3e
       0.056212593 2.0160954 -0.40106952 0.14402385
0000c0 f2 a4 34 bf d2 7e b1 3e 4b 81 05 bf de 1d 08 bf
       -0.70564187 0.3466707 -0.5215041 -0.53170574
0000d0 76 cd 22 be 73 b5 46 3f 1c 31 e7 be 70 fd 7e 3d
       -0.1589869 0.7762062 -0.45154655 0.062253416
0000e0 32 4a 87 3d 2f fc 5b 3d 3e e2 98 be 65 ff ab be
       0.066059485 0.053707298 -0.2986011 -0.33593288
0000f0 f0 23 81 3a e4 1c 0a bf 15 2d 1a bf c0 53 b7 3e
       0.0009852629 -0.53950334 -0.6022504 0.35806084
000100 7c 57 c3 bc 81 4d d0 be 61 39 c1 3e ea 39 03 bf
       -0.023845427 -0.4068413 0.3773909 -0.51260245
000110 3b 65 fc be c5 7d cd 3c 07 7e 6c be 23 dc ec bc
       -0.49295983 0.025084386 -0.2309495 -0.028913563
000120 34 ca 8a 3f 36 be 0f 40 5d b5 3e 3e cd ec 9e 3d
       1.0842957 2.2459846 0.18623872 0.0776001
000130 86 b5 65 be b3 ae c1 be 42 ca c3 3d 03 10 48 bf
       -0.22432527 -0.37828597 0.09560062 -0.7814943
000140 de 5a 0f bf 9c ce 53 3d bd 86 c1 3f 35 c9 d5 3d
       -0.5599803 0.05171071 1.5119244 0.10438768
000150 47 a2 74 bb fd 9a c8 be 3f 35 9b be da 98 30 bd
       -0.003732817 -0.39180747 -0.3031406 -0.04311452
000160 0f 40 9a 3f 59 12 23 bf aa 63 8c bd 33 82 1e bc
       1.2050799 -0.6369987 -0.06854947 -0.009674597
000170 41 48 68 3e 71 64 ba 3e c0 b6 aa be 78 7f bf 3c
       0.22683813 0.36404756 -0.33342552 0.023376212
000180 ff 9c de 3f 96 1c 93 be 7f 07 4e 3f df 12 d4 ba
       1.7391661 -0.28732747 0.8048019 -0.001617994
000190 aa 5f c7 bd 53 e2 88 3e 90 4c 89 3d e5 19 8e be
       -0.09735043 0.26735172 0.06704056 -0.2775413
0001a0 b8 84 91 3d 3e ca 88 3d 3c 65 9d 3f 15 f4 c2 be
       0.07105392 0.066792 1.2296519 -0.38076845
0001b0 b8 04 e0 bd 93 0e e6 3f dc db 14 be 71 e7 fe be
       -0.109384 1.7973198 -0.14536995 -0.4978595
0001c0 36 79 47 3f b2 15 db 3e 6e cb f3 be cd d0 59 3f
       0.7791933 0.4278999 -0.47616142 0.8508423
0001d0 13 c6 59 be 99 d4 f7 be 8f 3d 41 3e 0a 33 07 be
       -0.21266966 -0.48404387 0.18871139 -0.13203064
0001e0 1a 32 af bd 37 fa 4f bf c9 6f 49 be 69 bc 62 be
       -0.08554478 -0.8124117 -0.19671549 -0.22142185
0001f0 d6 a7 3c bd b3 cf c6 be 8e bc d7 be 90 91 0e 3f
       -0.0460585 -0.38830337 -0.42136043 0.5569086
000200 e2 2e ed 3c 54 e5 5a be e1 13 be 3e 94 df 8b be
       0.02895302 -0.21376544 0.3712454 -0.27319014
000210 8f b1 76 be 2b 08 06 bf ff e8 c2 be 7a 60 04 bd
       -0.2409117 -0.52356213 -0.38068387 -0.03231857
000220 d0 08 b6 be c9 f4 14 bd 68 d7 01 3f 90 6a 9c 3c
       -0.35553598 -0.036366258 0.5071931 0.019093782
000230 ec 28 7a be 46 c9 23 bd 3c 24 21 3d 0f 52 a4 3e
       -0.24429673 -0.03998687 0.039341196 0.32093856
000240 9e e5 98 be 0e 76 f7 bb 44 0e eb 3f 76 15 48 3e
       -0.29862684 -0.007551915 1.8363729 0.19539437
000250 f3 d2 26 bd d1 3f 9e be 99 93 96 be 92 f0 66 bd
       -0.04072852 -0.30908063 -0.29409483 -0.05638177
000260 37 56 a7 3f d6 60 97 bd 9c 74 80 bd d8 da e2 bd
       1.3073186 -0.07391517 -0.062722415 -0.110768974
000270 95 0a bc be 1c 18 b8 3e a2 aa 96 be 2d 50 86 3c
       -0.36726823 0.35955894 -0.29427058 0.016395653
000280 42 76 cf 3f c7 4f bf be c7 95 87 3f 01 6d 3e bd
       1.6207964 -0.37365553 1.0592583 -0.046490673
000290 00 c0 f9 b8 c9 92 90 3e 74 df a1 3e cb 38 1d be
       -0.00011909008 0.28236988 0.31615794 -0.15353696
0002a0 e8 65 2a bd 81 60 c0 3b ed e1 c2 3e 6d 1f 65 be
       -0.04160109 0.005870879 0.38062993 -0.22375269
0002b0 69 bb 8a 3b 8e 7a 3a 40 38 97 be be 56 94 7d 3f
       0.004233767 2.9137301 -0.37224746 0.9905447
0002c0 b7 45 76 bd b3 45 c8 3e df 3f 5d be 73 db 40 bf
       -0.06012508 0.39115676 -0.21606396 -0.7533485
0002d0 68 cd ce be ee 67 01 3f 46 ed 67 3f 90 87 5d 3d
       -0.40391088 0.5054921 0.90596426 0.05408436
0002e0 44 f8 8c bc ec 25 3a bf 96 e0 9e be 2d dd d0 be
       -0.017208226 -0.72714114 -0.3103072 -0.40793744
0002f0 4e a6 fb 3d 54 a8 50 be 31 b7 03 be 8b 4a 24 3f
       0.122875795 -0.20376712 -0.1286285 0.64176244
000300 38 f0 85 3d 44 b3 bf be 61 b0 c7 be 81 35 11 be
       0.06539959 -0.37441456 -0.39001754 -0.14180566
000310 98 a3 d0 be be 1b 94 be c4 ec 9e be c8 d6 e6 bc
       -0.40749812 -0.28927416 -0.31040013 -0.028178588
000320 3b bd 1c 3f 4e e2 e9 3e f3 cf 87 be 97 3c e1 3c
       0.6122624 0.4568047 -0.2652584 0.027494712
000330 fa cf 9e be 71 eb ee be 40 7e 70 bd cb 8c eb 3e
       -0.3101805 -0.46664003 -0.05871415 0.46005854
000340 a6 18 a0 bd 3c 58 16 be ca 8b 48 3f 6c da e9 3e
       -0.07817201 -0.14682096 0.783383 0.45674455
000350 60 da 3b bc 95 26 9a be f1 c1 7e be 7b 93 bd 3b
       -0.011465639 -0.3010756 -0.2487867 0.0057854033
000360 bd 76 ed 3f cd 4c a9 be 4b ba 3d bd 20 ad a9 3b
       1.8551861 -0.33066407 -0.04632024 0.005178109
000370 40 69 31 3d ea 23 ff be 16 10 7e be 3f fa ee 3b
       0.043313265 -0.49832088 -0.24810824 0.0072930153
000380 82 d2 d8 3f c7 16 99 be b4 6f cb be 8d c4 c8 bd
       1.6939242 -0.2990019 -0.3973366 -0.09803114
000390 9a 1e c6 bd 0a 08 a3 be 06 7c 10 40 fe 0a c7 be
       -0.096738055 -0.3184207 2.2575698 -0.38875574
0003a0 7a c9 91 3d 08 f7 8b bd 4e 2e b7 3c 7e 34 98 be
       0.07118507 -0.06834227 0.022360947 -0.29727548
0003b0 b4 47 cb bd 5b 39 c5 3f 85 f9 40 be bb 83 18 3e
       -0.09925786 1.5408128 -0.18845184 0.14894001
0003c0 df 95 3d 3f f2 76 c0 be 97 55 82 be 32 c7 fc be
       0.7405681 -0.37590748 -0.25455925 -0.49370724
0003d0 e4 ac 8d be aa 6d 30 3f bc 57 a6 3f d8 5e cd bc
       -0.27670968 0.68917334 1.2995524 -0.02506964
0003e0 4c dd 00 bd ea 9b 44 3e cb 85 b9 be c4 62 86 be
       -0.031461045 0.19200101 -0.36234888 -0.26247227
0003f0 1b 49 23 bd cb 5e 94 be a5 69 8b be b1 76 ed be
       -0.03986464 -0.2897857 -0.27229038 -0.46379617

model.model.model.6.bias f4 [4]
000000 6a 8b 29 3f 7e 9c 2a bf d8 ac 70 be b5 bf 42 be
       0.66228354 -0.6664504 -0.23503435 -0.19018443

model_old.model.model.0.weight f4 [64, 8]
000000 fd df 61 be 4b 62 cf 3e 6b 7d 95 3e 2a 6f 70 3f
       -0.22058101 0.4050468 0.2919725 0.9391962
000010 f3 95 21 bf c8 ee 12 3f f7 7f 60 3f 90 4c 59 3e
       -0.6311943 0.573956 0.8769526 0.21220613
000020 b5 aa 78 bd bf a2 79 be df 48 85 be 8f 2f 30 3f
       -0.060709674 -0.24378489 -0.2603216 0.6882257
000030 4a 1a 66 3e 34 79 0e be 1f 3e 57 bf 7c 29 2e bf
       0.22470966 -0.13913423 -0.84079164 -0.6803205
000040 25 9c 29 3f e6 f1 35 3e f5 ae 08 3f a0 86 75 bd
       0.6625388 0.17768058 0.53391963 -0.05994284
000050 58 d7 d2 be ec 48 80 bf 65 d6 7a be 52 a7 05 3e
       -0.4117992 -1.0022254 -0.24495848 0.13052109
000060 22 57 26 3e bb 6d c5 b8 89 41 96 bf 93 e7 57 bf
       0.16244176 -9.414131e-05 -1.173875 -0.8433773
000070 43 42 38 bd 43 f4 20 3e e5 1a 09 3d a5 67 c4 3d
       -0.044985067 0.15718178 0.033472914 0.09590081
000080 5b 9a 23 3f fe fe 31 3d 40 ed 49 3f 81 4b a6 3d
       0.639074 0.04345607 0.7887764 0.0811987
000090 b4 e4 73 bf 69 c2 e6 3c a6 38 98 be 97 d2 ba 3d
       -0.9527085 0.028168874 -0.2973072 0.09122198
0000a0 f3 bf 48 be 21 3c ae 3c f1 51 ad bf f9 11 26 3f
       -0.19604473 0.021268906 -1.3540632 0.64871174
0000b0 1f 8f 97 3e ab 50 5c 3d b6 0c de 3d c4 4a 8c 3e
       0.2960138 0.05378787 0.10842268 0.27400792
0000c0 c2 26 bb 3e 5b 70 19 be c9 c3 81 be b4 e0 37 40
       0.36553007 -0.14984266 -0.25344685 2.8730898
0000d0 13 63 f2 be ab 12 db be 5f 9d bb 3e 24 bc ac be
       -0.47341213 -0.4278768 0.36643502 -0.3373729
0000e0 7f 14 dc 3d fb 1b b4 3e bf 3f dd be ab b9 cf 3e
       0.10746097 0.35177597 -0.43212697 0.4057134
0000f0 c8 2f dc bd 70 80 76 3e 62 09 26 bf ee 49 65 bf
       -0.10751301 0.24072433 -0.6485807 -0.8956593
000100 e9 9d 6d be 92 df bc 3d b4 8f d8 3d 59 99 78 3c
       -0.23204769 0.0922233 0.10574284 0.01517328
000110 ca 2b 74 3e e0 47 c2 be 0a 0a eb bd 9e d3 cf bd
       0.23844829 -0.3794546 -0.11476524 -0.10147785
000120 12 5b 2d bf 7c 4c e5 bd 78 c8 ac be 4f 77 db 3e
       -0.6771709 -0.11196229 -0.33746696 0.42864463
000130 4b 13 10 bf 6b 3f 31 bf de 0e 58 bf 22 69 8f bd
       -0.5627944 -0.69237393 -0.84397686 -0.07002474
000140 41 a4 51 3d ac 07 c6 bd 37 75 20 be dd cb 01 be
       0.051182035 -0.09669432 -0.15669714 -0.12675424
000150 0d 35 d4 bf 25 05 8c bd 87 c2 47 3f 31 43 dc bc
       -1.657869 -0.06836919 0.780312 -0.026887508
000160 40 e0 0e 3e f1 68 0e be 05 41 56 be 24 43 0a bf
       0.13952732 -0.1390722 -0.2092324 -0.540087
000170 b5 98 8b 3f 1b 9e 03 3d 38 4b dd 3e 64 7c e9 3e
       1.0905977 0.032133203 0.4322145 0.45602715
000180 5d 90 0c 3f 88 76 61 be 0b 58 94 be cc e7 25 be
       0.5490778 -0.22017872 -0.2897342 -0.16201705
000190 9e 1b 1b 3f 86 16 86 3d 38 23 06 3f 67 21 be 3e
       0.60589015 0.06547265 0.5239749 0.3713486
0001a0 e4 4e 6a be e2 3c d9 be b5 7c e4 be 69 ae e1 be
       -0.22881657 -0.42429262 -0.44626394 -0.44078377
0001b0 c2 1e d6 bd 00 07 83 3f f6 11 c2 3d ba 47 07 bf
       -0.10455085 1.0236511 0.09476082 -0.5284382
0001c0 61 e6 69 be 2e e1 c1 be 61 fe 99 bf 75 2e 95 3e
       -0.22841789 -0.3786711 -1.2030755 0.29137006
0001d0 b3 b3 2f 3c c9 62 95 be 97 0f 73 bd 27 42 f4 be
       0.010723996 -0.2917693 -0.05934104 -0.4770672
0001e0 e0 b3 b7 be 98 a9 a9 bf 9c a3 83 3e 71 90 4e bf
       -0.3587942 -1.3254881 0.25710762 -0.8068915
0001f0 62 cf ea be 8b 58 98 be f5 72 46 bf 52 60 a6 bd
       -0.45861346 -0.29755053 -0.7751916 -0.081238404
000200 34 4d 7c bd fc 61 4d be c0 84 5e be 52 5d d8 be
       -0.061597064 -0.2005691 -0.21730328 -0.42258698
000210 95 a2 d8 3e b1 5c a5 3d 72 d4 f5 be e3 be 55 3d
       0.4231154 0.0807432 -0.48013645 0.052183997
000220 13 71 2d be 80 75 31 bc f9 23 6c bf c6 28 72 3e
       -0.16937666 -0.010831237 -0.9224239 0.23648366
000230 90 ae 61 3f ac 52 d3 bd 6e 78 cb 3e 21 7e 3c 3e
       0.88156986 -0.10318503 0.39740318 0.1840749
000240 fa 13 90 3e 19 94 b2 3d ed f5 bc 3e b6 38 13 be
       0.2814024 0.08719654 0.36906376 -0.14377102
000250 d2 fc 18 bf 92 8d 88 bf a3 24 c6 bc 74 0b b8 be
       -0.59760773 -1.0668204 -0.024187392 -0.35946238
000260 b0 2b f6 be 67 ec 93 bd 05 7b 53 bf ad 9f 9a 3f
       -0.48080206 -0.072228245 -0.8260959 1.2079979
000270 16 b7 31 3a e1 2f de 3e 54 c0 99 3e 2f ff b9 3c
       0.0006779296 0.43395904 0.30029547 0.022704689
000280 57 fa 24 3e 84 32 0f 3d e0 84 4d bd 82 c3 cf 3e
       0.16111122 0.034960285 -0.050175548 0.40578848
000290 17 7e 88 3f 37 75 8f 3f 4a 16 5f 3e b8 cf c7 be
       1.066348 1.1207646 0.21785846 -0.39025664
0002a0 7a 8e 4a bf f7 be d2 bf 53 06 ed bd f8 2f 66 be
       -0.7912365 -1.6464528 -0.11573472 -0.22479236
0002b0 a6 39 ff bd d9 cd 80 3e b2 2d f4 3e 96 2d 6c 3e
       -0.124621674 0.2515705 0.47691113 0.23064265
0002c0 4d a1 2e 3d 22 56 56 3e f2 58 07 3f da 2e 56 3e
       0.042634297 0.20931295 0.52870095 0.2091631
0002d0 98 73 4b bf ec 46 33 3f 9f 8b c0 be 51 ec e2 3d
       -0.7947326 0.70030093 -0.37606522 0.1108023
0002e0 8d 92 1f bd 69 80 89 bd f2 0c 41 be d4 d5 16 be
       -0.03895812 -0.067139454 -0.18852594 -0.14730006
0002f0 c8 7b 52 3f f5 11 93 3f ab 06 46 3e fa 45 ec be
       0.82220125 1.1489855 0.19338481 -0.46147138
000300 6e fc 0a bf 33 f4 eb be 88 b8 db be e7 45 8c 3e
       -0.5429143 -0.46084747 -0.42914224 0.2739708
000310 56 d3 43 3f 65 0b 92 bd aa 64 0c 3e 6d 7e ee 3d
       0.7649435 -0.071310796 0.13710275 0.116452076
000320 e7 6c 59 3f 4c dc bf 3e d6 4d 3a bf fd ce 2f bf
       0.84931797 0.3747276 -0.7277502 -0.68675214
000330 d1 ba 1a 3e 35 f7 da be e6 a7 3c be ce 7e 8f be
       0.15110327 -0.4276673 -0.18423423 -0.28026432
000340 da 9a ff 3e e8 b2 fb be 3d 23 a1 3d e5 5e ec be
       0.4992283 -0.49159932 0.07868049 -0.4616615
000350 8b af df be e1 10 3a 3e b3 eb 1a 3f 82 16 66 3d
       -0.43688616 0.18170501 0.605159 0.05617381
000360 6e d0 24 bf 6e 7b 95 bf 67 31 19 bf 40 af 65 be
       -0.6438054 -1.1678293 -0.59841007 -0.22430134
000370 2a 49 12 3f ee 7f 76 3d 12 c1 92 3e 36 a5 9e 3d
       0.5714289 0.060180597 0.28662926 0.07746355
000380 96 1d 67 3d 67 1b bd be b0 35 fe 3e bc 98 ea be
       0.0564247 -0.3693497 0.49650335 -0.45819652
000390 73 36 24 bf 4f cf 07 3f 74 18 05 3f cf d6 57 bf
       -0.6414558 0.530507 0.5199044 -0.84312147
0003a0 9a 9d 63 3e 93 b2 9b 3e 21 29 49 3f 7f d3 7c be
       0.22228089 0.3040968 0.7857838 -0.24690054
0003b0 a1 47 96 3f 20 ef 97 3e 5c 26 9a 3d 1c dc 18 bf
       1.174061 0.29674625 0.07526848 -0.5971086
0003c0 6a 9f 36 3e e2 b3 21 3e e2 65 56 be 12 cc d0 bd
       0.17834249 0.15791276 -0.20937303 -0.10195173
0003d0 51 68 42 3f d2 f2 38 3f 51 c4 a7 3e 95 13 a7 bd
       0.75940424 0.72245514 0.32766965 -0.08158032
0003e0 76 87 f0 3c 1f 19 f4 3e 39 17 47 3f f7 2e fb be
       0.029361468 0.47675416 0.7776981 -0.4905927
0003f0 25 2b 9e 3f f2 80 71 3e a0 f0 fb 3d bb c6 5a be
       1.2356917 0.23584345 0.12301755 -0.21364872

model_old.model.model.0.bias f4 [64]
000000 f3 3d b9 3e 9e e3 ab 3e 54 77 2b 3e e2 43 ec 3b
       0.36180076 0.33572096 0.16744739 0.0072102407
000010 fc ff c6 3e f2 bd e1 3c 36 26 3e 3d 19 e9 b6 3d
       0.38867176 0.027556393 0.04642316 0.089311786
000020 f4 b0 83 3e e4 5b 3c be a7 11 84 3e 03 2c 01 3e
       0.25720942 -0.18394428 0.25794718 0.12614445
000030 cc 16 fc 3e 39 09 34 be 38 3f 8b 3c 8a 64 1c bd
       0.49236143 -0.17581643 0.016997918 -0.03818182
000040 ae ca 2e bf fd 4f 9a 3e d5 19 42 bd 2f e8 1b bf
       -0.68278015 0.3013915 -0.047387917 -0.6090116
000050 c9 4d bc 3e bd d1 fc be 0b 91 ed be 7e 93 4f be
       0.36778095 -0.49378768 -0.46399722 -0.20271108
000060 e0 25 eb be d0 bc 72 3e b3 62 d8 3e 77 26 b9 be
       -0.45927334 0.23704839 0.42262802 -0.3616216
000070 53 2d 15 3f 95 7a dc 3e 11 07 7f be 81 97 21 3e
       0.58272284 0.43062273 -0.2490504 0.1578045
000080 97 10 06 be 4c 5e d5 3c 62 1e 42 be 47 98 18 bd
       -0.13092266 0.02604594 -0.18956903 -0.037254598
000090 4b 8e 8f 3e cd f4 14 bd 9a f4 2e ba 9d e7 c9 be
       0.28038248 -0.036366273 -0.0006674022 -0.3943452
0000a0 9e 18 0c 3f f4 f1 91 bc 68 50 8e 3e 20 7c 44 be
       0.5472506 -0.017815568 0.2779572 -0.19187975
0000b0 f4 8c c4 3e 43 30 a0 3e 8e 6b 4c bf 44 de 0a 3f
       0.3838879 0.3128682 -0.79851615 0.542454
0000c0 d3 4d 13 be f2 18 2c be d3 67 22 be bc c0 ba 3e
       -0.14385156 -0.16806391 -0.15859918 0.3647517
0000d0 03 9f 74 3d 07 46 95 3e dc 4c 38 bd ad 86 45 be
       0.059721958 0.2915499 -0.044995174 -0.19289656
0000e0 ca 50 05 bd 1b a3 81 3c 6f 2b a4 3d 12 71 70 3e
       -0.03254775 0.015824845 0.08016097 0.23480633
0000f0 a7 3b 9e be 83 17 e8 3e 89 79 2e be 6a d9 3e 3e
       -0.30904886 0.45330438 -0.1703855 0.18637624

model_old.model.model.2.weight f4 [64, 64]
000000 68 61 fa be f6 be 5e be 99 41 88 3e d7 b0 2c be
       -0.4890244 -0.21752533 0.26612547 -0.16864334
000010 19 ee 3d 3e 4a a5 d4 be 5d 4c 6e 3d fa ea 0a bf
       0.18547858 -0.41532356 0.058178294 -0.54264796
000020 0b cb 0d bf 95 5c 3f be ac 87 b9 be 50 4e 20 bf
       -0.55387944 -0.18687661 -0.36236322 -0.62619495
000030 f0 ba c3 3c f7 6e 7f 3d 1a e7 98 3e 6f 36 cf 3d
       0.02389285 0.062361684 0.29863816 0.10117804
000040 9e ab 8d 3d cf eb 1c be 5e 49 ba 3e 4e 99 81 3f
       0.06917499 -0.15324329 0.363841 1.012491
000050 00 29 5c bf 79 c7 1b 3d cc 3c 1d be 57 4c ee 3d
       -0.8600006 0.03803203 -0.15355223 0.116356544
000060 f6 83 21 bf 7b 5c 87 bd fc f5 02 3f a3 95 28 3c
       -0.6309198 -0.06609436 0.5115659 0.010289582
000070 91 79 52 3e 9f b8 f7 be b7 23 ba 3c 47 31 be be
       0.20554186 -0.48383042 0.022722108 -0.3714697
000080 a7 62 28 bf d5 d6 fa 3d 47 62 54 3e 7d 6d a7 be
       -0.6577553 0.12248007 0.20740615 -0.3270072
000090 bf ae d1 bd 71 73 40 3f 4e f9 ab 3e e3 82 82 bf
       -0.10238408 0.7517615 0.33588642 -1.0196193
0000a0 26 37 09 be e2 0d 72 be fb c6 54 be bb 6f 09 3f
       -0.13399944 -0.23638108 -0.2077903 0.5368611
0000b0 cf a4 1a 3d 61 24 2e bf bd 0f 0a bf 99 a4 34 bf
       0.03775483 -0.6802426 -0.53930265 -0.70563656
0000c0 dc 0f 23 3e 8f 6f b3 bd 44 83 2d 3e 9d b8 99 be
       0.15924019 -0.087615125 0.16944605 -0.3002366
0000d0 68 a1 98 3e 73 8c 00 3c 64 bd b7 bc 15 50 c1 be
       0.29810643 0.007845986 -0.022429176 -0.3775641
0000e0 24 f1 a1 3e eb 4a e6 3e d2 3d 98 bd 7d b9 8e be
       0.31629288 0.44979033 -0.07433666 -0.2787589
0000f0 6d a0 a6 3e 4f 78 ee 3d f7 ee 12 bd 0c e1 28 be
       0.3254427 0.11644041 -0.035872426 -0.16492099
000100 04 5e 05 3e 91 3a 68 3d 37 a6 66 3e 83 86 4a bf
       0.13024145 0.05669648 0.22524343 -0.791115
000110 9e 43 0e 3d 27 c4 8c bf 67 3b 0a c0 32 1b f2 bd
       0.034732454 -1.0997361 -2.1598756 -0.11821593
000120 a5 a4 de 3d 2c 63 fa 3c ee 8f 5a 3d 91 9b 12 be
       0.10871247 0.030564867 0.05335992 -0.14317156
000130 00 23 88 3e 5a 3f 01 3e 8f 6d ea 3e 14 1d 15 bf
       0.26589203 0.12621823 0.45786712 -0.58247495
000140 1e 9c c4 3d 12 7b 6a 3d 6b 2f e5 3e 65 15 98 3e
       0.096000895 0.057246275 0.4476274 0.29703823
000150 fa d4 ab be 69 ed 69 3f 82 74 ed be 51 7b fb be
       -0.33560926 0.91377884 -0.4637795 -0.4911752
000160 a0 d3 d4 be 40 50 01 3f 28 9f ee 3d f7 cd 3b 3f
       -0.41567707 0.50513077 0.116514504 0.7336115
000170 71 73 6e 3d 9f 56 09 bf 58 ea b4 be 11 17 5b be
       0.058215562 -0.536478 -0.3533504 -0.21395518
000180 cd ca 53 3f 82 61 8e bc 8b c1 65 bd c3 d7 93 be
       0.82731324 -0.01738048 -0.05609278 -0.2887555
000190 0c 79 1d 3e 5e dc 05 3e 2b 9c 91 3e 6e 36 0b c0
       0.15378207 0.13072345 0.2843946 -2.1751971
0001a0 ae d0 85 bc 25 96 09 bd 7a 93 c1 be c4 94 21 3f
       -0.016334858 -0.033590455 -0.37807828 0.63117623
0001b0 c3 ad ba 3e 46 ec 1f bf ad 0f 6e be 4d c7 9c bd
       0.36460695 -0.624699 -0.23248167 -0.07655201
0001c0 73 ba 2a 3e 10 1a 46 3d 83 37 dd bc 99 1a 8b 3d
       0.16672687 0.0483647 -0.02700401 0.067921825
0001d0 46 25 a2 3c 06 45 5c 3e 30 5a 6b 3c 7c c9 45 bf
       0.019793164 0.21510705 0.014364764 -0.77260566
0001e0 ed 83 a4 bc 66 9d a6 3e 1c 06 60 3e cb 8d 9d bc
       -0.020082438 0.3254196 0.2187733 -0.019232651
0001f0 64 df e0 3e 47 31 8f 3e aa 4f cb 3e 39 ca 3e be
       0.43920434 0.27967283 0.39709216 -0.1863183
000200 ce 73 f4 be 63 b3 18 3f 5b 32 9d be 4b cd 32 3f
       -0.47744602 0.5964872 -0.3070248 0.698445
000210 18 01 eb bd f0 5e 05 3e c0 b2 78 bf fd c5 6a be
       -0.11474818 0.13024497 -0.9714775 -0.22927089
000220 61 29 4f be 8d fd 3b bf 2b 6a 47 3e 93 93 38 bd
       -0.20230629 -0.7343376 0.19474094 -0.045062613
000230 77 ee 80 3e 76 65 41 3f b3 41 fa 3e cd db 88 3f
       0.25181934 0.7554544 0.4887825 1.0692078
000240 8a 64 c5 be 37 54 a1 3d 74 e0 24 be 43 e8 8a 3f
       -0.38553268 0.07877391 -0.16101247 1.0852131
000250 0f 43 29 3e 76 de 09 3f 19 d4 8c 3e 0c 8e e1 3d
       0.16529487 0.53855073 0.27505568 0.110134214
000260 fd 89 a5 bf be fc 62 3e a2 86 0c 3f 7d e6 a1 3e
       -1.2932736 0.22166726 0.54892933 0.3162116
000270 4e c4 15 3f b6 5e 3d bf 06 f8 81 3e 0a eb 12 bf
       0.5850266 -0.7397264 0.2538454 -0.5738989
000280 be 43 8b bf 46 4a a0 be c8 69 95 3e 21 58 82 be
       -1.0880048 -0.31306666 0.29182267 -0.25457862
000290 a1 60 48 3e db a3 a6 3f 01 18 dc 3e 92 63 ff bf
       0.19568111 1.3018755 0.42987064 -1.9952261
0002a0 af 64 10 3f 72 c0 9c 3d 85 dd af 3e f0 0b d7 3e
       0.5640363 0.076538935 0.34348693 0.42001295
0002b0 d0 57 1e 3e 89 bb 9c be 2b 9e 06 c0 4c a4 37 bf
       0.15463185 -0.30611828 -2.1034038 -0.7173507
0002c0 31 72 32 3f 0f c7 01 3f 0b fd 92 3e df 1f 33 3e
       0.6970549 0.50694364 0.2870868 0.17492627
0002d0 4e da 33 3f 69 9b fe bd 57 4b 5d bf de c1 ee 3e
       0.7025498 -0.12431986 -0.86443084 0.46632284
0002e0 17 16 db 3e 3d 7b 5c 3f 79 ff c8 3d 67 61 d3 bd
       0.4279029 0.86125547 0.098143525 -0.103213124
0002f0 5b 7e 31 3e 09 f9 5d 3e cc d2 42 bf 55 48 62 be
       0.17333357 0.2167703 -0.761029 -0.22097905
000300 5c cb d1 bc f6 64 1a be e7 f8 31 3e a6 f3 07 c0
       -0.025609665 -0.15077576 0.17380105 -2.1242461
000310 12 89 2b 3e ea 48 c0 bf 79 57 83 bf 58 2c 8f 3e
       0.16751507 -1.5022252 -1.026107 0.2796352
000320 23 22 c7 bc c5 1d 19 3e d8 c0 2f 3e ac 4a de be
       -0.02430827 0.14952762 0.17163408 -0.43416345
000330 8a 7b 3f 3e 01 8f e9 3d 97 40 ad 3e 4d 95 61 bf
       0.1869947 0.11404229 0.3383834 -0.8811844
000340 91 a1 0c bd 15 a3 22 3e 2f 76 ff be b4 31 3e 3f
       -0.03433377 0.15882523 -0.49894854 0.7429459
000350 5d 6c 9b 3e 68 87 da 3e 0a 4a 63 bf ad 4a 43 be
       0.30356112 0.42681432 -0.8878485 -0.19071455
000360 4e 5b 20 bf 29 a6 3e be e4 b6 6e 3e 3d 58 84 bd
       -0.6263932 -0.18618073 0.23311955 -0.064621426
000370 8a ad e3 3e e6 55 16 be 2f 92 72 3f d0 ef 6b bd
       0.44468337 -0.14681205 0.9475431 -0.05760175
000380 10 c6 6c 3f 1d 78 53 3c b7 ac 95 3e 03 69 0a bf
       0.9248972 0.012907055 0.29233333 -0.54066485
000390 fd 13 ab 3e f5 bf d9 be 95 cc 84 3d 07 2c 9a bf
       0.33413687 -0.42529264 0.064843334 -1.2044686
0003a0 8f 6d 9a bf fe 62 9b bf a3 7e 1f bf 5a a5 02 3f
       -1.2064685 -1.2139585 -0.6230261 0.51033556
0003b0 18 5c 57 3e 4a 8d d3 bf 6a 95 a2 3e 54 ce a3 be
       0.21031225 -1.6527493 0.3175462 -0.31993353
0003c0 74 7a 93 3d c7 c3 40 bf a6 94 c9 3f ea 36 91 3e
       0.072010905 -0.7529873 1.5748489 0.2836221
0003d0 e3 a6 f5 be bb bc b1 be e6 5a a2 be ee 89 5f bf
       -0.47978887 -0.34714302 -0.31709975 -0.8731984
0003e0 49 4d d9 3e 94 f3 e6 3e cc 7b be 3e 57 e8 a8 3e
       0.42441776 0.4510771 0.37203825 0.3298976
0003f0 ae 34 07 3f 3b 74 88 3d db 01 97 3d 2d 3c 81 bd
       0.5281476 0.06662794 0.07373401 -0.06310306

model_old.model.model.2.bias f4 [64]
000000 2b 46 ce be 15 2f bb bd db 7f 7f be 4d 3c ad bc
       -0.4028791 -0.091398396 -0.24951117 -0.021146918
000010 34 e5 51 be bb d8 c3 3d 5d 73 00 bf 5d a6 0f 3c
       -0.2049759 0.095628224 -0.5017603 0.008767691
000020 e4 f6 86 3e 78 67 aa be f7 5b 10 3e 33 d3 0e 3e
       0.26360238 -0.33282065 0.14097582 0.13947754
000030 d7 7d 4c bd 0e fe 5c 3c 31 b8 ae 3e 75 f6 8b 3d
       -0.049924698 0.013488306 0.34124902 0.06834117
000040 1c bb 00 3e c0 7a 63 3e 35 dc 66 be b4 84 5d be
       0.12571377 0.22214794 -0.2254494 -0.21632653
000050 3b f2 39 be 1d 32 e7 bd 6d 15 ce 3e ee 6f 6d 3d
       -0.1815881 -0.11288855 0.40250722 0.057968073
000060 56 38 c2 3e 4c ad 29 bd e7 33 0b 3e 96 1f f0 bd
       0.37933606 -0.041425034 0.13594018 -0.117247745
000070 3a f6 cf 3d 01 cb 34 bc 32 65 71 3d 41 5b 1d 3f
       0.10154386 -0.011034728 0.058934398 0.6146737
000080 1a 3e bd 3d 77 ac 04 be ad a0 0e bd 34 aa 53 3d
       0.092403606 -0.12956415 -0.0348212 0.05167599
000090 73 d4 8d bc e6 81 bf be 0a fa 28 3e 18 39 07 be
       -0.017313218 -0.37403792 0.16501632 -0.13205373
0000a0 a9 a5 dd bd 9f e3 80 bd 4a 18 ed 3d 04 1d c0 be
       -0.10822613 -0.06293415 0.115768984 -0.37522137
0000b0 9d 83 00 3e a2 11 dd 3c 80 f5 31 3e e1 17 1c be
       0.12550206 0.026985947 0.17378807 -0.15243484
0000c0 6d 67 3f bd 5f d0 de bd 25 9a ef bd 0c 1b 62 3e
       -0.046729494 -0.108795874 -0.116993226 0.2208063
0000d0 05 6f 4a bd d7 28 3d 3e d6 15 f0 bd 2c ee 4e 3d
       -0.049422283 0.1847261 -0.11722915 0.050520107
0000e0 39 a3 99 3d 93 42 de 3e f3 a0 81 3c 9a 49 e1 3d
       0.075018354 0.43410167 0.015823817 0.110003665
0000f0 2f 16 38 be 14 75 d9 be af 1a 80 bd 9e aa 5d 3e
       -0.17977212 -0.42472136 -0.062550895 0.21647117
