rl_compexp/save/LL_hyper/LunarLander-DQN-64x3/dqn_best.pth (torch, 159498 bytes, 32 tensors)

model.model.model.0.weight f4 [64, 8]
0	0xbe27029f	-0.16309594
1	0x3eb85417	0.36001655
2	0x3e8b73cd	0.27236786
3	0x3f735857	0.9505667
4	0xbf0e2f16	-0.555406
5	0x3f2e25f1	0.68026644
6	0x3f60dbaf	0.8783521
7	0x3e22db4d	0.15903969
8	0x3e69028b	0.22754876
9	0xbd5b17fa	-0.053489663
10	0xbdf1627e	-0.11786364
11	0x3eadafe4	0.33923256
12	0xbd07dc94	-0.033169344
13	0xbe974a46	-0.29548854
14	0xbf573e1f	-0.84079164
15	0xbf3a8860	-0.7286434
16	0x3ef87528	0.48526883
17	0x3e8d89a1	0.27644065
18	0x3f44975b	0.7679345
19	0xbe4e3c3a	-0.20140162
20	0xbe9f073c	-0.31060207
21	0xbf165192	-0.58718216
22	0xbe467c1c	-0.19383281
23	0x3e38d453	0.18049745
24	0x3daee9e8	0.08540708
25	0xbd30aadf	-0.043131705
26	0xbf946954	-1.1594644
27	0xbf4e52c9	-0.8059507
28	0xbdb51eda	-0.08843775
29	0x3d5d802f	0.054077324
30	0xbe17e836	-0.14834675
31	0x3de5a111	0.112123616
32	0x3efb8b21	0.49129584
33	0x3d6f1aea	0.058375277
34	0x3f09291b	0.53578347
35	0xbd7b841e	-0.061405294
36	0xbf33e631	-0.7027312
37	0x3d33e407	0.043918636
38	0xbe9d2236	-0.30690163
39	0x3d15cff5	0.036575276
40	0xbd2063fe	-0.03915786
41	0x3c5cb46a	0.013470748
42	0xbfab3855	-1.3376566
43	0x3f5a1f6f	0.85204214
44	0x3e04237b	0.1290416
45	0x3cd66853	0.026172793
46	0x3bf5a140	0.007496029
47	0x3e5982e2	0.21241334
48	0x3e384d37	0.17998205
49	0xbd4330eb	-0.047654074
50	0xbe894dd0	-0.2681718
51	0x4026390c	2.5972319
52	0xbe7a12ae	-0.24421188
53	0x3e638e5f	0.22222279
54	0x3ea9e099	0.33179167
55	0xbe9ca4fb	-0.3059462
56	0x3bcc152c	0.00622811
57	0x3eaccf26	0.33751792
58	0xbf15af52	-0.5847064
59	0x3f33093c	0.69935966
60	0xbe25bdad	-0.16185637
61	0x3e4b08a1	0.1982751
62	0xbf260962	-0.6485807
63	0xbf4aa82f	-0.7916288
64	0xbda11f48	-0.078672945
65	0x3dc9d35d	0.098547675
66	0x3d259c56	0.040432297
67	0xbd50facc	-0.05102043
68	0x3c038b77	0.0080288565
69	0xbea97479	-0.33096674
70	0xbded6c57	-0.1159293
71	0xbdfd0ba2	-0.123557344
72	0xbe5ed7c2	-0.21761993
73	0xbdba5888	-0.09098917
74	0x3bb81169	0.00561731
75	0x3ead0455	0.33792368
76	0xbf010c96	-0.5040983
77	0xbf41a1c3	-0.75637454
78	0xbf5968a2	-0.8492528
79	0xbe8a7579	-0.2704275
80	0xbe2997fc	-0.16561884
81	0xbd35e132	-0.044404216
82	0xbe6f0293	-0.23340826
83	0xbe1d96ad	-0.1538951
84	0xbfc82abe	-1.5638044
85	0x3dfeb854	0.124375015
86	0x3f259a58	0.64688635
87	0xbda04dce	-0.0782734
88	0x3e7a8cf6	0.24467835
89	0xbdcb2b50	-0.099203706
90	0xbeb52c9a	-0.3538559
91	0xbf1676b2	-0.58774865
92	0x3f703d70	0.93843746
93	0x3dae513d	0.08511589
94	0x3ec989a6	0.3936283
95	0x3eed6508	0.46366143
96	0x3f05d367	0.522757
97	0xbe4a1923	-0.19736151
98	0xbe8521a2	-0.26002222
99	0xbe1da081	-0.15393259
100	0x3f223975	0.6336892
101	0x3d409d88	0.047025234
102	0x3f1c3014	0.6101086
103	0x3ec36fcf	0.3817124
104	0xbe86f5d9	-0.26359442
105	0xbf081629	-0.53158814
106	0xbeaf3585	-0.3422052
107	0xbf2e63ac	-0.6812084
108	0xbd76f1ae	-0.060289077
109	0x3f80fcf0	1.007719
110	0xbc2541a3	-0.01008645
111	0xbef0890f	-0.46979567
112	0xbf0b122d	-0.5432461
113	0xbe5624b3	-0.20912437
114	0xbf81fb4b	-1.0154814
115	0x3e72038e	0.23634169
116	0xbd9f971a	-0.07792492
117	0xbeabd7a0	-0.33562946
118	0xbe314f41	-0.17315389
119	0xbea82306	-0.3283922
120	0xbe47ac50	-0.19499326
121	0xbf6b816a	-0.91994345
122	0x3e8359e9	0.25654534
123	0xbf24d662	-0.6438962
124	0xbe958535	-0.2920319
125	0x3c8750d3	0.016518032
126	0xbeeb4cf0	-0.45957136
127	0xbea18dc9	-0.31553486
128	0x3e00fc72	0.125963
129	0xbe5d0566	-0.2158409
130	0xbe7e2a37	-0.24820791
131	0x3d97f872	0.07420434
132	0x3ec55a08	0.3854525
133	0xbbc256a0	-0.0059307367
134	0xbef5d472	-0.48013645
135	0x3c4d4c85	0.012530451
136	0xbe44fb18	-0.1923641
137	0x3ca585da	0.020205427
138	0xbf65e712	-0.8980571
139	0x3e7987e4	0.24368244
140	0x3f724822	0.94641316
141	0xbdeebfb6	-0.1165766
142	0x3ef73f4d	0.48290482
143	0x3e4b05b1	0.1982639
144	0x3dc988f0	0.09840572
145	0x3dc675ab	0.09690412
146	0x3f099fee	0.5375966
147	0xbe0ec351	-0.13941695
148	0xbf37be91	-0.71775156
149	0xbf67d42c	-0.90558124
150	0xbe73f301	-0.23823167
151	0xbf0c212c	-0.54738116
152	0xbf2abf26	-0.6669792
153	0x3d3b020a	0.04565624
154	0xbf4a3fcd	-0.790036
155	0x3edc4dc3	0.43028077
156	0x3e0172ea	0.12641492
157	0x3e1c1f0c	0.15246218
158	0x3ed292e5	0.41127697
159	0x3dfc7c2d	0.12328372
160	0x3e1fc32d	0.15601797
161	0xbc566de6	-0.013087725
162	0xbe59e0d3	-0.2127717
163	0x3ee2270e	0.4417042
164	0x3f9082b5	1.1289889
165	0x3f832cfa	1.0248101
166	0x3ea7a54e	0.32743305
167	0xbeb16de4	-0.34654152
168	0xbf6413d3	-0.8909275
169	0xbf7bd9ca	-0.98379195
170	0xbe5e32da	-0.21699086
171	0xbdcf1c08	-0.101127684
172	0x3ce49d6a	0.027907092
173	0x3ea620ff	0.3244705
174	0x3f04b6ab	0.5184123
175	0x3e044e4d	0.12920494
176	0x3d44f5dd	0.048086036
177	0x3e48c968	0.1960808
178	0x3eead1e8	0.4586327
179	0x3e0d75cc	0.13814467
180	0xbf16ea5b	-0.5895135
181	0x3f4d795a	0.8026329
182	0xbefe4fbf	-0.49670216
183	0x3d9841a7	0.07434397
184	0xbed7c17c	-0.42139804
185	0x3defa78b	0.11701878
186	0xbe5ebbc2	-0.21751311
187	0xbbd9c223	-0.0066454574
188	0x3f47ab8c	0.77996135
189	0x3f888e41	1.0668412
190	0x3e2c517a	0.16827956
191	0xbeccce5f	-0.400012
192	0xbe7d7f30	-0.2475555
193	0xbed6fb8d	-0.41988793
194	0xbf0c3421	-0.5476704
195	0x3f22518e	0.6340569
196	0x3f21eee1	0.63255125
197	0x3d2b0feb	0.041763227
198	0x3d97e1da	0.07416125
199	0x3c9519f7	0.018200858
200	0x3ebd2699	0.3694351
201	0x3ee3b536	0.4447419
202	0xbf022e56	-0.50851953
203	0xbf3e2b95	-0.7428525
204	0xbd41222f	-0.04715174
205	0xbee25d3a	-0.4421175
206	0xbc0307c6	-0.007997459
207	0xbe05c0cc	-0.13061827
208	0x3ed10fab	0.40832266
209	0xbeb6e45f	-0.35721108
210	0x3e2eefe5	0.170837
211	0xbe919b1d	-0.28438655
212	0xbeb18839	-0.34674242
213	0x3e3d464e	0.1848385
214	0x3f1361c9	0.57571083
215	0x3d91c044	0.0711675
216	0xbf2c23b5	-0.67241985
217	0xbf3cb43f	-0.73712534
218	0xbf0dfe0b	-0.55465764
219	0xbe3367d5	-0.17520078
220	0x3f20b80c	0.62780833
221	0x3e07215f	0.13196324
222	0x3eb6659a	0.3562439
223	0x3db8cfb3	0.090239905
224	0x3ea55d0c	0.32297552
225	0xbe861304	-0.26186383
226	0x3f00af81	0.502678
227	0xbed20b99	-0.41024473
228	0xbf453038	-0.770267
229	0x3ed36ecb	0.41295466
230	0x3ee05e0f	0.4382176
231	0xbf6c4788	-0.9229665
232	0x3e58a714	0.21157485
233	0x3eb8f0af	0.36121127
234	0x3f0cc6c3	0.54990786
235	0xbe0c4576	-0.13698372
236	0x3f92c042	1.1464922
237	0x3e9d3da6	0.30711097
238	0x3e4626b8	0.19350708
239	0xbf216331	-0.6304198
240	0xbded2beb	-0.11580642
241	0x3e9fcd5b	0.3121136
242	0xbe280164	-0.1640678
243	0xbde3c43e	-0.111214146
244	0x3f2fc41f	0.6865863
245	0x3f2512cd	0.6448181
246	0x3e852de2	0.26011568
247	0xbdcf211b	-0.10113736
248	0x3cc66267	0.024216844
249	0x3efdb8b1	0.4955497
250	0x3f19a25e	0.6001338
251	0xbed516bb	-0.41618904
252	0x3f93d98f	1.1550769
253	0x3e9ccbc6	0.30624217
254	0x3e1b0da5	0.15141924
255	0xbe813c87	-0.2524149

model.model.model.0.bias f4 [64]
0	0x3ea09e8f	0.3137097
1	0x3de0fa19	0.10985202
2	0x3e52b572	0.20577028
3	0x3b7485ab	0.0037311118
4	0x3ec70a01	0.3887482
5	0xba0a327d	-0.00052718056
6	0xbc262e2f	-0.010142847
7	0x3e4ada17	0.19809757
8	0x3ea64eb8	0.32481933
9	0xbe5e5b1c	-0.21714443
10	0x3e6bff57	0.23046623
11	0x3dd7a888	0.10530192
12	0x3eea714e	0.4578957
13	0xbec3ba0d	-0.38227883
14	0xbec86412	-0.39138848
15	0x3d191a03	0.037378322
16	0xbeb1a73f	-0.3469791
17	0x3e8bc1e3	0.2729636
18	0xbe095d28	-0.13414443
19	0xbf4ce7b9	-0.8004108
20	0x3ec97ceb	0.39353117
21	0xbef8b4c0	-0.485754
22	0xbed94e6f	-0.42442653
23	0xbeb0b64b	-0.34514078
24	0xbe830515	-0.25589815
25	0x3d978d3e	0.07399987
26	0x3ee86c97	0.45395347
27	0xbeaec083	-0.3413125
28	0x3f146740	0.57970047
29	0x3f0b6762	0.54454625
30	0xbeebce7c	-0.46055973
31	0x3e8bb9d7	0.27290222
32	0xbdb62e8a	-0.08895595
33	0x3d352b33	0.04423065
34	0xbdedccf8	-0.1161136
35	0xbbe3d2c4	-0.0069526155
36	0x3ea20647	0.31645414
37	0xbd82e0b1	-0.06390513
38	0xbce0bec0	-0.027434707
39	0xbecf573a	-0.40496236
40	0x3ea5e2a6	0.32399482
41	0xb932667a	-0.00017013578
42	0x3e35c925	0.17752512
43	0xbe49ff3d	-0.19726272
44	0x3ec812e4	0.39076912
45	0x3e755d7d	0.23961444
46	0xbf3693f5	-0.71319515
47	0x3efe7b59	0.49703482
48	0xbebe160f	-0.37126204
49	0xbdc73a01	-0.0972786
50	0xbe3e5e22	-0.18590596
51	0x3e81892a	0.2529996
52	0xbc9efcdb	-0.01940768
53	0x3e0c6d60	0.13713598
54	0xbdf55803	-0.119796775
55	0xbe1d73b9	-0.15376176
56	0xbd9cf57c	-0.0766401
57	0x3d2e1b5c	0.04250656
58	0x3e10dad9	0.14145984
59	0x3e576d5b	0.2103781
60	0xbe855c4e	-0.26046985
61	0x3eec3e93	0.4614149
62	0xbdb615a2	-0.08890845
63	0x3e5586ea	0.20852247

model.model.model.2.weight f4 [64, 64]
0	0xbefa6168	-0.4890244
1	0xbe3e37f5	-0.18576033
2	0x3e988531	0.29789117
3	0xbe0c299e	-0.1368775
4	0x3e5e7552	0.21724442
5	0xbed4a54a	-0.41532356
6	0x3d6e4c5d	0.058178294
7	0xbf0aeafa	-0.54264796
8	0xbf05a944	-0.52211404
9	0xbe1ed55e	-0.1551108
10	0xbea94415	-0.33059755
11	0xbf204e50	-0.62619495
12	0x3d63fa53	0.05565865
13	0x3d7f6ef7	0.062361684
14	0x3e98e71a	0.29863816
15	0x3e08226a	0.13294378
16	0x3d8dab9e	0.06917499
17	0xbe1cebcf	-0.15324329
18	0x3eca8cf5	0.39560667
19	0x3f81994e	1.012491
20	0xbf5c2900	-0.8600006
21	0x3d1bc779	0.03803203
22	0xbe1d3ccc	-0.15355223
23	0x3dee4c57	0.116356544
24	0xbf2183f6	-0.6309198
25	0xbd0c9c1b	-0.03432856
26	0x3f0b17c5	0.54333144
27	0x3c2895a3	0.010289582
28	0x3e7300cb	0.23730771
29	0xbef7b89f	-0.48383042
30	0x3cba23b7	0.022722108
31	0xbebe3147	-0.3714697
32	0xbf2862a7	-0.6577553
33	0x3e1df2a2	0.15424588
34	0x3e74e980	0.23917198
35	0xbe9729e5	-0.2952415
36	0xbd90a056	-0.07061832
37	0x3f407371	0.7517615
38	0x3eabf94e	0.33588642
39	0xbf8282e3	-1.0196193
40	0xbdd15fdc	-0.10223362
41	0xbe5186a9	-0.20461525
42	0xbe343fc2	-0.17602447
43	0x3f096fbb	0.5368611
44	0x3d8e60d0	0.06952059
45	0xbf260298	-0.6484771
46	0xbf0a0fbd	-0.53930265
47	0xbf2c82d2	-0.67387116
48	0x3e43970c	0.19100589
49	0xbd64c477	-0.055851426
50	0x3e4e0a7d	0.20121188
51	0xbe897506	-0.26847094
52	0x3e98a168	0.29810643
53	0x3d223ff6	0.03961178
54	0x3c18f4cb	0.009335707
55	0xbec15015	-0.3775641
56	0x3eb234bb	0.34805855
57	0x3ef68e82	0.481556
58	0xbd2e5edf	-0.042570945
59	0xbe8eb97d	-0.2787589
60	0x3eb6e3a7	0.3572056
61	0x3e17c35e	0.1482062
62	0xbd12eef7	-0.035872426
63	0xbe28e10c	-0.16492099
64	0x3d992733	0.0747818
65	0x3dff6cce	0.12471925
66	0x3e8b89bb	0.27253518
67	0xbf0f38ea	-0.5594622
68	0x3e2fb61a	0.1715931
69	0xbf941b11	-1.157076
70	0xbfc7d183	-1.5610813
71	0xbd875495	-0.066079296
72	0x3d3c42c9	0.04596213
73	0xbdc94efe	-0.0982952
74	0x3d143ebb	0.036192637
75	0xbe4b4d1c	-0.19853634
76	0x3e6978d8	0.22800004
77	0x3e883d12	0.26609093
78	0x3ec5c3c4	0.3862592
79	0xbeca8c53	-0.39560184
80	0x3dc49c1e	0.096000895
81	0xbcf8b9a1	-0.030361952
82	0x3e68f790	0.22750688
83	0x3f04a74a	0.5181776
84	0xbea8b648	-0.3295157
85	0x3f425654	0.75912976
86	0xbf2bc884	-0.6710284
87	0xbed6ff49	-0.41991642
88	0xbf44d24b	-0.7688338
89	0x3ebc3eeb	0.36766753
90	0x3de2fb16	0.11083047
91	0x3f055302	0.52079785
92	0x3e704e16	0.23467287
93	0xbefce250	-0.49391413
94	0xbd4c9991	-0.04995114
95	0xbe92a1a0	-0.28638935
96	0x3f250f61	0.6447659
97	0xbd178bf2	-0.036998697
98	0x3e8ec88f	0.2788739
99	0xbe933e1a	-0.28758317
100	0x3dbf4032	0.09338416
101	0x3e331d33	0.17491607
102	0x3eedd333	0.46450195
103	0xbf952e27	-1.165471
104	0x3d8a4fde	0.06753515
105	0xbe25b259	-0.16181315
106	0xbe258264	-0.16163021
107	0x3f110de9	0.5666185
108	0x3ebbcfb1	0.36681893
109	0xbf18ece3	-0.5973646
110	0xbe928653	-0.28618106
111	0xbdbb6d23	-0.091516756
112	0x3e6dcc50	0.2322247
113	0xbcfd57d7	-0.030925674
114	0x3e3fcb1e	0.18729827
115	0xbe3f7eb7	-0.18700682
116	0xbdcd06e2	-0.100110784
117	0x3db4179e	0.08793567
118	0x3ceeb954	0.029141106
119	0xbf540545	-0.8282054
120	0x3d59e142	0.05319334
121	0x3ee6f70c	0.45110357
122	0x3e03a161	0.1285453
123	0xbc5139af	-0.0127701005
124	0x3ecdd4ce	0.4020142
125	0x3ea85bf5	0.32882658
126	0x3ead18d5	0.33808008
127	0xbe158776	-0.14602455
128	0xbeebedcc	-0.46079862
129	0x3eaec347	0.3413336
130	0xbe2e1e4c	-0.17003745
131	0x3f2e4a6d	0.68082315
132	0xbd999695	-0.07499424
133	0x3e05cfab	0.130675
134	0xbf0b31af	-0.54372686
135	0xbeb2b0ee	-0.34900612
136	0xbe58d0c8	-0.21173394
137	0xbed0774b	-0.40716013
138	0x3e47ff4c	0.19530982
139	0xbda45129	-0.080232926
140	0x3e5b853a	0.2143754
141	0x3f6a9382	0.9163133
142	0x3efaa162	0.4895125
143	0x3f40280f	0.75061125
144	0x3d8b4474	0.06800166
145	0x3d853e08	0.06505972
146	0xbe17c162	-0.14819863
147	0x3f87cacb	1.0608763
148	0x3da1e7d3	0.07905545
149	0x3f2453d1	0.64190394
150	0x3e75e281	0.24012186
151	0x3e26b922	0.1628156
152	0xbf8c0596	-1.0939205
153	0x3e3ae3d8	0.18250978
154	0x3f0a0680	0.5391617
155	0x3ec963aa	0.3933385
156	0x3f169a4d	0.58829194
157	0xbf3b096f	-0.7306127
158	0x3e7d1730	0.24715877
159	0xbf0384e8	-0.51374674
160	0xbf8b3037	-1.0874089
161	0xbe4089d4	-0.18802577
162	0x3eb734f3	0.35782585
163	0x3db5da87	0.088795714
164	0x3dfdea68	0.12398225
165	0x3fa19b3e	1.2625501
166	0x3ed45062	0.41467577
167	0xbfb39e77	-1.4032735
168	0x3f00d843	0.5032999
169	0x3ed22082	0.41040426
170	0x3ea8df26	0.3298275
171	0x3ef6af1d	0.48180476
172	0x3e01d244	0.12677866
173	0xbec880d0	-0.39160776
174	0xc005f13d	-2.092849
175	0xbf2bd95e	-0.6712855
176	0x3ec02811	0.37530568
177	0xbc98bd7f	-0.018645046
178	0x3f00f5d9	0.50375134
179	0x3e0b0ffd	0.13580318
180	0x3f3a87a2	0.7286321
181	0x3dc1d3c5	0.0946422
182	0xbec972fd	-0.39345542
183	0x3ed0c97e	0.40778726
184	0x3ecab891	0.39593938
185	0x3f30bc6d	0.69037515
186	0x3e463216	0.19355044
187	0xbe165075	-0.1467913
188	0x3dc22128	0.0947898
189	0x3e28bee6	0.16479072
190	0xbf150f36	-0.58226335
191	0xbe947aa7	-0.28999826
192	0xbd8e7fcc	-0.06957969
193	0xbe37cb64	-0.17948681
194	0x3e6d8a2c	0.2319724
195	0xbfe0d2c6	-1.7564323
196	0x3e484053	0.19555788
197	0xbf437df0	-0.7636404
198	0xbf38a924	-0.7213309
199	0x3e09fb4c	0.13474768
200	0xbe0d6cc0	-0.13811016
201	0xbe4c1033	-0.19928055
202	0x3d999cca	0.07500608
203	0xbf0f5e97	-0.5600371
204	0x3e40f47b	0.18843262
205	0x3e066716	0.13125262
206	0x3e8ced1f	0.2752466
207	0xbf638a67	-0.8888306
208	0xbd0ca191	-0.03433377
209	0x3e44d2ec	0.19221085
210	0xbe8a4bc0	-0.27010918
211	0x3f398daf	0.72481817
212	0x3e94a939	0.29035357
213	0x3ea26493	0.31717357
214	0xbf028ec9	-0.5099912
215	0xbe01512e	-0.12628624
216	0xbf205b4e	-0.6263932
217	0xbe437bcf	-0.19090198
218	0x3e630741	0.22170736
219	0xbe256a0d	-0.16153736
220	0x3ed18a7f	0.40925977
221	0xbe5701af	-0.20996736
222	0x3f290042	0.6601602
223	0xbe21da10	-0.1580584
224	0x3f7675d8	0.96273565
225	0xbd8c8ecf	-0.06863176
226	0x3e95acb7	0.29233333
227	0xbec1de40	-0.37864876
228	0x3e712efa	0.23553076
229	0xbecdd230	-0.40199423
230	0xbdf605f7	-0.120128565
231	0xbfa8069d	-1.3127018
232	0xbf95e45c	-1.1710315
233	0xbfac8df5	-1.3480822
234	0xbf0735c2	-0.528164
235	0x3f02a55a	0.51033556
236	0x3e2e1fc9	0.17004313
237	0xbfdcd57c	-1.725265
238	0x3e8718f2	0.2638622
239	0xbe901cd4	-0.28146994
240	0xbcc08aac	-0.023503624
241	0xbef1f39b	-0.4725617
242	0x3f916384	1.1358495
243	0x3dcf6b2a	0.10127862
244	0xbf1d816c	-0.6152561
245	0xbe7aac3b	-0.24479763
246	0xbe9f2db1	-0.31089547
247	0xbf2b2376	-0.66850984
248	0x3e6a1768	0.22860491
249	0x3ebfe91f	0.37482545
250	0x3e51563b	0.2044305
251	0x3e9a75e4	0.30168068
252	0x3e7f0754	0.24905139
253	0x3ce73cc6	0.028227221
254	0xbd7758b3	-0.060387325
255	0xbe460516	-0.19337878

model.model.model.2.bias f4 [64]
0	0xbebe0293	-0.3711134
1	0xbd8ff76d	-0.070296146
2	0xbeab3a39	-0.33442858
3	0xbd350238	-0.04419157
4	0xbe50b167	-0.20380174
5	0xbc51b57b	-0.012799616
6	0xbedb012c	-0.42774332
7	0x3dfd0007	0.12353521
8	0x3dcefb2d	0.10106502
9	0xbe9a23e1	-0.30105498
10	0x3d09f300	0.03367901
11	0x3de7b36a	0.113135174
12	0xbd8df547	-0.069315486
13	0x3d5ba43a	0.053623416
14	0x3e97c0bc	0.29639232
15	0x3ddcea68	0.10786897
16	0xbc1b4f0c	-0.009479295
17	0x3e05d7c5	0.13070591
18	0xbb399b18	-0.0028321203
19	0xbe2bf431	-0.1679237
20	0xbe3147ff	-0.1731262
21	0xbde7321d	-0.11288855
22	0x3ead886a	0.33893138
23	0x3d98d44f	0.0746237
24	0x3ead5e41	0.33860973
25	0xbd29ad4c	-0.041425034
26	0x3defd99b	0.11711427
27	0xbdaf56ab	-0.085614525
28	0x3d8af54c	0.06785068
29	0xbd1d8d45	-0.038464803
30	0x3db94447	0.09046226
31	0x3f0e0dd5	0.55489856
32	0x3db9f1b5	0.09079305
33	0xbe04ac77	-0.12956415
34	0xbcda6af4	-0.026662327
35	0x3ca9bb1f	0.02071911
36	0xbb263784	-0.002536268
37	0xbe877e21	-0.26463416
38	0x3e6afc4a	0.22947803
39	0xbe156bac	-0.14591855
40	0xbddda5a9	-0.10822613
41	0xbd657c1b	-0.05602656
42	0x3e30ef4e	0.17278787
43	0xbea1275a	-0.31475335
44	0x3db8587f	0.09001254
45	0x3d62b76e	0.055350713
46	0x3e114e18	0.14189947
47	0xbe1c17e1	-0.15243484
48	0xbd9077ea	-0.07054122
49	0xbdded05f	-0.108795874
50	0xbdf66da8	-0.12032634
51	0x3e5a7fd8	0.21337831
52	0xbe4cde09	-0.20006575
53	0x3e6648a6	0.2248865
54	0xbe88442e	-0.26614517
55	0x3d40c31a	0.047061063
56	0x3d5dbcdc	0.05413519
57	0x3eb237f6	0.3480832
58	0xbbcc4782	-0.0062341103
59	0x3dbb61f8	0.091495454
60	0xbe3d7d98	-0.18504941
61	0xbee01bdd	-0.43771258
62	0x3df6eb40	0.12056589
63	0x3e207b1a	0.1567196

model.model.model.4.weight f4 [64, 64]
0	0x3d5e7221	0.05430806
1	0x3c80988d	0.015697742
2	0xbdbdc296	-0.0926563
3	0xbdb9463c	-0.09046599
4	0x3d2d5037	0.042312827
5	0xbdd83bc0	-0.105582714
6	0xbd1162e8	-0.035494715
7	0x3d435abf	0.047693964
8	0x3db07514	0.08616081
9	0xbd4bede5	-0.04978742
10	0xbe08f6e2	-0.13375428
11	0xbda8b51a	-0.082376674
12	0x3d637762	0.055533774
13	0xbd08d757	-0.03340849
14	0xbe0a7f14	-0.13525039
15	0x3d5c1711	0.053732935
16	0xbcc75d58	-0.024336502
17	0xbe2d5322	-0.16926244
18	0x3c826a20	0.015919745
19	0xbdeb3fdf	-0.11486792
20	0x3c5efcb3	0.013610053
21	0x3e01b02a	0.12664858
22	0xbd3560be	-0.044281714
23	0xbde37dcb	-0.111079775
24	0x3c815fea	0.015792806
25	0xbc9dadf8	-0.019247994
26	0xbca7ee9e	-0.020499524
27	0xbe0a07a4	-0.13479477
28	0x3d8e7ca3	0.06957366
29	0x3db9b086	0.09066872
30	0xbcb5f910	-0.022213489
31	0xbdf667d9	-0.12031526
32	0xbe0bc178	-0.13648021
33	0xbdaca506	-0.08429913
34	0x3d4df269	0.05028001
35	0xbe01968a	-0.12655082
36	0x3be86148	0.007091675
37	0x3d1ae533	0.037816238
38	0x3cf6b509	0.030115621
39	0x3ccab437	0.024744136
40	0xbc776a70	-0.01510106
41	0xbe1ceaa5	-0.15323885
42	0xbdeb7986	-0.11497788
43	0x3dcbaf11	0.09945501
44	0xbd52c92a	-0.051461376
45	0x3dda8465	0.106697835
46	0x3d62bc66	0.055355452
47	0xbded0994	-0.115740925
48	0xbd8b0115	-0.06787316
49	0x3c5e8820	0.013582259
50	0xbd30d43f	-0.043171164
51	0xbd082a81	-0.03324366
52	0xbd91b363	-0.071142934
53	0xbd51a5fd	-0.05118369
54	0xbdae9387	-0.08524232
55	0xbd53d423	-0.05171598
56	0xbde0bf7e	-0.10974024
57	0x3d0c9124	0.034318104
58	0x3dc296ab	0.09501394
59	0xbca49b20	-0.0200935
60	0x3cca8c8d	0.024725223
61	0x3d1d7502	0.038441665
62	0x3d042b3d	0.032267798
63	0x3d96801b	0.07348653
64	0x3f2a41f3	0.6650688
65	0xbf15267b	-0.5826184
66	0x3f837a65	1.0271727
67	0x3f298a97	0.66227096
68	0x3e844137	0.25831005
69	0x3eab47ce	0.3345322
70	0x3ed18b24	0.40926468
71	0x3d54f473	0.051990937
72	0x3ed9db2c	0.42550027
73	0x3f00ce5d	0.50314885
74	0x3ef4c681	0.47807696
75	0xbf2ddb2c	-0.67912555
76	0x3ed355c6	0.41276377
77	0x3e42a19f	0.19006966
78	0x3e2344e8	0.15944254
79	0x3eb3e609	0.3513644
80	0x3ee4ed89	0.44712475
81	0x3ca1017a	0.019654024
82	0x3e2d6447	0.16932784
83	0x3f06edbd	0.5270651
84	0x3e49b0e6	0.19696388
85	0x3d9ec20e	0.07751857
86	0xbebd5c60	-0.3698454
87	0x3e5ac024	0.21362358
88	0xbeab8972	-0.335033
89	0x3d595a88	0.053064853
90	0x3e67c251	0.2263272
91	0x3f4680cd	0.77540284
92	0x3ed24b43	0.41073045
93	0x3e99a9f7	0.30012485
94	0x3cba5589	0.022745864
95	0x3c9aa706	0.018878471
96	0x3e7f3e51	0.24926116
97	0x3d5fdd3e	0.054654352
98	0x3f25431c	0.64555526
99	0x3ee5e1b0	0.44898748
100	0x3e5be6fa	0.2147483
101	0x3f3c0eda	0.7346016
102	0x3eb81b48	0.35958314
103	0x3ea14612	0.31498772
104	0xbd56a2ef	-0.05240148
105	0x3eaaac99	0.33334807
106	0x3e829e49	0.25511387
107	0x3f44b080	0.7683182
108	0x3fa3e7d3	1.2805122
109	0x3ed679af	0.41889712
110	0x3f22ea0d	0.63638383
111	0x3ceadcb5	0.028669694
112	0x3e869253	0.26283512
113	0xbdb90ba0	-0.090354204
114	0x3e70e4e9	0.23524822
115	0x3cb0a1a6	0.021561455
116	0x3f3f6fe6	0.7478012
117	0xbf2b6b5c	-0.6696069
118	0x3f3cf3c2	0.73809445
119	0x3e8c707b	0.27429566
120	0x3e15e670	0.14638686
121	0x3e1dcd67	0.15410386
122	0x3f0dfeb7	0.5546679
123	0xbe90e772	-0.2830158
124	0x3e6e47ef	0.23269628
125	0xbf6a01cf	-0.9140901
126	0x3dfae895	0.12251393
127	0x3ecac07a	0.39599973
128	0xbe5f28a1	-0.21792842
129	0x3e9ec32c	0.3100828
130	0xbe43f090	-0.19134736
131	0x3dd3b89a	0.10337944
132	0x3e0d29de	0.13785502
133	0xbca82b05	-0.020528326
134	0xbe9ee534	-0.31034243
135	0x3d9f6540	0.07782984
136	0x3eb18c2c	0.34677255
137	0xbe8a241c	-0.26980674
138	0x3bba3c52	0.0056834603
139	0x3f50e4ec	0.8159931
140	0x3ce9edf6	0.028555851
141	0xbe1c6c3b	-0.15275662
142	0x3d445a2d	0.04793756
143	0xbc205f61	-0.009788365
144	0x3e8ccbae	0.27499145
145	0x3c1b86b3	0.009492564
146	0xbee4ef6d	-0.44713917
147	0xbf0b09e4	-0.54311967
148	0xbcf91672	-0.03040621
149	0xbda529f2	-0.08064641
150	0x3f0eef5e	0.55833995
151	0xbe4ea41f	-0.20179795
152	0x3f0484f4	0.5176537
153	0xbdb4189a	-0.08793755
154	0x3daac8b6	0.08339064
155	0x3ee76b51	0.45199063
156	0x3ed87a97	0.4228103
157	0xbc98ab2b	-0.018636307
158	0xbe3cc23e	-0.18433473
159	0x3e68c21d	0.22730298
160	0x3e3689c1	0.17825986
161	0xbc711558	-0.014714561
162	0x3f4c41bf	0.7978782
163	0x3f022fa2	0.5085393
164	0x3e69e9a3	0.22843032
165	0xbeab545d	-0.33462802
166	0x3da891ba	0.0823092
167	0x3cf90b26	0.030400824
168	0xbe1cc767	-0.15310441
169	0x3e209c76	0.15684685
170	0xbd63ea82	-0.055643566
171	0xbe5ed593	-0.2176116
172	0xbea98c09	-0.3311465
173	0x3e61cfca	0.22051921
174	0x3d98a76e	0.0745381
175	0xbd90b427	-0.07065611
176	0x3b48ef7b	0.003066032
177	0x3d2d018f	0.042237815
178	0xbe2311e6	-0.15924796
179	0xbe32294e	-0.17398569
180	0x3eab34e5	0.33438793
181	0x3f098b6d	0.5372837
182	0x3d746129	0.05966297
183	0x3d8ae506	0.06781964
184	0xbe28c756	-0.1648229
185	0x3ed20371	0.4101825
186	0x3d92c698	0.07166785
187	0x3f01aac2	0.5065118
188	0x3d9730c9	0.07382352
189	0xbf232cd5	-0.63740283
190	0x3dbdf27c	0.09274766
191	0xbe9a3c73	-0.30124244
192	0x3f3df69e	0.7420443
193	0xbf12cc07	-0.5734257
194	0x3f8bc74d	1.0920197
195	0x3ed58fe2	0.41711336
196	0x3e09021d	0.13379712
197	0x3e639b86	0.22227296
198	0x3efc1f8a	0.49242812
199	0xbde826b7	-0.11335509
200	0x3ecbcc19	0.39804152
201	0x3f330ff6	0.6994623
202	0x3eb24865	0.34820858
203	0xbfde195d	-1.735149
204	0x3e868f9a	0.26281434
205	0x3e96f199	0.294812
206	0x3e139a18	0.14414251
207	0x3e965e71	0.29368928
208	0x3e5ce03d	0.21569915
209	0x3dde8322	0.10864855
210	0xbeecbbb8	-0.46236968
211	0x3efaeca0	0.49008656
212	0x3ec3bb10	0.38228655
213	0x3ce2ed63	0.027701085
214	0xbe8c7d69	-0.2743943
215	0x3ea5760e	0.3231663
216	0xbe123263	-0.14277034
217	0x3d85b704	0.06529048
218	0x3e165a25	0.14682825
219	0x3f1d54ff	0.6145782
220	0x3df69a99	0.12041206
221	0x3e713a27	0.2355734
222	0x3c4e1036	0.012577107
223	0x3b9584c4	0.004562946
224	0x3d6e0035	0.058105666
225	0xbd8d0509	-0.06885726
226	0x3f0a031e	0.53911006
227	0x3e82517f	0.25452802
228	0x3e5c7f4a	0.21532932
229	0x3f7ddbd9	0.99163586
230	0x3e062ea2	0.13103727
231	0x3ecc2145	0.39869133
232	0x3dd0b9e0	0.10191703
233	0x3ea33046	0.31872767
234	0x3e71b794	0.23605186
235	0x3f27b391	0.6550837
236	0x3d39f7e9	0.04540244
237	0x3eb55ce7	0.3542244
238	0x3e818352	0.25295502
239	0x3dd70fb7	0.10501044
240	0x3eaa167e	0.33220285
241	0x3d206a69	0.03916398
242	0x3e1f9367	0.15583573
243	0x3d7a6883	0.061134826
244	0x3f277f9c	0.6542909
245	0xbec8a634	-0.39189303
246	0x3f46bd79	0.7763286
247	0x3e7bca56	0.24588904
248	0x3e2d008d	0.16894741
249	0xbe643c53	-0.22288637
250	0x3ecdd5a0	0.40202045
251	0xbe9c84d4	-0.3057009
252	0x3df4117b	0.11917397
253	0xbf3ef998	-0.745996
254	0x3c0ee23f	0.008720933
255	0x3e1fcb60	0.15604925

model.model.model.4.bias f4 [64]
0	0xbb4de44d	-0.0031416595
1	0x3e0a5b09	0.1351129
2	0x3da7d330	0.08194578
3	0x3eb06413	0.3445135
4	0x3e0f72e5	0.14008673
5	0x3dac93af	0.08426606
6	0x3d112563	0.035436045
7	0x3d069585	0.032857437
8	0xbef3391d	-0.4750451
9	0x3f17b577	0.5926127
10	0x3e9d11e8	0.30677724
11	0xbd553c2f	-0.05205935
12	0xbe25c90c	-0.16189975
13	0x3c9efdf8	0.019408211
14	0xbd70533b	-0.058673125
15	0x3db67b7c	0.089102715
16	0x3de7055a	0.112803176
17	0xbe0601de	-0.1308665
18	0x3d407c40	0.046993494
19	0xbe9e6341	-0.309351
20	0xbceac261	-0.02865714
21	0xbd547310	-0.051867545
22	0xbdc83bac	-0.097770065
23	0xbe1168ce	-0.14200136
24	0x3d7243d3	0.059146713
25	0x3ecfd02a	0.40588504
26	0xbd0b4251	-0.03399879
27	0xbe055c6e	-0.1302354
28	0xbf52aa03	-0.8229067
29	0x3dbe9249	0.093052454
30	0xbe10e9f8	-0.14151752
31	0xbe235d61	-0.1595359
32	0x3e7c4088	0.24633992
33	0x3d8eab69	0.06966288
34	0xbdd2b4d8	-0.102883995
35	0xbd35d881	-0.044395927
36	0xbdede9a8	-0.11616832
37	0x3e822f56	0.2542674
38	0x3f8b20a6	1.0869339
39	0x3dbe38cd	0.09288178
40	0x3d8a9d94	0.06768337
41	0x3cc1a0ba	0.02363621
42	0x3dc52821	0.096267946
43	0x3e31b1fd	0.17353053
44	0xbc57dc8f	-0.013175144
45	0x3d827613	0.06370177
46	0x3c2db639	0.010602527
47	0xbe10ea95	-0.14151986
48	0xbf0302c6	-0.51176107
49	0x3cf2cd6b	0.029638967
50	0x3e28fb7b	0.16502182
51	0x3dfbfa24	0.1230357
52	0x3de16d4e	0.11007176
53	0x3c4535a2	0.012036713
54	0x3f6f1d44	0.9340403
55	0xbcc13071	-0.023582669
56	0xbe1ab578	-0.15108287
57	0xbe498084	-0.19677931
58	0x3d6bb258	0.05754313
59	0x3d19f80c	0.03759007
60	0xbb745302	-0.0037280922
61	0x3da41885	0.08012489
62	0x3dcafe75	0.09911815
63	0x3d67b109	0.05656532

model.model.model.6.weight f4 [4, 64]
0	0x3b6af6aa	0.003585259
1	0xbe95d480	-0.29263687
2	0x3eae6d0d	0.34067574
3	0xbe879e9c	-0.26488197
4	0xbe5619f8	-0.20908344
5	0x3ef9d747	0.48797056
6	0xbe9d80d6	-0.30762357
7	0xba8a0996	-0.0010531421
8	0xbd797363	-0.060901057
9	0x3ea50071	0.322269
10	0x3eb0cae5	0.34529796
11	0x3d4b08d0	0.04956895
12	0xbeae98ef	-0.34101054
13	0xbdfbcc0e	-0.1229478
14	0x3d9942fa	0.07483478
15	0xbc07e136	-0.008293441
16	0xbebd8692	-0.37016732
17	0x3d091b3c	0.03347324
18	0x3f9401a6	1.1563003
19	0xbe0db002	-0.13836673
20	0x3d83088e	0.06398116
21	0xbebb2f2e	-0.36559433
22	0xbea0ff2d	-0.31444684
23	0xbd1a63ac	-0.03769271
24	0x3f159584	0.5843127
25	0xbe9b1462	-0.30288988
26	0x3bb84ae8	0.005624164
27	0x3d5175b4	0.05113764
28	0x3e74dca1	0.23912288
29	0x3e82431a	0.2544182
30	0xbe92e1cb	-0.2868789
31	0xbdb613f2	-0.08890523
32	0x3fff16d2	1.9928839
33	0xbe7db1d5	-0.24774869
34	0xbe9d3b56	-0.30709332
35	0x3d12219e	0.03567659
36	0xbca543c8	-0.020173922
37	0x3ec204b9	0.37894228
38	0x3f79e0fe	0.97608936
39	0xbdd9b0a6	-0.10629396
40	0x3d9c608b	0.076356016
41	0x3cb4f5f2	0.022089932
42	0x3f3df579	0.74202687
43	0xbe8165cd	-0.2527298
44	0x3d663f2d	0.056212593
45	0x3fd6f375	1.6793047
46	0xbeb0412c	-0.34424722
47	0x3c88e620	0.016711295
48	0xbed3112e	-0.41224045
49	0x3eae960e	0.34098858
50	0xbedeb2b6	-0.4349572
51	0xbf20af1b	-0.6276719
52	0xbdcee6e4	-0.10102633
53	0xbddedcae	-0.10881935
54	0xbf250172	-0.6445533
55	0x3d7efd70	0.062253416
56	0x3d874a32	0.066059485
57	0xbe0dab27	-0.1383482
58	0xbe863639	-0.26213244
59	0xbe97d903	-0.29657754
60	0x3a8123f0	0.0009852629
61	0xbed60b2f	-0.41805407
62	0xbef86ccd	-0.48520508
63	0x3eb9b10a	0.36267883
64	0xbd24a1e8	-0.04019347
65	0xbe94dd2e	-0.29074997
66	0x3e87e81e	0.2654428
67	0xbeb76c83	-0.35824975
68	0xbeb73971	-0.35786012
69	0x3d9e32ad	0.077245094
70	0xbe0b391b	-0.13596003
71	0x3b38e480	0.0028212368
72	0x3f21045f	0.62897295
73	0x400d50ee	2.2080646
74	0x3e593bd4	0.21214229
75	0x3d5a9cdf	0.05337226
76	0xbdd9c6b3	-0.10633602
77	0xbe7d60d5	-0.2474397
78	0x3dc3ca42	0.09560062
79	0xbf371498	-0.715158
80	0xbed4330b	-0.41445193
81	0x3d53ce9c	0.05171071
82	0x3f9543ca	1.1661313
83	0x3dd5c935	0.10438768
84	0xbb74a247	-0.003732817
85	0xbe93f355	-0.28896585
86	0xbe558e1e	-0.20854995
87	0xbd7538f8	-0.059868783
88	0x3fa3a5d1	1.2784978
89	0xbef9cc08	-0.48788476
90	0xbd8c63aa	-0.06854947
91	0xbd299d84	-0.041409984
92	0x3e684841	0.22683813
93	0x3ebd44b8	0.3696649
94	0xbe6c052a	-0.23048845
95	0x3cbf7f78	0.023376212
96	0x3fd5bd55	1.6698405
97	0xbe3f718a	-0.18695655
98	0x3f4f6f3d	0.8102911
99	0xbd789f9b	-0.060699087
100	0xbdc75faa	-0.09735043
101	0x3e8f7510	0.28019
102	0xbd7b4c35	-0.061351974
103	0xbe0f06b6	-0.13967404
104	0x3d9184b8	0.07105392
105	0x3dc9cd19	0.098535724
106	0x3f8e1d21	1.110264
107	0xbe8eeed3	-0.27916583
108	0xbde004b8	-0.109384
109	0x3f9780da	1.1836197
110	0xbd639414	-0.05556114
111	0xbb0d8c96	-0.0021598688
112	0x3f4b742f	0.7947416
113	0x3ed83498	0.42227626
114	0xbeb3734c	-0.35048902
115	0x3f1d3626	0.6141075
116	0xbdd07817	-0.10179155
117	0xbe8ffb16	-0.2812125
118	0x3d9f5d69	0.077814884
119	0xbe07330a	-0.13203064
120	0xbdaf321a	-0.08554478
121	0xbf1643e1	-0.58697325
122	0xbdd1424a	-0.10217722
123	0xbe040823	-0.12893729
124	0xbd3ca7d6	-0.0460585
125	0xbe80f90b	-0.25190005
126	0xbe9516a6	-0.29118842
127	0x3f1613b7	0.5862383
128	0xbb012d74	-0.001971093
129	0xbe81d23f	-0.25355718
130	0x3eeef6b2	0.4667259
131	0xbe9e8333	-0.30959472
132	0xbe96b116	-0.2943198
133	0xbeca6bfe	-0.39535517
134	0xbebb5e85	-0.3659555
135	0xbd04607a	-0.03231857
136	0xbe19f43c	-0.15034574
137	0xbc8bdab1	-0.017072054
138	0x3f001f30	0.5004759
139	0x3c9c6a90	0.019093782
140	0xbe719522	-0.23592046
141	0xbdce544e	-0.100746736
142	0x3d21243c	0.039341196
143	0x3e6d33b8	0.2316426
144	0xbea97f66	-0.3310501
145	0xbbf7760e	-0.007551915
146	0x40090c13	2.141362
147	0x3e481576	0.19539437
148	0xbd26d2f3	-0.04072852
149	0xbeacb6d3	-0.33733234
150	0xbe96c60e	-0.2944798
151	0xbd66f092	-0.05638177
152	0x3f9b9407	1.2154549
153	0xbe1ed0a3	-0.15509276
154	0xbd80749c	-0.062722415
155	0xbde2dad8	-0.110768974
156	0xbecc4e2c	-0.3990339
157	0x3e8cd378	0.27505088
158	0xbe9200c1	-0.285162
159	0x3c86502d	0.016395653
160	0x3fb7a0d2	1.4345953
161	0xbeb50955	-0.35358682
162	0x3f8575fc	1.0426631
163	0xbd27e36c	-0.04098837
164	0xb8f9c000	-0.00011909008
165	0x3ea3f305	0.32021347
166	0x3e86647d	0.2624854
167	0xbe270071	-0.16308762
168	0xbd2a65e8	-0.04160109
169	0xbce95d2d	-0.028486812
170	0x3ea202c8	0.31642747
171	0xbe801072	-0.25012547
172	0x3b8abb69	0.004233767
173	0x4037c653	2.8714797
174	0xbeb075ae	-0.34464782
175	0xbe002dbc	-0.12517446
176	0x3f199092	0.5998622
177	0x3eb9b82d	0.36273327
178	0xbe824233	-0.2544113
179	0xbe7e5413	-0.2483676
180	0xbea8aad5	-0.32942834
181	0x3ebbc3ec	0.36672914
182	0x3f5480cb	0.8300902
183	0x3d5d8790	0.05408436
184	0xbc8cf844	-0.017208226
185	0xbf341c06	-0.7035526
186	0xbea0ed84	-0.3143121
187	0xbec791e5	-0.38978496
188	0x3dfba64e	0.122875795
189	0xbe6c53c5	-0.2307883
190	0xbe2f284a	-0.17105213
191	0x3f1152c2	0.56766903
192	0xbd374355	-0.044741947
193	0xbea02c8c	-0.31283987
194	0xbec2da62	-0.38057238
195	0xbe10aa1f	-0.14127396
196	0xbe4622da	-0.19349232
197	0xbec16597	-0.3777282
198	0xbeb6c65b	-0.35698208
199	0xbce6d6c8	-0.028178588
200	0x3f5010c4	0.8127558
201	0x3ec3e8ca	0.3826354
202	0xbe907d8e	-0.2822079
203	0x3ce13c97	0.027494712
204	0xbe8d7045	-0.27624717
205	0xbe99a373	-0.30007514
206	0xbd707e40	-0.05871415
207	0x3e927ad0	0.28609324
208	0xbe1b7044	-0.15179545
209	0xbe16583c	-0.14682096
210	0x3f991e1b	1.1962312
211	0x3ee9da6c	0.45674455
212	0xbc3bda60	-0.011465639
213	0xbe9643d0	-0.29348612
214	0xbe90bc88	-0.28268838
215	0x3bbd937b	0.0057854033
216	0x3fd91fa0	1.6962776
217	0xbe4db345	-0.20087917
218	0xbd3dba4b	-0.04632024
219	0x3ba9ad20	0.005178109
220	0x3d316940	0.043313265
221	0xbebfab38	-0.37435317
222	0xbe956861	-0.29181197
223	0x3beefa3f	0.0072930153
224	0x3fb492a9	1.4107257
225	0xbeb2a31a	-0.34890062
226	0xbf218788	-0.6309743
227	0xbd270d60	-0.04078424
228	0xbdc61e9a	-0.096738055
229	0xbeaae270	-0.33375883
230	0x4007ea55	2.1236775
231	0xbeb3bf08	-0.35106683
232	0x3d91c97a	0.07118507
233	0xbd8bf708	-0.06834227
234	0x3e7bf7e6	0.24606284
235	0xbe8a6131	-0.27027276
236	0xbdcb47b4	-0.09925786
237	0x3fbc64ba	1.4718239
238	0xbe8358ed	-0.25653782
239	0x39576880	0.00020542927
240	0x3e9cfdef	0.30662486
241	0xbe97c71a	-0.2964409
242	0xbe68b4a9	-0.22725166
243	0xbefd37a4	-0.49456513
244	0xbebbb2e0	-0.36659908
245	0x3e882ad2	0.2659517
246	0x3f9b8a6b	1.2151617
247	0xbccd5ed8	-0.02506964
248	0xbd00dd4c	-0.031461045
249	0x3e012c38	0.12614524
250	0xbebdfc49	-0.3710654
251	0xbea4c80b	-0.3218387
252	0xbd23491b	-0.03986464
253	0xbe7e355a	-0.2482504
254	0xbe85083a	-0.2598284
255	0xbe851225	-0.25990406

model.model.model.6.bias f4 [4]
0	0x3ecb1526	0.39664572
1	0xbf31c2b3	-0.6943771
2	0x3d11d999	0.035607908
3	0xbe852335	-0.26003423

model_old.model.model.0.weight f4 [64, 8]
0	0xbe35f0d6	-0.17767653
1	0x3eb88950	0.3604226
2	0x3e75041f	0.23927353
3	0x3f63ea9e	0.8902987
4	0xbf025338	-0.5090823
5	0x3f282721	0.65684706
6	0x3f6423cb	0.89117116
7	0x3e2a9ca4	0.16661316
8	0x3e57cf22	0.21075109
9	0xbd868a82	-0.06569387
10	0xbe2fcb1d	-0.17167325
11	0x3e82e738	0.2556703
12	0x3da10193	0.078616284
13	0xbeb9a4f1	-0.36258653
14	0xbf573e1f	-0.84079164
15	0xbf3a8860	-0.7286434
16	0x3ef3e729	0.476373
17	0x3e8f70d1	0.2801576
18	0x3f415511	0.75520426
19	0xbe670f54	-0.22564441
20	0xbea154ee	-0.3151011
21	0xbf00678b	-0.50157994
22	0xbe500023	-0.20312552
23	0x3e34c08c	0.17651576
24	0x3d6a33c5	0.057178278
25	0xbd45acd2	-0.048260517
26	0xbf95d70b	-1.1706251
27	0xbf4c4b35	-0.79802257
28	0xbd7f2377	-0.06228968
29	0x3da4affe	0.0804138
30	0xbe00adc0	-0.1256628
31	0x3ddcd302	0.10782434
32	0x3efa472c	0.48882425
33	0x3d6e47bf	0.05817389
34	0x3f036ad5	0.5133489
35	0xbda63ff8	-0.0811767
36	0xbf35137e	-0.7073287
37	0x3ddc0327	0.10742789
38	0xbe98b276	-0.29823655
39	0x3d2bfbb1	0.04198808
40	0xbd5b673a	-0.05356524
41	0x3c51b8b9	0.012800389
42	0xbfa6adeb	-1.3021826
43	0x3f52a1d7	0.822782
44	0x3e0a13f0	0.13484168
45	0x3cfe75fc	0.031062119
46	0x3bde6f0d	0.0067881406
47	0x3e5c947e	0.2154102
48	0x3e043c00	0.12913513
49	0xbc9c5c2e	-0.019086923
50	0xbe69a6ba	-0.22817507
51	0x4022f5a2	2.5462422
52	0xbe822485	-0.25418487
53	0x3e7f28ee	0.24917957
54	0x3ea583c8	0.32327104
55	0xbe9bc4f7	-0.3042371
56	0x3c99dc50	0.018781811
57	0x3ea907a0	0.3301363
58	0xbf02e668	-0.5113282
59	0x3f327564	0.69710374
60	0xbe71b495	-0.23604043
61	0x3e0ffc4f	0.14061092
62	0xbf260962	-0.6485807
63	0xbf4aa82f	-0.7916288
64	0xbd94a929	-0.07258827
65	0x3dcc8202	0.099857345
66	0x3cf179b0	0.02947697
67	0xbd1ec62d	-0.038763214
68	0xbdcce316	-0.10004251
69	0xbeb9ca8c	-0.36287344
70	0xbde1fed3	-0.11034932
71	0xbe055a38	-0.13022697
72	0xbe5d8249	-0.21631731
73	0xbd5b4630	-0.053533733
74	0xbc8933d3	-0.016748345
75	0x3ea14376	0.3149678
76	0xbeee5ef5	-0.4655682
77	0xbf338a36	-0.7013277
78	0xbf4852bf	-0.7825126
79	0xbeadb905	-0.3393022
80	0xbe1a424f	-0.15064357
81	0xbd5c52d0	-0.053789914
82	0xbe4519f0	-0.19248176
83	0xbdc4d12d	-0.096102096
84	0xbfcd054a	-1.6017239
85	0x3e6217dd	0.22079416
86	0x3f21fa1b	0.63272256
87	0xbd95e723	-0.073194765
88	0x3e77b554	0.24190265
89	0xbdcf0635	-0.10108606
90	0xbeb80cf4	-0.35947382
91	0xbf14e392	-0.58159745
92	0x3f694d19	0.91133267
93	0x3da75507	0.081705146
94	0x3ece4f54	0.40294898
95	0x3eeba28e	0.46022457
96	0x3f020077	0.5078196
97	0xbe4a8bf0	-0.19779944
98	0xbe70e929	-0.23526444
99	0xbe20381c	-0.15646404
100	0x3f245945	0.64198714
101	0x3d203e5f	0.03912198
102	0x3f1b4a49	0.60660225
103	0x3ec27d57	0.37986252
104	0xbe5c06eb	-0.21487014
105	0xbf29c354	-0.6631367
106	0xbecc6600	-0.3992157
107	0xbf2b7d7d	-0.66988355
108	0xbd36b32e	-0.044604473
109	0x3f81f137	1.0151738
110	0xbbac9cba	-0.0052677067
111	0xbedde9ec	-0.4334253
112	0xbf0d434b	-0.55180806
113	0xbe6fb2dc	-0.23408073
114	0xbf7f9180	-0.9983139
115	0x3e6b2c7c	0.22966188
116	0x3d3c7e54	0.046018913
117	0xbea4e43f	-0.32205388
118	0xbe847688	-0.25871682
119	0xbe73accc	-0.23796386
120	0xbe2e2806	-0.17007455
121	0xbf6bd101	-0.9211579
122	0x3e428b1c	0.18998379
123	0xbf2f6e6e	-0.6852788
124	0xbe6a26f9	-0.2286643
125	0xbd2e4f67	-0.042556193
126	0xbeeb4cf0	-0.45957136
127	0xbea18dc9	-0.31553486
128	0x3e20a214	0.15686828
129	0xbe510fad	-0.20416136
130	0xbe886f95	-0.2664763
131	0x3d69c9d5	0.057077248
132	0x3ecf9982	0.40546805
133	0xbcc0d29c	-0.023537926
134	0xbef5d472	-0.48013645
135	0x3ccd3cb9	0.025053369
136	0xbe4e5b91	-0.20152117
137	0x3c73f37f	0.014889597
138	0xbf5c2aaf	-0.8600263
139	0x3e800239	0.25001696
140	0x3f7330b6	0.949962
141	0xbddca2bb	-0.10773226
142	0x3ef3ebb6	0.4764077
143	0x3e4a1ad3	0.19736795
144	0x3dd210f1	0.102571376
145	0x3dc9bc14	0.09850326
146	0x3f0b0af0	0.54313564
147	0xbe0a662a	-0.13515535
148	0xbf2705ea	-0.652434
149	0xbf51d8b3	-0.8197128
150	0xbea7ae52	-0.32750183
151	0xbf139692	-0.5765163
152	0xbf3171a2	-0.69314015
153	0x3d4a26bb	0.049353343
154	0xbf4bb8c7	-0.7957882
155	0x3eb2d9ce	0.34931797
156	0x3e0c0547	0.13673888
157	0x3e067e65	0.13134153
158	0x3edf78e6	0.43646926
159	0x3e181363	0.14851145
160	0x3e03a55c	0.12856048
161	0xbc957859	-0.018245863
162	0xbe3e9254	-0.18610507
163	0x3ee8c3aa	0.4546178
164	0x3f90684d	1.128183
165	0x3f80a014	1.0048852
166	0x3ea7d0a4	0.32776368
167	0xbeb0d218	-0.3453529
168	0xbf6a9914	-0.9163983
169	0xbf765740	-0.9622688
170	0xbe851e18	-0.25999522
171	0xbd4d6cb0	-0.05015248
172	0x3c097486	0.008389598
173	0x3eb08a61	0.34480575
174	0x3f055ec1	0.5209771
175	0x3e016306	0.1263543
176	0x3d56eee5	0.05247392
177	0x3e431776	0.19051918
178	0x3edd257f	0.4319267
179	0x3dff49ad	0.124652244
180	0xbf070264	-0.5273802
181	0x3f5bd896	0.8587736
182	0xbefe4fbf	-0.49670216
183	0x3e6526c4	0.22378069
184	0xbf0ee53b	-0.5581853
185	0x3dcf3208	0.101169646
186	0xbe895443	-0.268221
187	0x3df5b5df	0.1199758
188	0x3f373b5b	0.71574944
189	0x3f80f8c0	1.0075912
190	0x3de51f7d	0.111876465
191	0xbee402c6	-0.44533366
192	0xbe0b58c5	-0.13608082
193	0xbe9ef08f	-0.31042907
194	0xbf1bcc7c	-0.60858893
195	0x3ef76e99	0.48326567
196	0x3f202cfd	0.62568647
197	0x3d8a456e	0.06751524
198	0x3dcaba96	0.0989887
199	0x3d21a3e3	0.039462935
200	0x3ec177b6	0.37786645
201	0x3ee5f8f1	0.4491649
202	0xbefe0abf	-0.49617574
203	0xbf335bfd	-0.7006224
204	0xbd793109	-0.06083778
205	0xbedbfa56	-0.4296443
206	0x3da76887	0.08174234
207	0xbe57640f	-0.21034263
208	0x3ecba80a	0.3977664
209	0xbeb821c2	-0.35963255
210	0x3e24f154	0.16107684
211	0xbe8ad690	-0.27116823
212	0xbea1f090	-0.31628847
213	0x3e40258d	0.18764324
214	0x3f0cf752	0.5506488
215	0x3d9f57ba	0.077804044
216	0xbf358b94	-0.70916104
217	0xbf35d5ad	-0.7102917
218	0xbf0eadb9	-0.5573383
219	0xbe0cdb26	-0.13755473
220	0x3f20998e	0.62734306
221	0x3e25b02d	0.16180487
222	0x3eb025a4	0.34403718
223	0x3db0e469	0.08637316
224	0x3ea37f9a	0.3193329
225	0xbe85b893	-0.2611738
226	0x3f088477	0.53327125
227	0xbed20992	-0.41022927
228	0xbf47a3d5	-0.7798436
229	0x3eda04ce	0.4258179
230	0x3ee035bc	0.43790996
231	0xbf6c20df	-0.9223766
232	0x3e6d6d18	0.23186147
233	0x3eb9c159	0.36280325
234	0x3f05ad00	0.522171
235	0xbe1f12cb	-0.15534513
236	0x3f90f56c	1.1324897
237	0x3e95ca07	0.29255697
238	0x3e626212	0.22107723
239	0xbf226c9c	-0.63446975
240	0xbe6ee439	-0.23329248
241	0x3eaaea7c	0.33382022
242	0xbe32a7ed	-0.17446871
243	0xbd271c34	-0.04079838
244	0x3f207937	0.6268496
245	0x3f1fc406	0.62408483
246	0x3e820522	0.2539454
247	0xbdc68101	-0.09692574
248	0x3c8e8798	0.01739864
249	0x3effbfe7	0.49951097
250	0x3f12d83a	0.57361186
251	0xbedec089	-0.43506268
252	0x3f9241a9	1.1426288
253	0x3e98280c	0.29718053
254	0x3e37280d	0.17886372
255	0xbe80f59f	-0.25187394

model_old.model.model.0.bias f4 [64]
0	0x3ea5c2a8	0.32375073
1	0x3e14ed58	0.14543664
2	0x3e4f54c5	0.20247181
3	0x3c15c5a8	0.009141363
4	0x3ecb08d1	0.39655164
5	0x3b242046	0.002504365
6	0xbb02f7b4	-0.0019984068
7	0x3e4332ca	0.19062343
8	0x3ea2324d	0.31679
9	0xbe5cfafc	-0.21580118
10	0x3e5d781b	0.21627848
11	0x3dd432a5	0.10361222
12	0x3ee8b31a	0.45449144
13	0xbec062ca	-0.3757537
14	0xbec86e89	-0.39146832
15	0x3d22761e	0.039663427
16	0xbea7b343	-0.32753953
17	0x3e89cc17	0.2691352
18	0xbe1550ee	-0.14581653
19	0xbf4674c3	-0.77521914
20	0x3ec8b17d	0.39197913
21	0xbef5adba	-0.47984105
22	0xbed45dd7	-0.41477844
23	0xbec20717	-0.37896034
24	0xbe868c27	-0.26278803
25	0x3d7daf17	0.061934557
26	0x3ee9b39c	0.45644844
27	0xbeaf9f7b	-0.3430136
28	0x3f1429da	0.5787636
29	0x3f0b70f8	0.5446925
30	0xbee76db0	-0.45200872
31	0x3e8d5f4b	0.27611765
32	0xbdbc630e	-0.09198581
33	0x3d2d15d8	0.04225716
34	0xbde38249	-0.11108834
35	0xbc8b50bf	-0.017006276
36	0x3ea2a878	0.31769156
37	0xbd536413	-0.05160911
38	0xbc2bcb1b	-0.010485436
39	0xbed0aff6	-0.40759248
40	0x3e9ec586	0.31010073
41	0xbb9b78c3	-0.0047446205
42	0x3e29d35c	0.16584533
43	0xbe49ff3d	-0.19726272
44	0x3ec7622d	0.3894209
45	0x3e68af4c	0.2272312
46	0xbf32e8ec	-0.6988666
47	0x3f019067	0.50610965
48	0xbec712f8	-0.3888166
49	0xbdcfdafe	-0.10149191
50	0xbe46b4c1	-0.1940489
51	0x3e816543	0.2527257
52	0xbc5b2f76	-0.013378015
53	0x3dfdd05f	0.12393259
54	0xbdedb594	-0.11606899
55	0xbe1b80f0	-0.15185905
56	0xbda1053b	-0.07862326
57	0x3d20a401	0.039218906
58	0x3e191a29	0.14951386
59	0x3e5a676d	0.21328516
60	0xbe8141b6	-0.25245446
61	0x3eed1c63	0.4631072
62	0xbde0038e	-0.10938178
63	0x3e551f08	0.20812619

model_old.model.model.2.weight f4 [64, 64]
0	0xbefa6168	-0.4890244
1	0xbe3e37f5	-0.18576033
2	0x3e988531	0.29789117
3	0xbe0c299e	-0.1368775
4	0x3e5e7552	0.21724442
5	0xbed4a54a	-0.41532356
6	0x3d6e4c5d	0.058178294
7	0xbf0aeafa	-0.54264796
8	0xbf05a944	-0.52211404
9	0xbe1ed55e	-0.1551108
10	0xbea94415	-0.33059755
11	0xbf204e50	-0.62619495
12	0x3d63fa53	0.05565865
13	0x3d7f6ef7	0.062361684
14	0x3e98e71a	0.29863816
15	0x3e08226a	0.13294378
16	0x3d8dab9e	0.06917499
17	0xbe1cebcf	-0.15324329
18	0x3eca8cf5	0.39560667
19	0x3f81994e	1.012491
20	0xbf5c2900	-0.8600006
21	0x3d1bc779	0.03803203
22	0xbe1d3ccc	-0.15355223
23	0x3dee4c57	0.116356544
24	0xbf2183f6	-0.6309198
25	0xbd0c9c1b	-0.03432856
26	0x3f0b17c5	0.54333144
27	0x3c2895a3	0.010289582
28	0x3e7300cb	0.23730771
29	0xbef7b89f	-0.48383042
30	0x3cba23b7	0.022722108
31	0xbebe3147	-0.3714697
32	0xbf2862a7	-0.6577553
33	0x3e1df2a2	0.15424588
34	0x3e74e980	0.23917198
35	0xbe9729e5	-0.2952415
36	0xbd90a056	-0.07061832
37	0x3f407371	0.7517615
38	0x3eabf94e	0.33588642
39	0xbf8282e3	-1.0196193
40	0xbdd15fdc	-0.10223362
41	0xbe5186a9	-0.20461525
42	0xbe343fc2	-0.17602447
43	0x3f096fbb	0.5368611
44	0x3d8e60d0	0.06952059
45	0xbf260298	-0.6484771
46	0xbf0a0fbd	-0.53930265
47	0xbf2c82d2	-0.67387116
48	0x3e43970c	0.19100589
49	0xbd64c477	-0.055851426
50	0x3e4e0a7d	0.20121188
51	0xbe897506	-0.26847094
52	0x3e98a168	0.29810643
53	0x3d223ff6	0.03961178
54	0x3c18f4cb	0.009335707
55	0xbec15015	-0.3775641
56	0x3eb234bb	0.34805855
57	0x3ef68e82	0.481556
58	0xbd2e5edf	-0.042570945
59	0xbe8eb97d	-0.2787589
60	0x3eb6e3a7	0.3572056
61	0x3e17c35e	0.1482062
62	0xbd12eef7	-0.035872426
63	0xbe28e10c	-0.16492099
64	0x3d8e6f81	0.069548614
65	0x3d1eab0c	0.03873734
66	0x3e87c141	0.2651463
67	0xbf0d933c	-0.55302787
68	0x3e2d4470	0.16920638
69	0xbf926a71	-1.1438733
70	0xbfaf4538	-1.3692999
71	0xbd8c0871	-0.068375476
72	0x3d22852c	0.039677784
73	0xbe555693	-0.20833807
74	0x3ce6ca04	0.0281725
75	0xbe4ad658	-0.19808328
76	0x3e689358	0.22712457
77	0x3e9b7e44	0.3036977
78	0x3eb6c240	0.35695076
79	0xbed2faf9	-0.41207102
80	0x3dc49c1e	0.096000895
81	0xbcf6a010	-0.03010562
82	0x3e2bdb8c	0.16782969
83	0x3f013d0e	0.5048379
84	0xbea40755	-0.32036844
85	0x3f39db95	0.7260068
86	0xbf1da3ea	-0.6157824
87	0xbeb28503	-0.34867105
88	0xbf44d24b	-0.7688338
89	0x3eabd394	0.3355986
90	0x3ddd7438	0.108131826
91	0x3ef25a43	0.4733449
92	0x3e792e7c	0.24334139
93	0xbef7c220	-0.48390293
94	0xbd21e281	-0.03952265
95	0xbe909ca6	-0.28244513
96	0x3f1fd979	0.6244121
97	0xbd42e81a	-0.04758463
98	0x3e92ed03	0.2869645
99	0xbe958856	-0.2920558
100	0x3db03350	0.08603537
101	0x3e479e37	0.19493948
102	0x3ef46163	0.4773055
103	0xbf8b76b5	-1.0895602
104	0x3d93986a	0.07206805
105	0xbe2fa957	-0.17154442
106	0xbe1bc21d	-0.15210767
107	0x3f110de9	0.5666185
108	0x3eba6dc7	0.36411878
109	0xbf182c57	-0.5944266
110	0xbe9408ec	-0.28913057
111	0xbdc10d6b	-0.094263874
112	0x3e6bbda1	0.23021556
113	0xbcc59b6d	-0.024121964
114	0x3e47b4d1	0.1950257
115	0xbe2f9299	-0.17145766
116	0xbda4c00f	-0.08044445
117	0x3cb13310	0.021630794
118	0xbcd12b54	-0.025533356
119	0xbf499bec	-0.7875354
120	0x3d83f529	0.06443245
121	0x3ee6a199	0.45045164
122	0x3dfdd114	0.12393394
123	0xbc844ef7	-0.016150935
124	0x3ec63711	0.38713887
125	0x3ea56f65	0.3231155
126	0x3eae3d91	0.34031346
127	0xbe101805	-0.14071663
128	0xbee6cd62	-0.4507857
129	0x3eb7dd2a	0.35910922
130	0xbe257336	-0.1615723
131	0x3f295e41	0.66159445
132	0xbd97f2dc	-0.074193686
133	0x3dff324b	0.124607645
134	0xbeefc8ab	-0.46832785
135	0xbeb766b3	-0.3582054
136	0xbe6f750b	-0.23384492
137	0xbe906ecf	-0.2820954
138	0x3e42defb	0.19030373
139	0xbda09aeb	-0.07842048
140	0x3e5c20ef	0.21496938
141	0x3f71141c	0.9417131
142	0x3ef45a68	0.47725224
143	0x3f3284dd	0.69733983
144	0x3d9e4475	0.07727901
145	0x3d72bf1b	0.059264284
146	0xbe0821c5	-0.13294132
147	0x3f87b014	1.060061
148	0x3dd5cb61	0.10439182
149	0x3f2120cd	0.62940675
150	0x3eaa4541	0.33255962
151	0x3e5fdff5	0.21862777
152	0xbf7d0659	-0.9883781
153	0x3e2da34f	0.16956829
154	0x3f094e0d	0.5363472
155	0x3ec989e6	0.3936302
156	0x3f0213be	0.50811374
157	0xbf41141e	-0.7542132
158	0x3e9de2fd	0.3083724
159	0xbf0371ab	-0.5134532
160	0xbf865e23	-1.0497478
161	0xbe07e477	-0.13270746
162	0x3ec4c9af	0.38435122
163	0x3ddea405	0.10871128
164	0x3df3bc69	0.11901171
165	0x3fa0e7e8	1.2570772
166	0x3ed7a4af	0.4211783
167	0xbfb0ebb8	-1.3821936
168	0x3efe4495	0.496617
169	0x3ed43489	0.4144633
170	0x3ea0e9ff	0.31428525
171	0x3ef6af1d	0.48180476
172	0x3dfde40b	0.12397011
173	0xbec796fd	-0.38982382
174	0xc004ab51	-2.0729563
175	0xbf29dee5	-0.66355735
176	0x3ea99a0d	0.33125344
177	0xbdd4003d	-0.10351608
178	0x3f10fe0e	0.56637657
179	0x3e0f2a18	0.13980901
180	0x3f489ea1	0.7836705
181	0x3dd65d6c	0.104670376
182	0xbec3a168	-0.3820908
183	0x3ed88d88	0.4229548
184	0x3ee783f3	0.45217857
185	0x3f361955	0.71132404
186	0x3e377d44	0.17918879
187	0xbe0eefe7	-0.13958703
188	0x3e1acbbf	0.15116785
189	0x3e29c827	0.16580258
190	0xbf11919a	-0.56862795
191	0xbe976cf6	-0.29575318
192	0xbd8fceba	-0.07021852
193	0xbe33e769	-0.17568745
194	0x3e753151	0.23944594
195	0xbfde83e8	-1.7384005
196	0x3e5038ba	0.2033414
197	0xbf4677b8	-0.77526426
198	0xbf3cb5a1	-0.73714644
199	0x3e0dc685	0.1384526
200	0xbe0bef63	-0.13665538
201	0xbe4c1033	-0.19928055
202	0x3d8c8f38	0.06863254
203	0xbf0a9c1c	-0.54144454
204	0x3e4ba0ce	0.19885561
205	0x3e066716	0.13125262
206	0x3e8ced1f	0.2752466
207	0xbf64b9b6	-0.8934587
208	0xbd0ca191	-0.03433377
209	0x3e466741	0.19375326
210	0xbe895de5	-0.26829448
211	0x3f398daf	0.72481817
212	0x3e986655	0.29765573
213	0x3ea26493	0.31717357
214	0xbf02b335	-0.510547
215	0xbe01512e	-0.12628624
216	0xbf205b4e	-0.6263932
217	0xbe365d01	-0.17808916
218	0x3e6d0370	0.23145843
219	0xbe256a0d	-0.16153736
220	0x3ed5383e	0.41644472
221	0xbe516514	-0.20448714
222	0x3eff85a8	0.4990666
223	0xbe1c90aa	-0.1528956
224	0x3f66ed92	0.90206254
225	0xbd830ca1	-0.06398893
226	0x3e95acb7	0.29233333
227	0xbedc11c2	-0.42982298
228	0x3e7185d5	0.23586209
229	0xbeed899c	-0.4639405
230	0xbde6023a	-0.112308934
231	0xbfa8069d	-1.3127018
232	0xbf991e98	-1.1962461
233	0xbfa7bc45	-1.310433
234	0xbf0cac0a	-0.5495001
235	0x3f02a55a	0.51033556
236	0x3e2b0c5d	0.16703935
237	0xbfdc5adf	-1.7215232
238	0x3e84b326	0.2591793
239	0xbe8febad	-0.28109494
240	0xbcc08aac	-0.023503624
241	0xbeed0cb4	-0.46298754
242	0x3f8a1eb9	1.0790626
243	0x3de55e3e	0.11199616
244	0xbf1d126b	-0.6135623
245	0xbe7cf6ac	-0.24703473
246	0xbe9b59c3	-0.3034192
247	0xbf288cb7	-0.65839714
248	0x3e6a1768	0.22860491
249	0x3ecad8df	0.39618585
250	0x3e2afc8d	0.16697903
251	0x3e9c0f14	0.30480254
252	0x3e7f0754	0.24905139
253	0x3cffc503	0.031221872
254	0xbd4e9019	-0.05043039
255	0xbe49d0d1	-0.19708563

model_old.model.model.2.bias f4 [64]
0	0xbebe0293	-0.3711134
1	0xbd94b3a6	-0.07260828
2	0xbeadfbcf	-0.33981177
3	0xbd2666f9	-0.040625546
4	0xbe4811dc	-0.19538063
5	0xbc7aaca3	-0.015299949
6	0xbedb012c	-0.42774332
7	0x3dd8739b	0.10568925
8	0x3dd71ce8	0.1050356
9	0xbe9a23e1	-0.30105498
10	0x3cad6545	0.021166453
11	0x3df103f2	0.11768331
12	0xbd96ade1	-0.073573835
13	0x3d89b185	0.06723312
14	0x3e93e295	0.28883806
15	0x3ddafade	0.1069238
16	0xbbada274	-0.005298907
17	0x3df9e247	0.12201362
18	0x3b9629cc	0.0045826193
19	0xbe2edfa1	-0.17077495
20	0xbe2d29ac	-0.16910428
21	0xbde7321d	-0.11288855
22	0x3ea96708	0.3308642
23	0x3d89aca2	0.0672238
24	0x3eaa158e	0.3321957
25	0xbd29ad4c	-0.041425034
26	0x3e036bc0	0.12834072
27	0xbdaf56ab	-0.085614525
28	0x3d7aa2a7	0.061190274
29	0xbd2a2a47	-0.041544225
30	0x3dc793c1	0.09744979
31	0x3f093d9c	0.53609633
32	0x3dd3110a	0.10305984
33	0xbe04ac77	-0.12956415
34	0x3c1341e6	0.008987879
35	0x3cc5ad25	0.024130413
36	0x3c55fb0e	0.013060344
37	0xbe877e21	-0.26463416
38	0x3e5064be	0.2035093
39	0xbe1b425c	-0.15162033
40	0xbddda5a9	-0.10822613
41	0xbd4da451	-0.050205532
42	0x3e37fb40	0.17966938
43	0xbe84b3e9	-0.2591851
44	0x3dae4e02	0.085109726
45	0x3d4e43f8	0.05035779
46	0x3e080894	0.13284522
47	0xbe1c17e1	-0.15243484
48	0xbd89e70e	-0.06733523
49	0xbdded05f	-0.108795874
50	0xbdfaba35	-0.122425474
51	0x3e5d9a86	0.21640977
52	0xbe44e87c	-0.19229311
53	0x3e68159f	0.22664498
54	0xbe73b6c0	-0.23800182
55	0x3d35f69f	0.04442465
56	0x3d461d37	0.048367705
57	0x3eb2e3e3	0.3493949
58	0xbbf655bf	-0.007517546
59	0x3db89a03	0.090137504
60	0xbe433323	-0.19062476
61	0xbee389d7	-0.444411
62	0x3e096e79	0.13421048
63	0x3e22641b	0.158585
