rl_compexp/save/LL_hyper/LunarLander-DQN-128x3/dqn.pth (torch, 565934 bytes, 32 tensors)

model.model.model.0.weight f4 [128, 8]
00000000: 5b72 3fbe 1919 af3e e5c8 353f 9355 1f3f
00000010: 3be4 21bf 5f7a 273e 6074 7d3e 596e 0dbe
00000020: 1c65 55bf 9940 15bd 76db 4dbe b0cd a43d
00000030: f967 263f 7d9b 24be c0e3 20bf fdd4 e0bd
00000040: dc90 aebd ee59 00bd fe7e 87be 7593 cabd
00000050: c52c 2ebe e485 05bf d1cb 94be eafd 143f
00000060: b2ad 26be f603 d7be a8eb 6ebf 092f 3abf
00000070: 28a4 743f ca8e 593e c3aa 4dbd 29f7 013e
00000080: 1e6e e83d a5ad 94bb 1307 363f affc ec3d
00000090: f542 bebf 782e 64be a8f8 53bc ba84 3cbe
000000a0: 319e 2abf cb83 d03c 2592 c4be 1d01 b33e
000000b0: 9eab 21bf 6c81 dcbe 9ad6 48bf 37e4 ecbe
000000c0: 49ff 013e 58c4 cfbe eb24 223e 3f84 adbe
000000d0: c9a7 a4be 3131 87bf cbde 54bf 9cf7 78bd
000000e0: 8079 88bd 21cd c03e f817 803e 87d4 733f
000000f0: 1570 f03e e0c4 04bf 254a 283e 8c7b 803e
00000100: af6d b1be ca38 f13d 3fd2 f0be 3876 c6be
00000110: d556 22be 39d1 98be 4704 d0be b7a3 0ebd
00000120: 783f 093f 347a 1d3e 532e 72be cbd7 8f3f
00000130: f251 e9be 2074 b4bc 21fc 173d dbce fabe
00000140: f101 1c3e 50b2 c9be fc7f 01be 9bba b4be
00000150: c46d 193f a357 ee3e 7724 a53e a3ed 12bf
00000160: d045 9c3e e2c0 75be 6268 913d 802d 1ebf
00000170: c941 413e 1215 90be 61bf 173e 0bfa 643e
00000180: 3aaa 233f 55ff 31bd bb40 af3e 5cb3 ad3c
00000190: e1c1 ef3e a458 f63e af54 8a3e 3d90 02be
000001a0: 5388 4c3d dc8a 8d3d 33e0 5abd fb81 28be
000001b0: acfc 0abe c5f2 3dbe 61cf 2ebf b16a 05bf
000001c0: 4b49 1ebe c81e e9be 2844 93bd 68d5 afbe
000001d0: c103 983e 1a94 31be 4f63 de3c 1815 10be
000001e0: 0b0a 833e 9729 e3bb dd69 a93d d997 a63e
000001f0: 98eb aa3f 9065 a5bd 370f 0c3e ac7b 153f
00000200: b3d4 69be ad8c cb3d bf34 05be e0ca 003c
00000210: b17c b63e ef4b 773f 78cb 9fbf 67c2 453e
00000220: 6873 d1be 55ef 46be ce2b d8be d07c 36be
00000230: da99 013f f7b4 d93e 46a9 5fbe abf5 f4be
00000240: 7469 49be e600 563d 24b5 043c 0d67 e63e
00000250: d7b8 e1bd 0844 84bf 37b9 57be d969 19bf
00000260: b6cf 42bf 0271 b03e be3a e9bd c32c cfbd
00000270: f3b7 81be 86d6 97bd d17a 403d b75a d83e
00000280: 7392 37bd f303 e13c 16f5 e63d cdf6 ab3d
00000290: fa64 893e f356 723f 6cad e43e a04f b4be
000002a0: 9121 d43e 33ae 573e dae8 2e3f 761e 98be
000002b0: f466 543f 14b0 2e3f 02d0 a3bd ffa7 05be
000002c0: 6d3a 4a3e 7537 4a3c ce13 39be 16e2 a03b
000002d0: f9ea 5f3e e0a1 0c3f 2a56 8dbe af5b 8f3e
000002e0: 9787 cf3e 44b4 553e 85c4 05bd c739 2f3e
000002f0: 95ca 843f 6b88 edbe cb55 1f3f 6e32 55be
00000300: 9dc6 89bd 3492 1abe 667c c0be 6a89 5f3e
00000310: 356c 8e3f faaa 45bb 79ac b5bc 749e 89be
00000320: 2057 01bf 0d3b f8be d676 2dbf f24b 89bd
00000330: cd4c 433e d7f0 4ebf 9351 a5bd c523 383e
00000340: f278 cf3d d371 a9bf 9470 13bf 1470 68be
00000350: bed3 4c3e 097b 2c3f b025 e7bd 340d 44be
00000360: 3e34 dcbd c69b c33d 406f 83bf 6687 22bf
00000370: 1586 acbd 2d2d eb3d bd79 853e 30ab f73d
00000380: 8557 dd3c cf1b d8be c842 483c d405 a7be
00000390: 40dd a13e 8cee 1e3e 6081 043e fe6c 8dbf
000003a0: 3d44 403f 7fdd 8f3c ecc8 f63e 2d32 bf3e
000003b0: 765a d1be be6a 25be 447e 69bf d89d 06bf
000003c0: ccd6 b2be 36c6 eebd ec1f a03d 4a1f 7d3e
000003d0: 469a 8cbd b144 ec3e 937b 1ebf 8619 52bf
000003e0: 3a7c cf3e d2dc 043f 90ee 043e 01a9 693d
000003f0: 489a 5dbe 41ea e1be 7992 4dbf d4b6 9e3e
-0.18695967 0.34198835 0.71009666 0.6223995 -0.6323888 0.16355275 0.24751425 -0.13811626
-0.83357406 -0.03643856 -0.20103249 0.08047044 0.650024 -0.16074939 -0.6284752 -0.10978124
-0.085237235 -0.031335764 -0.26464075 -0.098914064 -0.17009266 -0.52157426 -0.2906175 0.5819994
-0.16277197 -0.4199521 -0.9332833 -0.7272802 0.9556298 0.21245876 -0.05021168 0.1269194
0.11349128 -0.0045373016 0.71104544 0.11571633 -1.4864184 -0.22283351 -0.012937702 -0.18410006
-0.6664763 0.025453469 -0.3839275 0.34961787 -0.6315249 -0.4306749 -0.78452456 -0.46267864
0.1269504 -0.40579486 0.15834396 -0.33889958 -0.3215926 -1.0561887 -0.83152455 -0.060783014
-0.06663799 0.376565 0.25018287 0.95246166 0.46960512 -0.5186291 0.16434534 0.2509426
-0.34653994 0.1177841 -0.47035405 -0.3876207 -0.15853436 -0.29847124 -0.40628263 -0.0348241
0.5361247 0.15378648 -0.23650484 1.123773 -0.45570332 -0.022028029 0.037105683 -0.48985943
0.15235116 -0.39393854 -0.12646478 -0.3529862 0.59933114 0.46551237 0.32254383 -0.57393855
0.30522013 -0.2399936 0.070999876 -0.6178818 0.18872751 -0.28141075 0.14819099 0.22361009
0.6393162 -0.043456394 0.34229073 0.02120369 0.46827605 0.48114502 0.27017733 -0.12750335
0.049934696 0.06911251 -0.05343647 -0.16455834 -0.13572949 -0.1854964 -0.68285185 -0.52115923
-0.15457647 -0.45531297 -0.07190734 -0.34342504 0.29690364 -0.17341653 0.027146963 -0.14070547
0.255936 -0.006932448 0.08272145 0.32537726 1.3353148 -0.08076012 0.13677679 0.58391833
-0.22835045 0.09938941 -0.13008402 0.007860869 0.35642007 0.9660024 -1.2483969 0.1931244
-0.4090836 -0.19427235 -0.4222092 -0.1782105 0.50625384 0.42520878 -0.21841916 -0.4784368
-0.19669133 0.05224695 0.008099828 0.45000497 -0.110215835 -1.0333261 -0.21066748 -0.59927136
-0.7609819 0.34461218 -0.11388157 -0.101159595 -0.25335655 -0.07413964 0.046992127 0.4225671
-0.0448174 0.027467703 0.11277215 0.08396683 0.26834852 0.94663924 0.4466356 -0.35217
0.4143186 0.21062545 0.68324053 -0.2971074 0.82969594 0.68237424 -0.07998659 -0.13052367
0.1974885 0.012342324 -0.18073961 0.004909764 0.21866979 0.549345 -0.276048 0.27999637
0.40533134 0.20869547 -0.03265812 0.17111884 1.0374323 -0.4639314 0.62240285 -0.20820019
-0.067273356 -0.15094835 -0.37594908 0.21829763 1.1126772 -0.0030161724 -0.022176968 -0.26878703
-0.5052357 -0.48482552 -0.67759454 -0.067039385 0.19072266 -0.8083624 -0.080722 0.17982395
0.1013049 -1.3237861 -0.57593656 -0.22699004 0.20002648 0.67375237 -0.11286485 -0.19145662
-0.10752152 0.09551196 -1.0268326 -0.6348785 -0.084240116 0.11483226 0.2606944 0.12093198
0.027019272 -0.42208716 0.012222953 -0.32621634 0.31614113 0.15520686 0.12939978 -1.1048887
0.75104123 0.017561672 0.48200166 0.3734297 -0.4088933 -0.16154 -0.9120829 -0.525846
-0.34929502 -0.116588995 0.078185886 0.24718967 -0.06865363 0.46146157 -0.6190731 -0.82070196
0.40524465 0.51899445 0.1298163 0.05704594 -0.21640885 -0.44124034 -0.80301625 0.30998862

model.model.model.0.bias f4 [128]
00000000: c744 2c3d ba82 6f3e dd65 25bd 400a 243e
00000010: 7632 1b3e 98b4 ddbd c481 503d 5d7c 3ebe
00000020: 5084 953e b16d 353e 5544 6e3c dd7c 993e
00000030: f440 e5bc 163b a93e 6a21 f13e fed6 043e
00000040: 5bbf ca3d 3b27 fcbd cc60 943e 89f1 98bd
00000050: 0180 12bd c73f c2be d95c eb3d 0c15 a1bd
00000060: c06f db3e 8080 8cbe a9e9 823e ae59 1dbd
00000070: 4069 c53e de7f fabe c0ae e7be 6a23 78be
00000080: 9095 d23e d327 b1be 9430 e7bd 1546 a53e
00000090: fc08 4f3e e937 d83d 85e5 523e 0c55 90be
000000a0: 72d9 363e 93e5 043e a7d1 713d 72ab 7e3d
000000b0: a66e 96be 1e0a adbb f9d2 b9be 1abb 9bbd
000000c0: 228a a23e b089 c73e 1067 93bd cfcb e33e
000000d0: d48c b63e 68bc debe 7776 4d3e 9de6 f7bd
000000e0: 0f4e 5c3e 6cf6 08be 5e98 8a3e b31e c8bc
000000f0: 8dd0 30be 403b 8f3e c45c 3f3e 1342 08bf
00000100: b3dc b2be 9c90 e33c 00d0 9e3e 2a06 c8be
00000110: c64c 14bf 6314 c4be 440b e53e fd73 263e
00000120: f5f0 853e 4a34 52bd 178d 9ebe 3eb1 923c
00000130: 65ae 8bbd b267 293e 25a8 3a3e d5a8 493d
00000140: ea52 243e 3032 9d3e 072a 18bd f904 6dbe
00000150: edfe dfbd 373d 613d c620 be3e 448a 643e
00000160: e431 853c b564 25bd 9132 cf3e 08bf fdbd
00000170: 8c12 553e c55f da3d 339b 41bd e1d2 053d
00000180: 6f53 9fbe 5365 0cbd 1957 eabc 80d8 583e
00000190: ba53 01bf 6315 f4be 9ab5 723e 6f8b 0fbf
000001a0: 65d8 3a3d c697 843e e480 30bd 24d1 513e
000001b0: 3002 bebd 59cc 00be 76fc 9d3e b10e c23d
000001c0: d2e3 9f3d c3c1 adbe 121f cc3e f0d2 5e3d
000001d0: 770c 6dbe 3baf 0cbd cb21 61be 05c8 af3e
000001e0: e364 9ebc 5bfa f0be 0e2a 1fbd 750c 7c3e
000001f0: 9be6 7d3e ece7 62be 531a e7be edd6 723e
0.04205778 0.23389712 -0.040380348 0.16019535 0.15155968 -0.10825461 0.050905004 -0.18602128
0.2920251 0.17717625 0.014542659 0.29978076 -0.027985074 0.33052891 0.47095805 0.12972638
0.098997794 -0.1231217 0.289801 -0.07467944 -0.035766605 -0.37939283 0.11492319 -0.078653425
0.42858696 -0.27441788 0.25568894 -0.038415603 0.38556862 -0.4892568 -0.4525051 -0.2423226
0.41129732 -0.34600696 -0.112885624 0.3228003 0.20218271 0.10557539 0.20595367 -0.28189886
0.17856386 0.129782 0.05903783 0.06217522 -0.29381293 -0.005280747 -0.36293772 -0.07604046
0.31746012 0.38972235 -0.07197392 0.4449143 0.35654318 -0.43503118 0.20064722 -0.12104533
0.21514152 -0.13375252 0.27069372 -0.024428701 -0.17267056 0.27974892 0.18687731 -0.5322582
-0.34934005 0.027778916 0.31018066 -0.39067203 -0.57929647 -0.38296804 0.44735157 0.16255184
0.26160398 -0.051319398 -0.30967018 0.017906781 -0.068203725 0.16543463 0.18228205 0.049233276
0.16047254 0.30702353 -0.037149455 -0.23146428 -0.10937295 0.05499002 0.3713438 0.22318369
0.016259141 -0.040379245 0.40468267 -0.12389952 0.20807856 0.10662798 -0.04726715 0.032671813
-0.31118342 -0.034276318 -0.028605985 0.21176338 -0.5051838 -0.47672567 0.23702088 -0.56072134
0.045616526 0.25897044 -0.04309167 0.20489937 -0.09277761 -0.12577952 0.30856675 0.094754584
0.07807125 -0.3393689 0.39867455 0.054400384 -0.23149286 -0.0343468 -0.21985547 0.3433229
-0.019335216 -0.47066006 -0.038858466 0.24614127 0.24795 -0.22158784 -0.4513727 0.237148

model.model.model.2.weight f4 [128, 128]
00000000: 2b80 80be c6c8 733d 4e3e 9ebe 0751 fb3e
00000010: a26c e9be 1053 003d edb9 bdbe c3a3 9bbe
00000020: 0cb0 c4be 1ba5 953e 24ce c83e 3b87 ba3d
00000030: 889f 7b3e f0c3 643e bf8d 9b3e eb12 f0be
00000040: e038 243f 83fb d33e fd2a 72bf bbf1 35be
00000050: bc30 bb3e b622 0d3f f340 a03e c81e 07be
00000060: 6f86 213e adc8 ddbc aae5 afbe 505d a4bc
00000070: 6ba4 d23e ede1 623f a004 083f a0b5 13bf
00000080: 3e5c 5dbe 4970 0c3f cc6b 36be 4358 193e
00000090: a72b 7cbe b638 0cbe 90b9 063e 8b47 c8bc
000000a0: f637 03bf c515 67bf b3eb d83b 6e4b e03e
000000b0: b165 48bf def0 69be b311 c5bd 898f 01be
000000c0: 4226 88be bc82 50bf 440b 303e 95f9 b1ba
000000d0: eb1d fdbc 139c 48bf a9af 0abf 0052 723e
000000e0: 45ef ea3e 139b 1dbf d60f 8fbc 9708 9c3e
000000f0: 433b 023d a916 513e d36c 983d 0149 19be
00000100: b6b8 ec3e fd4b 2abf 6133 a2bd 1921 94be
00000110: cb59 80be 8897 44bd d487 f93d 7315 813e
00000120: 016d 3a3e f7e5 27be 3aa5 6bbf 2b0c aabe
00000130: 45cb 033e ffc7 87be 693c 0a3e d765 073e
00000140: 03a7 f3bb 95d0 4a3e ca04 ad3e 9550 6f3e
00000150: 88f1 4f3e e42f 8abe a315 5dbe 2838 a63d
00000160: 9f03 9f3d 120c 33bf ba5f 1f3e bb72 ca3e
00000170: 7f61 a53e c9be 88be e8ba fcbc 3922 c73d
00000180: 974e 853c 66ec ce3d cd0d 003e 1a49 c13d
00000190: a02c 6ebe b574 f6be 7511 353c a246 17bd
000001a0: 693f abbd e76b 813e 8c97 80be 43e6 f3be
000001b0: e9c9 263e f370 a43e 8697 4dbf 4fdf fb3d
000001c0: cda0 34bd 78e9 2b3f 15c2 263e bbe6 a6bd
000001d0: a4fe aa3e a3a2 883e 7aba 2dbf 1052 a03e
000001e0: 3c3a ebbe 342e 0bbf 834e 8bbd ba7d 14bf
000001f0: 145f 1d3e 9c7d cebc dd0b eabd 6b11 f43b
00000200: 20d5 b4bd 93db 83bd 3abb 81bb 716c 8abd
00000210: 1cb2 413c 2359 8abd 69ad a1bc 8ff4 fdbb
00000220: 6cb7 a0bb bd6f 993d 517a 1a3d b57a 17bd
00000230: d73c e6bc 5bd3 9bbb 1916 913d 16d0 aabd
00000240: c98b aebd a500 8dbd 4877 8a3d e059 b2bd
00000250: ac9d 6e3d e17d 9ebd c0e3 713d ea1a 70bd
00000260: 114a fdbc 6d5f 6ebd 3b35 7fbd fccd 03bd
00000270: 6e27 ee3c 5dce aa3c 8f46 9dbd 04e0 8ebc
00000280: 09b4 efbc 9f00 833d 3969 8ebd 9f24 66bd
00000290: cdcc 79bd 75fe e63b d03c bcbc e7eb e4bc
000002a0: 8f42 8abd 97c0 54bc a7a0 01bd 6bdb 643d
000002b0: a798 b6bd 1672 24bd 79b7 883d 39d1 94bd
000002c0: 903f 5d3c 19ad 413d 7305 3d3d 21f9 fbbc
000002d0: a628 0abd db8c 01bd 71b9 5cbd 96a1 9dbd
000002e0: c6c2 2bbd 977a a5bb 28d7 b13c 8d81 f1bc
000002f0: 9f3a 933c 470d c23c a72b 7d3c b22d 16bd
00000300: bfc3 ff3c 046e 97bd 5aad 53bb 5863 4d3d
00000310: 9967 0e3b 2ef7 99bc faf6 bfbd 9100 443b
00000320: e395 673d f441 acbd 2ac0 e33c a8ee a93d
00000330: 28ce 993d 72e9 e2bc 3a90 c2bc 1d85 a0bd
00000340: 106c 513d 7e42 96bd fa55 68bd d66e 2fbd
00000350: 2c8e 9f3d 7756 5cbd dc0d 99bd 8e9f adbd
00000360: 25df 97bc aa91 64bd e82c 4ebd 3167 6d3d
00000370: 649e bdbc 589d 59bd 5606 1dbc 24c8 a43c
00000380: 977e cabd 5383 0fbc 4224 1cbd 2c0d 7cbd
00000390: 4ccb 1bbd e471 913c bf7c 1abd 5afb 16bd
000003a0: d2c2 783d a7fe 513d 664c 4c3d 1aec f53b
000003b0: dc2d 913d 8e37 8fbd 88c6 b5bd f6e5 cd3c
000003c0: 4db8 533d c64c f9bc 397a acbb fd6e 713d
000003d0: 5a9e 1bbd d293 3f3d fe95 193d c8ef 4dbc
000003e0: 6721 b7bd 1148 793c b916 03bd 489c b43d
000003f0: e849 83bd b5da db3b 5f71 df3b d702 3fbd
-0.25097784 0.059517644 -0.3090691 0.49085256 -0.45590693 0.031329215 -0.37055913 -0.30398378
-0.38415563 0.29227528 0.39219773 0.091078244 0.24572575 0.22340369 0.3038158 -0.46889433
0.64149284 0.41402826 -0.94596845 -0.17767994 0.3656062 0.5513109 0.31299552 -0.13195336
0.15773939 -0.027073229 -0.34354907 -0.020064026 0.41141066 0.88625985 0.5313206 -0.5769901
-0.21617219 0.54858834 -0.17814559 0.14975075 -0.24626027 -0.13693509 0.13156724 -0.024448177
-0.51257265 -0.9026759 0.0066198944 0.43807548 -0.7828017 -0.2284579 -0.096225165 -0.1265241
-0.26591688 -0.81449485 0.17191797 -0.001357841 -0.030898055 -0.7836315 -0.54174286 0.23664093
0.45885673 -0.6156475 -0.017463606 0.30475304 0.031794798 0.204188 0.074426316 -0.14969255
0.46234673 -0.665222 -0.07919956 -0.28931502 -0.25068507 -0.047996074 0.1218411 0.25211677
0.18205644 -0.16396318 -0.9204899 -0.33212408 0.1287051 -0.26519772 0.13499607 0.13222443
-0.007435681 0.1980613 0.33792716 0.23370583 0.2030698 -0.26989663 -0.21590285 0.0811618
0.077643625 -0.6994029 0.1556386 0.39540657 0.32300946 -0.26708058 -0.030850843 0.09723324
0.016272826 0.10103683 0.12505265 0.09437771 -0.2325921 -0.48135915 0.011051525 -0.036932595
-0.08361704 0.25277635 -0.2511562 -0.47636613 0.1628796 0.32117423 -0.8030933 0.12298452
-0.044098664 0.6715312 0.16284974 -0.08149477 0.333974 0.26686582 -0.67862666 0.3131261
-0.45942867 -0.54367375 -0.06802084 -0.58004344 0.153683 -0.02520638 -0.11428044 0.0074483654
-0.08829713 -0.06438365 -0.0039590867 -0.06758965 0.01182225 -0.06755283 -0.019736009 -0.007750101
-0.004904678 0.074920155 0.037714306 -0.036982257 -0.028105183 -0.00475542 0.07084293 -0.083404705
-0.08522756 -0.068848886 0.06761032 -0.087085485 0.058255836 -0.07738853 0.05905509 -0.058619417
-0.030919107 -0.058196474 -0.062306624 -0.032178864 0.029071536 0.020850355 -0.076794736 -0.017440803
-0.029260652 0.06396603 -0.069536634 -0.05618727 -0.06098633 0.0070493766 -0.022978216 -0.027944518
-0.06750976 -0.01298537 -0.03164735 0.055873316 -0.08915835 -0.040147863 0.0667562 -0.072664686
0.013503924 0.04728422 0.046147775 -0.030758442 -0.03373017 -0.03162847 -0.05388779 -0.07696836
-0.041933797 -0.0050500142 0.02170904 -0.02948072 0.017972289 0.023687972 0.015452302 -0.036664672
0.031221269 -0.07394031 -0.003229937 0.05014357 0.002172923 -0.018794622 -0.09373279 0.0029907564
0.056539427 -0.08411017 0.027801592 0.08297473 0.07510024 -0.027699206 -0.023750413 -0.07837889
0.051128447 -0.07336901 -0.05672262 -0.04283031 0.07790789 -0.053793397 -0.074733466 -0.08477698
-0.01853902 -0.05580298 -0.050335795 0.05795974 -0.023146816 -0.05312857 -0.00958403 0.020114966
-0.09887426 -0.0087593375 -0.038120516 -0.061536 -0.038035676 0.017754503 -0.037716623 -0.0368608
0.06073267 0.051268246 0.049877547 0.007504952 0.07088825 -0.06993018 -0.088757575 0.025134068
0.051689435 -0.030432116 -0.0052635935 0.058943737 -0.037992813 0.04677183 0.03749656 -0.012569375
-0.08941918 0.015214936 -0.032004092 0.08818871 -0.06410581 0.0067094215 0.006818935 -0.046633568

model.model.model.2.bias f4 [128]
00000000: d1c4 42bd ca3f 98bd cffd 653d 8917 a1be
00000010: acdd bdbb 9fc9 be3b 15bc d8bd 79c4 893e
00000020: 79bc a8bd 2feb cdbc dbf2 6abc eec9 813c
00000030: 2323 5c3d ff95 cc3e 8e65 b8bc c3eb e0bd
00000040: 9b8d 813c 2b02 8f3d f1bc 1fbe 3b1a a33c
00000050: 115f dabd 03f4 933e 2d58 96bc 1d84 17bd
00000060: 42db f3bd e59a 5bbd 51ab 14be 08ec 353d
00000070: 7b66 883d 21a8 b53c b61b e3be 3109 ba3c
00000080: 48b0 9b3e baff 543e 3cc3 96bd 5f14 5a3e
00000090: 7a67 473e 7bf9 a4bd 6811 9cbd ae5f ff3d
000000a0: 3363 693d a231 813d 3dc2 ff3e 555d 523e
000000b0: e9e2 4ebe 2ca9 303d 9971 74bd b140 463e
000000c0: 4e79 ee3c d4fc ea3c d778 c43d 9119 1cbd
000000d0: 8afb 1cbb b96b 9a3d 0c60 07bd 3664 92bd
000000e0: 6e3e 473e 4a5f ba3d d685 163d df42 bc3e
000000f0: 4254 2cbd 1c01 6abc 32cc 173e b664 a3be
00000100: c4cc 8a3d 0664 693e 8a67 e93d 5180 d0bc
00000110: e071 a73e 232b c13d f5fd c13d ac6d 6bbe
00000120: 6dd3 e1be cb80 d53c 8e09 c7be a7ca 123e
00000130: e39c 703e 76b8 ebbd 049c 91be 27cd 9c3d
00000140: 10d0 923a ea7e 88be 0979 9bbd d1f8 a4bd
00000150: 1d85 653e 89c4 433d a3e9 01be 3845 4d3e
00000160: 6e77 153e fa31 2d3e a980 ab3d 4bbd f0bd
00000170: a68c 04be 71af 683e e77d 42bb f2dc 76bc
00000180: 1e31 20bd 222a 113e 1876 66be f569 a03e
00000190: 39eb 233e 1423 c4be ff8c bb3e 063a bcbd
000001a0: 9546 de3d 568d 37bd 850e 233d 661a 913e
000001b0: 8a88 3abd 4df8 c13d 8761 3f3e ad51 b03c
000001c0: b937 b13b 3fd8 033d 50b9 0cbd 8c5f 3cbe
000001d0: 6871 93be f3e0 33bd c1c3 bdbd 699a 6e3e
000001e0: 2894 16bf 4df8 703c a21f 343e 0f54 a23d
000001f0: bd93 a63e b1dc cfbd 20dd b53e 3c01 3abe
-0.04755098 -0.07434042 0.056150254 -0.31463268 -0.0057942476 0.005822375 -0.10582749 0.2690771
-0.08239073 -0.025136558 -0.014340128 0.015843358 0.053744446 0.39958188 -0.022509363 -0.10982468
0.015814593 0.069828354 -0.15599419 0.019909969 -0.10662664 0.28897104 -0.018352592 -0.036991227
-0.119070545 -0.053614516 -0.14518477 0.04441455 0.066601716 0.022174897 -0.4435708 0.02270946
0.3040793 0.20800677 -0.07361457 0.21296833 0.19473067 -0.08055397 -0.076205075 0.12469421
0.05697937 0.06308295 0.4995288 0.20543416 -0.20203747 0.043130085 -0.059678648 0.19360615
0.029110577 0.028685011 0.09593361 -0.03811032 -0.002395364 0.07540078 -0.03305058 -0.0714802
0.19457409 0.09100206 0.03674873 0.3676977 -0.042072542 -0.014282491 0.14823988 -0.31912774
0.06777337 0.22792062 0.11396702 -0.025451811 0.32704067 0.09432056 0.094722666 -0.22991055
-0.44106618 0.02606239 -0.38874477 0.14335118 0.23497348 -0.115097925 -0.28439343 0.07656317
0.0011200923 -0.26659328 -0.07591445 -0.080552705 0.2241406 0.047794852 -0.12686782 0.20045936
0.1459634 0.16913596 0.08374149 -0.11754855 -0.12944278 0.22723176 -0.0029677094 -0.015067326
-0.03910934 0.14176229 -0.22505987 0.3133084 0.16007699 -0.38308012 0.3663101 -0.091907546
0.10853306 -0.044812523 0.03980877 0.28340453 -0.04554037 0.09471188 0.18689547 0.021523321
0.005408254 0.03218865 -0.034356415 -0.18395823 -0.2879746 -0.0439157 -0.09265853 0.2330109
-0.5881982 0.014707637 0.17590192 0.07926189 0.3253459 -0.101495154 0.35520267 -0.18164533

model.model.model.4.weight f4 [128, 128]
00000000: b518 2cbd eb75 1a3d f8ae 01bc 450e 12bd
00000010: d295 523c cad2 b03d 68be 29bd 736d abbd
00000020: 6299 233d a357 c6bc e33f 343d 432b a3bd
00000030: 423c 6c3d 6b75 07be 3828 b3bd a2e7 203d
00000040: 38f1 843d a2b9 a63d 5335 8a3b b9e4 febd
00000050: 5338 a1bd bb6e 99bc 38fb 803a 85dd 183d
00000060: 2c40 193d 6090 8ebd a621 653d 6708 283c
00000070: e465 ba3c cf3a b13d 5e4b 343d 30d3 98bc
00000080: 9a74 c73b d126 fa3c 9b9b 163d 4de0 8ebd
00000090: 31f7 eebd d96d 6bbd 20cd a13d 4bb9 f9bc
000000a0: e363 70bd 2a9e 9dbb dc24 88bd 054b 94bd
000000b0: 6419 7ebd 7d14 38bb ac6d 02bd de17 4d3d
000000c0: 38a9 203b e2bc 59bd 8988 0b3d 19bb 393c
000000d0: 66d9 c0ba df22 7ebd 08f8 0abd e0f5 65bd
000000e0: 58af 38bc 27a3 dcbd bdc3 3bbd e1ed 0dbd
000000f0: 762d 79bd da19 73bc 1e77 a439 0560 2f3c
00000100: 684c 4fbd 0ca9 b8bd eaa2 8dbd c5f0 ecbc
00000110: e8ff 343c 4313 56bd 6523 99bd b7c9 63bd
00000120: dcc2 7f3c 519d 2f3c e9d6 1d3b 440d b7bd
00000130: 019f fdbd 6700 4d3d becb 403d 470b ae3d
00000140: 7132 213c e859 ed3c 0230 613d c2bd 0dbd
00000150: f21b 51bd 2b56 b3bd e14a 19bc bb13 f2bd
00000160: 2595 0fbb 133b d0bd 20ff 9dbd 5a4d 513d
00000170: 944c 52bd 0521 86bc ac5f 173d d54a 7a3b
00000180: e5f3 e6bc 99d7 aebd a63e 58bd e758 61bd
00000190: 4970 1cbd 33bd 58bd a41e c8bd d232 66bd
000001a0: 4901 11bd 4ca2 0cbc 9c0d 94bd 9f90 76bd
000001b0: fd67 4abd 6966 bcbc d78d 8abd c76b b0bd
000001c0: 4260 82bd fbce cd3c c961 643d 18f3 0ebd
000001d0: 6e6c 873c c5eb 913d 545c 953d 87a2 e7bc
000001e0: 0d28 e53b cefc b23c 8e12 1abd 21bf 373d
000001f0: 565c 94bd 42d5 b3bd eee2 d03b e95b 2b3d
00000200: b938 ff3d 81a4 2ebd 10f7 b63d 9d46 29bf
00000210: 97ca d93e 2724 1b3d 0b68 40bc f764 623d
00000220: 3b98 733c a799 153c bdc6 823e f663 8a3e
00000230: ec41 99bc ddcc 58be 1288 06be eb22 e8be
00000240: 2aac 663f 9ef9 083f cecd 89bd 2243 b83e
00000250: bd6d 8a3e 5135 40be feb7 893e ea7b 76bd
00000260: 64de 0ebd 3f1a 6c3d 5d23 fc3e b623 143e
00000270: 4cff 6f3d 4182 3dbd d6ef d6bf 6b67 373e
00000280: cf98 bb3b 0af0 abbd a2fd dfbb e92f 8dbf
00000290: 8892 3b3e 4d25 88bf a549 27bd c3f3 4dbe
000002a0: 9e8d 0c3f 4c90 853d 8b28 ac3c 65a2 32be
000002b0: 6a4c 7dbf 0387 aebe acfa 23bf b4d4 b03e
000002c0: d3e9 933e 0edd 433e 863f b1bb 8878 9c3e
000002d0: d09a 0d3e d573 993e af06 28bd d229 a6bf
000002e0: ad7e 1abd aca1 80bc bcf5 0e3e 074a abbd
000002f0: c01c ce3c 4dd3 2b3e 6b4c d93d 90d7 883e
00000300: e057 d63d 6b0a 33bd 637e 83bf 17d9 8cbd
00000310: 6c27 d2b9 a897 aabf cc7a ff3d 50b6 fcbe
00000320: dd5f 173f 55af 34bd a044 17bf ad4a d93d
00000330: b658 f83d 285a 9c3d a32b 3fbe d6ee 04bd
00000340: d9fb d4bf cd9f bdbe e56e 443e b8ae c8bc
00000350: b818 0bbd 105d b43c 8f57 95bd 4fc6 fbbd
00000360: 9cd0 80be 365c 1c3e b55d 983d dff7 373f
00000370: eebe 143d 9b30 2fbd 3823 9b3d b7f8 21bf
00000380: 1ad5 e43e c47c d63d 97bd f8be ffc4 5abd
00000390: d5c1 523e 28fa 80be 72a1 1ebe 891e d8be
000003a0: a349 3e3e 32e7 003f b101 763e ecb6 a3ba
000003b0: a81e c93c 3810 fcb9 8c72 22be 6f12 b83e
000003c0: c469 5c3e 2aab 7abc bdae 36bd 557e 4b3c
000003d0: 06da 65bf 7d89 a2bf 04f8 f9bc dc9a 953d
000003e0: ad75 e4be 031a cd3d eb65 913e bfba f43d
000003f0: cf05 11be a9f5 f1bd eda6 a2bf dbd5 e1be
-0.04201575 0.03771011 -0.007915251 -0.03565814 0.012853103 0.08633955 -0.04144135 -0.08370485
0.0399412 -0.02421171 0.04400624 -0.07967236 0.057674654 -0.13228385 -0.087479055 0.039283402
0.06491321 0.081408754 0.0042177825 -0.12445969 -0.07872071 -0.018729558 0.0009840494 0.037320632
0.037414715 -0.06961131 0.055940293 0.0102559095 0.022753663 0.08653795 0.04401719 -0.01865539
0.006086898 0.030536087 0.03676949 -0.06976376 -0.11668242 -0.057477806 0.079004526 -0.030483862
-0.05868901 -0.0048101144 -0.06647655 -0.07240871 -0.062035933 -0.0028088384 -0.031842873 0.05007159
0.0024514925 -0.05315865 0.034065757 0.011336111 -0.0014713227 -0.062044974 -0.033927947 -0.056142688
-0.011272274 -0.10773306 -0.045840967 -0.034650687 -0.06083437 -0.014837706 0.00031369267 0.010704045
-0.050609976 -0.09016618 -0.06915839 -0.028923402 0.011047341 -0.052264463 -0.07477454 -0.055612292
0.015610423 0.0107186595 0.0024084395 -0.08938077 -0.12383843 0.05004921 0.047069304 0.08498245
0.009838686 0.028973535 0.054977424 -0.034604795 -0.05105204 -0.087566696 -0.009356231 -0.118201695
-0.0021908965 -0.101675175 -0.07714677 0.05109916 -0.05134256 -0.016373167 0.036956474 0.0038191576
-0.02819247 -0.08537216 -0.05279412 -0.055016425 -0.03819302 -0.05291481 -0.09771469 -0.05620081
-0.035401616 -0.008583616 -0.07229158 -0.060196515 -0.049415577 -0.022998052 -0.06765335 -0.08614307
-0.06366016 0.02512311 0.055757318 -0.0348998 0.016531195 0.071250476 0.07293001 -0.028275741
0.0069933 0.021849062 -0.03761535 0.04486001 -0.07244174 -0.0878091 0.0063747084 0.0418357
0.12461991 -0.042637352 0.08933842 -0.6612337 0.42537376 0.037876274 -0.011743556 0.05527207
0.014867838 0.009130872 0.2554225 0.2702939 -0.018708192 -0.21171899 -0.13137844 -0.4533914
0.9010645 0.53505886 -0.06728707 0.35988718 0.2703685 -0.18770339 0.26898187 -0.060176767
-0.034880057 0.057642218 0.4924573 0.14466748 0.05859308 -0.046266798 -1.6791942 0.17910545
0.0057250033 -0.08395393 -0.0068356553 -1.1030246 0.18317616 -1.0636383 -0.040841717 -0.20112519
0.5490359 0.06521663 0.021015426 -0.17444761 -0.98944724 -0.3408738 -0.6405437 0.3453728
0.2888933 0.19127294 -0.005409184 0.30560708 0.13828588 0.29971185 -0.041022 -1.2981513
-0.037718464 -0.015702091 0.13960928 -0.08363729 0.025160193 0.16779824 0.10610279 0.2672696
0.104659796 -0.043711107 -1.0272945 -0.06877344 -0.00040083693 -1.3327532 0.124745935 -0.49357843
0.5913065 -0.044112522 -0.5908909 0.106099464 0.12126295 0.076343834 -0.1866899 -0.032454334
-1.6639358 -0.3703598 0.19182928 -0.024497375 -0.03395912 0.022017032 -0.07292091 -0.12293684
-0.25159156 0.1526955 0.07439748 0.71862596 0.036314897 -0.042770963 0.07575077 -0.63270134
0.44693834 0.10473016 -0.48582146 -0.053410526 0.20581754 -0.25190854 -0.15491274 -0.42210796
0.18582778 0.50352776 0.24024083 -0.0012490428 0.02455075 -0.0004807727 -0.15864009 0.35951564
0.21524721 -0.015299598 -0.044600237 0.012420257 -0.897858 -1.2698208 -0.03051377 0.07304928
-0.4462103 0.10014727 0.2839807 0.119496815 -0.14162372 -0.11814434 -1.2707192 -0.4410847

model.model.model.4.bias f4 [128]
00000000: 569d 3ebd b7d5 663d 0d89 0e3e dc20 01be
00000010: 9a45 8ebc f21e 8ebd 2174 cebd 124e dcbc
00000020: a28d 84bd e6c7 1c3d 97f9 8b3d 83e0 04bd
00000030: 302e 033e 88ad 41bd d593 81bd 2d55 e1bc
00000040: 8412 1d3e 32ae a73d 6bcf 163d fd0f 14be
00000050: 3831 2f3d b00d 813e 5893 0ebe 4814 c23d
00000060: 7206 46bd d03c 98bd a453 103d 28bb 13bd
00000070: b814 143e dcc2 9c3d 7441 8c3e 8698 f33d
00000080: 903c 403a e9d9 97bd 9c2b 2b3f 80d8 47bd
00000090: 50f3 0abd 8fb2 193e d2c0 dc3d 86ec 5ebe
000000a0: 7239 ae3c a1be 08bd 528f 5f3e 5a69 923e
000000b0: 44c9 573e 0c67 a1bd e591 b23e 3ffc 86bd
000000c0: f528 033f 663e 283e 5d7e 99bd c2bd 2a3e
000000d0: cfcc 2b3e 9b41 833d d6b7 0e3c bc60 273f
000000e0: f5a2 a3bd e857 633e 2d33 babd c82a 923e
000000f0: ac7e 70bc 4eda ed3d 6a46 8fbd 5211 d2bc
00000100: d09d 253e b91a 5a3e 380c ed3c 4448 2c3c
00000110: d994 b23d 4575 1b3e f61e ddbd 6471 9e3e
00000120: c5af c8bd a2a6 b5bc 701e 9f3d 52d1 a5bd
00000130: a5e4 0b3e 8ad8 20be 87e3 d13e c904 833e
00000140: 7f86 77be 09a4 82bd d1b4 39be 64e9 86bd
00000150: 5a35 15bd 1bd6 03be 2c38 93be adbc aa3e
00000160: 7da6 223e e92d 783e 15ec 80bd 04c5 f9bc
00000170: 3388 5bbd ffb2 f7bc fdd2 73bc 395b 5ebd
00000180: f351 073d a9c4 57bd bec5 04bc 99b9 55bd
00000190: ae31 8a3e 8469 073e 4cc6 2a3e 050a 08bc
000001a0: cfce 263e e4a0 f2bd e62d d5bb ed17 493d
000001b0: 8086 09bd 1597 843e 2f85 22bd d91c 683d
000001c0: 57bb 213e 31d9 3fbe 2b8f 03bd a2c3 0b3e
000001d0: 4b7d d63c bc19 3a3e 3226 d4bc 069f 8bbc
000001e0: c1b5 c4ba 4375 1dbc 7aad b93e 4502 b93d
000001f0: 9651 d8bd d169 1ebd c311 23bd bc3c 823e
-0.046536766 0.056356158 0.13919468 -0.12610191 -0.017367173 -0.06939496 -0.100807436 -0.026892696
-0.06472327 0.038276576 0.06834715 -0.032440674 0.12810588 -0.047284633 -0.06327025 -0.027506435
0.15339094 0.08187522 0.036818903 -0.14459224 0.042771548 0.25205755 -0.13923395 0.094765246
-0.04834599 -0.07433474 0.035236016 -0.036067158 0.14461029 0.07654354 0.27393687 0.11894326
0.0007333243 -0.0741461 0.6686342 -0.048790455 -0.033923447 0.15009521 0.10778965 -0.21769914
0.021267626 -0.033384923 0.21832016 0.28596002 0.2107287 -0.07880983 0.34876934 -0.06591081
0.5123437 0.16430053 -0.07494805 0.1667395 0.16777347 0.064089976 0.008710822 0.6538198
-0.07990066 0.22201502 -0.09091792 0.28548265 -0.014678638 0.11613904 -0.06995852 -0.025643025
0.16173482 0.21299256 0.02893649 0.010515276 0.08719797 0.15181454 -0.10796921 0.30945885
-0.097991504 -0.022174183 0.07769477 -0.08096565 0.1366144 -0.15707603 0.40993902 0.25589588
-0.241724 -0.063789435 -0.18135382 -0.065874845 -0.036427833 -0.12874644 -0.28753793 0.33347073
0.15883823 0.24236263 -0.06295029 -0.030489452 -0.053596687 -0.03023672 -0.0148818465 -0.054286215
0.033037137 -0.052677784 -0.008103786 -0.052178953 0.26991028 0.13223845 0.16677207 -0.00830317
0.16289829 -0.11847094 -0.0065057157 0.049095083 -0.033575535 0.25896516 -0.039677795 0.056668136
0.1579412 -0.18735196 -0.032118957 0.13648847 0.026182791 0.1817388 -0.02589712 -0.017043602
-0.001500778 -0.009610477 0.36265165 0.09033636 -0.10562436 -0.038675133 -0.03981186 0.25436962

model.model.model.6.weight f4 [4, 128]
00000000: 9d5f 8cbd e5e0 13bf a9e4 0dbe 00a0 113d
00000010: 473e d7be c423 923d a4b0 db3e 1d0b 05bf
00000020: 495e 1a3b 4321 18be f065 4ebf f8bd a73c
00000030: 5a26 a8be 2389 1bbd c840 463c ffd0 efbe
00000040: 33ac acbe 24f3 c5be 6968 42bf 0dbb 453d
00000050: 2535 d2be a528 823e 9310 66bf ad40 a9be
00000060: 981e 40bf 2fa7 41bf 2c66 283f a2ad 013d
00000070: 5bb6 85be 8935 963f f5b3 573e b783 8ebf
00000080: 63b5 293c 7505 febe 1978 823f 67bc c33e
00000090: 0684 943c 2f61 f83f 7325 813f 60a7 593f
000000a0: 0daf 1ebf a670 0a3d fa22 4c3e 6e22 66bd
000000b0: 887f e03d 0616 6b3d 6d0d 5f3e 5d98 c1bc
000000c0: 0112 3f3f a970 adbf aeeb 2dbf b499 17bf
000000d0: 85c0 41bf 25da 06bf 8e3d 51be 2176 073f
000000e0: c0be a03c e5a9 783e 00ee 24bf d236 10bf
000000f0: 7f56 ad3c 0415 4cbf 949a e5be 0c3d 29bd
00000100: f931 ce3d 3607 2ebe 271a e93c 7d6b c3bc
00000110: adc8 41bf 2095 edbe 367c c5bc a6e5 e83e
00000120: 4886 c5bb 9382 0a3d a3e2 f8be 1fc2 23be
00000130: ea08 1bbf 3400 b7bd 5a31 663e 6a5a 643e
00000140: 29a3 acbe d4e6 15bf c327 ca3e a913 66bf
00000150: 78f0 313d a2f9 a7bd 2bca 8d3f 0857 933e
00000160: 8fe0 20bf 230d 4f3e b261 1bbd a5fe 9a3d
00000170: e13d 21bf 7bcb 943c e16f 2ebb 8685 043d
00000180: 8de0 6c3d 52d7 9f3f 3643 a3bb 76b0 b6be
00000190: 78e5 2d3e 1fe0 93be 318c 43bf 25f7 eabb
000001a0: 5c59 99bf d41c 863f 5f72 03bf c831 8fbd
000001b0: b227 70bf 0e41 963d d5fb 913c 3fe8 b5be
000001c0: ceb0 6ebe 6fb7 e5be bfd6 d93d 683d 51be
000001d0: 98fc babe d85d 4dbe 12ba b4bd 999d 8c3d
000001e0: 3d95 963d 9386 27bb d1d7 5d3e 4973 1bbf
000001f0: 4884 ad3c 832a a73b f86b 643d b939 613e
00000200: 62c7 37bd 494f c4be bea6 0a3e 900a 803d
00000210: 01ab b2be 1b1d cf3c 700e 853e d04b 09bf
00000220: 0ba8 8b3c bc1a 80be 1747 35bd 6c66 abbc
00000230: ec47 c2be 59c5 0d3d ac3d 86bd 481e aabd
00000240: da72 46be 84ef a23e 93f6 ffbd bab9 683c
00000250: 1571 0cbe 56f2 9abe b350 74be d700 a9be
00000260: e307 b2be 1b12 9cbe 3152 ca3e ca83 633d
00000270: cc0e 83be 2fdd 833e d26d c0bd 1fcb 2a3e
00000280: 75ce b1bd 35b8 a0bd 96d8 753f f470 1abf
00000290: 9572 89bd ea7e cb3f c313 953e 08c7 353f
000002a0: 09bd 3abe 7b08 8a3e bfc8 7cbe 71ea 5cbe
000002b0: 72eb 95be d83c 2e3c 2747 54be a273 2d3d
000002c0: 06bc bc3f 2628 adbf 4e33 e5be 4c75 36be
000002d0: ca2d dfbe 44b7 e5be a8c2 c5bd 3783 f43f
000002e0: 9a0a 133b 90c4 97be 2dc0 74be 8fa6 d6be
000002f0: cfaa 3b3c e612 113f a853 1ebf 2b9f c63c
00000300: df8b 99be 0fe3 143e b342 31bd 7fcb 973b
00000310: 7c29 853d 68ff 243e 6141 a938 ae7e e03c
00000320: 2628 af3c 2912 c23c 283e e83b 3b8d 3b3d
00000330: 891c 62be af9d 833e 24e5 8abe 20cc b4bd
00000340: be65 8a3f 97df 25bf cd9f f13e 9956 efbe
00000350: af16 80bc 2cff f6bc def6 203f 6bab a4be
00000360: b922 aabe 51ee 35be df3c 56bd 7932 2dbc
00000370: 28e1 00bf ae45 96bc 65d8 873b 221b b43d
00000380: 0ef8 193d fed8 e43e da53 6d3b e1df 573d
00000390: 1dfa 92be f4fe 48be 8d46 d23d 6f8a a3bc
000003a0: ed1b 41bf 57e0 173f 8228 84be 7dd3 01bd
000003b0: 8067 e13d 653f cdbe 45cc 2cbd 24d3 59be
000003c0: 4783 8ebe 91bd 1dbf cfd4 5b3c c985 aabe
000003d0: 75f0 253f e1cc 5f3e ad45 a6bd fbda 403d
000003e0: 2bec d2bc a4ee 563d cfb4 b6be 1783 cf3e
000003f0: 5898 30bc 3e2e 1d3d 1b0e 943d 779f 0cbf
-0.06854174 -0.57765037 -0.13856758 0.03555298 -0.420397 0.07135728 0.42908204 -0.5197008
0.0023554733 -0.14856438 -0.80624294 0.020476326 -0.3284176 -0.03797258 0.012100406 -0.4683914
-0.33725128 -0.38662064 -0.7594057 0.04827409 -0.4105617 0.25421634 -0.8986904 -0.33057156
-0.7504668 -0.75645727 0.657809 0.03165973 -0.2611569 1.1735088 0.21064742 -1.1133946
0.010358187 -0.49613538 1.0192901 0.38229677 0.01812936 1.9404658 1.0089554 0.8502102
-0.61985856 0.033798836 0.19935217 -0.05618518 0.10961825 0.05739405 0.21782465 -0.023632223
0.74636847 -1.3550006 -0.67937744 -0.5921891 -0.75684386 -0.5267661 -0.20433637 0.52914625
0.019622207 0.2428356 -0.6442566 -0.5633365 0.021159409 -0.7971957 -0.44844496 -0.041317984
0.10068125 -0.16994938 0.028454853 -0.023854965 -0.7569683 -0.46402836 -0.02410708 0.45487708
-0.0060279705 0.03381593 -0.4861041 -0.1599202 -0.60560477 -0.089355856 0.22479764 0.22300115
-0.3371823 -0.5855534 0.3948346 -0.8987375 0.04344222 -0.082019106 1.1077322 0.28777337
-0.6284265 0.20219855 -0.037934966 0.07568101 -0.62985045 0.018163433 -0.0026616978 0.0323539
0.057831336 1.2487586 -0.0049823774 -0.35681504 0.16982067 -0.28881928 -0.7638579 -0.007170575
-1.1980395 1.0477548 -0.5134639 -0.06991917 -0.9381057 0.07336627 0.017820278 -0.35528752
-0.23309633 -0.4486651 0.10636663 -0.20433581 -0.3652084 -0.2005533 -0.088245526 0.06865997
0.07352684 -0.002556239 0.21664359 -0.60722786 0.02118124 0.0051015033 0.05576703 0.21994676
-0.04486788 -0.3834174 0.1354017 0.06252015 -0.3489609 0.025282433 0.25987577 -0.53631306
0.017047903 -0.25020397 -0.04425725 -0.020922862 -0.37945497 0.034612034 -0.06554732 -0.08306557
-0.1937975 0.3182336 -0.12498202 0.014204437 -0.13715012 -0.30263013 -0.2385891 -0.33008453
-0.34771642 -0.30482563 0.39515832 0.055545606 -0.25597227 0.25754687 -0.093959466 0.16679047
-0.08681957 -0.07847635 0.9603361 -0.603286 -0.06711308 1.5898106 0.2911664 0.7100682
-0.18236174 0.26959595 -0.24685954 -0.21573807 -0.29281193 0.0106346235 -0.20730267 0.042346604
1.474488 -1.3527877 -0.44765705 -0.17818183 -0.43589622 -0.44866383 -0.09656268 1.9102544
0.002243674 -0.29642153 -0.23901434 -0.4192395 0.011454298 0.5666946 -0.618464 0.02424582
-0.29989526 0.14539741 -0.0432765 0.004632413 0.06502053 0.16113055 8.070726e-05 0.027404156
0.021381449 0.0236903 0.0070874877 0.045788985 -0.22081198 0.2570624 -0.27127945 -0.08827996
1.0812299 -0.64794296 0.4719223 -0.46745756 -0.015635816 -0.030150972 0.6287669 -0.32162032
-0.33229616 -0.17766692 -0.052304145 -0.010571116 -0.5034356 -0.018343773 0.0041456693 0.08794238
0.03759008 0.44696802 0.003621331 0.052703742 -0.28706446 -0.19628507 0.10267363 -0.019963471
-0.75433236 0.5932669 -0.25812155 -0.03169583 0.11006069 -0.4008743 -0.042186994 -0.2127195
-0.27834532 -0.6161738 0.013417437 -0.33305195 0.64820033 0.21855499 -0.08118758 0.047083836
-0.02574738 0.05247368 -0.3568482 0.405297 -0.010778509 0.038374178 0.07229253 -0.54930824

model.model.model.6.bias f4 [4]
00000000: 858c 9b3e 364f b6be 1ea0 0abe 3e4e 36be
0.30380645 -0.35607308 -0.13537642 -0.17803285

model_old.model.model.0.weight f4 [128, 8]
00000000: 1d03 3fbe eb8b b63e 66b5 393f 7795 213f
00000010: 0b57 22bf db94 1b3e f1a4 7d3e 5474 0cbe
00000020: abe4 54bf ba33 04bd 7b16 40be 7951 a73d
00000030: fd78 2b3f 68f2 0fbe c0e3 20bf 0ce8 fabd
00000040: 1be6 adbd 4c0b 0abd 2822 85be 9ac9 cfbd
00000050: fbd0 2fbe 3b1e 07bf ab71 93be 5881 153f
00000060: f31c 25be 2a5e d7be caa3 6fbf 1809 3cbf
00000070: df29 763f b4ab 563e 90fa 54bd 288d 003e
00000080: 51ae dc3d 838e 87bb 66d5 353f 5d8f f03d
00000090: 579e bfbf 45e4 6bbe 3f44 41bc 3f9d 3dbe
000000a0: fd6b 2abf e1d2 fb3c 8df2 bcbe 6246 ae3e
000000b0: 5ad6 23bf 925e d9be 9ad6 48bf 00be dcbe
000000c0: 6c7f 023e e39d ccbe a83c 133e bb79 aebe
000000d0: adc7 abbe 951a 89bf 8cf8 50bf fe50 77bd
000000e0: 9b42 85bd c174 c23e ba93 863e 0cd8 6a3f
000000f0: 63b2 f13e c79c 04bf ff72 263e 1b48 823e
00000100: 762d b3be c91a ef3d 7769 eebe 5fbb c5be
00000110: 3f84 1abe b034 93be cfed dabe dbde 2bbd
00000120: 1975 083f 4ac9 1b3e daff 7dbe b8f3 8f3f
00000130: 631b f1be d196 fcbc c7a1 0b3d 187a f6be
00000140: 4d68 1c3e bcd0 c8be af53 05be abfa b6be
00000150: c102 183f ef7f eb3e be2f a83e 5bd5 10bf
00000160: 2696 9c3e c8db 79be cbbc 8f3d be17 1ebf
00000170: 798d 3f3e c07a 8ebe b5eb 173e d0f2 653e
00000180: 1a21 243f 238a 3dbd 9752 ab3e b204 b53c
00000190: 628a f03e ab67 f23e 6e75 893e c43c 01be
000001a0: 40f5 4b3d c45a 973d 5c55 2cbd 5545 28be
000001b0: 7d0d 0cbe e524 35be 61cf 2ebf e252 04bf
000001c0: d45b 1fbe 20f1 e9be 9fee 8bbd e2d2 b0be
000001d0: bd06 993e d3b0 2dbe f178 e63c bc6d 0ebe
000001e0: 3286 833e 2fa1 00bc 5414 b03d 7bc2 a73e
000001f0: 55c1 aa3f f09e 9bbd 2527 093e 4ac3 143f
00000200: 1cc7 66be a615 c03d 9a7d 0cbe e213 a33b
00000210: af86 bb3e d546 783f f525 9ebf 3419 4d3e
00000220: 3dc0 d5be 701e 6cbe 737a d0be 3a14 3abe
00000230: 3efe 023f c243 dc3e 6ff5 49be abf5 f4be
00000240: fcbf 4bbe 8089 553d c6e5 3aba 02df e33e
00000250: b3ba e7bd 72b6 83bf bfcc 55be 4d56 1bbf
00000260: 1f1e 42bf 49ec ae3e 17a0 ebbd d2fc d6bd
00000270: 8da7 83be b017 c3bd 3cfa 3a3d 0a65 d73e
00000280: b761 46bd 1ed3 d93c c3a2 d53d 8aa7 9f3d
00000290: 3fca 883e 3b02 713f 42a2 e23e 31c9 b4be
000002a0: fc83 d33e b6dc 543e 405e 2f3f 4f28 98be
000002b0: 4d78 553f 42a0 2d3f 3d44 87bd c722 06be
000002c0: 8c2b 4d3e 4f4a 433c 471b 40be 898c 0d3b
000002d0: ee11 643e 0bcc 0c3f bce0 8dbe bf88 8f3e
000002e0: 4b27 d13e ec6e 563e 8814 25bd 0e88 2b3e
000002f0: ee16 843f 413d ebbe ca33 1f3f 2eab 54be
00000300: b28b 8bbd 2393 1cbe 2517 c6be 7ee8 593e
00000310: 61b8 8e3f 2c33 67bb 7f68 c2bc 79bc 89be
00000320: a3fb 01bf 3865 fabe ce26 2bbf 29aa 90bd
00000330: 07a3 383e f46a 4fbf 6d7a ffbd 9c29 373e
00000340: cec5 d03d ed39 aabf 527b 10bf f19a 6bbe
00000350: 269c 513e 02e3 2c3f 0bd3 e8bd 59ef 44be
00000360: 6f7a d6bd 4a4f c23d 3a34 83bf c3df 22bf
00000370: 508b a3bd 1158 f33d 2d72 853e 260b f83d
00000380: 37e9 a53c 7519 dcbe 1200 c83c 7d53 a4be
00000390: a88c 9d3e 8b78 1d3e 1e72 0b3e fe6c 8dbf
000003a0: f3f3 3e3f daf6 803c bccf f63e d1de c43e
000003b0: a032 d4be 4be3 27be 447e 69bf d89d 06bf
000003c0: ccd6 b2be 36c6 eebd ec1f a03d 4a1f 7d3e
000003d0: 469a 8cbd b144 ec3e 937b 1ebf 8619 52bf
000003e0: 8e6b d43e d78a 063f 8b2c 0d3e 324f 6c3d
000003f0: 2a19 5ebe 9548 e1be 7992 4dbf 4d03 9d3e
-0.18653531 0.35653624 0.7254242 0.6311869 -0.6341407 0.15193503 0.24769951 -0.1371625
-0.8316142 -0.032275893 -0.18758576 0.081698366 0.6698149 -0.14057314 -0.6284752 -0.12251291
-0.08491155 -0.03370218 -0.26002622 -0.10145874 -0.17169563 -0.52780503 -0.2879766 0.5840049
-0.16124325 -0.4206403 -0.936093 -0.73451376 0.9615764 0.20963937 -0.051996768 0.12553847
0.10775436 -0.004136862 0.71028745 0.117460944 -1.4970196 -0.23036297 -0.011796056 -0.18517016
-0.6657103 0.030740203 -0.36903802 0.34038073 -0.6399895 -0.42454964 -0.78452456 -0.43113708
0.1274392 -0.39964208 0.14378607 -0.34077248 -0.33550778 -1.0711237 -0.8162925 -0.060379975
-0.065068446 0.379797 0.2628458 0.9173591 0.4720641 -0.51801723 0.16254805 0.25445637
-0.3499562 0.11675031 -0.46564838 -0.38619515 -0.1508951 -0.28751135 -0.4275956 -0.04196058
0.53303677 0.15213504 -0.24804631 1.1246252 -0.47091207 -0.030833634 0.03408983 -0.48140025
0.15274163 -0.39221752 -0.13020204 -0.3573812 0.593792 0.45996043 0.32848924 -0.56575555
0.30583304 -0.24400246 0.07018431 -0.6175498 0.18706311 -0.27828026 0.14836009 0.22455907
0.6411301 -0.046274316 0.3346145 0.022096965 0.46980578 0.47344717 0.26847404 -0.12620836
0.049794436 0.07390359 -0.042073593 -0.16432698 -0.1367702 -0.17689855 -0.68285185 -0.5168897
-0.15562373 -0.45691776 -0.06832623 -0.3453589 0.29887953 -0.16961984 0.028133841 -0.13909048
0.2568832 -0.007850929 0.08597627 0.32765564 1.334025 -0.07598674 0.13393839 0.5811049
-0.22536892 0.09379129 -0.13719788 0.0049767355 0.36626193 0.9698308 -1.2355334 0.20029145
-0.4174823 -0.23058486 -0.4071842 -0.18171778 0.5116919 0.43020445 -0.19722532 -0.4784368
-0.19897455 0.052133083 -0.0007129576 0.4450608 -0.11314907 -1.0290053 -0.20878886 -0.6067856
-0.7582721 0.34164646 -0.11505144 -0.104974404 -0.2571377 -0.095260024 0.0456488 0.42069274
-0.048433032 0.026589926 0.10431435 0.077956274 0.26716802 0.9414403 0.44264418 -0.35309747
0.41311634 0.2078732 0.6850319 -0.29718253 0.8338669 0.6782266 -0.06604812 -0.13099204
0.20036143 0.011919572 -0.18760405 0.0021598658 0.22272465 0.54998845 -0.2771052 0.28034016
0.4085029 0.20940751 -0.040302783 0.1675112 1.0319498 -0.4594517 0.621884 -0.20768425
-0.06813754 -0.15290503 -0.38689533 0.21280095 1.1150018 -0.0035278304 -0.023731468 -0.26901606
-0.5077459 -0.4890535 -0.66856086 -0.070637055 0.1803094 -0.8102257 -0.12474523 0.17886966
0.10193978 -1.3298928 -0.5643817 -0.23008324 0.20469722 0.67533886 -0.11368378 -0.19231929
-0.10472571 0.094877794 -1.0250313 -0.63622683 -0.07985556 0.11882032 0.26063672 0.121115014
0.020252807 -0.42988172 0.024414096 -0.32094947 0.30771375 0.15378015 0.13617751 -1.1048887
0.74590987 0.015742708 0.48205364 0.38451245 -0.41444874 -0.16395299 -0.9120829 -0.525846
-0.34929502 -0.116588995 0.078185886 0.24718967 -0.06865363 0.46146157 -0.6190731 -0.82070196
0.41488308 0.525556 0.13786523 0.057692714 -0.21689287 -0.44000688 -0.80301625 0.3066658

model_old.model.model.0.bias f4 [128]
00000000: d21f 1b3d 51d5 6a3e da01 35bd b11d 223e
00000010: e73e 193e 6e84 e8bd ed3a 443d 6bdf 39be
00000020: f1ac 943e c04f 333e 8be7 763c 68ac 993e
00000030: 3d8d febc 7f72 ab3e 8a0c f23e c276 013e
00000040: 7bd9 d73d 3af4 f3bd dd94 943e cd83 9cbd
00000050: 4b57 17bd 7e8a c2be 502b ea3d 4f5c 9dbd
00000060: 8da3 db3e dbe9 8dbe 63f0 843e a264 1dbd
00000070: 1956 c13e a9fa fbbe c0ae e7be 7877 75be
00000080: f56b d33e 304b aebe 39db e7bd 5ac0 a53e
00000090: 9448 543e a069 d83d 4aa7 553e 0c55 90be
000000a0: cc33 373e 9473 053e f315 7b3d 5ee1 6f3d
000000b0: 589a 97be 7c30 2ebb a557 bcbe d1fb 99bd
000000c0: b77c a23e 806b c53e ebf9 5dbd 1b93 e43e
000000d0: 0e37 b73e 8704 dcbe 440b 513e 3bdf f8bd
000000e0: c003 5e3e 71ac 08be 8bbc 8a3e bbe6 c2bc
000000f0: c19c 2dbe 57ad 8e3e d6e0 423e d9cc 07bf
00000100: 521e b4be e331 003d 6151 9f3e b8b5 cbbe
00000110: c64c 14bf 989d c2be dd7d e53e 087c 223e
00000120: 57bd 853e 357f 5bbd 1145 9cbe 15a4 6f3c
00000130: bb31 87bd 15a7 293e adc8 373e c18b 413d
00000140: d8e7 253e f8b2 9c3e 8b43 0fbd f9f4 6bbe
00000150: feca e3bd 753f 683d 2e2d be3e fbec 633e
00000160: 3d1b 8f3c 19ed 19bd 74a3 ce3e c104 ecbd
00000170: 86ba 583e d437 d33d 1cdd 47bd 28a5 f63c
00000180: 5fcb 9fbe 2c11 23bd 9be8 f9bc 5972 593e
00000190: ba53 01bf 046f efbe 51e2 713e caac 0ebf
000001a0: a9b7 3a3d 25f1 843e e6d1 36bd bb58 523e
000001b0: fd71 b6bd f84d 03be 8b78 9e3e d717 ca3d
000001c0: 7bd9 9f3d bc0c b2be 7450 cc3e ae1a 673d
000001d0: ba3d 6fbe 3187 08bd f3c9 60be 47a7 ae3e
000001e0: f0dc a0bc 9fd7 efbe 521e 13bd 2201 7d3e
000001f0: 2fc8 7f3e ea26 5ebe de07 eabe 063e 733e
0.037872143 0.22932936 -0.04419122 0.15831639 0.14965402 -0.11353384 0.04790776 -0.18151633
0.29038194 0.17510891 0.015069853 0.30014348 -0.031073207 0.3348579 0.47275192 0.12642959
0.10539528 -0.11911817 0.29019824 -0.076423265 -0.036948483 -0.37996286 0.114340425 -0.07683622
0.42898217 -0.2771748 0.2596465 -0.03842605 0.37761 -0.49214676 -0.4525051 -0.23971355
0.41293302 -0.3404174 -0.1132111 0.32373315 0.20730811 0.10567021 0.20864597 -0.28189886
0.17890853 0.13032371 0.06130023 0.058564536 -0.29609942 -0.0026579192 -0.36785617 -0.07518733
0.31735775 0.38558578 -0.05419342 0.44643483 0.3578419 -0.42972204 0.20414454 -0.12151953
0.21681118 -0.13347031 0.27096972 -0.023791661 -0.16954328 0.27866623 0.1903108 -0.5304695
-0.35179383 0.031297576 0.31116775 -0.39787078 -0.57929647 -0.3801086 0.4482259 0.15867627
0.26121017 -0.05358811 -0.30521443 0.014626523 -0.06601282 0.16567643 0.17947645 0.04725242
0.16201723 0.30605292 -0.034976523 -0.23042668 -0.11122702 0.056701142 0.37143844 0.2225837
0.017469043 -0.03757963 0.4035908 -0.11524344 0.21164903 0.10313383 -0.04879485 0.03010805
-0.31209847 -0.0398113 -0.030506423 0.21235026 -0.5051838 -0.46764386 0.23621489 -0.55732405
0.04558531 0.2596523 -0.04463377 0.2054166 -0.0890846 -0.12822711 0.30951342 0.09867828
0.07805153 -0.3477534 0.3990513 0.056421928 -0.2336339 -0.033332054 -0.21952038 0.34111997
-0.019636601 -0.46844193 -0.035917588 0.24707463 0.24978708 -0.21694532 -0.45709127 0.23754129

model_old.model.model.2.weight f4 [128, 128]
00000000: 9490 78be 9673 823d fd1f a3be 9670 fb3e
00000010: 6854 e8be bf85 6f3d 8a1e b7be 3c81 9cbe
00000020: cc48 c5be 6506 9b3e 65f3 c93e a0fe b83d
00000030: e07b 7e3e 8f2e 653e 8378 9b3e 8a1b edbe
00000040: 807f 253f 9b0c d63e d37e 72bf 5671 34be
00000050: 0172 bc3e b13a 0f3f d7cf a23e 71f0 07be
00000060: 0a7a 233e 6fe6 d3bc 2506 aebe 4239 ccbc
00000070: 0640 d33e ede1 623f a004 083f aa6b 14bf
00000080: cd85 62be 37f9 0a3f c6e0 2fbe 4601 193e
00000090: 5aa8 81be 2398 0ebe f48e 0b3e 8b47 c8bc
000000a0: f7d1 02bf bb69 6cbf 496f 293c 171d e23e
000000b0: d129 49bf 1113 6ebe ad27 bbbd aa9c f4bd
000000c0: c155 88be 617d 4fbf 2b00 303e 6cdd 103b
000000d0: 78a2 e3bc 1c6b 4fbf 6b96 07bf 8460 7e3e
000000e0: f9b1 ec3e 5617 1dbf 1e88 86bc b136 9e3e
000000f0: 667a 273d da39 533e 1b70 953d 0149 19be
00000100: b6b8 ec3e 7b03 26bf b69c a3bd 8663 91be
00000110: cb59 80be 84ba b3bc c140 fc3d bc6d 873e
00000120: e200 3e3e 2cfc 1ebe a6e3 79bf 10cd a9be
00000130: 95db 0b3e 6bca 88be fed7 103e 30aa 213e
00000140: e08e aab9 7292 463e 192d b03e b814 6d3e
00000150: 56a1 4c3e ebaa 8abe d6d7 5bbe 17ca a43d
00000160: 901f ae3d c4db 39bf 21ff 203e 21d3 cf3e
00000170: 2a85 a83e 760b 88be a0b8 e2bc 85e4 c73d
00000180: e77a c03c 4a6b d73d b695 033e 8ece c23d
00000190: a02c 6ebe f6bf f5be 59f5 4a3c d5cb 8bbb
000001a0: c32d a8bd b372 813e 50d5 89be 0706 f3be
000001b0: 129c 263e c36d b03e 08e6 4cbf c3c5 073e
000001c0: cbd8 39bd 78e9 2b3f 73ef 263e 88e1 9ebd
000001d0: 1af3 a83e 6c5d 873e 98eb 2ebf 3dca a03e
000001e0: 681b edbe 342e 0bbf 2a52 8dbd 9a64 13bf
000001f0: f495 1c3e fe50 8abc 3042 e0bd ddc4 213c
00000200: 20d5 b4bd 93db 83bd 3abb 81bb 716c 8abd
00000210: 1cb2 413c 2359 8abd 69ad a1bc 8ff4 fdbb
00000220: 6cb7 a0bb bd6f 993d 517a 1a3d b57a 17bd
00000230: d73c e6bc 5bd3 9bbb 1916 913d 16d0 aabd
00000240: c98b aebd a500 8dbd 4877 8a3d e059 b2bd
00000250: ac9d 6e3d e17d 9ebd c0e3 713d ea1a 70bd
00000260: 114a fdbc 6d5f 6ebd 3b35 7fbd fccd 03bd
00000270: 6e27 ee3c 5dce aa3c 8f46 9dbd 04e0 8ebc
00000280: 09b4 efbc 9f00 833d 3969 8ebd 9f24 66bd
00000290: cdcc 79bd 75fe e63b d03c bcbc e7eb e4bc
000002a0: 8f42 8abd 97c0 54bc a7a0 01bd 6bdb 643d
000002b0: a798 b6bd 1672 24bd 79b7 883d 39d1 94bd
000002c0: 903f 5d3c 19ad 413d 7305 3d3d 21f9 fbbc
000002d0: a628 0abd db8c 01bd 71b9 5cbd 96a1 9dbd
000002e0: c6c2 2bbd 977a a5bb 28d7 b13c 8d81 f1bc
000002f0: 9f3a 933c 470d c23c a72b 7d3c b22d 16bd
00000300: bfc3 ff3c 046e 97bd 5aad 53bb 5863 4d3d
00000310: 9967 0e3b 2ef7 99bc faf6 bfbd 9100 443b
00000320: e395 673d f441 acbd 2ac0 e33c a8ee a93d
00000330: 28ce 993d 72e9 e2bc 3a90 c2bc 1d85 a0bd
00000340: 106c 513d 7e42 96bd fa55 68bd d66e 2fbd
00000350: 2c8e 9f3d 7756 5cbd dc0d 99bd 8e9f adbd
00000360: 25df 97bc aa91 64bd e82c 4ebd 3167 6d3d
00000370: 649e bdbc 589d 59bd 5606 1dbc 24c8 a43c
00000380: 977e cabd 5383 0fbc 4224 1cbd 2c0d 7cbd
00000390: 4ccb 1bbd e471 913c bf7c 1abd 5afb 16bd
000003a0: d2c2 783d a7fe 513d 664c 4c3d 1aec f53b
000003b0: dc2d 913d 8e37 8fbd 88c6 b5bd f6e5 cd3c
000003c0: 4db8 533d c64c f9bc 397a acbb fd6e 713d
000003d0: 5a9e 1bbd d293 3f3d fe95 193d c8ef 4dbc
000003e0: 6721 b7bd 1148 793c b916 03bd 489c b43d
000003f0: e849 83bd b5da db3b 5f71 df3b d702 3fbd
-0.24273902 0.063697025 -0.31860343 0.49109334 -0.45376897 0.05847716 -0.35765487 -0.30567348
-0.38532102 0.30278316 0.39443508 0.09032941 0.24851942 0.22381042 0.3036538 -0.46310073
0.64647675 0.41806492 -0.9472477 -0.17621359 0.36805728 0.5594893 0.31799194 -0.13275315
0.15964523 -0.025866715 -0.33989063 -0.024929646 0.41259784 0.88625985 0.5313206 -0.5797678
-0.22121353 0.5428652 -0.17175588 0.14941892 -0.25323755 -0.13925223 0.13628751 -0.024448177
-0.5110163 -0.9234883 0.010341474 0.4416282 -0.7857943 -0.23249461 -0.09138427 -0.11943944
-0.26627925 -0.8105069 0.17187564 0.0022104634 -0.027787432 -0.8102281 -0.52963895 0.24841505
0.46229532 -0.6136373 -0.016422328 0.309011 0.040888213 0.20627537 0.07296773 -0.14969255
0.46234673 -0.6484906 -0.079888746 -0.28396243 -0.25068507 -0.021939524 0.12317038 0.26450908
0.18555024 -0.15525883 -0.9761299 -0.33164263 0.13657983 -0.26716933 0.14144894 0.15787578
-0.00032531377 0.19391802 0.34409407 0.23152435 0.1998342 -0.27083525 -0.21469054 0.08046358
0.08502114 -0.7260096 0.15722324 0.40590766 0.32914096 -0.26571244 -0.027675927 0.097603835
0.023496104 0.10518511 0.12850079 0.095120534 -0.2325921 -0.47998017 0.012387597 -0.004266242
-0.08211853 0.2528282 -0.26920557 -0.47465536 0.16270474 0.34458742 -0.800385 0.13259034
-0.045372766 0.6715312 0.1630228 -0.077578604 0.32997972 0.26438463 -0.6832824 0.31404296
-0.46309972 -0.54367375 -0.06900437 -0.5757538 0.15291578 -0.016884323 -0.10950124 0.009873596
-0.08829713 -0.06438365 -0.0039590867 -0.06758965 0.01182225 -0.06755283 -0.019736009 -0.007750101
-0.004904678 0.074920155 0.037714306 -0.036982257 -0.028105183 -0.00475542 0.07084293 -0.083404705
-0.08522756 -0.068848886 0.06761032 -0.087085485 0.058255836 -0.07738853 0.05905509 -0.058619417
-0.030919107 -0.058196474 -0.062306624 -0.032178864 0.029071536 0.020850355 -0.076794736 -0.017440803
-0.029260652 0.06396603 -0.069536634 -0.05618727 -0.06098633 0.0070493766 -0.022978216 -0.027944518
-0.06750976 -0.01298537 -0.03164735 0.055873316 -0.08915835 -0.040147863 0.0667562 -0.072664686
0.013503924 0.04728422 0.046147775 -0.030758442 -0.03373017 -0.03162847 -0.05388779 -0.07696836
-0.041933797 -0.0050500142 0.02170904 -0.02948072 0.017972289 0.023687972 0.015452302 -0.036664672
0.031221269 -0.07394031 -0.003229937 0.05014357 0.002172923 -0.018794622 -0.09373279 0.0029907564
0.056539427 -0.08411017 0.027801592 0.08297473 0.07510024 -0.027699206 -0.023750413 -0.07837889
0.051128447 -0.07336901 -0.05672262 -0.04283031 0.07790789 -0.053793397 -0.074733466 -0.08477698
-0.01853902 -0.05580298 -0.050335795 0.05795974 -0.023146816 -0.05312857 -0.00958403 0.020114966
-0.09887426 -0.0087593375 -0.038120516 -0.061536 -0.038035676 0.017754503 -0.037716623 -0.0368608
0.06073267 0.051268246 0.049877547 0.007504952 0.07088825 -0.06993018 -0.088757575 0.025134068
0.051689435 -0.030432116 -0.0052635935 0.058943737 -0.037992813 0.04677183 0.03749656 -0.012569375
-0.08941918 0.015214936 -0.032004092 0.08818871 -0.06410581 0.0067094215 0.006818935 -0.046633568
