rl_compexp/save/LL_hyper/LunarLander-DQN-128x3/dqn_best.pth (torch, 568074 bytes, 32 tensors)

model.model.model.0.weight f4 [128, 8]
0	0xbddfac3b	-0.10921522
1	0x3ef81964	0.48456872
2	0x3f439486	0.76398504
3	0x3f3edb7a	0.74553645
4	0xbf126130	-0.57179546
5	0x3e1ee70d	0.15517826
6	0x3e694284	0.2277928
7	0xbe031b8b	-0.12803476
8	0xbf2e848f	-0.6817102
9	0xbdde64d5	-0.10859076
10	0xbe4b7dd0	-0.19872212
11	0x3defa1b7	0.117007665
12	0x3f2f4052	0.6845752
13	0xbe01f43d	-0.12690826
14	0xbf028051	-0.50977045
15	0xbc8f559a	-0.017496873
16	0xbd97a11f	-0.07403778
17	0xbdc5da69	-0.09660799
18	0xbdf419c1	-0.11918975
19	0xbda9dfee	-0.08294664
20	0xbe1cf407	-0.15327464
21	0xbefac905	-0.4898149
22	0xbe888ca7	-0.2666981
23	0x3f1285d1	0.5723544
24	0xbe3f02f6	-0.18653473
25	0xbeea4110	-0.45752764
26	0xbf67af92	-0.90502274
27	0xbf469f43	-0.77586764
28	0x3f57ad85	0.84249145
29	0x3e20f6d5	0.15719159
30	0xbce7e71e	-0.028308447
31	0x3e121068	0.14264071
32	0x3dd3dd46	0.10344939
33	0x3b979793	0.0046262234
34	0x3f3a0abe	0.7267264
35	0x3e128edd	0.1431231
36	0xbfbf9627	-1.4967698
37	0xbebd22a8	-0.36940503
38	0x3c96c09c	0.01840239
39	0xbdda4320	-0.10657334
40	0xbf1683a1	-0.587946
41	0x3e49eacd	0.19718476
42	0xbe93b9d7	-0.28852722
43	0x3e351a9e	0.17685935
44	0xbf1376be	-0.5760306
45	0xbeb0df24	-0.34545243
46	0xbf48d69a	-0.78452456
47	0xbecbd1c8	-0.39808488
48	0x3dc18ba7	0.09450465
49	0xbeb51fb6	-0.35375756
50	0xbcc01f66	-0.023452472
51	0xbea35910	-0.31903887
52	0xbf0e87a6	-0.55675733
53	0xbf904783	-1.1271824
54	0xbf1e1bf7	-0.6176142
55	0xbc0cfbc0	-0.008604944
56	0xbdb24047	-0.08703666
57	0x3edbf272	0.4295841
58	0x3ecaf684	0.39641201
59	0x3f227ea2	0.63474476
60	0x3ec82c3d	0.3909625
61	0xbec17411	-0.37783864
62	0x3e008053	0.12548952
63	0x3e75a63f	0.23989199
64	0xbe914d94	-0.283795
65	0x3e178309	0.1479608
66	0xbed11eeb	-0.408439
67	0xbebb8524	-0.36625016
68	0xbe205f1a	-0.15661278
69	0xbec51a0b	-0.38496432
70	0xbee9d5c8	-0.45670915
71	0xbd24e61b	-0.04025851
72	0x3eda322b	0.426164
73	0x3dd7be3e	0.10534333
74	0xbe776365	-0.2415901
75	0x3f9b1aac	1.2117515
76	0xbf0edba4	-0.55803895
77	0x3d037723	0.03209604
78	0xbbf41a07	-0.0074493918
79	0xbee70b6e	-0.45125908
80	0x3dbfa526	0.093576714
81	0xbec53889	-0.38519695
82	0xbe4680ab	-0.1938502
83	0xbe9b5fbb	-0.30346474
84	0x3f1bf545	0.60921127
85	0x3efec3fa	0.49758893
86	0x3eaf3744	0.34221852
87	0xbf0fb20f	-0.5613107
88	0x3e8f05ff	0.27934262
89	0xbead138d	-0.3380398
90	0x3b15d160	0.0022860393
91	0xbf1c6a73	-0.6109993
92	0x3df50e22	0.11965586
93	0xbe7ffc7a	-0.24998656
94	0x3e29a0bf	0.16565226
95	0x3e6cce64	0.23125607
96	0x3f18020f	0.5937814
97	0xbda3b367	-0.07993203
98	0x3e90f7e6	0.28314131
99	0xbd39723d	-0.04527496
100	0x3eedd77f	0.46453473
101	0x3eec4477	0.46145985
102	0x3e9350bb	0.2877253
103	0xbdc0b441	-0.09409381
104	0x3cd9739b	0.026544383
105	0x3dc99f2d	0.098448135
106	0x3d5e87b1	0.054328624
107	0xbe2aa224	-0.16663414
108	0xbe2a0438	-0.16603172
109	0xbe4f9c76	-0.20274529
110	0xbf2ecf61	-0.68285185
111	0xbef268c0	-0.47345543
112	0xbe25af74	-0.16180211
113	0xbf28655b	-0.65779656
114	0x3ca0249f	0.019548712
115	0xbe9efc62	-0.31051928
116	0x3e85bf93	0.26122722
117	0xbe4064b6	-0.18788418
118	0x3d607159	0.054795597
119	0xbe05ca6b	-0.13065498
120	0x3e8d550b	0.27603945
121	0xbc70f6c4	-0.014707271
122	0x3db8392c	0.0899528
123	0x3eb0f65d	0.3456296
124	0x3f9d7f13	1.2304405
125	0x3c22819c	0.009918597
126	0x3e0a54cf	0.13508914
127	0x3f1d4cdf	0.6144542
128	0xbe406c1e	-0.18791243
129	0x3d8c7b07	0.06859403
130	0xbda98163	-0.08276632
131	0x3c9b42b2	0.018952701
132	0x3ef2f936	0.47455758
133	0x3f7ca36e	0.98686874
134	0xbf907f82	-1.1288912
135	0x3e80eccf	0.2518067
136	0xbeb45f28	-0.35228848
137	0xbe9a6ffa	-0.30163556
138	0xbec80930	-0.3906951
139	0xbe69e6a1	-0.22841884
140	0x3eebb42f	0.46035907
141	0x3f03a954	0.5143025
142	0xbdedd254	-0.116123825
143	0xbed1e593	-0.40995464
144	0xbe88493a	-0.26618367
145	0x3d74b57b	0.059743386
146	0x3dab24be	0.083566174
147	0x3ec08153	0.37598667
148	0xbe66391f	-0.22482727
149	0xbf90ac82	-1.1302645
150	0xbe6905d8	-0.22756135
151	0xbf0b892d	-0.5450619
152	0xbf263cac	-0.6493633
153	0x3eabd1a5	0.33558384
154	0xbdbeece8	-0.0932253
155	0xbe44c024	-0.19213921
156	0xbe83e61c	-0.25761497
157	0x3cc584ad	0.024111116
158	0x3d8e3363	0.06943395
159	0x3edce731	0.43145135
160	0xbd7b674c	-0.06137781
161	0x3daea4db	0.085275374
162	0x3e31408b	0.17309777
163	0x3c97f755	0.018550554
164	0x3eaeaf6c	0.3411821
165	0x3f2b61e1	0.66946226
166	0x3ecfec88	0.40610147
167	0xbed0b221	-0.40760902
168	0x3eaf34a8	0.3421986
169	0x3e3ec8ea	0.1863133
170	0x3f2eb465	0.6824401
171	0xbea9b5ad	-0.3314642
172	0x3f7910b4	0.9729111
173	0x3f29738d	0.6619194
174	0x3ac7cb9e	0.0015243178
175	0xbe143782	-0.144743
176	0x3e300745	0.17190273
177	0x3c8a05d1	0.016848477
178	0xbddf1afd	-0.108938195
179	0xba88fdb6	-0.0010451588
180	0x3e8aba05	0.27095047
181	0x3f1156e5	0.56773216
182	0xbe81b9cc	-0.25337064
183	0x3e9354db	0.28775677
184	0x3ecf54f1	0.40494493
185	0x3e680e2d	0.22661658
186	0xbd928902	-0.071550384
187	0x3db41469	0.087929554
188	0x3f5d8e00	0.865448
189	0xbebff59c	-0.37492073
190	0x3f25d7bd	0.64782315
191	0xbe598aad	-0.21244307
192	0xbdcea9b6	-0.100909635
193	0xbe77ae7e	-0.24187657
194	0xbeaa6e63	-0.33287343
195	0x3e234f29	0.15948166
196	0x3f7126f0	0.9420004
197	0xbd91de39	-0.07122464
198	0xbc51ed92	-0.012812989
199	0xbe82d968	-0.25556493
200	0xbf172242	-0.5903665
201	0xbed13328	-0.40859342
202	0xbf2f4288	-0.68460894
203	0xbe004826	-0.12527522
204	0x3e5f99a3	0.21835952
205	0xbf4b5756	-0.7943014
206	0xbe50d203	-0.20392613
207	0x3e0fa3dd	0.14027353
208	0x3dbdd4fd	0.0926914
209	0xbfc184d0	-1.5118656
210	0xbef009f3	-0.4688259
211	0xbe251291	-0.16120364
212	0x3e459080	0.19293404
213	0x3f1c6220	0.61087227
214	0xbdac7393	-0.084204815
215	0xbdeb9a5c	-0.11504051
216	0xbd6597da	-0.05605302
217	0x3d8c8328	0.068609536
218	0xbf905bf7	-1.1278065
219	0xbf141e3f	-0.5785865
220	0xbcffd2a2	-0.031228367
221	0x3e25c45b	0.16188185
222	0x3e8ed800	0.2789917
223	0x3e3cc905	0.18436058
224	0xbd3867c3	-0.04502083
225	0xbee3fe65	-0.44530025
226	0x3dae3bbd	0.08507488
227	0xbead1be3	-0.33810338
228	0x3e6b4087	0.22973834
229	0x3e32ab32	0.17448118
230	0x3d2fe715	0.042944986
231	0xbf8d6cfe	-1.1048887
232	0x3f32a7fa	0.6978756
233	0xbc084051	-0.0083161155
234	0x3ee38f4e	0.4444527
235	0x3ec9d094	0.39416945
236	0xbedd84a8	-0.4326527
237	0xbdc8921b	-0.097934924
238	0xbf697e44	-0.9120829
239	0xbf069dd8	-0.525846
240	0xbeb75811	-0.35809377
241	0xbdf3c027	-0.119018845
242	0x3dc22475	0.0947961
243	0x3e77cfb1	0.24200322
244	0xbd70e5ca	-0.058812894
245	0x3ef3ab7a	0.47591764
246	0xbf1e7b93	-0.6190731
247	0xbf521986	-0.82070196
248	0x3ef9c5db	0.48783764
249	0x3f233afb	0.6376187
250	0x3e4011e3	0.18756823
251	0xbc821221	-0.015877785
252	0xbe5fa266	-0.21839294
253	0xbf0a33af	-0.5398511
254	0xbf4d9279	-0.80301625
255	0x3e686af5	0.22697051

model.model.model.0.bias f4 [128]
0	0x3cf9dca7	0.030500723
1	0x3e88246f	0.26590297
2	0xbcc6ea42	-0.024281625
3	0x3e2360f1	0.15954949
4	0x3ddfbc24	0.10924557
5	0xbe5dc009	-0.21655287
6	0x3d088a41	0.033334974
7	0xbe1e0359	-0.15430965
8	0x3e91d65e	0.28483862
9	0x3e548190	0.20752549
10	0x3cb0e82b	0.021595081
11	0x3e9ac63d	0.3022937
12	0xbca41643	-0.020030146
13	0x3eb89454	0.36050665
14	0x3ef5e8f5	0.48029295
15	0x3e19b746	0.1501132
16	0x3de5e82f	0.11225926
17	0xbd850478	-0.06494993
18	0x3ea59808	0.32342553
19	0xbcdc5f4d	-0.026900912
20	0x3d12ebd4	0.035869434
21	0xbebf3558	-0.37345386
22	0x3de9917b	0.11404701
23	0xbcb6e821	-0.022327485
24	0x3ecd8fa2	0.40148646
25	0xbe9243e8	-0.28567433
26	0x3e97e743	0.29668626
27	0xbcea7c77	-0.028623803
28	0x3eaf556e	0.34244865
29	0xbf00dee7	-0.5034012
30	0xbee0526f	-0.43812892
31	0xbe32513d	-0.17413802
32	0x3ed4cb32	0.41561276
33	0xbeb0baf7	-0.34517643
34	0xbd8e1a55	-0.06938616
35	0x3ea58e02	0.32334906
36	0x3e306797	0.17227016
37	0x3daccfdd	0.08438084
38	0x3e866bd0	0.2625413
39	0xbe90550c	-0.28189886
40	0x3e39e895	0.18155129
41	0x3dbee4bd	0.09320972
42	0x3de5f2bd	0.11227939
43	0x3cdbc794	0.026828565
44	0xbe829830	-0.25506735
45	0xbdbaa162	-0.091128126
46	0xbedc1390	-0.42983675
47	0x3cd00945	0.025395045
48	0x3eb2c1c8	0.34913468
49	0x3edb2369	0.42800453
50	0x3c5229e1	0.0128273675
51	0x3ed63fb1	0.41845468
52	0x3ebe0cf8	0.3711927
53	0xbeed46d0	-0.46343088
54	0x3e7ce782	0.24697688
55	0xbd8973f6	-0.06711571
56	0x3e50c373	0.20387058
57	0xbe0b12a9	-0.13581337
58	0x3e6f6242	0.23377326
59	0xbd1376fa	-0.036002137
60	0xbe11aac8	-0.14225304
61	0x3e7e8a93	0.2485755
62	0x3e846fc9	0.25866535
63	0xbef2573d	-0.47332183
64	0xbeb171a5	-0.34657016
65	0x3d481ca3	0.048855435
66	0x3e9aef23	0.30260572
67	0xbed878f2	-0.42279774
68	0xbf144cc6	-0.57929647
69	0xbeb6fc3b	-0.35739312
70	0x3eedd692	0.46452767
71	0x3e5239a2	0.20529798
72	0x3e85cf6d	0.26134816
73	0xbd5fd501	-0.054646496
74	0xbeaac95a	-0.33356744
75	0x3a81f96d	0.0009916254
76	0xbdb27c9b	-0.08715173
77	0x3e3a6db2	0.18205908
78	0x3e4d106d	0.20025797
79	0x3ddfddcf	0.109309785
80	0x3e13028d	0.14356442
81	0x3e610d1e	0.2197766
82	0x3cb07737	0.021541221
83	0xbe613112	-0.21991375
84	0xbde2ff5f	-0.110838644
85	0x3c9b87d7	0.018985672
86	0x3ec8c840	0.3921528
87	0x3e4e941f	0.20173691
88	0xbbe41b8a	-0.0069612907
89	0xbd2b8b05	-0.041880626
90	0x3ee43e44	0.44578755
91	0xbcb5335c	-0.022119217
92	0x3e495707	0.19662105
93	0x3ddb6f55	0.10714594
94	0xbd9f4fff	-0.0777893
95	0x3d83844d	0.06421719
96	0xbe9de0b4	-0.30835497
97	0xbd518235	-0.051149566
98	0xbc63f311	-0.013912932
99	0x3e6693ab	0.22517268
100	0xbf0153ba	-0.5051838
101	0xbefd3efc	-0.49462116
102	0x3e715999	0.23569335
103	0xbf0af906	-0.5428623
104	0x3d22963f	0.039694067
105	0x3e80e04b	0.25171122
106	0xbd3b9a71	-0.045801584
107	0x3e64efab	0.22357051
108	0xbd938fc2	-0.07205154
109	0xbdbc518d	-0.09195242
110	0x3ea50193	0.32227764
111	0x3ddfb4eb	0.10923179
112	0x3c1f25a5	0.009713565
113	0xbeaa6c4f	-0.33285758
114	0x3ec0cec7	0.3765776
115	0x3d560197	0.05224761
116	0xbe6a2187	-0.22864352
117	0xbbd80223	-0.0065920516
118	0xbe68ed63	-0.22746806
119	0x3ea00ee2	0.31261355
120	0xbc9a1526	-0.018808912
121	0xbeeb1488	-0.45914102
122	0xbc26c49a	-0.010178709
123	0x3e7afd97	0.245108
124	0x3e914927	0.28376123
125	0xbe498f03	-0.19683461
126	0xbede64f7	-0.43436405
127	0x3e88ee2d	0.26744214

model.model.model.2.weight f4 [128, 128]
0	0xbe40c668	-0.18825686
1	0x3c98e7af	0.018665163
2	0xbee5a695	-0.44853655
3	0x3efe2483	0.4963723
4	0xbeadcbbb	-0.33944497
5	0x3d761a3f	0.060083624
6	0xbcf3a4c0	-0.029741645
7	0xbe60cb01	-0.2195244
8	0xbeef2f42	-0.46715742
9	0x3e3a6279	0.18201627
10	0x3eed3261	0.463275
11	0x3da9741f	0.082741015
12	0x3e8067e1	0.25079253
13	0x3e2f7a54	0.17136508
14	0x3ea035b4	0.31290972
15	0xbeee47ea	-0.4653924
16	0x3f1e9f5e	0.61961925
17	0x3ed1212d	0.40845624
18	0xbf7ee3ce	-0.9956635
19	0xbe645f3e	-0.22301957
20	0x3eccbe84	0.39989102
21	0x3f11b9df	0.5692424
22	0x3ea0c6c8	0.31401658
23	0xbe060c7a	-0.13090697
24	0x3e2c80e3	0.16846041
25	0xbd17cd63	-0.037061106
26	0xbea29bf3	-0.31759605
27	0xbda227bb	-0.07917734
28	0x3ee100a1	0.43945792
29	0x3f62e1ed	0.88625985
30	0x3f08a032	0.5336944
31	0xbf1823ea	-0.594298
32	0xbe7a7054	-0.24456912
33	0x3f100731	0.56260973
34	0xbe3578eb	-0.17721908
35	0x3deacbed	0.11464677
36	0xbe10d9d6	-0.14145598
37	0xbe2fe75f	-0.17178105
38	0x3ddb7c2d	0.10717044
39	0xbcc8478b	-0.024448177
40	0xbf0d861a	-0.5528275
41	0xbf2383fc	-0.6387327
42	0xbcfc790f	-0.030819444
43	0x3eea93c7	0.4581587
44	0xbf3c1da9	-0.7348276
45	0xbe9cc95c	-0.30622375
46	0xbe2722ca	-0.16321865
47	0xbd28f969	-0.04125348
48	0xbe795c9f	-0.24351738
49	0xbf512b46	-0.81706655
50	0x3dbdc00a	0.09265144
51	0x3db864b0	0.090035796
52	0xbd644dbb	-0.055738192
53	0xbe2c34a9	-0.16816963
54	0xbf190583	-0.59774035
55	0x3e8ad103	0.27112588
56	0x3f00c4a1	0.5030003
57	0xbf0c84ab	-0.54889935
58	0x3b9d6304	0.0048030633
59	0x3e89605e	0.26831335
60	0x3dac3b2f	0.08409726
61	0x3e7cb76e	0.24679348
62	0x3bce43df	0.006294712
63	0xbe194901	-0.14969255
64	0x3eecb8b6	0.46234673
65	0xbf349c62	-0.7055112
66	0xbdd68a14	-0.10475555
67	0x3c99becf	0.018767742
68	0xbe8059cb	-0.25068507
69	0xbdae2ea6	-0.08504991
70	0x3d96982d	0.07353244
71	0x3e90bef2	0.2827068
72	0x3e5c2078	0.21496761
73	0xbdb3076b	-0.08741649
74	0xbf67bcc6	-0.9052242
75	0xbea75469	-0.32681587
76	0x3e017c6a	0.12645116
77	0xbe884d29	-0.2662137
78	0x3e0def2b	0.13860767
79	0xbbdf8031	-0.0068207015
80	0xbc9e2714	-0.019305743
81	0x3e6de828	0.23233092
82	0x3ebf0278	0.3730657
83	0x3e3acdaf	0.18242525
84	0x3e53d686	0.20687303
85	0xbe8e78de	-0.2782659
86	0xbe6302f6	-0.22169098
87	0x3dccf66b	0.10007938
88	0x3d987693	0.07444491
89	0xbf392894	-0.7232754
90	0x3e0154f4	0.12630063
91	0x3eea3902	0.45746619
92	0x3eb4f6b9	0.35344484
93	0xbe784f25	-0.24248941
94	0xb919ee8b	-0.00014680081
95	0x3e748546	0.23878965
96	0x3d5d15b0	0.05397576
97	0x3dff5981	0.124682434
98	0x3dbbe60e	0.09174739
99	0x3dd12f0f	0.10214054
100	0xbe6e2ca0	-0.2325921
101	0xbef4777a	-0.47747403
102	0xbd0f2d87	-0.034955528
103	0x3e58176f	0.21102689
104	0xbe04cbb3	-0.1296833
105	0x3e77ecbb	0.242114
106	0xbef0a0f2	-0.46997792
107	0xbefd8af9	-0.4952009
108	0x3e021167	0.12701951
109	0x3ed5d893	0.41766796
110	0xbf3ccaa6	-0.73746717
111	0x3deadaaf	0.11467492
112	0xbd8a3841	-0.06749011
113	0x3ee19788	0.44060922
114	0x3e3ee1d5	0.18640836
115	0xbddcab89	-0.10774905
116	0x3e9adaea	0.30245143
117	0x3dd28083	0.10278418
118	0xbf3a516c	-0.7278049
119	0x3e837c79	0.25680903
120	0xbf03ad30	-0.5143614
121	0xbf0b2e34	-0.54367375
122	0xbe05f0fc	-0.1308021
123	0xbf106918	-0.5641036
124	0x3decb6d1	0.11558307
125	0xbde04525	-0.10950688
126	0xbda00dcc	-0.078151315
127	0x3cfa4795	0.030551711
128	0xbdb4d520	-0.08829713
129	0xbd83db93	-0.06438365
130	0xbb81bb3a	-0.0039590867
131	0xbd8a6c71	-0.06758965
132	0x3c41b21c	0.01182225
133	0xbd8a5923	-0.06755283
134	0xbca1ad69	-0.019736009
135	0xbbfdf48f	-0.007750101
136	0xbba0b76c	-0.004904678
137	0x3d996fbd	0.074920155
138	0x3d1a7a51	0.037714306
139	0xbd177ab5	-0.036982257
140	0xbce63cd7	-0.028105183
141	0xbb9bd35b	-0.00475542
142	0x3d911619	0.07084293
143	0xbdaad016	-0.083404705
144	0xbdae8bc9	-0.08522756
145	0xbd8d00a5	-0.068848886
146	0x3d8a7748	0.06761032
147	0xbdb259e0	-0.087085485
148	0x3d6e9dac	0.058255836
149	0xbd9e7de1	-0.07738853
150	0x3d71e3c0	0.05905509
151	0xbd701aea	-0.058619417
152	0xbcfd4a11	-0.030919107
153	0xbd6e5f6d	-0.058196474
154	0xbd7f353b	-0.062306624
155	0xbd03cdfc	-0.032178864
156	0x3cee276e	0.029071536
157	0x3caace5d	0.020850355
158	0xbd9d468f	-0.076794736
159	0xbc8ee004	-0.017440803
160	0xbcefb409	-0.029260652
161	0x3d83009f	0.06396603
162	0xbd8e6939	-0.069536634
163	0xbd66249f	-0.05618727
164	0xbd79cccd	-0.06098633
165	0x3be6fe75	0.0070493766
166	0xbcbc3cd0	-0.022978216
167	0xbce4ebe7	-0.027944518
168	0xbd8a428f	-0.06750976
169	0xbc54c097	-0.01298537
170	0xbd01a0a7	-0.03164735
171	0x3d64db6b	0.055873316
172	0xbdb698a7	-0.08915835
173	0xbd247216	-0.040147863
174	0x3d88b779	0.0667562
175	0xbd94d139	-0.072664686
176	0x3c5d3f90	0.013503924
177	0x3d41ad19	0.04728422
178	0x3d3d0573	0.046147775
179	0xbcfbf921	-0.030758442
180	0xbd0a28a6	-0.03373017
181	0xbd018cdb	-0.03162847
182	0xbd5cb971	-0.05388779
183	0xbd9da196	-0.07696836
184	0xbd2bc2c6	-0.041933797
185	0xbba57a97	-0.0050500142
186	0x3cb1d728	0.02170904
187	0xbcf1818d	-0.02948072
188	0x3c933a9f	0.017972289
189	0x3cc20d47	0.023687972
190	0x3c7d2ba7	0.015452302
191	0xbd162db2	-0.036664672
192	0x3cffc3bf	0.031221269
193	0xbd976e04	-0.07394031
194	0xbb53ad5a	-0.003229937
195	0x3d4d6358	0.05014357
196	0x3b0e6799	0.002172923
197	0xbc99f72e	-0.018794622
198	0xbdbff6fa	-0.09373279
199	0x3b440091	0.0029907564
200	0x3d6795e3	0.056539427
201	0xbdac41f4	-0.08411017
202	0x3ce3c02a	0.027801592
203	0x3da9eea8	0.08297473
204	0x3d99ce28	0.07510024
205	0xbce2e972	-0.027699206
206	0xbcc2903a	-0.023750413
207	0xbda0851d	-0.07837889
208	0x3d516c10	0.051128447
209	0xbd96427e	-0.07336901
210	0xbd6855fa	-0.05672262
211	0xbd2f6ed6	-0.04283031
212	0x3d9f8e2c	0.07790789
213	0xbd5c5677	-0.053793397
214	0xbd990ddc	-0.074733466
215	0xbdad9f8e	-0.08477698
216	0xbc97df25	-0.01853902
217	0xbd6491aa	-0.05580298
218	0xbd4e2ce8	-0.050335795
219	0x3d6d6731	0.05795974
220	0xbcbd9e64	-0.023146816
221	0xbd599d58	-0.05312857
222	0xbc1d0656	-0.00958403
223	0x3ca4c824	0.020114966
224	0xbdca7e97	-0.09887426
225	0xbc0f8353	-0.0087593375
226	0xbd1c2442	-0.038120516
227	0xbd7c0d2c	-0.061536
228	0xbd1bcb4c	-0.038035676
229	0x3c9171e4	0.017754503
230	0xbd1a7cbf	-0.037716623
231	0xbd16fb5a	-0.0368608
232	0x3d78c2d2	0.06073267
233	0x3d51fea7	0.051268246
234	0x3d4c4c66	0.049877547
235	0x3bf5ec1a	0.007504952
236	0x3d912ddc	0.07088825
237	0xbd8f378e	-0.06993018
238	0xbdb5c688	-0.088757575
239	0x3ccde5f6	0.025134068
240	0x3d53b84d	0.051689435
241	0xbcf94cc6	-0.030432116
242	0xbbac7a39	-0.0052635935
243	0x3d716efd	0.058943737
244	0xbd1b9e5a	-0.037992813
245	0x3d3f93d2	0.04677183
246	0x3d1995fe	0.03749656
247	0xbc4defc8	-0.012569375
248	0xbdb72167	-0.08941918
249	0x3c794811	0.015214936
250	0xbd0316b9	-0.032004092
251	0x3db49c48	0.08818871
252	0xbd8349e8	-0.06410581
253	0x3bdbdab5	0.0067094215
254	0x3bdf715f	0.006818935
255	0xbd3f02d7	-0.046633568

model.model.model.2.bias f4 [128]
0	0xbd73e79e	-0.05954706
1	0xbd983fca	-0.07434042
2	0x3d9d40bf	0.07678365
3	0xbea11789	-0.31463268
4	0x3bc29d06	0.005939129
5	0x3bbec99f	0.005822375
6	0xbd8e05ab	-0.06934675
7	0x3e87e1cf	0.26539466
8	0xbda8bc79	-0.08239073
9	0xbccdeb2f	-0.025136558
10	0xbd04cf4c	-0.032424256
11	0xb9b2c212	-0.000340954
12	0x3d5c2323	0.053744446
13	0x3ec6282f	0.38702533
14	0xb9d5a8c0	-0.00040752254
15	0xbdf93a35	-0.12169305
16	0x3ccfabff	0.025350569
17	0x3dbba2fd	0.09161947
18	0xbde6a756	-0.112623855
19	0x3c32d2d5	0.010914524
20	0xbe1cbbc9	-0.1530601
21	0x3e925dd2	0.28587204
22	0xbde4fc25	-0.11180905
23	0xbd17841d	-0.036991227
24	0xbdf3db42	-0.119070545
25	0xbd5b9ae5	-0.053614516
26	0xbdfcd9e8	-0.1234625
27	0x3d20e67c	0.039282307
28	0x3dc4cd2b	0.09609445
29	0x3cb5a821	0.022174897
30	0xbee9cfb9	-0.45666292
31	0x3ced63fd	0.028978342
32	0x3e98e517	0.29862282
33	0x3e6d926b	0.23200385
34	0xbd96c33c	-0.07361457
35	0x3e690c16	0.22758517
36	0x3e48fe4b	0.19628255
37	0xbdbf1d5d	-0.093317725
38	0xbd9c1168	-0.076205075
39	0x3dfb9cfa	0.122858
40	0x3d828dc8	0.06374699
41	0x3d8131a2	0.06308295
42	0x3f017f80	0.50585175
43	0x3e560cf0	0.20903373
44	0xbe44b822	-0.19210866
45	0x3d634575	0.05548616
46	0xbd7ec546	-0.062199853
47	0x3e5064c8	0.20350945
48	0x3cb043ec	0.021516763
49	0x3c64d03e	0.013965664
50	0x3d9c950d	0.07645617
51	0x3bb2a7d0	0.0054521337
52	0x3c60d795	0.013723274
53	0x3d990388	0.07471377
54	0xbd07600c	-0.03305058
55	0xbdb5f2c2	-0.08884193
56	0x3e38b8c0	0.18039227
57	0x3def6790	0.11689675
58	0x3d10cb62	0.03535021
59	0x3ec04201	0.37550357
60	0xbd2c5442	-0.042072542
61	0x3cdf3699	0.027247714
62	0x3e068fcc	0.13140792
63	0xbeaca9dd	-0.33723345
64	0x3d4f29ee	0.050577097
65	0x3e5c52a4	0.215159
66	0x3dd3e3a7	0.103461556
67	0xbcd08051	-0.025451811
68	0x3eb1971b	0.34685597
69	0x3dd6f9fe	0.10496901
70	0x3dce67d7	0.100784
71	0xbe6e3853	-0.23263673
72	0xbeb76de6	-0.35826033
73	0x3cd580cb	0.02606239
74	0xbec7098e	-0.38874477
75	0x3de3901c	0.11111471
76	0x3e884446	0.26614588
77	0xbdebb876	-0.115097925
78	0xbe919c04	-0.28439343
79	0x3d8d1d4f	0.06890356
80	0xbcabc9a8	-0.02097018
81	0xbe887eea	-0.26659328
82	0xbdc51695	-0.09623448
83	0xbda4f8d1	-0.080552705
84	0x3e61a5a4	0.22035843
85	0x3d43c489	0.047794852
86	0xbe01e9a3	-0.12686782
87	0x3e638931	0.22220303
88	0x3e080ce3	0.13286166
89	0x3e2b9df7	0.16759478
90	0x3dd6b60c	0.104839414
91	0xbdcfe4a0	-0.10151029
92	0xbe048ca6	-0.12944278
93	0x3e612c11	0.21989466
94	0xbb427de7	-0.0029677094
95	0xbc99172c	-0.018687807
96	0xbd6c3efc	-0.057677254
97	0x3e0c4957	0.13699852
98	0xbe821fe8	-0.25414968
99	0x3e962fa4	0.29333222
100	0x3e0f5216	0.13996157
101	0xbec248fd	-0.3794631
102	0x3eb95089	0.36194256
103	0xbdbc3a06	-0.091907546
104	0x3db554e2	0.08854081
105	0xbd1390d1	-0.03602678
106	0x3d14f5f0	0.036367357
107	0x3e952ed9	0.29137304
108	0xbd3a888a	-0.04554037
109	0x3dbe2b1a	0.09285565
110	0x3e5018f1	0.20322014
111	0xbc62f7d8	-0.013853036
112	0x3cd7e6ee	0.026355233
113	0x3cc2c8d2	0.0237774
114	0xbd0cb950	-0.034356415
115	0xbe3c5f8c	-0.18395823
116	0xbe9a3ae0	-0.30123043
117	0xbd44abb8	-0.048015326
118	0xbdbdc3c1	-0.09265853
119	0x3e83bb00	0.25728607
120	0xbf169428	-0.5881982
121	0x3cf6faa4	0.030148812
122	0x3e3e98fe	0.1861305
123	0x3da76882	0.0817423
124	0x3eac0cc1	0.3360348
125	0xbdcfdcb1	-0.101495154
126	0x3eb39a01	0.35078433
127	0xbe3a013c	-0.18164533

model.model.model.4.weight f4 [128, 128]
0	0xbd2c18b5	-0.04201575
1	0x3d1a75eb	0.03771011
2	0xbc01aef8	-0.007915251
3	0xbd120e45	-0.03565814
4	0x3c5295d2	0.012853103
5	0x3db0d2ca	0.08633955
6	0xbd29be68	-0.04144135
7	0xbdab6d73	-0.08370485
8	0x3d239962	0.0399412
9	0xbcc657a3	-0.02421171
10	0x3d343fe3	0.04400624
11	0xbda32b43	-0.07967236
12	0x3d6c3c42	0.057674654
13	0xbe07756b	-0.13228385
14	0xbdb32838	-0.087479055
15	0x3d20e7a2	0.039283402
16	0x3d84f138	0.06491321
17	0x3da6b9a2	0.081408754
18	0x3b8a3553	0.0042177825
19	0xbdfee4b9	-0.12445969
20	0xbda13853	-0.07872071
21	0xbc996ebb	-0.018729558
22	0x3a80fb38	0.0009840494
23	0x3d18dd85	0.037320632
24	0x3d19402c	0.037414715
25	0xbd8e9060	-0.06961131
26	0x3d6521a6	0.055940293
27	0x3c280867	0.0102559095
28	0x3cba65e4	0.022753663
29	0x3db13acf	0.08653795
30	0x3d344b5e	0.04401719
31	0xbc98d330	-0.01865539
32	0x3bc7749a	0.006086898
33	0x3cfa26d1	0.030536087
34	0x3d169b9b	0.03676949
35	0xbd8ee04d	-0.06976376
36	0xbdeef731	-0.11668242
37	0xbd6b6dd9	-0.057477806
38	0x3da1cd20	0.079004526
39	0xbcf9b94b	-0.030483862
40	0xbd7063e3	-0.05868901
41	0xbb9d9e2a	-0.0048101144
42	0xbd8824dc	-0.06647655
43	0xbd944b05	-0.07240871
44	0xbd7e1964	-0.062035933
45	0xbb38147d	-0.0028088384
46	0xbd026dac	-0.031842873
47	0x3d4d17de	0.05007159
48	0x3b20a938	0.0024514925
49	0xbd59bce2	-0.05315865
50	0x3d0b8889	0.034065757
51	0x3c39bb19	0.011336111
52	0xbac0d966	-0.0014713227
53	0xbd7e22df	-0.062044974
54	0xbd0af808	-0.033927947
55	0xbd65f5e0	-0.056142688
56	0xbc38af58	-0.011272274
57	0xbddca327	-0.10773306
58	0xbd3bc3bd	-0.045840967
59	0xbd0dede1	-0.034650687
60	0xbd792d76	-0.06083437
61	0xbc7319da	-0.014837706
62	0x39a4771e	0.00031369267
63	0x3c2f6005	0.010704045
64	0xbd4f4c68	-0.050609976
65	0xbdb8a90c	-0.09016618
66	0xbd8da2ea	-0.06915839
67	0xbcecf0c5	-0.028923402
68	0x3c34ffe8	0.011047341
69	0xbd561343	-0.052264463
70	0xbd992365	-0.07477454
71	0xbd63c9b7	-0.055612292
72	0x3c7fc2dc	0.015610423
73	0x3c2f9d51	0.0107186595
74	0x3b1dd6e9	0.0024084395
75	0xbdb70d44	-0.08938077
76	0xbdfd9f01	-0.12383843
77	0x3d4d0067	0.05004921
78	0x3d40cbbe	0.047069304
79	0x3dae0b47	0.08498245
80	0x3c213271	0.009838686
81	0x3ced59e8	0.028973535
82	0x3d613002	0.054977424
83	0xbd0dbdc2	-0.034604795
84	0xbd511bf2	-0.05105204
85	0xbdb3562b	-0.087566696
86	0xbc194ae1	-0.009356231
87	0xbdf213bb	-0.118201695
88	0xbb0f9525	-0.0021908965
89	0xbdd03b13	-0.101675175
90	0xbd9dff20	-0.07714677
91	0x3d514d5a	0.05109916
92	0xbd524c94	-0.05134256
93	0xbc862105	-0.016373167
94	0x3d175fac	0.036956474
95	0x3b7a4ad5	0.0038191576
96	0xbce6f3e5	-0.02819247
97	0xbdaed799	-0.08537216
98	0xbd583ea6	-0.05279412
99	0xbd6158e7	-0.055016425
100	0xbd1c7049	-0.03819302
101	0xbd58bd33	-0.05291481
102	0xbdc81ea4	-0.09771469
103	0xbd6632d2	-0.05620081
104	0xbd110149	-0.035401616
105	0xbc0ca24c	-0.008583616
106	0xbd940d9c	-0.07229158
107	0xbd76909f	-0.060196515
108	0xbd4a67fd	-0.049415577
109	0xbcbc6669	-0.022998052
110	0xbd8a8dd7	-0.06765335
111	0xbdb06bc7	-0.08614307
112	0xbd826042	-0.06366016
113	0x3ccdcefb	0.02512311
114	0x3d6461c9	0.055757318
115	0xbd0ef318	-0.0348998
116	0x3c876c6e	0.016531195
117	0x3d91ebc5	0.071250476
118	0x3d955c54	0.07293001
119	0xbce7a287	-0.028275741
120	0x3be5280d	0.0069933
121	0x3cb2fcce	0.021849062
122	0xbd1a128e	-0.03761535
123	0x3d37bf21	0.04486001
124	0xbd945c56	-0.07244174
125	0xbdb3d542	-0.0878091
126	0x3bd0e2ee	0.0063747084
127	0x3d2b5be9	0.0418357
128	0x3e20d1a5	0.15704973
129	0xbd2ea481	-0.042637352
130	0x3dcd0ee7	0.10012608
131	0xbf29469d	-0.6612337
132	0x3ef5bbfc	0.47994983
133	0x3d1b2427	0.037876274
134	0xbc40680b	-0.011743556
135	0x3e02e2f6	0.12781891
136	0x3c73983b	0.014867838
137	0x3c1599a7	0.009130872
138	0x3e2cb755	0.1686681
139	0x3ec59f9b	0.38598332
140	0xbc9941ec	-0.018708192
141	0xbdf84f1c	-0.12124464
142	0xbe0ff4cd	-0.14058228
143	0xbee822eb	-0.4533914
144	0x3f66b817	0.9012465
145	0x3f1f0cc9	0.62128884
146	0x3cf3d7f8	0.029766068
147	0x3eb8b8ec	0.36078584
148	0x3debe300	0.11517906
149	0xbdd2b23d	-0.102879025
150	0x3e8cb9de	0.27485555
151	0xbd767bea	-0.060176767
152	0xbd0ede64	-0.034880057
153	0x3d6c1a3f	0.057642218
154	0x3f1b3dbc	0.60641074
155	0x3e5155f8	0.2044295
156	0xbbe868bb	-0.007092563
157	0xbd3d8241	-0.046266798
158	0xbfbae83b	-1.4602121
159	0x3e607a74	0.21921712
160	0x3d8a23fe	0.06745146
161	0x3bbc2e1c	0.0057428014
162	0xbbdffda2	-0.0068356553
163	0xbf8d13b8	-1.1021643
164	0x3e862cbe	0.2620601
165	0xbf878162	-1.058636
166	0xbd2749a5	-0.040841717
167	0xbe236d23	-0.15959601
168	0x3f0da568	0.55330515
169	0x3d85904c	0.06521663
170	0x3d3b35ee	0.04570573
171	0xbe0ea586	-0.1393033
172	0xbf63f21d	-0.8904131
173	0xbea04a80	-0.3130684
174	0xbf22af2f	-0.6354856
175	0x3ecb7e71	0.39744905
176	0x3ea740bd	0.3266658
177	0x3e89feef	0.2695231
178	0x3db5f2e5	0.08884219
179	0x3e529e01	0.20568086
180	0x3e1102e9	0.14161266
181	0x3e95624d	0.2917656
182	0xbd2806af	-0.041022
183	0xbf9566ed	-1.1672035
184	0x3e2516df	0.16122006
185	0xbd342a10	-0.043985426
186	0x3e1f0262	0.15528253
187	0xbd39e1f6	-0.04538151
188	0x3cce1cc0	0.025160193
189	0x3de91e22	0.113827005
190	0x3e019f8a	0.12658516
191	0x3ea4d391	0.32192662
192	0x3e1d91c7	0.15387641
193	0x3d75d65a	0.060018875
194	0xbf7f058d	-0.99617845
195	0xbd8cd917	-0.06877344
196	0x3d3dfa27	0.046381142
197	0xbfa816eb	-1.3131994
198	0x3e041eda	0.12902394
199	0xbf0b984b	-0.54529256
200	0x3f17ad4a	0.59248793
201	0xbd34af55	-0.044112522
202	0xbf1744a0	-0.5908909
203	0x3e0da6d3	0.1383317
204	0x3e174509	0.14772429
205	0x3d9c5a28	0.076343834
206	0xbe3f2ba3	-0.1866899
207	0xbd600dd1	-0.054700676
208	0xbfd19a8c	-1.6375289
209	0xbebd9fcd	-0.3703598
210	0x3ea8ed79	0.32993677
211	0xbcc8aeb8	-0.024497375
212	0x3cc2e1cd	0.02378931
213	0x3cb45d10	0.022017032
214	0xbd95578f	-0.07292091
215	0xbdf61a36	-0.12016718
216	0xbe4334be	-0.19063088
217	0x3e1d20c5	0.15344532
218	0x3e0feb3b	0.14054577
219	0x3f37f7df	0.71862596
220	0x3d14beee	0.036314897
221	0xbbdc1408	-0.006716255
222	0x3d9b2338	0.07575077
223	0xbf2002b9	-0.62504154
224	0x3ed04412	0.40676934
225	0x3dd7bcad	0.10534034
226	0xbf09cb59	-0.5382591
227	0x3d02c2d2	0.031924076
228	0x3e62e131	0.22156216
229	0xbe6cd3e2	-0.23127702
230	0xbd628cfa	-0.055310227
231	0xbed81e89	-0.42210796
232	0x3e2b0552	0.16701248
233	0x3ecca3eb	0.3996881
234	0x3e6af485	0.2294484
235	0x3cdae3e0	0.026719987
236	0x3cc91ea8	0.02455075
237	0x3c9c3a9a	0.019070912
238	0xbdda05e4	-0.10645655
239	0x3ecec464	0.4038421
240	0x3e06d021	0.13165332
241	0xbdf18f54	-0.11794916
242	0xbd36aebd	-0.044600237
243	0x3c4b7e55	0.012420257
244	0xbf5f336f	-0.87187856
245	0xbfa0f8e9	-1.2575961
246	0xbcf9f804	-0.03051377
247	0x3dd232e4	0.10263613
248	0xbee475ad	-0.4462103
249	0x3db08009	0.08618171
250	0x3e986480	0.29764175
251	0x3e41f663	0.18941645
252	0xbdfd1eb1	-0.123593695
253	0xbdf1f5a9	-0.11814434
254	0xbf97878f	-1.1838244
255	0xbee1d5db	-0.4410847

model.model.model.4.bias f4 [128]
0	0xbd3e9d56	-0.046536766
1	0x3de3eb8a	0.1112891
2	0x3e0b0b87	0.13578616
3	0xbe0120dc	-0.12610191
4	0xbb80536f	-0.003916196
5	0xbd8e1ef2	-0.06939496
6	0xbdbfc21e	-0.09363197
7	0xbd062149	-0.032746587
8	0xbd848da2	-0.06472327
9	0x3d88fcf7	0.06688874
10	0x3db27c20	0.08715081
11	0xbd04e083	-0.032440674
12	0x3da22a32	0.07918204
13	0xbd41ad88	-0.047284633
14	0xbd8193d5	-0.06327025
15	0x3c9d7d5e	0.019224819
16	0x3e025e50	0.1273129
17	0x3db97d1c	0.09057066
18	0x3d5003b4	0.05078478
19	0xbe140ffd	-0.14459224
20	0x3da0b092	0.07846178
21	0x3e798db8	0.24370468
22	0xbe0f4376	-0.13990578
23	0x3de842a4	0.11340836
24	0xbca1f5a6	-0.019770455
25	0xbd354e96	-0.0442644
26	0x3bc2268d	0.005925006
27	0xbd13bb28	-0.036067158
28	0x3dfd562b	0.12369951
29	0x3d7798b5	0.060448367
30	0x3e83739a	0.25674134
31	0x3dd7c14a	0.10534914
32	0x3a403c90	0.0007333243
33	0xbd3e444f	-0.046451863
34	0x3f26b2ca	0.6511656
35	0xbd7248d9	-0.059151504
36	0xbd0af350	-0.033923447
37	0x3dd0b646	0.10191016
38	0x3dc90f37	0.09817355
39	0xbe2542d1	-0.1613877
40	0x3d1d1d02	0.038357742
41	0xbd08bea1	-0.033384923
42	0x3e4d76b6	0.20064816
43	0x3e8f4803	0.27984628
44	0x3e6ac286	0.22925767
45	0xbda1670c	-0.07880983
46	0x3ea72d5c	0.32651794
47	0xbd86fc3f	-0.06591081
48	0x3f00ca53	0.5030872
49	0x3d63758e	0.05553203
50	0xbd0f5955	-0.034997303
51	0x3e32acdd	0.17448755
52	0x3db8a2eb	0.09015449
53	0x3d5db97c	0.05413197
54	0x3c595ea6	0.013267195
55	0x3f20ebb2	0.6285964
56	0xbda3a2f5	-0.07990066
57	0x3e5854d6	0.21126112
58	0xbd639802	-0.055564888
59	0x3e62287e	0.22085759
60	0xbc707eac	-0.014678638
61	0x3e02c610	0.12770867
62	0xbd901b14	-0.07036415
63	0xbcd21152	-0.025643025
64	0x3e32520c	0.17414111
65	0x3e3e8477	0.18605219
66	0x3ced0c38	0.02893649
67	0x3c2c4844	0.010515276
68	0x3e00f69d	0.12594076
69	0x3e46d6f5	0.19417937
70	0xbddd1ef6	-0.10796921
71	0x3e864238	0.26222396
72	0xbdc8afc5	-0.097991504
73	0xbcb5a6a2	-0.022174183
74	0x3d98701b	0.074432574
75	0xbd7f184e	-0.062279038
76	0x3e192595	0.14955743
77	0xbdb7d307	-0.08975797
78	0x3ec1542f	0.3775954
79	0x3ea36153	0.3191019
80	0xbe7d5940	-0.24741077
81	0xbd99f508	-0.07517439
82	0xbe2ee8d3	-0.17081003
83	0xbda9f0b5	-0.08297864
84	0xbb991c22	-0.004672543
85	0xbe03d61b	-0.12874644
86	0xbe9ad849	-0.30243137
87	0x3ea0f701	0.3143845
88	0x3e2d4735	0.16921695
89	0x3e8452f6	0.25844544
90	0xbd80ec15	-0.06295029
91	0xbcf9c504	-0.030489452
92	0xbd4840f8	-0.048890084
93	0xbcf7b2ff	-0.03023672
94	0xbc73d2fd	-0.0148818465
95	0xbd5e5b39	-0.054286215
96	0x3d0751f3	0.033037137
97	0xbd71da12	-0.05904586
98	0xbc04c5be	-0.008103786
99	0xbd099740	-0.03359151
100	0x3e8c0760	0.27349377
101	0x3e11fb1f	0.14255951
102	0x3e5d5f83	0.21618466
103	0xbc080a05	-0.00830317
104	0x3e39c71a	0.18142357
105	0xbe2b29d9	-0.16715182
106	0xbc4b8eef	-0.012424215
107	0x3d4917ed	0.049095083
108	0xbd34b1d8	-0.044114918
109	0x3e83ef15	0.25768343
110	0xbd22852f	-0.039677795
111	0x3dacd404	0.08438876
112	0x3e26f602	0.16304782
113	0xbde2a383	-0.11066344
114	0xbd038f2b	-0.032118957
115	0x3e11d4e2	0.14241365
116	0x3cef729a	0.029229451
117	0x3e64a4da	0.22328511
118	0xbd17d9c2	-0.037072904
119	0xbc8b9f06	-0.017043602
120	0xbac4b5c1	-0.001500778
121	0xbc1d7543	-0.009610477
122	0x3eae8296	0.34084004
123	0x3dc4ced0	0.09609759
124	0xbdd85196	-0.10562436
125	0xbd1e69d1	-0.038675133
126	0xbd2311c3	-0.03981186
127	0x3e617254	0.22016269

model.model.model.6.weight f4 [4, 128]
0	0xbd8c5f9d	-0.06854174
1	0xbf27ab63	-0.6549589
2	0xbeb59a79	-0.35469416
3	0x3d11a000	0.03555298
4	0xbf11113b	-0.56666917
5	0x3d9223c4	0.07135728
6	0x3ed7e5c8	0.42167497
7	0xbeff079d	-0.49810496
8	0x3b1a5e49	0.0023554733
9	0xbe03e8de	-0.128818
10	0xbf2558b1	-0.6458846
11	0x3ca7bdf8	0.020476326
12	0xbe7ef6ca	-0.2489883
13	0xbd1b8923	-0.03797258
14	0x3c4640c8	0.012100406
15	0xbee813c2	-0.45327574
16	0xbe883cab	-0.26608786
17	0xbeb880d6	-0.36035794
18	0xbf2a4ed4	-0.6652653
19	0x3d45bb0d	0.04827409
20	0xbf0ce032	-0.55029595
21	0x3e8157e6	0.25262374
22	0xbf661093	-0.8986904
23	0xbe9aaa9f	-0.302083
24	0xbf15d3be	-0.5852622
25	0xbf41a798	-0.7564635
26	0x3f1d9fdb	0.61572045
27	0x3d01ada2	0.03165973
28	0xbe720fcd	-0.2363884
29	0x3f939b04	1.1531682
30	0x3e58b758	0.2116369
31	0xbf827dc6	-1.0194633
32	0x3c29b563	0.010358187
33	0xbefe2a7c	-0.49641788
34	0x3f7e6061	0.9936581
35	0x3e561662	0.20906976
36	0x3c948406	0.01812936
37	0x3fc1b37f	1.5132903
38	0x3f637e0d	0.88864213
39	0x3f3a6d52	0.7282306
40	0xbed4d775	-0.4157063
41	0x3d0a70a6	0.033798836
42	0x3e0dcd39	0.13847817
43	0xbd56bb65	-0.052424807
44	0x3df3cc8a	0.11904247
45	0x3d6b1606	0.05739405
46	0x3e5ce7fd	0.21572872
47	0xbcc1985d	-0.023632223
48	0x3f3813b5	0.7190507
49	0xbf9ba0b7	-1.2158421
50	0xbefb6c4e	-0.49106067
51	0xbef16571	-0.47147706
52	0xbf48a333	-0.7837402
53	0xbef42b11	-0.47689107
54	0xbededc9c	-0.43527687
55	0x3f0112f5	0.5041955
56	0x3ca0bec0	0.019622207
57	0x3e543b17	0.20725666
58	0xbf2527fe	-0.6451415
59	0xbf0d64f2	-0.55232155
60	0x3cad567f	0.021159409
61	0xbf305f9d	-0.68895894
62	0xbeb17b53	-0.346644
63	0xbd293d0c	-0.041317984
64	0x3dbb58d6	0.091478035
65	0xbe57b4eb	-0.21065108
66	0x3ce91a27	0.028454853
67	0xbcc36b7d	-0.023854965
68	0xbf0cd211	-0.55008036
69	0xbed57eba	-0.41698247
70	0xbcc57c36	-0.02410708
71	0x3ee1b279	0.44081476
72	0xbbc58648	-0.0060279705
73	0x3d0a8293	0.03381593
74	0xbf19b4fc	-0.60041785
75	0xbe25324e	-0.16132471
76	0xbf0e6838	-0.55627775
77	0xbe236ff4	-0.15960675
78	0x3e4fefa9	0.20306267
79	0x3e61e300	0.2205925
80	0xbe9423be	-0.2893352
81	0xbf2dcbd2	-0.6788913
82	0x3ea086b9	0.31352785
83	0xbf661662	-0.89877903
84	0x3d31f078	0.04344222
85	0xbda7f9a2	-0.082019106
86	0x3f89b09f	1.0757025
87	0x3e900fb2	0.28136975
88	0xbf01e118	-0.5073409
89	0x3e4f892a	0.20267168
90	0xbd1b61b2	-0.037934966
91	0x3d9afea5	0.07568101
92	0xbf233bde	-0.63763225
93	0x3c94cb7b	0.018163433
94	0xbb2e6fe1	-0.0026616978
95	0x3d048586	0.0323539
96	0x3d6ce08d	0.057831336
97	0x3f9ce424	1.2257123
98	0xbba34336	-0.0049823774
99	0xbeb6b076	-0.35681504
100	0x3e2cc19f	0.16870736
101	0xbe8b75e9	-0.27238396
102	0xbf0f6f35	-0.56029063
103	0xbbeaf725	-0.007170575
104	0xbf939cfc	-1.1532283
105	0x3f6d94b3	0.9280502
106	0xbec02616	-0.37529057
107	0xbd8f31c8	-0.06991917
108	0xbf5222b4	-0.820842
109	0x3db660f9	0.08905215
110	0x3c91fbd5	0.017820278
111	0xbe91108c	-0.28332937
112	0xbe6c7553	-0.2309163
113	0xbee5b78d	-0.448666
114	0x3dd9d6bf	0.10636663
115	0xbe391da0	-0.18077707
116	0xbea43fcb	-0.3207992
117	0xbe4d7183	-0.20062833
118	0xbea8e017	-0.32983467
119	0x3d8c9d99	0.06865997
120	0x3d96953d	0.07352684
121	0xbb278693	-0.002556239
122	0x3e5753fd	0.21028133
123	0xbf0413e3	-0.51592845
124	0x3cad8448	0.02118124
125	0x3ba72a83	0.0051015033
126	0x3d646bf8	0.05576703
127	0x3e2b0b12	0.16703442
128	0xbd37c762	-0.04486788
129	0xbef96ad9	-0.4871433
130	0x3ddbb67f	0.10728168
131	0x3d800a90	0.06252015
132	0xbec81a4f	-0.39082572
133	0x3ccf1d1b	0.025282433
134	0x3e829a52	0.25508362
135	0xbf07de58	-0.53073645
136	0x3c8ba80b	0.017047903
137	0xbe8cdca2	-0.2751208
138	0xbdda7580	-0.106669426
139	0xbcab666c	-0.020922862
140	0xbeee8e29	-0.46592835
141	0x3d0dc559	0.034612034
142	0xbd863dac	-0.06554732
143	0xbe4ed81a	-0.20199624
144	0xbe5d795f	-0.2162833
145	0x3e75c012	0.2399905
146	0xbe72604f	-0.23669551
147	0x3c68b9ba	0.014204437
148	0xbeb9a0e3	-0.3625556
149	0xbea0dac9	-0.3141692
150	0xbe1f418e	-0.15552351
151	0xbeb6afe2	-0.35681063
152	0xbee8cceb	-0.4546884
153	0xbe6a5336	-0.22883305
154	0x3e3887b9	0.18020524
155	0x3d6383ca	0.055545606
156	0xbe843fe8	-0.25830007
157	0x3e7e960a	0.24861923
158	0xbdfbe77c	-0.123000115
159	0x3e32876c	0.17434472
160	0xbdb1ce75	-0.08681957
161	0xbe00356b	-0.12520377
162	0x3f75482c	0.9581325
163	0xbf2b8553	-0.6700031
164	0xbd897295	-0.06711308
165	0x3fc7ec0c	1.5618911
166	0x3e93dffb	0.2888182
167	0x3f1d2af7	0.61393684
168	0xbe80d88b	-0.2516521
169	0x3e8a087b	0.26959595
170	0xbea79afd	-0.32735434
171	0xbe5f3c6f	-0.21800397
172	0xbea0c539	-0.3140047
173	0x3c2e3cd8	0.0106346235
174	0xbe7bdeb9	-0.2459668
175	0x3d2d73a2	0.042346604
176	0x3fbd4ff9	1.4790031
177	0xbfa588b1	-1.293234
178	0xbf08a82a	-0.533816
179	0xbe81c719	-0.25347212
180	0xbef3815b	-0.47559628
181	0xbf1323e2	-0.5747663
182	0xbe825ceb	-0.25461516
183	0x3ff513e5	1.9146696
184	0x3b130a9a	0.002243674
185	0xbe82d4e0	-0.25553036
186	0xbe3e22af	-0.18567918
187	0xbef0ec9b	-0.47055516
188	0x3c3baacf	0.011454298
189	0x3f1069b4	0.5641129
190	0xbf04bc20	-0.51849556
191	0x3cc69f2b	0.02424582
192	0xbe806457	-0.25076553
193	0x3e167a4b	0.14695089
194	0xbd3142b3	-0.0432765
195	0x3b97cb7f	0.004632413
196	0x3b4bd310	0.0031101145
197	0x3e25f495	0.16206582
198	0x38a94161	8.070726e-05
199	0x3dc22c50	0.09481108
200	0x3caf2826	0.021381449
201	0x3cc21229	0.0236903
202	0xbe0571c9	-0.13031687
203	0x3da073f7	0.078346185
204	0xbe76a329	-0.24085678
205	0x3dd12623	0.10212352
206	0xbe8ff6bb	-0.28117928
207	0xbde7dc5b	-0.11321326
208	0x3f524f7c	0.82152534
209	0xbf4a1abc	-0.78947043
210	0x3f00cca4	0.50312257
211	0xbeeebfa4	-0.46630585
212	0xbc8016af	-0.015635816
213	0xbcf6ff2c	-0.030150972
214	0x3f0f0383	0.55864733
215	0xbeaa0f61	-0.33214858
216	0xbedf43ad	-0.4360632
217	0xbe4364bb	-0.19081394
218	0xbd563cdf	-0.052304145
219	0xbc2d3279	-0.010571116
220	0xbeccea3a	-0.4002245
221	0xbc9645ae	-0.018343773
222	0x3b87d865	0.0041456693
223	0x3db41b22	0.08794238
224	0x3d19f80e	0.03759008
225	0x3ededb13	0.43526515
226	0x3b6d53da	0.003621331
227	0x3d57dfe1	0.052703742
228	0xbe97e7cd	-0.29669037
229	0xbe592264	-0.21204525
230	0x3d75a080	0.059967518
231	0xbca38a6f	-0.019963471
232	0xbf20b25a	-0.6277214
233	0x3f02b418	0.5105605
234	0xbed0da47	-0.40791532
235	0xbd01d37d	-0.03169583
236	0x3ddf8aed	0.1091517
237	0xbe9c82c0	-0.30568504
238	0xbd2ccc45	-0.042186994
239	0xbe94f139	-0.29090288
240	0xbe93c592	-0.28861672
241	0xbf1386a3	-0.57627314
242	0x3c5bd4cf	0.013417437
243	0xbeb2dc0e	-0.34933513
244	0x3f0b1660	0.54331017
245	0x3e569bbe	0.20957848
246	0xbe0b1f5d	-0.13586183
247	0x3d40dafb	0.047083836
248	0xbcd2ec2b	-0.02574738
249	0x3d56eea4	0.05247368
250	0xbebb5841	-0.3659077
251	0x3ea96d28	0.33091092
252	0xbc309858	-0.010778509
253	0x3d1d2e3e	0.038374178
254	0x3d940e1b	0.07229253
255	0xbec1fd45	-0.37888542

model.model.model.6.bias f4 [4]
0	0x3e855b60	0.26046276
1	0xbeab7813	-0.33490047
2	0xbde88743	-0.11353924
3	0xbe61610e	-0.2200968

model_old.model.model.0.weight f4 [128, 8]
0	0xbdcb7bf5	-0.09935752
1	0x3eff039a	0.49807435
2	0x3f470814	0.777467
3	0x3f3fce6f	0.7492437
4	0xbf0aed48	-0.5426831
5	0x3e2c5021	0.16827442
6	0x3e669427	0.22517453
7	0xbe0d4d9a	-0.13799134
8	0xbf272ba2	-0.65300953
9	0xbe025b23	-0.12730078
10	0xbe6c7b5b	-0.23093931
11	0x3de7634c	0.11298236
12	0x3f2bacef	0.6706075
13	0xbde469bb	-0.11152979
14	0xbef9741f	-0.48721406
15	0xbcc5ffd7	-0.024169846
16	0xbdaca64d	-0.08430157
17	0xbdca081d	-0.09864829
18	0xbde8854b	-0.113535486
19	0xbdaabbd4	-0.083366066
20	0xbe2fe3e1	-0.17176773
21	0xbefa4e50	-0.48887873
22	0xbe87c0c7	-0.26514265
23	0x3f12adb2	0.5729629
24	0xbe35f32c	-0.17768544
25	0xbef39c21	-0.47580054
26	0xbf652af0	-0.8951864
27	0xbf460fbc	-0.7736776
28	0x3f551fbb	0.8325154
29	0x3e25afc8	0.16180336
30	0xbcd41ac5	-0.025891671
31	0x3e17a7a4	0.14810044
32	0x3dcfe720	0.101515055
33	0x39126c54	0.00013964
34	0x3f3b3d41	0.7314034
35	0x3e254471	0.1613939
36	0xbfbed596	-1.4908931
37	0xbec1dcd7	-0.378638
38	0x3cc90457	0.024538202
39	0xbde813f0	-0.11331928
40	0xbf180c7a	-0.5939404
41	0x3e58cd89	0.21172155
42	0xbe909719	-0.28240278
43	0x3e301c7c	0.17198366
44	0xbf1443db	-0.5791604
45	0xbea0dd6f	-0.3141894
46	0xbf48d69a	-0.78452456
47	0xbecbd1c8	-0.39808488
48	0x3dede264	0.11615446
49	0xbeaaa694	-0.33330214
50	0xbcf0728a	-0.029351491
51	0xbea6c813	-0.3257452
52	0xbf0e2fbf	-0.55541605
53	0xbf90642c	-1.128057
54	0xbf1da583	-0.61580676
55	0x3bca873f	0.0061806734
56	0xbd935ae3	-0.0719507
57	0x3ee10593	0.43949565
58	0x3ed33982	0.41254812
59	0x3f1acf61	0.60472685
60	0x3ec290f8	0.38001227
61	0xbed341cb	-0.41261134
62	0x3df4d2b6	0.119542524
63	0x3e70bf65	0.23510511
64	0xbe8ed08f	-0.27893493
65	0x3e1c11a2	0.15241101
66	0xbed2ddee	-0.41184944
67	0xbebe1dc0	-0.37132072
68	0xbe2ad221	-0.1668172
69	0xbecbd070	-0.39807463
70	0xbef1f680	-0.47258377
71	0xbd2df4ac	-0.042469665
72	0x3edaa203	0.4270173
73	0x3dcfe503	0.101511024
74	0xbe7a792c	-0.24460286
75	0x3f9cc3e3	1.224728
76	0xbf0a1f60	-0.53954124
77	0x3d11acf3	0.035565328
78	0xbbe89903	-0.0070983185
79	0xbedfbd30	-0.43699026
80	0x3ddd73df	0.10813116
81	0xbebaade9	-0.36460808
82	0xbe50f26b	-0.20404975
83	0xbe9a4d4b	-0.30137095
84	0x3f1bf467	0.60919803
85	0x3f027465	0.50958854
86	0x3eb19247	0.34681913
87	0xbf0e00a8	-0.5546975
88	0x3e9066c3	0.282034
89	0xbeb020b2	-0.34399945
90	0x3b93417c	0.0044938903
91	0xbf1ce37b	-0.6128461
92	0x3e074d4c	0.1321308
93	0xbe724554	-0.23659259
94	0x3e324662	0.17409661
95	0x3e72d874	0.23715383
96	0x3f179a4f	0.5921983
97	0xbdad32c1	-0.08456946
98	0x3e8c377b	0.27386078
99	0xbcf32cd7	-0.029684467
100	0x3eeccbc5	0.46249214
101	0x3ef056ab	0.46941122
102	0x3e9364ac	0.28787744
103	0xbdbf73ad	-0.09348235
104	0x3d30fbc2	0.043208845
105	0x3dc5c7dd	0.096572615
106	0x3d584732	0.052802272
107	0xbe35aaec	-0.17740983
108	0xbe38a874	-0.1803301
109	0xbe4d0d0b	-0.20024507
110	0xbf2ecf61	-0.68285185
111	0xbef160c0	-0.47144127
112	0xbe2d1d85	-0.16905792
113	0xbf27fffa	-0.65624964
114	0x3cd8663a	0.026415933
115	0xbea01d6e	-0.31272453
116	0x3e87ee16	0.26548833
117	0xbe2d4000	-0.16918945
118	0x3d78eb3f	0.060771223
119	0xbe00db8e	-0.12583753
120	0x3e8d746d	0.27627888
121	0xbc9a7ac1	-0.018857362
122	0x3daaedf3	0.083461665
123	0x3eb0d9f1	0.34541276
124	0x3f9baf77	1.2162923
125	0x3b80f2a9	0.0039351773
126	0x3e0a5857	0.13510261
127	0x3f1c1131	0.6096373
128	0xbe4ba8d4	-0.19888622
129	0x3d8c83ef	0.06861102
130	0xbd9467d5	-0.07246367
131	0x3c70fed4	0.014709193
132	0x3efcc570	0.49369383
133	0x3f777cd7	0.96674865
134	0xbf91021c	-1.1328769
135	0x3e7e60f5	0.24841674
136	0xbeadef31	-0.3397155
137	0xbe880bad	-0.26571408
138	0xbecca958	-0.3997295
139	0xbe58135c	-0.21101135
140	0x3eee6939	0.46564654
141	0x3f001684	0.50034356
142	0xbe100561	-0.14064552
143	0xbed18c06	-0.40927142
144	0xbe8e3095	-0.2777144
145	0x3d7d4f79	0.06184337
146	0x3d99fe5a	0.07519217
147	0x3ec12202	0.37721258
148	0xbe75e0fb	-0.24011604
149	0xbf8d3091	-1.1030446
150	0xbe7d4900	-0.24734879
151	0xbf0d3e38	-0.55173063
152	0xbf233569	-0.6375337
153	0x3eac2793	0.33623943
154	0xbdc81b98	-0.09770888
155	0xbe488a21	-0.19583942
156	0xbe88e8a0	-0.2673998
157	0x3d3b6033	0.04574604
158	0x3d9eed4d	0.07760105
159	0x3edce9f1	0.43147233
160	0xbd5c294b	-0.053750318
161	0x3db227a9	0.08698971
162	0x3e30e7aa	0.17275873
163	0x3c88bdb4	0.01669202
164	0x3eae67d3	0.34063587
165	0x3f2a7bd5	0.665952
166	0x3ed1f0db	0.4100407
167	0xbed0cc7a	-0.40781003
168	0x3ea5722c	0.3231367
169	0x3e3f564f	0.18685268
170	0x3f2ddb78	0.6791301
171	0xbeae101b	-0.33996662
172	0x3f77a0e5	0.9672988
173	0x3f29b013	0.6628429
174	0x3be16493	0.0068784445
175	0xbe16d6e8	-0.14730418
176	0x3e37cfd9	0.17950381
177	0x3c5f7538	0.013638787
178	0xbde4664c	-0.11152324
179	0xbabf0d94	-0.001457619
180	0x3e8c653f	0.27420995
181	0x3f137eec	0.5761554
182	0xbe7da569	-0.2477013
183	0x3e96e791	0.29473546
184	0x3ed67d24	0.4189235
185	0x3e67931d	0.22614713
186	0xbd820cb2	-0.06350078
187	0x3d879fa3	0.06622245
188	0x3f5cc2e4	0.8623488
189	0xbec1affc	-0.37829578
190	0x3f26f3df	0.6521587
191	0xbe517f83	-0.20458798
192	0xbdc913d6	-0.098182365
193	0xbe73ad56	-0.23796591
194	0xbeadd471	-0.33951142
195	0x3e14d535	0.14534457
196	0x3f7126a7	0.94199604
197	0xbd7457fe	-0.05965423
198	0xbc8b5032	-0.017006014
199	0xbe8053ab	-0.25063834
200	0xbf11351a	-0.5672165
201	0xbec99d5d	-0.3937787
202	0xbf2ef28e	-0.6833886
203	0xbe0baf18	-0.13641012
204	0x3e6e8495	0.23292764
205	0xbf4ea9cd	-0.80727845
206	0xbe43e322	-0.19129613
207	0x3e1e3a47	0.15451919
208	0x3db65ed1	0.089048035
209	0xbfc6396a	-1.5486271
210	0xbeed239d	-0.46316233
211	0xbe12f538	-0.14351356
212	0x3e45e466	0.19325408
213	0x3f1af3e8	0.6052842
214	0xbdb0a4a0	-0.0862515
215	0xbde830c4	-0.11337426
216	0xbd81acbb	-0.06331774
217	0x3d8c656c	0.06855282
218	0xbf8f86d3	-1.121302
219	0xbf12fc90	-0.5741663
220	0xbd1a4b21	-0.037669305
221	0x3e29b9bf	0.16574763
222	0x3e8f3740	0.2797184
223	0x3e331747	0.17489348
224	0xbd4f3b06	-0.0505934
225	0xbedf211d	-0.4357995
226	0x3daa1bbe	0.08306073
227	0xbeae3709	-0.34026363
228	0x3e74105c	0.23834366
229	0x3e38d1d9	0.180488
230	0x3d14b7e8	0.0363082
231	0xbf8d6cfe	-1.1048887
232	0x3f309544	0.6897776
233	0xbcd931a1	-0.026512923
234	0x3ee13d82	0.4399224
235	0x3ec7bb3f	0.39010045
236	0xbedd46c2	-0.43218046
237	0xbdc20cb7	-0.094750814
238	0xbf697e44	-0.9120829
239	0xbf069dd8	-0.525846
240	0xbeb75811	-0.35809377
241	0xbdf3c027	-0.119018845
242	0x3dc22475	0.0947961
243	0x3e77cfb1	0.24200322
244	0xbd70e5ca	-0.058812894
245	0x3ef3ab7a	0.47591764
246	0xbf1e7b93	-0.6190731
247	0xbf521986	-0.82070196
248	0x3f0027f5	0.5006097
249	0x3f251efe	0.64500415
250	0x3e44f9eb	0.19235961
251	0xbbbdba4e	-0.0057900315
252	0xbe51493d	-0.20438094
253	0xbf0fa948	-0.5611768
254	0xbf4d9279	-0.80301625
255	0x3e62f52a	0.22163835

model_old.model.model.0.bias f4 [128]
0	0x3cb7579d	0.022380644
1	0x3e8d06a5	0.27544132
2	0xbc93ff9b	-0.018066218
3	0x3e25201d	0.16125531
4	0x3dd32be9	0.103111096
5	0xbe5d7eab	-0.21630351
6	0x3ceffdfd	0.029295916
7	0xbe179fff	-0.14807127
8	0x3e8ee54d	0.27909318
9	0x3e479f7c	0.19494432
10	0x3c596fb4	0.013271261
11	0x3e9a6d01	0.30161288
12	0xbcf6fc66	-0.03014965
13	0x3eba35fe	0.36369318
14	0x3ef620c1	0.48071864
15	0x3e1e58ab	0.15463512
16	0x3de24cd2	0.110498086
17	0xbda46f3e	-0.0802903
18	0x3ea0a2a2	0.3137408
19	0xbcb34aac	-0.021886192
20	0x3d2f16c6	0.042746328
21	0xbec0ec74	-0.376804
22	0x3de4ef71	0.11178482
23	0xbc78e461	-0.0151911685
24	0x3ecc5556	0.39908856
25	0xbe8ece60	-0.27891827
26	0x3e960035	0.29297033
27	0xbcef4fc3	-0.029212838
28	0x3eae4734	0.340387
29	0xbf030456	-0.5117849
30	0xbee0526f	-0.43812892
31	0xbe2ba3a2	-0.1676164
32	0x3ed3d089	0.41370037
33	0xbeaf7cef	-0.34275004
34	0xbd8e6ef1	-0.06954754
35	0x3ea82820	0.32843113
36	0x3e263948	0.16232789
37	0x3da94331	0.08264769
38	0x3e8ae2e6	0.27126235
39	0xbe90550c	-0.28189886
40	0x3e3ab093	0.1823142
41	0x3d9b7f89	0.07592685
42	0x3de03ddc	0.10949299
43	0x3cf29b2a	0.029615004
44	0xbe80d4d8	-0.25162387
45	0xbdb81c4f	-0.089897744
46	0xbee6ffb2	-0.45116955
47	0x3d17edf7	0.037092175
48	0x3eb26e4a	0.3484977
49	0x3edadac6	0.42745036
50	0x3c7e1a59	0.015509211
51	0x3ed3ca95	0.41365495
52	0x3ebf663b	0.37382683
53	0xbeeccfbe	-0.46252245
54	0x3e7809c4	0.24222475
55	0xbd839c8a	-0.06426342
56	0x3e66a4dc	0.22523826
57	0xbe177f4d	-0.14794655
58	0x3e6235f9	0.22090901
59	0xbd13a6ea	-0.036047854
60	0xbe135aee	-0.14390156
61	0x3e79a169	0.2437798
62	0x3e808a70	0.2510562
63	0xbed99a2d	-0.4250044
64	0xbeb68e57	-0.35655472
65	0x3d3bcccb	0.045849603
66	0x3e9d6a50	0.30745173
67	0xbed9a9b1	-0.42512277
68	0xbf144cc6	-0.57929647
69	0xbeb51ac5	-0.35371986
70	0x3eebf401	0.46084598
71	0x3e53b956	0.20676169
72	0x3e8552fe	0.2603988
73	0xbd6e3d0f	-0.0581637
74	0xbea917ab	-0.3302587
75	0x3c37e198	0.011223219
76	0xbdccf2fe	-0.100072846
77	0x3e33a279	0.17542447
78	0x3e4ac34f	0.19801067
79	0x3dd66f3a	0.104704335
80	0x3e0eb6b4	0.13936883
81	0x3e5684f1	0.2094915
82	0x3c2dba68	0.010603525
83	0xbe659406	-0.22419748
84	0xbdf20007	-0.118164115
85	0x3c8714fa	0.016489495
86	0x3ec84226	0.39112967
87	0x3e47d1bf	0.19513606
88	0xbc1d2071	-0.009590254
89	0xbd1fe0a2	-0.039032586
90	0x3ee62951	0.44953397
91	0xbc87e528	-0.016588762
92	0x3e5126f2	0.20425013
93	0x3ddc8620	0.1076777
94	0xbd9d3100	-0.07675362
95	0x3d88a0c3	0.06671288
96	0xbe9b5556	-0.30338544
97	0xbd6374e6	-0.055531405
98	0x3b474bc2	0.0030410145
99	0x3e66604e	0.22497675
100	0xbf0153ba	-0.5051838
101	0xbefce66a	-0.49394542
102	0x3e6e473a	0.23269358
103	0xbf100e3b	-0.56271714
104	0x3d5bab41	0.053630117
105	0x3e7f5dc3	0.24938111
106	0xbd45ad39	-0.0482609
107	0x3e67e687	0.22646533
108	0xbda5abeb	-0.080894314
109	0xbdc596b5	-0.09647886
110	0x3ea7917f	0.32728192
111	0x3deef538	0.116678655
112	0x3c1190d2	0.0088846255
113	0xbeb4c89d	-0.35309306
114	0x3ec357ca	0.38152915
115	0x3d5c77e2	0.053825267
116	0xbe5f9e05	-0.21837623
117	0xbcbb74cc	-0.022882842
118	0xbe6f0240	-0.23340702
119	0x3e9e1d03	0.3088151
120	0xbcb84a35	-0.022496322
121	0xbeeaaa20	-0.4583292
122	0xbb45a5b7	-0.0030158588
123	0x3e7a2ea4	0.24431854
124	0x3e908d1a	0.28232652
125	0xbe4375c9	-0.190879
126	0xbedae953	-0.42756137
127	0x3e8cbd76	0.27488297
