rl_compexp/save/Blackjack-DQN64/dqn.pth (torch, 40562 bytes, 12 tensors)

model.model.model.0.weight f4 [64, 3]
000000 44 b4 70 be fe cf 11 3f a2 ea 24 bf 52 04 b5 3e
       -0.23506266 0.56957996 -0.6442052 0.3535486
000010 e6 3b 32 be f3 5a 71 be 82 54 93 3e d4 b9 29 be
       -0.17405662 -0.2356985 0.28775412 -0.16574794
000020 4b 3d 70 be ca f9 02 bf 77 79 16 3f 5f 97 7e bd
       -0.23460881 -0.511624 0.5877909 -0.062156077
000030 60 6d 7e be f6 28 00 3f e2 e7 06 3f 77 b4 b8 be
       -0.24846411 0.500625 0.52697575 -0.36075184
000040 13 bd 8e 3d f2 77 01 3e 3f ff 84 be ea 93 1c bd
       0.06969657 0.12643412 -0.25975987 -0.038227
000050 3e b3 25 3e 31 5b 03 bf 61 27 da bd 96 ec 4b bd
       0.16181657 -0.5131102 -0.10652042 -0.049786173
000060 ba a5 06 bf 84 bd ca 3d d1 94 ce bd 8a 5b 9a 3c
       -0.5259663 0.098994285 -0.10086978 0.018842477
000070 b5 fa df bd ee f2 8c 3e 85 92 2f be 4c ab 9e bd
       -0.109364904 0.2752909 -0.17145737 -0.07747516
000080 ea b6 37 be d8 d5 0a bf 87 16 ce be 23 49 74 bc
       -0.1794087 -0.5423255 -0.40251562 -0.014910015
000090 ea d8 1f bd f5 cc 5e bb 84 15 b2 ba 24 78 0f 3d
       -0.039025225 -0.0033996676 -0.0013586734 0.035026684
0000a0 0e cc 1a bf 0c 2f 2c 3e a7 71 da be b0 2c ea 3e
       -0.6046761 0.16814822 -0.42664835 0.4573722
0000b0 ae 44 cd 3e 66 75 cc be 2f c3 9f 3e f9 7f 96 be
       0.4009146 -0.39933318 0.312036 -0.2939451
0000c0 12 f0 35 bd e2 b6 ec be 0b 49 f1 3d 61 58 5a 3e
       -0.044418402 -0.4623328 0.1178151 0.21322776
0000d0 8f b7 b1 bd 9c e7 d5 ba 48 39 b1 3e ff c8 64 bd
       -0.08677589 -0.0016319635 0.34614015 -0.055855747
0000e0 00 70 67 be 5d 46 b0 bd 4f 90 8e 3e d2 19 e0 be
       -0.22601318 -0.08607171 0.27844474 -0.437697
0000f0 9c e2 4c bd 27 43 04 bf 9a 50 0b 3f e7 ad 03 bf
       -0.0500208 -0.51664966 0.54419863 -0.5143723
000100 ed e8 ca 3c 52 7d e3 bc 33 08 e2 3c e7 b6 d3 bc
       0.02476927 -0.027769718 0.0275918 -0.02584405
000110 50 4f 67 bf fc 07 cf 3e 48 df cb 3c 6e c4 1a 3d
       -0.90355396 0.4043578 0.024886742 0.037784986
000120 6f ed f8 be e0 2a ae 3e 17 9f da be 04 75 7d 3d
       -0.48618647 0.34017086 -0.426995 0.061879173
000130 a0 86 37 be 38 f5 48 bc 76 9a bd 3e a3 20 33 3e
       -0.17922449 -0.012265496 0.37031907 0.17492919
000140 9c e8 ca be 36 5d 78 3d e4 1a cc be 35 32 cc 3e
       -0.39630592 0.060635768 -0.39864266 0.39882055
000150 3e 99 08 bf f4 53 11 3f 30 7b fb 3e 66 63 b7 3e
       -0.5335883 0.5676873 0.49117422 0.35818022
000160 cb 29 86 be ef c4 0b bf cd 67 a3 be 47 c2 d9 3e
       -0.2620376 -0.5459737 -0.3191513 0.42531034
000170 8f f5 2e 3e 0b 45 82 be 78 e3 ff 3e 08 cc 3a bd
       0.1708586 -0.254433 0.49978232 -0.045604736
000180 12 89 05 3e ba c5 95 3c e5 d5 14 3f ce f7 b9 be
       0.1304057 0.01828276 0.5813888 -0.36321872
000190 2e 59 87 be a4 49 f5 3e b8 2f e7 be 54 3a 08 3f
       -0.26435226 0.47907746 -0.45153594 0.53214
0001a0 48 4a d2 be bb c7 b7 be 0d 9c a8 be 66 90 0c 3f
       -0.41072297 -0.3589457 -0.32931557 0.54907835
0001b0 64 75 0a bf 29 53 04 3d 8e 56 54 be 11 97 b3 3e
       -0.54085374 0.03230587 -0.20736143 0.35076192
0001c0 ae 3f 08 bf 0b 68 24 3d 39 4f b2 3d b9 35 96 3e
       -0.5322217 0.040138286 0.08706517 0.29337862
0001d0 a5 44 40 be 1e 71 65 3d e9 b4 aa 3e 76 f2 53 3e
       -0.18776186 0.05601608 0.33341148 0.2069796
0001e0 7d 2d b1 3e 85 d1 49 be 92 87 7f be ce 3f f3 3d
       0.34605017 -0.19708832 -0.2495406 0.11877404
0001f0 ea 7e 8a 3d 04 ad cc 3d 5b 2e 03 bf e7 84 03 3d
       0.06762488 0.099939376 -0.5124261 0.032109167
000200 ba 0c bb 3e b4 d4 24 3e 21 f0 ce be 26 47 b0 3e
       0.36533147 0.16096765 -0.4041758 0.34429282
000210 58 27 e9 be 5f 88 97 be a0 bb b8 bd cd 08 ec be
       -0.4553783 -0.2959623 -0.09020162 -0.46100464
000220 ae 8b de 3e ad 36 87 3d e7 f7 02 be 2e ab 9c be
       0.43465942 0.066022255 -0.1278988 -0.3059935
000230 31 c5 b2 3e 67 a2 d7 3e c5 ef c3 be 01 35 ab bb
       0.3491607 0.4211609 -0.38268867 -0.0052248244
000240 d0 b0 7c 3e 3f e6 0b bf 95 4b ac bd fe f7 90 3c
       0.24676824 -0.546482 -0.08412854 0.017696377
000250 eb 0b 83 3e d4 31 0d 3f 98 54 8c 3e ac af 02 bf
       0.2559503 0.55154157 0.2740829 -0.51049304
000260 0a 6e fa 3e cf 18 b4 bd bc 7c e2 be 18 21 9e bd
       0.48912078 -0.08793794 -0.4423579 -0.07721156
000270 4a b5 01 be 20 29 86 3c e2 e8 83 be 86 e4 68 bd
       -0.12666813 0.016377032 -0.25763613 -0.056858562
000280 57 ac ec 3e a7 7b 17 3f 5c 31 d0 be ce 78 27 3d
       0.46225235 0.59173054 -0.40662658 0.040886693
000290 9d c2 f2 3e f4 26 11 bf 72 b2 87 bc 90 89 80 be
       0.47414103 -0.5670006 -0.016564582 -0.25104952
0002a0 42 c3 90 be 73 11 34 be b9 ec e3 be 08 94 6a 3e
       -0.2827397 -0.17584781 -0.44516543 0.22908032
0002b0 89 29 02 bf 80 5d d7 be 8a a3 ba be 9b 00 8b be
       -0.5084463 -0.42063522 -0.36452895 -0.271489
0002c0 b1 33 9b be 7d 12 17 be 18 14 02 3f 65 d1 9b be
       -0.30312875 -0.14753146 0.5081191 -0.30433193
0002d0 84 e3 c2 be ad 3e f9 be 4f 27 b8 3e 7b 9d 10 bf
       -0.38064206 -0.4868063 0.3596749 -0.56490296
0002e0 ec 4e 87 3d 18 52 07 bf f8 6a 59 3e 36 de dc be
       0.0660685 -0.5285964 0.21232212 -0.43138283
0002f0 07 a2 83 be e4 16 81 3e eb 02 e7 be 88 96 cb 3d
       -0.25709555 0.25212777 -0.45119414 0.09940821

model.model.model.0.bias f4 [64]
000000 48 7f 6c 3e 6a 73 00 bf 5d e2 3d bf 62 6e 78 3e
       0.23095429 -0.5017611 -0.7417353 0.24260858
000010 da aa a7 be f2 dd fa be 8b 62 78 bd f0 dd 11 3f
       -0.32747537 -0.48997456 -0.060640853 0.56979275
000020 6c 82 03 bf f4 a1 5f 3f 1f 16 c0 3e 56 3b 92 3e
       -0.51370883 0.87356496 0.37516877 0.28560895
000030 fe 1d 26 3f 3a b3 e8 3e 2d 8e 49 be e7 1e 15 be
       0.64889514 0.4544924 -0.19683142 -0.1456257
000040 5b 6c ce 3e a0 c4 b8 3d fb 0f 51 bf 23 21 03 bf
       0.40317044 0.09021878 -0.8166501 -0.5122244
000050 95 ca 85 3c 62 58 b3 be 82 41 b2 3e 0d 93 a7 3d
       0.01633195 -0.35028368 0.34815603 0.081823446
000060 b4 33 2e 3e 8d 45 0e 3f 7b 0d 10 be ed a1 2c bf
       0.1701191 0.55574876 -0.14067642 -0.6743458
000070 96 4f 6e be 03 8b e5 3e 11 69 dd be 9f b6 0d bf
       -0.23272547 0.4483262 -0.43244222 -0.5535678
000080 eb b2 60 3d 29 0b b2 be 46 e2 e5 3e f7 9d f6 3e
       0.05485813 -0.3477414 0.44899195 0.48167393
000090 18 fc 06 3f a9 a4 02 bf 09 8b 62 bf 44 e0 25 3f
       0.52728415 -0.510325 -0.884934 0.6479533
0000a0 0a 11 8a be d2 95 52 be f7 83 86 be 97 9b a3 3e
       -0.26966125 -0.20564964 -0.26272556 0.31954643
0000b0 fa 7b 72 3e 93 6e 05 3f d4 c9 e4 be 2e ca 4c bf
       0.23680106 0.5212185 -0.44685233 -0.79996
0000c0 10 7d cf 3e f4 0a 0b 3f f8 2d dd bd d6 72 79 3d
       0.40525103 0.5431359 -0.107997835 0.06090053
0000d0 7d b9 5c 3e 87 7a 99 3c 5d dc 2d 3e 0d d8 ab 3e
       0.21555133 0.018735183 0.16978593 0.3356327
0000e0 86 01 a4 be 94 c3 4d 3f 6c 07 ab 3e 2a 1b 90 be
       -0.32032412 0.80376554 0.334041 -0.28145725
0000f0 3d 53 f3 3e f1 bf 88 be 1a 2d 4a 3f 36 1d c4 be
       0.47524443 -0.2670894 0.7897507 -0.38303536

model.model.model.2.weight f4 [64, 64]
000000 3e 82 51 3c f5 7c be bd 5d e5 39 be 19 8d bc 3c
       0.0127874 -0.093011774 -0.18153901 0.0230165
000010 9e 7c b2 3d 54 fd 6c bd 78 5c 14 bd 30 0e 81 3d
       0.08715175 -0.05785878 -0.036220998 0.06301534
000020 b2 73 d8 3d 5e c1 cd 3e f8 4c b7 bc 64 b3 a0 bd
       0.10568942 0.4018659 -0.022375569 -0.07846716
000030 8c 31 54 3f 5c 6d 0a bf 68 e4 75 3d a4 11 e0 bc
       0.828881 -0.5407312 0.06003228 -0.027352162
000040 ca 0d fb bd 59 85 c8 3d d3 78 c4 3b 52 4d f6 bd
       -0.122584894 0.09791059 0.0059958487 -0.120264664
000050 98 5b 0c bd 60 87 cd 3b e0 67 85 3e 7a ae 7d 3d
       -0.034267038 0.0062722415 0.26055813 0.061933972
000060 f2 ac 8b 3d 81 41 65 3e 3a 62 57 3c 53 f9 5b be
       0.06820096 0.22388269 0.013145978 -0.21481828
000070 e6 91 67 bd 86 a4 99 3c 72 b8 be bb 3c 72 fb bd
       -0.056535624 0.018755209 -0.0058203274 -0.12277648
000080 60 0b bf bd ca 06 e9 3d 14 4a 8d 3d 9a 30 b6 3d
       -0.093283415 0.11378248 0.06898895 0.08895989
000090 28 e0 86 3d 8f ca 29 be a7 3e 20 be 09 53 83 3d
       0.06585723 -0.16581176 -0.156489 0.06412322
0000a0 11 df d4 bd 7b d6 c7 3d 2a 7a cd bd be 16 82 3c
       -0.10394109 0.09757706 -0.100330666 0.015879985
0000b0 5a cc d8 3d e4 3e 9c 3c 98 bc bc 3d fe 7d 13 be
       0.10585852 0.019072957 0.09215659 -0.14403531
0000c0 ae aa a5 3d 83 a0 ed 3d f4 2e 9d bd 10 ae c5 bd
       0.08089195 0.11602881 -0.07674971 -0.096523404
0000d0 5e a7 9d 3d 44 dc d8 3c 58 db 8b bd a2 e1 aa 3d
       0.076979384 0.026472218 -0.06828946 0.08343817
0000e0 d8 9d ea bd b0 f1 03 3e 8c 33 2c 3d 97 86 30 bd
       -0.114558876 0.12885165 0.042041346 -0.043097105
0000f0 c0 90 89 bc 40 8a 84 3c 67 cd bc 3d dc 63 2f bd
       -0.016792655 0.016179204 0.09218865 -0.042819843
000100 6c d1 3b 3c 2f 3e cf 3c f3 ba d6 bc 18 84 9e 3d
       0.011463504 0.025298206 -0.026212191 0.07740039
000110 2a 89 e4 3d 50 e9 b5 3c 84 e2 94 bd 9a 0c 85 3d
       0.111589745 0.022205979 -0.07269767 0.06496544
000120 44 63 6e 3d ff c2 a7 3d da c2 fe 3d 80 30 4b 3c
       0.058200136 0.081914894 0.12439509 0.0124017
000130 df 4e b9 be bf 80 a9 3e 70 1a db 3d 35 f0 04 be
       -0.36192986 0.33106038 0.10698402 -0.12982257
000140 8a 85 9d 3d 0f 69 8e 3c 7d 54 cc bd b4 e9 45 3d
       0.07691486 0.01738408 -0.09977052 0.04831858
000150 0a 93 9c bd 84 13 f5 bd d6 33 27 3e 91 48 a5 3d
       -0.07645233 -0.11966613 0.16328368 0.080704816
000160 b9 53 bc bd c3 fa 5b 3e 89 9b 06 3d e1 71 a0 be
       -0.09195656 0.21482377 0.032863174 -0.31336883
000170 f3 a6 69 3d da 60 ac 3d 5c 82 02 be 81 6a 17 3e
       0.05704398 0.084169105 -0.1274504 0.14786722
000180 48 2d 67 3c 58 c7 76 bd f1 86 62 bc 5e cf cc 3d
       0.014109917 -0.060248703 -0.013826118 0.1000049
000190 f0 8e fa bd 18 78 78 bd 85 ef b5 3d c1 2c eb bd
       -0.122342944 -0.060661405 0.08883575 -0.114831455
0001a0 03 ed 7d bd 98 65 86 3d 1a c5 ed bd cc d9 dd bc
       -0.06199361 0.06562346 -0.1160986 -0.027081393
0001b0 48 77 cc bc 70 ea 71 3d f8 2b d0 3c f3 90 7a bd
       -0.024959221 0.059061468 0.025411591 -0.06117339
0001c0 e7 45 a7 bd e7 92 56 3d e5 52 e8 bd b0 ae 38 bc
       -0.0816763 0.05238619 -0.11343936 -0.0112721175
0001d0 dc 4b 43 bd 31 b5 54 3d 40 90 58 bb c4 af ae 3d
       -0.047679767 0.05193061 -0.0033044964 0.085296184
0001e0 18 ee e6 3c ba d6 48 3e fc 78 af bd 1e d9 09 3c
       0.028189704 0.19613162 -0.08567998 0.008413581
0001f0 f8 18 72 bd 10 12 2f 3d 4e 87 23 bd 4b 66 f2 bd
       -0.059105843 0.042741835 -0.03992396 -0.11835917
000200 6a 97 51 3c 6b 45 66 bd 4a bd cd 3c a4 ff 18 be
       0.012792448 -0.056218546 0.025114674 -0.14941269
000210 1a 9f a1 bd b0 b2 0c 3d 5a 9b ad bd 86 73 c9 bd
       -0.07891674 0.034350097 -0.084768966 -0.098364875
000220 98 67 05 bd 70 86 88 3e 7a 0a d0 bd 80 93 35 bc
       -0.032569498 0.26665068 -0.10158248 -0.01108253
000230 c4 7b ac 3c 64 ac ca 3d 5f b7 09 3d 42 9c 42 bd
       0.02105511 0.09896162 0.033622142 -0.0475123
000240 08 7b d5 3d 03 e0 83 3d 98 cd 48 bd 14 5e 5d bd
       0.10423857 0.06439211 -0.049024194 -0.054044798
000250 80 6d 97 bb 40 07 97 bc 30 48 c9 bd 45 05 de 3d
       -0.0046212077 -0.018436074 -0.09828222 0.10840849
000260 80 58 40 ba dc 31 4b bd 6a 64 cf bc 34 44 12 be
       -0.0007337406 -0.049608096 -0.025316436 -0.1428383
000270 2f 34 15 be 50 a0 86 3d e5 9d 6b 3d 71 fa 5a 3d
       -0.14570688 0.06573546 0.057523627 0.053461496
000280 4a e3 83 3d 94 1c 25 3d b7 cf 84 3e e8 e8 67 bd
       0.06439836 0.040310457 0.25939724 -0.0566186
000290 a0 91 ac bd d1 c2 97 3d 68 99 81 bc be 97 c8 bd
       -0.08426213 0.07410205 -0.01582022 -0.097945675
0002a0 45 71 90 bc e6 bd ca 3d f4 29 4d bd 39 87 0f 3d
       -0.017632136 0.098995015 -0.050088838 0.035041068
0002b0 10 37 20 bd f4 a8 28 bd 94 59 05 bd 7d 3e bb ba
       -0.03911501 -0.04117675 -0.03255613 -0.0014285591
0002c0 a0 ad 83 bd 1b b4 03 bc a0 8a 0e 3e c8 49 b1 3d
       -0.06429601 -0.008038546 0.13920069 0.08656651
0002d0 96 1c b5 bd 11 c6 85 bd 7c e0 40 bd 48 66 57 3d
       -0.08843343 -0.06531919 -0.047089085 0.052587777
0002e0 80 3a 15 bc fa e7 bb bc a8 44 e4 3d 6d e6 f8 bd
       -0.009108186 -0.022937763 0.11145908 -0.12153325
0002f0 14 09 fa bd 68 54 a8 3d 45 1b 69 3d 15 ba 0e be
       -0.12208763 0.08219224 0.056910772 -0.13938172
000300 c9 70 e8 3d c7 53 db bd 64 ec c3 bd da 5f 4a 3d
       0.11349637 -0.10709339 -0.09566572 0.049407817
000310 60 b8 bc 3c 1a 94 e1 bd 6c ad 09 bd c0 51 bf 3d
       0.023037136 -0.11014576 -0.033612654 0.093417645
000320 88 8d d9 3d dd 99 84 3e 80 e7 93 3a 50 79 06 bc
       0.10622698 0.25898638 0.0011284202 -0.008207634
000330 36 28 07 bf fb df 5c 3e 46 ce 75 bd 35 95 06 3e
       -0.5279573 0.21569817 -0.06001117 0.13142855
000340 f6 c3 e3 bd 2f cf 00 3e 8e 05 30 3d 95 75 21 bd
       -0.11121361 0.12579034 0.042974047 -0.039418776
000350 14 7a a5 3d 60 4b 1d bd cc f6 c9 bc 18 f2 e0 bc
       0.08079925 -0.03840196 -0.024653815 -0.02745919
000360 c1 9c 60 3e 0f 33 44 3e 78 67 d5 bc 1f 69 8c be
       0.21934797 0.19160102 -0.026050314 -0.2742395
000370 79 7b 58 3c dc 1e 00 3e e5 90 04 3e c5 f8 2d bd
       0.013213032 0.12511772 0.12945898 -0.042473573
000380 c2 b1 e2 3d d0 7c 0a bc d8 fa c8 3d a8 8e 3d 3d
       0.11069061 -0.008452609 0.0981347 0.046278626
000390 e0 c7 0e bc b0 53 e3 bd 94 8b 76 3d 3c 13 b1 3d
       -0.008714646 -0.110999465 0.060191706 0.08646247
0003a0 cc 26 c9 bd 55 cf 82 3d 8a 93 81 bd 1e 6e 91 3d
       -0.09821853 0.06387202 -0.06326969 0.07101081
0003b0 5a ec 98 bd cc 05 34 be a0 d7 cb bc ad a1 ed bd
       -0.074669555 -0.17580336 -0.024883091 -0.11603103
0003c0 5b 9e 01 3d 3b 22 9e bd f3 57 3e bd 0c a2 ab 3d
       0.03164516 -0.07721373 -0.046470594 0.08380517
0003d0 12 75 ca 3d 43 30 9d 3c fc d9 78 bd 10 33 cd bc
       0.09885611 0.019188052 -0.06075476 -0.025048763
0003e0 c2 81 ed bd 1c f8 07 3e 3c fa e2 3d be 4e 2b 3d
       -0.11597015 0.1327824 0.11082885 0.04182314
0003f0 b0 63 58 3c 68 35 ce 3d da be aa bd bc c9 57 3d
       0.013207361 0.1006878 -0.08337183 0.052682623

model.model.model.2.bias f4 [64]
000000 2c d3 8a 3e f5 cd 70 3e b0 37 2a 3e 90 a0 1c 3e
       0.27114236 0.23516066 0.16622806 0.15295625
000010 70 17 f2 3d 0e 5d 81 bd 91 af 00 3e 90 f7 d6 bc
       0.118208766 -0.06316577 0.12566973 -0.026241094
000020 57 2c 99 3c 78 ca 8a bd 93 3b 23 3e de ce 8c 3e
       0.0186979 -0.06776899 0.15940695 0.27501577
000030 4c d0 f2 3c ea 4d 03 be 9d 81 b7 3d 57 2d 4c be
       0.02964034 -0.1282269 0.08960269 -0.19939171
000040 00 e9 6b 3a 05 a2 de bc 3a 64 87 3c bc 58 84 3d
       0.0008999258 -0.027176866 0.016527284 0.06462237
000050 fb bd 2b 3d 80 d6 a2 be 41 78 21 be eb 0b 81 3c
       0.041929226 -0.31804276 -0.1576853 0.015752753
000060 5a bb c6 bd 07 0f 5a 3e fa f6 18 bd f2 91 98 be
       -0.09703703 0.21294795 -0.03734491 -0.29798847
000070 83 94 87 3e 7d 48 44 3e 50 56 35 3e 58 c8 aa 3c
       0.26480493 0.19168277 0.17708707 0.020847484
000080 e5 b4 0b bd cb 87 43 3d a5 5e ad 3e 74 d1 c6 bd
       -0.03410806 0.047736924 0.3386127 -0.09707919
000090 75 e6 6d 3e ac ac 4e 3d 12 af 19 3e 81 1c 67 bd
       0.23232444 0.05045764 0.1500819 -0.056423668
0000a0 0a 4b 7f 3e d9 c0 cd bd 9e 19 dd bd 5e f9 0a 3c
       0.24930969 -0.100465484 -0.10795902 0.008482305
0000b0 7a f8 09 bd 10 1e 82 3c 50 d2 82 bd 33 ba 17 3d
       -0.03368423 0.015883476 -0.0638777 0.037042808
0000c0 38 78 7f be 71 b1 2a 3e 60 bd a9 be 65 18 83 be
       -0.24948204 0.16669251 -0.33152294 -0.2560455
0000d0 69 d0 9f 3e a8 ba 72 3e 7c dd e1 bd 86 09 28 be
       0.31213692 0.23704016 -0.11028573 -0.16409883
0000e0 cd 78 93 3e 37 68 9c be 86 12 52 3e c8 4e a0 be
       0.288031 -0.3054826 0.20514879 -0.31310105
0000f0 3e 70 42 be 2b df 8a be 24 17 2c 3d 60 06 e4 3d
       -0.1898813 -0.2712339 0.042014256 0.111340284

model.model.model.4.weight f4 [2, 64]
000000 4a 31 27 3f 77 1f 85 bd 89 49 af bc b9 91 3d be
       0.65309584 -0.06500142 -0.021397369 -0.1851262
000010 c4 52 76 bd 3a c6 d4 bd c7 3e dc bd e0 b7 e8 3c
       -0.060137525 -0.10389371 -0.10754161 0.028407991
000020 01 fa f4 3c 00 90 8f bb 05 42 87 be 27 13 d1 bd
       0.029904367 -0.00438118 -0.26417556 -0.10208731
000030 2a cc a7 bd 7f 55 fd 3d 85 ef a2 be 71 c3 3b 3e
       -0.08193238 0.12369823 -0.31823364 0.18336274
000040 58 4b 8c bc 7e e2 78 3d 1c 6f 40 be 21 07 9f 3d
       -0.01712577 0.060762875 -0.18792385 0.077650316
000050 f7 62 9a bd 2a 88 23 3e cf b5 06 be 91 a8 33 bd
       -0.07538407 0.15969911 -0.13155292 -0.04386193
000060 62 ef a1 3d 2c 52 59 be 5a 7b 80 3d 40 bf ff 3d
       0.07906987 -0.21222752 0.062735274 0.1248765
000070 1f 14 06 bd e0 df 62 bd 96 4b 05 be 68 64 e4 3c
       -0.032734033 -0.055389285 -0.13017115 0.027879909
000080 f7 1c 80 bb 76 fb 41 3d 0b 2b 36 be ca d0 df bd
       -0.003909703 0.047358952 -0.17789857 -0.10928495
000090 7b 57 31 be 28 41 bc 3d 52 c2 ea bd 71 8e 1f be
       -0.17318527 0.09192115 -0.11462845 -0.15581681
0000a0 f6 93 41 be 19 db f7 b8 94 9c 47 bd f4 a0 31 be
       -0.18904099 -0.00011818688 -0.04873331 -0.17346555
0000b0 5e f5 00 3c 10 e8 b0 3c 56 a9 9d 3d 7d 8e a1 bd
       0.007871 0.021595031 0.07698314 -0.078885056
0000c0 9c 36 10 3e 74 83 88 be d9 e8 1b 3f 09 00 eb 3d
       0.14083332 -0.2666279 0.6090217 0.11474616
0000d0 38 55 01 be 02 b3 09 be 07 f3 15 bd c9 bb fe 3d
       -0.12630165 -0.13447192 -0.036608722 0.12438161
0000e0 95 26 2c be e6 af a8 3e c6 ed bc bd b0 c9 97 3d
       -0.16811593 0.329467 -0.09225039 0.07411516
0000f0 69 4e 25 3e ca f7 de 3d 68 a6 67 bd 36 4e ca 3d
       0.16143192 0.10887106 -0.05655518 0.09878199
000100 72 9a a5 3d 4f c1 66 bd da 8e cc 3d cc 6c 93 3d
       0.08086099 -0.056336697 0.09988184 0.07198486
000110 b7 ca cf 3d 63 b0 bf bb 5d d9 df 3c 40 f5 d1 bb
       0.10146087 -0.0058498844 0.027325327 -0.00640741
000120 c2 eb a1 bd e8 d4 b9 bd 34 e4 b6 3c 4f 1b 85 bc
       -0.07906295 -0.09073812 0.022325613 -0.016248373
000130 8a 51 02 be bc f2 d7 3c 76 d7 a3 be fb a9 c4 be
       -0.12726417 0.026360862 -0.3200032 -0.38410935
000140 56 98 a2 bd 48 81 e0 ba f0 70 b6 bd 92 12 65 3d
       -0.07939212 -0.0017128373 -0.0890826 0.055925913
000150 f0 0f c4 bd 3a 22 d6 bb 10 c5 8b be 25 54 b1 bd
       -0.09573352 -0.006534842 -0.27298784 -0.086586274
000160 10 a7 dc 3c 17 20 07 3e 7a 21 08 be 3a 81 31 be
       0.02693513 0.13195835 -0.1329402 -0.17334452
000170 0e 5b df 3c 39 68 ab 3d 45 e7 12 3d 3a 16 d4 bd
       0.027265098 0.08369488 0.035865087 -0.10355802
000180 73 25 94 39 18 25 e1 bd df d5 f6 be 38 86 e5 bd
       0.00028256662 -0.10993403 -0.48210046 -0.11207241
000190 d7 59 3d bd c1 9a 99 3d e7 08 6e bc 02 dc 4a be
       -0.046228256 0.0750022 -0.01452849 -0.19810489
0001a0 9a b6 e2 39 5b bf 96 bd 96 ff dd 3d fb 99 93 3c
       0.00043242128 -0.07360717 0.10839765 0.01801776
0001b0 70 0d 9b 3d c2 15 ef bd f2 8c 96 3d 7b 96 9d bd
       0.075709224 -0.11674072 0.07351102 -0.076947175
0001c0 e5 67 71 3c 0d 43 55 be 19 92 10 3f 35 ee b3 bd
       0.014734243 -0.20826359 0.5647293 -0.08785669
0001d0 67 2e 20 be e2 86 bc bd 8d 9a 7b bd f5 99 f6 3d
       -0.15642701 -0.09205414 -0.061426688 0.12041084
0001e0 16 0a cc 3a 7a 82 99 bd b5 6c 3a bd 12 b6 5c be
       0.0015566971 -0.074955896 -0.045513827 -0.2155383
0001f0 17 7c c9 3c 9b c7 90 bb 6a 13 ae bd ba 67 97 bd
       0.024595303 -0.004418326 -0.08499797 -0.07392831

model.model.model.4.bias f4 [2]
000000 5a 4d 8e be 3a b7 dd 3d
       -0.2779339 0.10825963

model_old.model.model.0.weight f4 [64, 3]
000000 00 f0 70 be 11 cd 11 3f 7f e1 23 bf 7d fe b4 3e
       -0.23529053 0.5695353 -0.64015955 0.3535041
000010 bf f2 31 be 84 86 71 be fc 4a 93 3e 05 67 29 be
       -0.17377757 -0.2358647 0.28768146 -0.16543205
000020 3d dc 74 be 0a 59 03 bf bf 1e 16 3f 5f 97 7e bd
       -0.23912139 -0.5130774 0.58640665 -0.062156077
000030 16 c3 7f be dd a9 ff 3e 47 66 07 3f 77 b4 b8 be
       -0.24976763 0.49934283 0.5289044 -0.36075184
000040 13 bd 8e 3d f2 77 01 3e 3f ff 84 be ea 93 1c bd
       0.06969657 0.12643412 -0.25975987 -0.038227
000050 3e b3 25 3e 31 5b 03 bf 61 27 da bd 96 ec 4b bd
       0.16181657 -0.5131102 -0.10652042 -0.049786173
000060 ba a5 06 bf 84 bd ca 3d d1 94 ce bd b1 a3 9a 3c
       -0.5259663 0.098994285 -0.10086978 0.018876882
000070 17 80 e0 bd 5d a7 8d 3e 85 92 2f be 4c ab 9e bd
       -0.10961931 0.2766675 -0.17145737 -0.07747516
000080 ea b6 37 be d8 d5 0a bf 87 16 ce be 23 49 74 bc
       -0.1794087 -0.5423255 -0.40251562 -0.014910015
000090 8f 3c 1f bd ad 87 5c bb 92 8a 65 b9 6e d4 15 3d
       -0.038876113 -0.0033650205 -0.00021890763 0.03657954
0000a0 de e1 19 bf 40 c3 2c 3e a6 e5 dd be 6a c6 e6 3e
       -0.6011027 0.16871357 -0.4333927 0.45073253
0000b0 ae 44 cd 3e f1 c9 cb be 8d f8 9f 3e f9 7f 96 be
       0.4009146 -0.39802507 0.31244317 -0.2939451
0000c0 12 f0 35 bd e2 b6 ec be 0b 49 f1 3d 34 3a 5b 3e
       -0.044418402 -0.4623328 0.1178151 0.21408921
0000d0 82 c8 b0 bd 83 ba f5 bb bc 9f b1 3e 8f 31 61 bd
       -0.08631994 -0.0074990406 0.3469218 -0.054978903
0000e0 bb 55 67 be 17 49 ae bd f2 e4 8e 3e 98 a9 e4 be
       -0.22591297 -0.085100345 0.27909046 -0.4466064
0000f0 9c e2 4c bd 27 43 04 bf 9a 50 0b 3f e7 ad 03 bf
       -0.0500208 -0.51664966 0.54419863 -0.5143723
000100 ed e8 ca 3c 52 7d e3 bc 98 4a db 3c f2 b2 db bc
       0.02476927 -0.027769718 0.026768968 -0.026818726
000110 7d 30 67 bf 3b 6c d0 3e 23 2c d6 3c 96 95 37 3d
       -0.9030836 0.40707573 0.026144093 0.04482039
000120 8d 97 f8 be 4f 18 ae 3e 17 9f da be 08 c4 7b 3d
       -0.48553124 0.3400292 -0.426995 0.061466247
000130 ad a2 38 be 1e 11 00 bc cf c3 bd 3e 6d a4 33 3e
       -0.18030806 -0.007816581 0.37063453 0.17543192
000140 cc 08 ca be 8b 76 6e 3d c1 e2 cd be 81 a4 cc 3e
       -0.39459836 0.05821852 -0.40212062 0.39969257
000150 2f 66 0a bf 84 82 0f 3f 30 7b fb 3e 96 12 b8 3e
       -0.5406217 0.56058526 0.49117422 0.3595168
000160 b4 c3 85 be 20 8c 0a bf b6 54 a3 be ab dc d9 3e
       -0.26125872 -0.54120064 -0.31900567 0.4255117
000170 e6 be 23 3e 47 76 82 be 35 cc ff 3e ec ec 49 bd
       0.1599079 -0.25480863 0.49960485 -0.049298212
000180 80 a7 07 3e fc c0 a7 3c 45 cb 14 3f ce f7 b9 be
       0.1324749 0.020477764 0.58122665 -0.36321872
000190 2e 59 87 be a4 49 f5 3e 96 c9 e8 be b2 83 07 3f
       -0.26435226 0.47907746 -0.45466298 0.52935326
0001a0 48 4a d2 be bb c7 b7 be 0d 9c a8 be 66 90 0c 3f
       -0.41072297 -0.3589457 -0.32931557 0.54907835
0001b0 64 75 0a bf 29 53 04 3d 8e 56 54 be bb dd b3 3e
       -0.54085374 0.03230587 -0.20736143 0.35130104
0001c0 ff f4 07 bf c8 6d 1e 3d 49 4e b3 3d 10 c3 96 3e
       -0.5310821 0.038678914 0.08755166 0.29445696
0001d0 38 ae 3d be cb 15 68 3d ae 0b ab 3e 3c 58 57 3e
       -0.1852349 0.05666141 0.33407348 0.21029752
0001e0 de 65 b1 3e 27 61 49 be 9b a6 80 be 5f 5a f3 3d
       0.3464803 -0.19665967 -0.2512711 0.11882471
0001f0 2a ab 8a 3d 76 89 c7 3d 5b 2e 03 bf e7 84 03 3d
       0.06770928 0.097430155 -0.5124261 0.032109167
000200 ba 0c bb 3e f6 8e 25 3e c0 d7 ce be 90 a4 b0 3e
       0.36533147 0.16167817 -0.4039898 0.3450055
000210 58 27 e9 be 5f 88 97 be a0 bb b8 bd 89 6e ed be
       -0.4553783 -0.2959623 -0.09020162 -0.46373394
000220 f0 72 dd 3e ad 36 87 3d e7 f7 02 be 2e ab 9c be
       0.43251753 0.066022255 -0.1278988 -0.3059935
000230 31 c5 b2 3e 55 bb d7 3e 35 b0 c3 be 9c 8d dc bb
       0.3491607 0.4213511 -0.38220373 -0.0067307483
000240 9b 8d 7d 3e dc e2 0b bf da b5 a5 bd 1b a7 95 3c
       0.2476105 -0.54643035 -0.08091326 0.018268159
000250 b6 2d 83 3e 62 7b 0d 3f c5 3f 8c 3e b7 c2 02 bf
       0.25620812 0.5526639 0.27392402 -0.5107836
000260 1a 1c f8 3e cf 18 b4 bd bc 7c e2 be 18 21 9e bd
       0.4845894 -0.08793794 -0.4423579 -0.07721156
000270 4a b5 01 be 20 29 86 3c e2 e8 83 be bc 3c 63 bd
       -0.12666813 0.016377032 -0.25763613 -0.055477843
000280 1f e1 ec 3e d1 63 18 3f 5c 31 d0 be ce 78 27 3d
       0.46265504 0.5952731 -0.40662658 0.040886693
000290 9d c2 f2 3e f4 26 11 bf 72 b2 87 bc 90 89 80 be
       0.47414103 -0.5670006 -0.016564582 -0.25104952
0002a0 42 c3 90 be 73 11 34 be b9 ec e3 be 75 80 6a 3e
       -0.2827397 -0.17584781 -0.44516543 0.22900565
0002b0 b1 5a 02 bf 7d 68 d6 be 8a a3 ba be 9b 00 8b be
       -0.50919634 -0.41876593 -0.36452895 -0.271489
0002c0 b1 33 9b be eb 69 17 be 32 32 02 3f 07 38 9a be
       -0.30312875 -0.14786498 0.5085784 -0.3012087
0002d0 84 e3 c2 be ad 3e f9 be 4f 27 b8 3e 7b 9d 10 bf
       -0.38064206 -0.4868063 0.3596749 -0.56490296
0002e0 ec 4e 87 3d 18 52 07 bf 2e 15 59 3e 90 56 dd be
       0.0660685 -0.5285964 0.21199486 -0.43230104
0002f0 84 74 82 be da a6 80 3e aa 8f e7 be b0 0c c5 3d
       -0.2547952 0.25127298 -0.45226794 0.096215606

model_old.model.model.0.bias f4 [64]
000000 ee eb 6a 3e d2 12 00 bf 01 5a 3d bf 33 cd 77 3e
       0.22941563 -0.5002872 -0.7396546 0.24199371
000010 4a d3 a7 be f2 dd fa be 8b 62 78 bd f0 dd 11 3f
       -0.32778388 -0.48997456 -0.060640853 0.56979275
000020 6c 82 03 bf e0 55 5f 3f 1f 16 c0 3e 56 3b 92 3e
       -0.51370883 0.8724041 0.37516877 0.28560895
000030 73 dd 25 3f 35 d1 e8 3e 87 39 4f be 4b ac 14 be
       0.6479103 0.45472112 -0.20236789 -0.1451885
000040 5b 6c ce 3e 4e 67 ba 3d dd 9d 50 bf b6 61 02 bf
       0.40317044 0.09101735 -0.8149088 -0.50930345
000050 95 ca 85 3c 62 58 b3 be cb 58 b1 3e 65 e7 ab 3d
       0.01633195 -0.35028368 0.34638056 0.083937444
000060 bf 05 2e 3e 07 d7 0d 3f 6b e8 0f be fa ed 2c bf
       0.1699438 0.5540623 -0.14053504 -0.67550623
000070 e2 5a 74 be 3f 9b e5 3e c8 72 dd be 2b 69 0d bf
       -0.23862794 0.44845006 -0.43251634 -0.552386
000080 cf 65 6a 3d 29 0b b2 be ef 59 e3 3e f7 9d f6 3e
       0.057226 -0.3477414 0.4440455 0.48167393
000090 18 fc 06 3f c8 3e 02 bf e8 c5 61 bf ef d0 25 3f
       0.52728415 -0.50877047 -0.88192606 0.6477193
0000a0 ed 24 89 be de 57 52 be f7 83 86 be 79 d7 a3 3e
       -0.26785985 -0.20541331 -0.26272556 0.3200033
0000b0 fa 7b 72 3e 1d 45 05 3f d4 c9 e4 be ff 6e 4c bf
       0.23680106 0.52058583 -0.44685233 -0.79856867
0000c0 74 59 cf 3e e7 d7 0a 3f 6e 2f db bd d6 72 79 3d
       0.40497935 0.5423569 -0.10702406 0.06090053
0000d0 7d b9 5c 3e 4d 75 91 3c 5d dc 2d 3e 0d d8 ab 3e
       0.21555133 0.017756129 0.16978593 0.3356327
0000e0 86 01 a4 be 19 76 4d 3f 6c 07 ab 3e 8b 58 90 be
       -0.32032412 0.8025833 0.334041 -0.28192553
0000f0 3d 53 f3 3e f1 bf 88 be 55 d5 49 3f 72 ee c3 be
       0.47524443 -0.2670894 0.78841144 -0.38267857

model_old.model.model.2.weight f4 [64, 64]
000000 67 b2 44 3c 9c 0f bd bd f0 01 39 be 74 66 a9 3c
       0.012005425 -0.09231493 -0.18067145 0.020678736
000010 18 ee ad 3d 54 fd 6c bd 78 5c 14 bd 30 0e 81 3d
       0.084926784 -0.05785878 -0.036220998 0.06301534
000020 b2 73 d8 3d ad 63 cd 3e f8 4c b7 bc 64 b3 a0 bd
       0.10568942 0.4011511 -0.022375569 -0.07846716
000030 14 ef 52 3f a8 53 07 bf 1e 68 68 3d cd 9b f6 bc
       0.82396054 -0.52862024 0.05673992 -0.030103588
000040 ca 0d fb bd 6e a3 c9 3d e5 eb da 3b 29 75 f7 bd
       -0.122584894 0.09845625 0.006680953 -0.120828934
000050 98 5b 0c bd 60 87 cd 3b 3a 45 85 3e 6e 42 7f 3d
       -0.034267038 0.0062722415 0.26029378 0.06231921
000060 04 c0 85 3d d1 40 65 3e e4 bd 5c 3c 2f 6d 55 be
       0.06530765 0.22388007 0.013473008 -0.20842431
000070 f9 46 75 bd f4 60 9d 3c 0b 7a e8 bb 12 db 00 be
       -0.059882138 0.01921127 -0.007094627 -0.12583569
000080 92 6c be bd ca 06 e9 3d 37 f2 88 3d 9a 30 b6 3d
       -0.09298052 0.11378248 0.06686824 0.08895989
000090 28 e0 86 3d 18 e7 28 be ca f4 1f be a6 13 83 3d
       0.06585723 -0.16494405 -0.15620723 0.06400232
0000a0 26 86 d3 bd 42 da c8 3d 2a 7a cd bd ab b1 83 3c
       -0.10328321 0.098072544 -0.100330666 0.01607593
0000b0 5a cc d8 3d ca 86 7e 3c 98 bc bc 3d 4f 7b 12 be
       0.10585852 0.015535066 0.09215659 -0.14304851
0000c0 1d 9b a6 3d db 4a ed 3d 0c 79 9b bd 10 ae c5 bd
       0.08135054 0.11586543 -0.07591447 -0.096523404
0000d0 5e a7 9d 3d 68 10 d7 3c 58 db 8b bd a2 e1 aa 3d
       0.076979384 0.02625294 -0.06828946 0.08343817
0000e0 d8 9d ea bd eb 38 04 3e 8c 33 2c 3d 9f a5 32 bd
       -0.114558876 0.12912337 0.042041346 -0.04361498
0000f0 c0 90 89 bc 40 8a 84 3c 04 76 bd 3d 66 43 2b bd
       -0.016792655 0.016179204 0.09251025 -0.041812323
000100 9e ba 3b 3c 9d 4c c8 3c 28 db dd bc 9e da a3 3d
       0.011458067 0.024450595 -0.02708204 0.08000682
000110 bb df e4 3d 50 e9 b5 3c 84 e2 94 bd 9a 0c 85 3d
       0.11175486 0.022205979 -0.07269767 0.06496544
000120 44 63 6e 3d ac 59 a7 3d da c2 fe 3d 80 30 4b 3c
       0.058200136 0.081714004 0.12439509 0.0124017
000130 01 93 b6 be 0f e8 a8 3e a9 e5 e2 3d 99 f6 01 be
       -0.3565903 0.32989547 0.110789604 -0.12691726
000140 8a 85 9d 3d d0 d7 87 3c f7 17 ce bd 70 67 46 3d
       0.07691486 0.0165824 -0.10063165 0.04843849
000150 0a 93 9c bd 84 13 f5 bd 3e 5a 27 3e a8 e4 a3 3d
       -0.07645233 -0.11966613 0.16343018 0.08002597
000160 ec f2 b5 bd 4c 3f 5b 3e 9e 1f 04 3d 4f 2b 9e be
       -0.08884224 0.21410865 0.032256715 -0.30892417
000170 ae 3d 79 3d 59 f3 aa 3d 9f a1 00 be d4 a9 18 3e
       0.060849838 0.08347196 -0.12561654 0.14908534
000180 ab 87 5a 3c 58 c7 76 bd fa 30 39 bc 5e cf cc 3d
       0.01333801 -0.060248703 -0.011303181 0.1000049
000190 f0 8e fa bd 99 03 7b bd e7 d5 b4 3d 97 da eb bd
       -0.122342944 -0.061282728 0.08829861 -0.11516302
0001a0 4f b4 80 bd 60 c5 84 3d 1a c5 ed bd 0a ea e2 bc
       -0.06284391 0.06482959 -0.1160986 -0.02769949
0001b0 48 77 cc bc b1 08 81 3d f8 2b d0 3c 03 ee 7d bd
       -0.024959221 0.06300486 0.025411591 -0.061994564
0001c0 fc 36 a9 bd d3 3b 55 3d 5d e8 e9 bd b0 ae 38 bc
       -0.082624406 0.052059006 -0.11421273 -0.0112721175
0001d0 dc 4b 43 bd 6d 1c 54 3d 40 90 58 bb c4 af ae 3d
       -0.047679767 0.05178492 -0.0033044964 0.085296184
0001e0 18 ee e6 3c ca f6 47 3e fc 78 af bd f7 81 0b 3c
       0.028189704 0.19527736 -0.08567998 0.008514873
0001f0 f8 18 72 bd 10 12 2f 3d fd 31 26 bd 47 1d f4 bd
       -0.059105843 0.042741835 -0.040575016 -0.11919647
000200 3d aa 35 3c be 23 65 bd 5e 4c d2 3c 45 c8 29 be
       0.011087951 -0.05594229 0.02567118 -0.16580303
000210 63 69 9f bd b0 b2 0c 3d 5a 9b ad bd 86 73 c9 bd
       -0.07783773 0.034350097 -0.084768966 -0.098364875
000220 98 67 05 bd d1 2e 88 3e 7a 0a d0 bd 80 93 35 bc
       -0.032569498 0.26598218 -0.10158248 -0.01108253
000230 c4 e5 8d 3c b3 fe d6 3d 20 f0 36 3d 42 9c 42 bd
       0.017321475 0.10497799 0.044662595 -0.0475123
000240 08 7b d5 3d db db 83 3d 2b ec 47 bd 91 34 63 bd
       0.10423857 0.064384185 -0.04880921 -0.055470053
000250 80 6d 97 bb 40 07 97 bc fc a9 ca bd 97 b2 dd 3d
       -0.0046212077 -0.018436074 -0.09895703 0.10825079
000260 80 58 40 ba cf c7 47 bd 7c eb d1 bc 06 ff 0b be
       -0.0007337406 -0.048774537 -0.025624983 -0.13671502
000270 d9 56 0b be 93 bf 86 3d c8 61 5e 3d da d8 58 3d
       -0.13607349 0.06579509 0.05429247 0.05294118
000280 c0 c7 83 3d 94 1c 25 3d 11 ab 78 3e e8 e8 67 bd
       0.06434584 0.040310457 0.24284007 -0.0566186
000290 a0 91 ac bd 91 f1 99 3d 27 8e 85 bc 8d 6f ca bd
       -0.08426213 0.07516778 -0.016303135 -0.09884558
0002a0 40 72 8e bc 89 66 ca 3d f4 29 4d bd ef 55 15 3d
       -0.017388463 0.09882838 -0.050088838 0.036458906
0002b0 10 37 20 bd ef dd 6d bd 94 59 05 bd 96 48 42 ba
       -0.03911501 -0.05807298 -0.03255613 -0.0007411329
0002c0 12 2f 80 bd c6 2f 12 bc bd d2 0f 3e c8 49 b1 3d
       -0.06258978 -0.008922523 0.14045234 0.08656651
0002d0 96 1c b5 bd c6 03 88 bd 7c e0 40 bd 48 66 57 3d
       -0.08843343 -0.06641345 -0.047089085 0.052587777
0002e0 80 3a 15 bc 12 c7 b1 bc a8 44 e4 3d 3f 12 fb bd
       -0.009108186 -0.02170137 0.11145908 -0.122593395
0002f0 14 09 fa bd 68 54 a8 3d ee 7a 6c 3d 8d 18 0d be
       -0.12208763 0.08219224 0.057734422 -0.13778897
000300 0f be e7 3d 66 4d da bd 67 e3 c2 bd 23 8e 41 3d
       0.11315548 -0.10659294 -0.0951603 0.047254693
000310 ad 03 c6 3c 1a 94 e1 bd 6c ad 09 bd c0 51 bf 3d
       0.024171675 -0.11014576 -0.033612654 0.093417645
000320 88 8d d9 3d 55 59 84 3e 80 e7 93 3a 50 79 06 bc
       0.10622698 0.25849405 0.0011284202 -0.008207634
000330 35 97 07 bf af 5e 5c 3e 1f 2a 82 bd 31 e3 03 3e
       -0.529651 0.21520494 -0.0635569 0.12879635
000340 f6 c3 e3 bd ae 41 01 3e 7f a7 32 3d b8 a2 20 bd
       -0.11121361 0.12622711 0.043616768 -0.03921768
000350 14 7a a5 3d 60 4b 1d bd 80 24 cc bc 78 0e dc bc
       0.08079925 -0.03840196 -0.024919748 -0.026862368
000360 98 aa 5d 3e 82 d1 43 3e f1 14 d0 bc 42 5d 8c be
       0.21647108 0.1912289 -0.02540061 -0.274149
000370 9e d6 1e 3c ef 7b 00 3e 19 d7 02 3e 64 78 2a bd
       0.009694723 0.12547277 0.12777366 -0.04161872
000380 c6 34 e4 3d d0 7c 0a bc f3 ab c4 3d a8 8e 3d 3d
       0.11142878 -0.008452609 0.09603109 0.046278626
000390 e0 c7 0e bc 7d 1c e3 bd 44 be 7a 3d 91 93 b2 3d
       -0.008714646 -0.11089418 0.061216608 0.08719552
0003a0 0c 41 c8 bd 78 30 84 3d 8a 93 81 bd e5 3e 91 3d
       -0.09778032 0.06454557 -0.06326969 0.07092074
0003b0 5a ec 98 bd e3 76 37 be a0 d7 cb bc 73 e5 ec bd
       -0.074669555 -0.17916445 -0.024883091 -0.115672015
0003c0 3c 09 01 3d e6 6c 9c bd 97 51 3e bd 0c a2 ab 3d
       0.031502947 -0.07637958 -0.04646453 0.08380517
0003d0 12 75 ca 3d 6b 72 a6 3c fc d9 78 bd 10 33 cd bc
       0.09885611 0.02031823 -0.06075476 -0.025048763
0003e0 c2 81 ed bd 4b b5 07 3e 3c fa e2 3d 28 b9 2d 3d
       -0.11597015 0.13252752 0.11082885 0.042412907
0003f0 b0 63 58 3c 68 35 ce 3d 25 0b ab bd 99 d0 57 3d
       0.013207361 0.1006878 -0.08351735 0.05268917

model_old.model.model.2.bias f4 [64]
000000 ce 79 8a 3e 8f 9f 70 3e a2 b5 28 3e 05 51 1c 3e
       0.27046055 0.23498367 0.16475537 0.15265281
000010 5a 97 f1 3d 0e 5d 81 bd e2 50 00 3e 90 f7 d6 bc
       0.11796446 -0.06316577 0.12530854 -0.026241094
000020 57 2c 99 3c 78 ca 8a bd 23 50 22 3e 49 c5 8c 3e
       0.0186979 -0.06776899 0.15850882 0.27494267
000030 6f 6f ee 3c 00 e8 02 be 62 50 b6 3d 05 63 4b be
       0.02910587 -0.12783813 0.089020506 -0.19861992
000040 00 e9 6b 3a d3 b2 d8 bc 60 de ae 3c bc 58 84 3d
       0.0008999258 -0.026452458 0.021346271 0.06462237
000050 72 97 26 3d 45 87 a2 be 22 00 1f be 5d 52 86 3c
       0.040671773 -0.31743827 -0.15527394 0.016396696
000060 5a bb c6 bd ac a1 59 3e a6 cf 11 bd 40 0b 98 be
       -0.09703703 0.21253079 -0.03559842 -0.29696083
000070 00 7e 87 3e b3 b2 43 3e e7 f0 34 3e 58 c8 aa 3c
       0.26463318 0.19111137 0.17670022 0.020847484
000080 e5 b4 0b bd a6 fd 45 3d 42 0f ad 3e 74 d1 c6 bd
       -0.03410806 0.0483376 0.33800703 -0.09707919
000090 7a c9 6d 3e ac ac 4e 3d ce cc 19 3e e4 c2 5e bd
       0.23221388 0.05045764 0.15019533 -0.05438508
0000a0 24 b4 7e 3e d9 c0 cd bd 9e 19 dd bd c4 92 ea 3b
       0.24873406 -0.100465484 -0.10795902 0.007158609
0000b0 3b e7 0a bd 10 1e 82 3c 50 d2 82 bd 33 ba 17 3d
       -0.033911925 0.015883476 -0.0638777 0.037042808
0000c0 3c 87 7f be 84 1b 29 3e 4a 57 a9 be 4a be 82 be
       -0.24953932 0.16514403 -0.3307441 -0.25535804
0000d0 36 0c a0 3e 6c 9e 72 3e 7c dd e1 bd 12 0e 27 be
       0.31259316 0.23693246 -0.11028573 -0.16313961
0000e0 68 8f 93 3e 72 9a 9b be 4d 45 52 3e c2 e1 9f be
       0.28820348 -0.3039127 0.20534249 -0.31226927
0000f0 ec 57 41 be 65 95 8a be 24 17 2c 3d 60 06 e4 3d
       -0.18881196 -0.27067104 0.042014256 0.111340284

model_old.model.model.4.weight f4 [2, 64]
000000 d0 46 26 3f cc 5b 86 bd 99 b4 b4 bc 33 14 3f be
       0.649518 -0.065604776 -0.022058772 -0.18660049
000010 8f 2d 81 bd 3a c6 d4 bd df 2b dd bd e0 b7 e8 3c
       -0.06307518 -0.10389371 -0.10799383 0.028407991
000020 01 fa f4 3c 00 90 8f bb ed 26 87 be 26 d7 d2 bd
       0.029904367 -0.00438118 -0.26396886 -0.102949426
000030 ff 6d a5 bd 28 0d fe 3d e5 b1 a4 be 30 10 3c 3e
       -0.08077621 0.12404853 -0.32166973 0.1836555
000040 58 4b 8c bc 66 04 7c 3d cb 29 42 be 21 07 9f 3d
       -0.01712577 0.061527632 -0.18961255 0.077650316
000050 69 5e 9a bd e4 f0 22 3e d3 77 0c be 1d 30 35 bd
       -0.075375386 0.15912205 -0.13717584 -0.044235338
000060 62 ef a1 3d fe ef 58 be 04 b3 80 3d 9a 27 00 3e
       0.07906987 -0.211853 0.062841445 0.12515107
000070 d1 b3 0a bd 44 f7 67 bd 9b 2a 07 be 68 64 e4 3c
       -0.033862893 -0.056632295 -0.13199846 0.027879909
000080 f7 1c 80 bb bb dc 3b 3d 6f 7c 38 be ca d0 df bd
       -0.003909703 0.0458648 -0.18016218 -0.10928495
000090 07 fe 32 be 28 41 bc 3d 8c a0 ec bd a5 ba 26 be
       -0.17479716 0.09192115 -0.115540594 -0.16282137
0000a0 e6 c7 41 be 19 db f7 b8 94 9c 47 bd e9 10 31 be
       -0.18923911 -0.00011818688 -0.04873331 -0.17291607
0000b0 e4 d0 ef 3b 10 e8 b0 3c 56 a9 9d 3d 7d 8e a1 bd
       0.007318603 0.021595031 0.07698314 -0.078885056
0000c0 8d f8 10 3e 68 b5 89 be 90 f3 1b 3f 6c 9c eb 3d
       0.14157315 -0.26896214 0.6091852 0.115044445
0000d0 08 d8 02 be 83 79 0a be 07 f3 15 bd 73 44 fe 3d
       -0.12777722 -0.13522916 -0.036608722 0.124153994
0000e0 4b 37 2d be d4 a2 a8 3e 4a d8 be bd f4 0e 98 3d
       -0.16915624 0.32936728 -0.093185976 0.07424727
0000f0 23 6a 25 3e d9 d4 df 3d 68 a6 67 bd 36 4e ca 3d
       0.16153769 0.10929269 -0.05655518 0.09878199
000100 c4 e1 9e 3d 19 e3 67 bd c2 c4 cd 3d 0c 18 95 3d
       0.07757905 -0.05661306 0.10047294 0.07279977
000110 55 0c cc 3d 63 b0 bf bb 08 d3 e8 3c 40 f5 d1 bb
       0.0996329 -0.0058498844 0.02842094 -0.00640741
000120 c2 eb a1 bd e8 d4 b9 bd e9 88 b4 3c 8f 6d 87 bc
       -0.07906295 -0.09073812 0.02203794 -0.016531734
000130 30 72 06 be 05 cb db 3c 65 f1 a0 be b6 74 c3 be
       -0.13129497 0.026830206 -0.3143417 -0.3817498
000140 56 98 a2 bd 8b b4 e2 b9 0a d6 b7 bd 92 12 65 3d
       -0.07939212 -0.00043240594 -0.089763716 0.055925913
000150 1f 8b c8 bd 8c 62 b2 bb 46 75 8c be 1a 24 b1 bd
       -0.0979216 -0.0054438766 -0.27433223 -0.08649464
000160 10 a7 dc 3c 84 ce 08 3e 18 c0 07 be fa cf 2e be
       0.02693513 0.1336003 -0.13256872 -0.17071524
000170 dc f3 e6 3c 4e cd ac 3d 78 ce 17 3d 3a 16 d4 bd
       0.028192453 0.08437596 0.03706214 -0.10355802
000180 73 25 94 39 28 c6 e1 bd f7 21 f6 be 38 86 e5 bd
       0.00028256662 -0.110241234 -0.48072788 -0.11207241
000190 7d 34 3c bd c1 9a 99 3d d8 8b 61 bc 4f cc 49 be
       -0.045948494 0.0750022 -0.0137662515 -0.19706844
0001a0 c7 03 1f 3b 5b bf 96 bd 96 ff dd 3d 28 5c 9a 3c
       0.0024263726 -0.07360717 0.10839765 0.018842772
0001b0 80 e3 9d 3d c2 15 ef bd f2 8c 96 3d 7b 96 9d bd
       0.07709408 -0.11674072 0.07351102 -0.076947175
0001c0 db 46 81 3c 9b 9c 50 be d2 28 0f 3f 6f e5 b2 bd
       0.015780857 -0.2037224 0.5592166 -0.08735167
0001d0 4f f8 22 be 44 7b bc bd 8d 9a 7b bd d9 16 f7 3d
       -0.15915035 -0.092031986 -0.061426688 0.12064905
0001e0 67 53 17 3b d7 b4 9a bd d6 e7 3a bd fb 9b 59 be
       0.0023090483 -0.07554024 -0.045631252 -0.21250908
0001f0 7c 28 ca 3c 30 71 71 bb 6a 13 ae bd ba 67 97 bd
       0.024677508 -0.0036841147 -0.08499797 -0.07392831

model_old.model.model.4.bias f4 [2]
000000 48 1c 8e be fe 40 dc 3d
       -0.27755952 0.10754584
