rl_compexp/save/Blackjack-DQN64/dqn_best.pth (torch, 41282 bytes, 12 tensors)

model.model.model.0.weight f4 [64, 3]
000000 5f 31 11 bf df 27 47 be a4 d7 f1 be a6 ad ac 3c
       -0.5671596 -0.19448803 -0.47234833 0.021078896
000010 1a 07 81 bf 93 d0 e1 bd 1d 71 b0 be 80 ad 10 bf
       -1.0080292 -0.110261105 -0.344613 -0.5651474
000020 9b 38 a2 3e 5c 36 bf be c5 06 70 3e 2c 65 10 3f
       0.31683812 -0.3734616 0.23440082 0.56404376
000030 d0 51 5f be be d8 49 be 1a f5 37 3f 55 a3 41 bf
       -0.21808553 -0.19711587 0.7185837 -0.7563985
000040 a3 f9 f2 3e 47 3c 98 3e 54 6a f9 be f9 a6 f0 be
       0.47456083 0.29733488 -0.48713934 -0.4700239
000050 44 81 71 be ba be 9b be 74 3b ed bd bf b9 c2 3e
       -0.23584467 -0.3041895 -0.115836054 0.38032338
000060 35 66 0d 3a 15 10 53 be 44 13 db be cf 59 90 bd
       0.0005393953 -0.20611604 -0.42788136 -0.0704838
000070 9e 11 0a be cc 2f ce be 81 43 7b be 65 a4 2d be
       -0.13483283 -0.4027084 -0.2453747 -0.16957243
000080 3b 65 5b bf 71 76 f7 3d dd 7e 81 3d b7 ba 21 bf
       -0.8570134 0.12083138 0.063230254 -0.6317553
000090 7b 4c 39 3c ad 70 bb 39 79 0d 1b bf 40 7d 1f bf
       0.011309738 0.0003575137 -0.6056743 -0.6230049
0000a0 fd 30 13 3f 4f b8 a2 be 5e 82 97 bd d0 85 f0 bd
       0.57496625 -0.3178124 -0.073979124 -0.11744273
0000b0 54 a0 41 3f e4 3d 06 bd 7f 77 b7 3e 1d ad 0a bd
       0.75635266 -0.032773867 0.35833356 -0.0338565
0000c0 3e 15 9d bc 3b fa 05 be 93 61 fc be ef 22 b7 bd
       -0.019175168 -0.13083737 -0.49293193 -0.0894221
0000d0 6e 42 b1 bc e1 5e 0d 3f 33 2e 82 3e d3 53 8a be
       -0.021638121 0.552229 0.25425872 -0.27017078
0000e0 05 53 51 3d c4 b1 47 bc fe 1d 54 be 05 67 98 bd
       0.051104564 -0.012188379 -0.20714566 -0.074415244
0000f0 0f 71 cf 3d 01 7a a6 3d d8 07 0c 3f 73 23 ed be
       0.10128986 0.08128739 0.5469947 -0.46316108
000100 54 a3 f0 be 9b 76 2d 3e 1d cf bd be 85 c6 e8 bd
       -0.4699961 0.16939776 -0.37072077 -0.113659896
000110 eb 85 cc be 53 f6 d1 be 0a 36 50 3e 3f d9 62 be
       -0.3994592 -0.41008243 0.20333114 -0.22153185
000120 10 3e 0e bf 31 86 97 3e ef e8 26 be 14 eb 22 bb
       -0.5556345 0.29594567 -0.16299795 -0.0024859356
000130 37 f6 ee 3d a0 a8 f1 3d 4a d7 99 bd a0 b3 93 bd
       0.116680555 0.11799741 -0.07511766 -0.07211995
000140 3f 97 64 3d dd 1b 6d bd 65 ba 7f bd 23 ef bb 3e
       0.055808302 -0.0578879 -0.06243362 0.36705884
000150 71 a4 5d be f5 d4 33 3d 96 0d 19 3f 9d 28 06 be
       -0.2164476 0.043904264 0.59786355 -0.1310143
000160 66 42 9e be 2f 2d 06 bf a2 a4 70 be 43 e7 c0 3e
       -0.30910033 -0.52412695 -0.23500302 0.3767644
000170 cc 48 ce 3b 99 8e ac bd 08 88 11 3e e7 9e c5 be
       0.006295299 -0.08425636 0.14212048 -0.38597795
000180 f2 c8 19 bd 5a 80 d3 be b9 79 a1 bd ee 9e 3a 3e
       -0.037545152 -0.41308862 -0.07884545 0.1822469
000190 a9 cb 65 3a 59 a8 b6 3f c3 36 26 3e d2 62 20 3e
       0.00087660045 1.4270126 0.16231827 0.15662697
0001a0 25 73 45 bf 2d da 03 3d 1e d2 d6 be f4 13 b5 bf
       -0.7712882 0.03219049 -0.41957182 -1.4146714
0001b0 67 af ac be 4e 8a 0b 3e d7 23 ed be 97 0e da bd
       -0.3372757 0.13626978 -0.46316406 -0.10647314
0001c0 30 6e 86 be 83 c0 fe 3d df 35 a5 3d 63 15 bd be
       -0.2625594 0.124390624 0.08066916 -0.3693038
0001d0 8e 6c d1 be 1a 66 1a bf 92 fe 25 3f 60 8f 39 40
       -0.40903133 -0.60312045 0.6484157 2.899376
0001e0 74 9d c3 be 2e f8 8b 3e ad 71 4b bf f7 c8 fe be
       -0.38206065 0.27337784 -0.7947033 -0.497627
0001f0 f1 d5 2e be 3d c9 0e bf 2e 97 c4 be 7e f1 85 be
       -0.170738 -0.55775815 -0.3839659 -0.26160806
000200 f4 4e 11 bf a5 ac 8c be 0f ab e3 be 5c 39 b6 bd
       -0.567611 -0.27475467 -0.44466445 -0.08897659
000210 36 c1 e3 bc e0 52 d2 be db f1 99 be 06 f4 a5 bd
       -0.027802091 -0.41078854 -0.30067334 -0.081031844
000220 11 ce 07 bf 06 d6 3f 3f 4c 0d 97 bd 29 4e f5 be
       -0.5304881 0.7493595 -0.07375583 -0.47911194
000230 06 ad 81 bf 43 9c 2a 3e 68 6b 78 be 3f 77 b5 3e
       -1.0130928 0.16661172 -0.24259722 0.3544254
000240 1b 62 f4 be 81 86 48 be 76 e9 05 3f 44 98 be be
       -0.477311 -0.19582559 0.5230936 -0.37225544
000250 bb 26 83 be 5f 10 ef 3e 5c ce 90 bd 79 fb 99 be
       -0.25615487 0.46692178 -0.0707061 -0.3007467
000260 2e b8 df 3e e3 60 26 bf 9f 15 4f 3f 09 6f 3e be
       0.43695205 -0.6499159 0.80892366 -0.18597044
000270 bc 56 07 3e 2f cc 0d 3d de f9 7e be ce 76 97 3e
       0.1321668 0.034618553 -0.24900004 0.29582828
000280 c2 7a a0 bd d0 1f 28 bf ab e7 93 3d a8 00 4a bf
       -0.07835914 -0.6567354 0.072219215 -0.7890725
000290 d8 8f 83 3b 4f 42 c3 be 21 d7 f5 be 22 d3 34 be
       0.0040149502 -0.38136527 -0.48015693 -0.17658666
0002a0 a4 59 e7 bc bb 3b ca 3e cb a3 04 3e fe 26 49 3d
       -0.028240986 0.39498696 0.12953107 0.04910945
0002b0 13 5e ab be 52 15 03 bf 37 95 b5 be 20 c8 5c 3e
       -0.3347021 -0.5120441 -0.35465404 0.21560717
0002c0 3d 5a 03 bf 59 df 51 3c 7f 05 41 be 9a 16 44 be
       -0.5130957 0.012809598 -0.18849753 -0.19149247
0002d0 fa 0e 7d bd 6a fe 7b be ca cb aa 3e 40 1b a0 bc
       -0.06178186 -0.2460877 0.33358604 -0.019544244
0002e0 de d0 41 be e2 d6 98 3c b1 3f 28 bd 9c 76 a5 be
       -0.18927333 0.018657152 -0.041076366 -0.32317054
0002f0 51 07 ae be 91 e9 58 be ee 6a 75 be 2c cc 3b bd
       -0.33989957 -0.21182849 -0.23966572 -0.04584901

model.model.model.0.bias f4 [64]
000000 5b 2a fe be 1b 38 d6 3f 4c 88 03 3f 34 a2 5b bf
       -0.4964169 1.6735872 0.5137985 -0.8579438
000010 5e b6 88 3f a1 10 bf 3e ee a1 ce 3e ad 78 aa 3f
       1.0680654 0.37317374 0.40357918 1.3318077
000020 15 2b 43 3e c3 60 31 3e 51 30 93 3f 15 e6 c9 bf
       0.19059403 0.17322068 1.149912 -1.577334
000030 6b 50 7b be 90 cb 22 3f f8 7e 6c 3e c7 4b e7 bf
       -0.24542396 0.6359186 0.2309531 -1.807
000040 43 4f 53 3e 16 d7 1f 3e 97 48 05 c0 2e 43 b2 be
       0.20635705 0.15609393 -2.0825555 -0.3481688
000050 5b ef f2 bf a8 53 f8 be 33 54 d1 3e 1f 13 13 bf
       -1.8979295 -0.48501325 0.4088455 -0.5745105
000060 a1 0c f9 3c 29 5e a1 bf 93 6a f4 3f ab 99 68 3e
       0.03040153 -1.260686 1.9095024 0.2271487
000070 82 9a d8 3e d0 fc 53 3f 9a 85 ca 3f 02 24 8c bf
       0.4230538 0.82807636 1.5822022 -1.0948489
000080 16 e7 0f 3f c5 a0 01 c0 6d 2c e1 bf 52 4c 85 be
       0.56211984 -2.0254376 -1.7591683 -0.2603479
000090 54 db a3 bc 48 68 5f be 63 77 aa bf 23 fe 39 3f
       -0.020002045 -0.21817124 -1.3317684 0.72653407
0000a0 81 f7 30 3f 73 ca ad be be 5d db bd 81 2b 86 3d
       0.6912766 -0.3394352 -0.10711239 0.065512665
0000b0 6e 20 05 3f 3c 6e 40 3f f2 a8 45 3f f0 1b 03 c0
       0.5200261 0.75168204 0.77210915 -2.0485802
0000c0 be 0e 32 be 64 7d ac be de 83 ad 3e da c0 9e be
       -0.17388436 -0.33689415 0.3388967 -0.3100651
0000d0 05 3e 0c c0 bb 63 02 c0 3e 1c 3f bf d8 17 3f 3e
       -2.1912854 -2.037337 -0.7465247 0.1866144
0000e0 f3 43 df bf bd 62 a1 3f 62 83 3f bf 8f 98 a6 be
       -1.7442611 1.2608258 -0.7480985 -0.32538268
0000f0 d5 ec e4 3f c9 2a 8a 39 cf c1 b5 3f 7b 65 3f 3d
       1.7884775 0.0002635329 1.4199771 0.04672764

model.model.model.2.weight f4 [64, 64]
000000 be 24 a3 bd 76 1d 8b be 72 fe e1 bd 4b 32 bd 3c
       -0.079659924 -0.27170914 -0.1103486 0.02309527
000010 c7 53 13 bc f6 45 2b be 22 1c 84 bd 6a 14 85 be
       -0.008992142 -0.16725907 -0.064506784 -0.25992137
000020 eb d1 0a be 64 83 c0 bd 12 bd 0d 3d 33 e7 ce bc
       -0.1355664 -0.09400061 0.03460414 -0.025256729
000030 9c 8d 20 3d d3 84 bd 3c 6e c2 26 be 17 2c 85 3d
       0.03919755 0.023134625 -0.16285107 0.0650255
000040 c1 78 2d 3d 00 e8 d3 ba fa 05 ed 3d 62 4d be bd
       0.042351488 -0.0016167164 0.115734056 -0.09292103
000050 a9 d5 06 3d 78 bd 49 bd 00 c7 76 3b ec 80 ae 3d
       0.032918606 -0.049252957 0.0037655234 0.08520684
000060 c8 cd 4c bd 58 35 f8 bd 82 de 27 be 40 20 4d bd
       -0.050000936 -0.121195495 -0.16393474 -0.050079584
000070 bc f6 1b be 70 e1 95 bb bb 44 5b bd 37 8f 8b 3d
       -0.1523084 -0.0045739934 -0.053532343 0.068144254
000080 30 90 38 be c9 5b 2c bd 0b 00 04 3d 9a 6c df 3c
       -0.18023753 -0.04207972 0.032226603 0.027273465
000090 ee 47 b2 bd a6 44 a7 bd 12 c4 e9 bd 7f 3a 80 3c
       -0.08705126 -0.081673905 -0.114143506 0.015652893
0000a0 1d a7 9b bc f0 d0 5a bc f4 05 bf bd d0 22 27 bc
       -0.019000584 -0.013355479 -0.09327307 -0.010201171
0000b0 da 12 a9 bd 56 e5 9b bd 33 fc 03 be cf e9 9b 3b
       -0.08255549 -0.07612102 -0.12889175 0.0047580968
0000c0 50 7a 2a bc 1e f1 a3 bd 00 90 30 ba 14 78 32 3d
       -0.010405138 -0.08004974 -0.0006735325 0.043571547
0000d0 1d b5 c2 bd 04 2d 2f 3d 0b 55 30 3f 12 f2 e5 bd
       -0.09507201 0.04276754 0.68879765 -0.11227812
0000e0 69 8b a1 bd a9 35 3b bd e6 4b bd 3b cc ba 42 3d
       -0.078879185 -0.04570547 0.00577687 0.047541425
0000f0 e8 b7 13 3c 5e 16 bb bd 39 00 47 be a8 16 a2 bd
       0.009016015 -0.091351256 -0.19433679 -0.079144776
000100 0c 02 33 3d 08 1e f4 3e 18 b2 0a bd 9e cb e7 3d
       0.043703124 0.47679162 -0.03386125 0.11318134
000110 c5 d4 b8 bb 28 b4 73 be b6 a1 ae bd 4f 01 86 be
       -0.0056405985 -0.23799193 -0.08526938 -0.26172873
000120 96 5c 3b bc e0 3d bb bc f6 6a 37 bd 16 c8 b6 be
       -0.011435648 -0.022856653 -0.04477974 -0.35699528
000130 5b 87 22 3d 53 c5 ba ba f3 bc 20 be d0 0f d0 bd
       0.039679866 -0.0014249481 -0.15697078 -0.10159266
000140 e0 ed 11 be 74 bd 55 bd 7c 8d 65 be c0 77 6b 3c
       -0.14250898 -0.05218263 -0.22417253 0.014371812
000150 d9 2b 43 be 90 33 d4 bd 94 b7 c4 3d 72 9c aa 3d
       -0.19059695 -0.10361397 0.09605327 0.08330621
000160 0d 52 88 be 12 43 38 be 32 49 19 bd a0 3d ff bc
       -0.266251 -0.17994335 -0.03742332 -0.031157315
000170 93 21 29 be 2c 28 24 bd 91 4f fb 3d 3f 05 22 be
       -0.16516714 -0.040077373 0.122710355 -0.15822314
000180 a5 95 df 3d dc be ac be 45 f3 a0 be 9f 5a 71 3d
       0.10917214 -0.33739364 -0.314356 0.058924314
000190 03 ad 52 bd 66 15 a3 3d b8 d9 72 be a2 86 92 3b
       -0.051434528 0.07963066 -0.23715866 0.004471616
0001a0 d0 06 ed bd fc 8a f4 bd d4 bd 8e 3d e2 bd d0 bd
       -0.11573565 -0.11940572 0.069698006 -0.10192467
0001b0 d9 85 10 bd 84 f1 5c be f1 a6 6a bd 6d df 73 be
       -0.035283897 -0.21576506 -0.057288114 -0.23815699
0001c0 40 a4 bc 3b 7c 26 9e bd 64 d6 0c 3d dd 90 0f bd
       0.005756885 -0.07722184 0.034384146 -0.03505026
0001d0 14 60 7f bd e0 43 00 be 13 b7 ed be 50 34 1c bc
       -0.062347487 -0.12525892 -0.46428737 -0.009533957
0001e0 20 b9 96 3c 46 22 4e be 3a 40 06 bd 88 56 c4 bd
       0.018398821 -0.20130262 -0.032776095 -0.09586817
0001f0 4a 94 6d be e8 0a 0b 3d a8 a6 97 be b8 df bf 3c
       -0.23201099 0.033945948 -0.29619336 0.023422107
000200 b0 53 60 3d 9b 9f fc bf 3c 79 1d 3d 4e 5c 7d be
       0.05476731 -1.9736208 0.038445696 -0.24742243
000210 d5 25 cb be cc 9b 89 bd 20 14 33 bd af 6f bf bf
       -0.396773 -0.06719169 -0.043720365 -1.4955958
000220 dd d8 26 bd d4 63 dd bd b0 43 4e bf 5c 46 3d 3d
       -0.04073416 -0.10810056 -0.8057203 0.046209678
000230 17 8c 01 3e a8 25 91 3c e4 13 ea bd 92 bd b1 3d
       0.12651096 0.017718151 -0.11429575 0.08678736
000240 9d d6 cf bd 78 78 e5 bd 6f bc 2d 3f d0 2c 7b 3c
       -0.10148356 -0.11204618 0.6786565 0.015330508
000250 7c 3c 0d 3e a4 69 09 bd 4c b7 4b 3d 90 54 9a bc
       0.13792604 -0.033548012 0.049735352 -0.01883915
000260 67 f1 eb be 66 4a 9a bd 7a b2 d0 bf 48 81 c2 bd
       -0.46082613 -0.075337216 -1.6304467 -0.09497315
000270 43 75 54 be 55 21 b7 bd 32 cf 31 c0 83 88 bc bd
       -0.20747857 -0.089419045 -2.7782712 -0.09205725
000280 07 4f ee be 9c 91 d8 3d d6 09 3e 3c 7b 51 c0 3c
       -0.46544668 0.10574648 0.011599025 0.023476353
000290 d0 93 24 bd a4 6b 88 bd 67 00 a3 3e c4 19 a8 bd
       -0.040180027 -0.06661156 0.31836244 -0.082080394
0002a0 cc d6 e0 3d 22 bb 93 bd f0 21 a3 3c b0 57 28 bc
       0.10978469 -0.07213427 0.019913644 -0.010274813
0002b0 ce b9 f5 bd 54 18 0c bf 87 f2 19 be 5a e5 8e 3e
       -0.1199833 -0.5472462 -0.15033923 0.27909356
0002c0 3a 4e 83 3d 68 4e db bc 2e 72 c1 3d b4 3c 31 3d
       0.06411405 -0.026770785 0.09445606 0.04327078
0002d0 13 8d e7 3d 31 83 d1 3d 36 6a a7 3f de 3d ed bd
       0.11306205 0.10230101 1.3079288 -0.11584066
0002e0 8d 9c 4a bf 2b 4c 8e be 64 61 4f bd f0 35 7f bc
       -0.7914513 -0.27792487 -0.05062999 -0.015576825
0002f0 53 ed f9 bf 20 43 f4 bd fb d7 7e bf a8 b5 a2 3d
       -1.9525551 -0.119268656 -0.9954831 0.079448044
000300 d0 0f ba bd 0d 16 ff be 80 0e b9 3b 41 87 ab 3d
       -0.09085047 -0.4982151 0.0056474805 0.08375407
000310 a8 1c aa bd 0f e5 70 be e0 72 47 3c 22 f2 51 bc
       -0.08306247 -0.23524879 0.012173384 -0.012814077
000320 5f d6 a2 3d 54 6e dc 3d 22 32 a5 bd de 23 9b bd
       0.07951044 0.10763231 -0.08066203 -0.075752005
000330 7b c5 f7 ba df a0 c4 bb 38 d1 de bd 79 a3 98 bd
       -0.0018903458 -0.0060006226 -0.10879749 -0.07453055
000340 28 ce fd 3c d8 2b e3 bd 83 fd 02 3e a0 11 8b bc
       0.030982092 -0.11092347 0.1279202 -0.016976178
000350 b6 2e 04 3d aa 20 85 bd 8e 8b aa bd e4 84 22 3d
       0.03227111 -0.06500371 -0.08327399 0.039677516
000360 05 02 3b 3d c7 a5 f1 bc b9 3c 67 be d2 44 b1 3d
       0.045656223 -0.029497994 -0.22581758 0.086557046
000370 a8 f0 86 3d ee 1d 16 3d 34 3e 69 be 07 ce 77 3d
       0.0658887 0.036649637 -0.22777635 0.060499217
000380 5e 9c e0 bd 88 5a 33 bd 50 3c 53 bd 93 cd c2 3c
       -0.10967325 -0.04378751 -0.05157119 0.023779666
000390 51 11 67 3d c0 61 23 3d 47 8c 8c 3d f1 60 4d 3e
       0.056413 0.039888144 0.06862693 0.20056511
0003a0 01 9b 03 be b0 2a 6b bc 0a 41 be bd 08 5f f6 bc
       -0.12852098 -0.014353439 -0.09289749 -0.030074611
0003b0 86 23 83 bd ae 7e 04 3c 77 39 12 bb b4 7b 8c 3d
       -0.0640326 0.008086843 -0.0022312084 0.06859532
0003c0 20 a7 2e bd 80 b2 34 bc a4 f5 62 bd 14 b1 4d 3d
       -0.04263985 -0.011028886 -0.055410042 0.050217703
0003d0 0b 11 93 bd 22 83 9d 3c 84 71 28 3f aa 8a c3 bd
       -0.07180985 0.019227568 0.6579821 -0.095479324
0003e0 f9 23 80 bd 24 d3 c6 bd e8 63 d7 bb 80 db a0 bb
       -0.06256861 -0.09708241 -0.006573189 -0.004908979
0003f0 7c 08 77 3d dc f9 e9 3d bf 5f 46 be a0 04 14 bc
       0.060310826 0.1142461 -0.19372462 -0.009034306

model.model.model.2.bias f4 [64]
000000 f5 9e bb be a5 fa 80 be 3b 1e 23 bf ac cb 7d be
       -0.36644712 -0.25191227 -0.63718003 -0.24784726
000010 95 67 09 be 89 42 2b 3c f1 61 05 bf 09 2e 21 bd
       -0.1341842 0.010452875 -0.5210257 -0.039350543
000020 05 a6 08 be c5 b2 9d bf 44 b0 77 3d 80 03 57 3f
       -0.13344581 -1.2320181 0.060470834 0.83989716
000030 97 34 fb 3b a3 de 17 be 4f a7 f5 bc c1 0a cc 3c
       0.0076661813 -0.14831023 -0.029987006 0.024907472
000040 57 99 ae bd 91 74 2e 3d 30 ff 26 3d 41 c1 00 bd
       -0.08525341 0.042591635 0.04077071 -0.0314343
000050 17 ef a9 bf 42 a6 ce bd f0 af 74 3f 74 72 29 bf
       -1.327609 -0.10090305 0.9558096 -0.66190267
000060 e2 11 37 bd d2 fb 29 be e2 08 dd bd 7c 3a 8a be
       -0.04469479 -0.16599968 -0.1079271 -0.26997745
000070 a9 14 1b bd 1f 63 7f 3d d7 1b 24 3e ac a4 6e be
       -0.0378615 0.06235039 0.16026245 -0.23305005
000080 03 31 26 3e fd 91 1e bd e6 e9 82 3e 86 b6 9a bf
       0.16229634 -0.038713444 0.25569075 -1.2086952
000090 ff a9 8d bb 49 b2 23 3c 5a 44 5f be 2a f6 fe bd
       -0.0043232436 0.009991237 -0.21803418 -0.12449296
0000a0 f0 65 b6 be 4e 4b a7 be fb aa 66 3c 16 47 5c 3c
       -0.35624647 -0.3267464 0.014078851 0.013444683
0000b0 6c 93 df bd f3 6f 11 be a2 00 b6 3c b2 1b fa bb
       -0.1091679 -0.14202861 0.022217099 -0.007632696
0000c0 7e 50 13 bf 4d 74 e0 3e c1 02 8f bd d7 b2 4f 3e
       -0.57544696 0.4383873 -0.06982947 0.20283066
0000d0 d0 d2 04 be e9 53 01 3b 94 aa 53 3c c8 2a 1b be
       -0.12971044 0.0019733852 0.012919087 -0.15153039
0000e0 ac f4 34 be ff 38 26 3f f0 50 28 be 6a 8b a4 3e
       -0.1767146 0.6493072 -0.16437125 0.32137614
0000f0 36 92 ab be 9a 1e da be 27 42 49 3d f9 e7 0e bb
       -0.33509988 -0.42601472 0.049135353 -0.0021805747

model.model.model.4.weight f4 [2, 64]
000000 e0 13 52 3c 0b cc fe bb 82 ad 54 be da aa 68 3c
       0.012822121 -0.0077757887 -0.20769313 0.01420089
000010 9c e7 c3 bb bc 36 9a 3b a5 2c 9f bc f7 2c 21 be
       -0.0059785377 0.004706232 -0.019430468 -0.15739809
000020 98 49 a5 3d 3b 72 b1 be 52 13 18 3d 01 19 00 3f
       0.080706775 -0.34657463 0.0371278 0.5003815
000030 02 84 a3 3d 63 2e 59 3c 8e fd 05 3c 3d 40 14 3b
       0.07984163 0.013255688 0.008178128 0.0022621297
000040 de 5e 4a 3c fe a0 c5 bd 15 ed 10 3e 7c d1 84 be
       0.01235172 -0.096498474 0.1415294 -0.25941074
000050 3d d1 b2 3e ea d3 de bc e3 bc 92 be 29 ca 41 3d
       0.3492526 -0.027200658 -0.28659734 0.047311936
000060 01 24 50 be 10 ea ce bd 4d 61 7f 3d af 8c 0b 3d
       -0.20326234 -0.10103238 0.062348653 0.034069713
000070 9c 39 b5 be fc 75 eb bd ab 9b b6 bc 71 a4 8d 3a
       -0.35395515 -0.11497113 -0.022291025 0.0010806454
000080 8f 52 17 bf 29 18 37 bf 22 3f 78 be 56 ec b8 3e
       -0.5911035 -0.7152124 -0.24242833 0.3611781
000090 46 cd 8f 3a f7 f3 9e 3c fb b9 b2 3b df fd c1 3a
       0.001097121 0.01940344 0.0054542995 0.0014800391
0000a0 ec 13 e6 bd b4 7a 9e bb 32 3a f0 3d 05 23 a8 bc
       -0.112342685 -0.0048364047 0.1172985 -0.020524511
0000b0 48 8e 92 3d a1 fd 8c 3d 5d 39 39 be 95 be 23 bd
       0.07156044 0.068843134 -0.18088289 -0.039976675
0000c0 a2 b1 1a 3e 67 d3 b9 be 4e be 29 3c 4a b1 be bd
       0.15106824 -0.362941 0.010360314 -0.09311159
0000d0 c8 72 20 bb 6f 19 50 be f4 98 1b be 6a 96 ba bd
       -0.0024482477 -0.20322202 -0.15195066 -0.091107205
0000e0 78 b7 a9 bc ef b3 bb 3d 37 2f 80 bd fa db 08 3e
       -0.020717368 0.09165179 -0.062590055 0.13365164
0000f0 68 d0 f9 bb a9 5f d6 ba a6 e8 75 bd dd 8b b9 bc
       -0.007623721 -0.0016355413 -0.060036324 -0.0226497
000100 e6 01 c5 3c a9 df 45 be fb 0c 2f bd 6d 33 3b 3d
       0.024048757 -0.19323601 -0.04273699 0.04570334
000110 59 45 e1 3b 15 37 02 be b1 34 a1 bd 94 94 26 3e
       0.006874722 -0.12716325 -0.07871378 0.16267616
000120 2b ec d1 bb ad 28 e8 3d df 8c 42 3d 91 d4 ab bc
       -0.0064063272 0.11335883 0.047497626 -0.020975383
000130 88 8b 16 3a d1 58 5e bb e7 8d 57 3e c4 ff a0 3d
       0.00057428377 -0.003392745 0.21050225 0.078612834
000140 f0 5e d5 3d c2 74 db 3c 1c 54 3a be 22 30 8a be
       0.104184985 0.026789073 -0.18196148 -0.26989847
000150 a6 e8 65 3e 77 3e 29 be e7 4f 09 be d8 86 82 3e
       0.2245203 -0.16527735 -0.13409387 0.25493503
000160 0a be 57 be 6b 09 9f bd 73 f2 ee bc f6 78 01 3e
       -0.21068588 -0.07765468 -0.029168343 0.12643799
000170 bc 64 ea bd e6 dd b4 be 65 ed 2a be 1a e5 05 3d
       -0.11444995 -0.35325545 -0.16692121 0.03268919
000180 91 63 1d 3e 9e 85 cb 3d 6c 04 7e bd 8e d8 0e 3e
       0.15370013 0.09937595 -0.062015936 0.13949797
000190 5f 58 89 3c b1 d8 f6 bd 8c 72 c0 39 5d 6e 12 3b
       0.016765771 -0.12053049 0.00036706438 0.0022343614
0001a0 fe 0b 6c bd 91 ea e9 3b f9 98 40 bd 4c 5a cb 3b
       -0.057628624 0.007138558 -0.047020886 0.0062058326
0001b0 54 c1 92 3c a8 44 55 ba 86 a9 04 3d fd aa 2c be
       0.017914452 -0.0008135536 0.032388233 -0.16862102
0001c0 29 70 88 be 77 b7 5a bf 62 b0 73 be bd 01 55 be
       -0.2664807 -0.85436195 -0.23797753 -0.20801444
0001d0 fc 10 62 3b fa 87 db 3e 06 36 b1 bb 22 49 1c 3b
       0.0034494987 0.4287718 -0.0054080514 0.0023847301
0001e0 5a 2b ca bd 2f 65 68 3f 80 3c 31 3d 34 20 3b 3e
       -0.0987155 0.90779394 0.043270588 0.18274003
0001f0 34 b9 9d bb c1 92 c3 3d b9 ab fd be 28 71 cc be
       -0.0048133377 0.095494755 -0.49545076 -0.3993008

model.model.model.4.bias f4 [2]
000000 b6 98 0a bf 35 40 09 3d
       -0.5413927 0.0335085

model_old.model.model.0.weight f4 [64, 3]
000000 5f 31 11 bf df 27 47 be a4 d7 f1 be e2 a5 91 3c
       -0.5671596 -0.19448803 -0.47234833 0.017779294
000010 57 96 81 bf c5 11 e5 bd 1d 71 b0 be 80 ad 10 bf
       -1.0124005 -0.1118503 -0.344613 -0.5651474
000020 9b 38 a2 3e 5c 36 bf be c5 06 70 3e 2c 65 10 3f
       0.31683812 -0.3734616 0.23440082 0.56404376
000030 d0 51 5f be be d8 49 be 1a f5 37 3f cd a5 41 bf
       -0.21808553 -0.19711587 0.7185837 -0.75643617
000040 5f c0 f3 3e 47 3c 98 3e 54 6a f9 be f9 a6 f0 be
       0.47607705 0.29733488 -0.48713934 -0.4700239
000050 44 81 71 be ba be 9b be 74 3b ed bd bf b9 c2 3e
       -0.23584467 -0.3041895 -0.115836054 0.38032338
000060 35 66 0d 3a 15 10 53 be 44 13 db be cf 59 90 bd
       0.0005393953 -0.20611604 -0.42788136 -0.0704838
000070 9e 11 0a be cc 2f ce be 81 43 7b be 65 a4 2d be
       -0.13483283 -0.4027084 -0.2453747 -0.16957243
000080 3b 65 5b bf 62 e7 fb 3d 15 b1 8b 3d c1 dd 1f bf
       -0.8570134 0.12299992 0.06820885 -0.62447745
000090 7b 4c 39 3c ad 70 bb 39 79 0d 1b bf 6d 15 1f bf
       0.011309738 0.0003575137 -0.6056743 -0.6214207
0000a0 e2 66 13 3f 4f b8 a2 be 5e 82 97 bd d0 85 f0 bd
       0.5757886 -0.3178124 -0.073979124 -0.11744273
0000b0 54 a0 41 3f 97 9d 0b bd db 01 b7 3e 95 fb 0a bd
       0.75635266 -0.034085836 0.35743603 -0.033931334
0000c0 3e 15 9d bc 3b fa 05 be 93 61 fc be ef 22 b7 bd
       -0.019175168 -0.13083737 -0.49293193 -0.0894221
0000d0 6e 42 b1 bc e1 5e 0d 3f 90 0e 82 3e 5c 66 8a be
       -0.021638121 0.552229 0.25401735 -0.2703122
0000e0 b2 d5 59 3d c4 b1 47 bc fe 1d 54 be 05 67 98 bd
       0.05318231 -0.012188379 -0.20714566 -0.074415244
0000f0 bc 6e cf 3d 72 89 a5 3d 6f 21 0c 3f 73 23 ed be
       0.10128543 0.08082856 0.54738516 -0.46316108
000100 54 a3 f0 be 9b 76 2d 3e 1d cf bd be 85 c6 e8 bd
       -0.4699961 0.16939776 -0.37072077 -0.113659896
000110 eb 85 cc be 53 f6 d1 be 0a 36 50 3e 3f d9 62 be
       -0.3994592 -0.41008243 0.20333114 -0.22153185
000120 6b cb 0c bf 75 e6 9a 3e ef e8 26 be 14 eb 22 bb
       -0.5499789 0.3025395 -0.16299795 -0.0024859356
000130 37 f6 ee 3d a0 a8 f1 3d c6 e3 96 bd bb b5 8d bd
       0.116680555 0.11799741 -0.07367663 -0.06919428
000140 02 44 73 3d dd 1b 6d bd 65 ba 7f bd 23 ef bb 3e
       0.05939103 -0.0578879 -0.06243362 0.36705884
000150 71 a4 5d be f5 d4 33 3d 96 0d 19 3f 9d 28 06 be
       -0.2164476 0.043904264 0.59786355 -0.1310143
000160 66 42 9e be 2f 2d 06 bf 51 c7 70 be 3e 02 c1 3e
       -0.30910033 -0.52412695 -0.23513533 0.37697023
000170 65 78 20 3b 99 8e ac bd 08 88 11 3e e7 9e c5 be
       0.0024485823 -0.08425636 0.14212048 -0.38597795
000180 f2 c8 19 bd 5a 80 d3 be b9 79 a1 bd 63 f6 38 3e
       -0.037545152 -0.41308862 -0.07884545 0.18062739
000190 07 a7 e0 ba c3 61 b6 3f 8c ac 24 3e 9d 8d 1e 3e
       -0.0017139622 1.4248585 0.16081446 0.15483709
0001a0 d6 51 44 bf 2d da 03 3d 1e d2 d6 be f4 13 b5 bf
       -0.7668737 0.03219049 -0.41957182 -1.4146714
0001b0 67 af ac be 4e 8a 0b 3e d7 23 ed be 97 0e da bd
       -0.3372757 0.13626978 -0.46316406 -0.10647314
0001c0 30 6e 86 be 83 c0 fe 3d df 35 a5 3d 63 15 bd be
       -0.2625594 0.124390624 0.08066916 -0.3693038
0001d0 8e 6c d1 be 39 31 1a bf 85 09 26 3f 64 8c 39 40
       -0.40903133 -0.6023136 0.64858276 2.8991938
0001e0 be ec c5 be b1 f4 89 3e ad 71 4b bf f7 c8 fe be
       -0.38657182 0.26944497 -0.7947033 -0.497627
0001f0 f1 d5 2e be 3d c9 0e bf 2e 97 c4 be 7e f1 85 be
       -0.170738 -0.55775815 -0.3839659 -0.26160806
000200 f4 4e 11 bf a5 ac 8c be 0f ab e3 be 5c 39 b6 bd
       -0.567611 -0.27475467 -0.44466445 -0.08897659
000210 36 c1 e3 bc e0 52 d2 be db f1 99 be 06 f4 a5 bd
       -0.027802091 -0.41078854 -0.30067334 -0.081031844
000220 11 ce 07 bf 06 d6 3f 3f 4c 0d 97 bd 29 4e f5 be
       -0.5304881 0.7493595 -0.07375583 -0.47911194
000230 06 ad 81 bf 36 73 27 3e 33 4b 7f be a9 c2 b2 3e
       -1.0130928 0.16352543 -0.2493103 0.3491414
000240 1b 62 f4 be 81 86 48 be 76 e9 05 3f 44 98 be be
       -0.477311 -0.19582559 0.5230936 -0.37225544
000250 bb 26 83 be 5f 10 ef 3e 5c ce 90 bd 79 fb 99 be
       -0.25615487 0.46692178 -0.0707061 -0.3007467
000260 2e b8 df 3e 60 e0 24 bf dd 5c 50 3f 09 6f 3e be
       0.43695205 -0.6440487 0.813917 -0.18597044
000270 97 bb 06 3e 9e c0 0a 3d 7c 97 7a be 8d bd 96 3e
       0.13157497 0.0338751 -0.24471849 0.2944149
000280 e7 62 a3 bd 6e 35 27 bf ab e7 93 3d a8 00 4a bf
       -0.079778485 -0.653159 0.072219215 -0.7890725
000290 d8 8f 83 3b 4f 42 c3 be 21 d7 f5 be 22 d3 34 be
       0.0040149502 -0.38136527 -0.48015693 -0.17658666
0002a0 df 16 d7 bc 4d d3 ca 3e 3e f0 0c 3e 48 bd 48 3d
       -0.026256023 0.39614335 0.1376352 0.049008638
0002b0 56 37 ab be 14 10 02 bf 37 95 b5 be 20 c8 5c 3e
       -0.33440655 -0.50805783 -0.35465404 0.21560717
0002c0 3d 5a 03 bf 59 df 51 3c 7f 05 41 be 9a 16 44 be
       -0.5130957 0.012809598 -0.18849753 -0.19149247
0002d0 a6 4a 81 bd 8a 81 7a be cb 7a aa 3e 40 1b a0 bc
       -0.06313066 -0.24463478 0.3329681 -0.019544244
0002e0 de d0 41 be e2 d6 98 3c df 3d 2c bd b5 4c a5 be
       -0.18927333 0.018657152 -0.042051192 -0.32285085
0002f0 51 eb ae be 91 e9 58 be ee 6a 75 be 2c cc 3b bd
       -0.34163907 -0.21182849 -0.23966572 -0.04584901

model_old.model.model.0.bias f4 [64]
000000 5b 2a fe be 3a 9d d5 3f 4c 88 03 3f 34 a2 5b bf
       -0.4964169 1.6688607 0.5137985 -0.8579438
000010 5e b6 88 3f 0f c8 bf 3e ee a1 ce 3e ad 78 aa 3f
       1.0680654 0.3745732 0.40357918 1.3318077
000020 15 2b 43 3e c3 60 31 3e 51 30 93 3f ee 95 c9 bf
       0.19059403 0.17322068 1.149912 -1.574888
000030 6b 50 7b be b8 a5 23 3f f8 7e 6c 3e 78 64 e7 bf
       -0.24542396 0.6392474 0.2309531 -1.8077536
000040 43 4f 53 3e 16 d7 1f 3e bf 59 05 c0 2e 43 b2 be
       0.20635705 0.15609393 -2.0836027 -0.3481688
000050 54 e1 f2 bf a8 53 f8 be 33 54 d1 3e 1f 13 13 bf
       -1.8975015 -0.48501325 0.4088455 -0.5745105
000060 88 83 17 3d 29 5e a1 bf f3 a1 f4 3f ab 99 68 3e
       0.036990672 -1.260686 1.9111923 0.2271487
000070 82 9a d8 3e d0 fc 53 3f b1 89 ca 3f 02 24 8c bf
       0.4230538 0.82807636 1.582327 -1.0948489
000080 16 e7 0f 3f d6 b7 01 c0 6e 86 e1 bf 52 4c 85 be
       0.56211984 -2.0268455 -1.761915 -0.2603479
000090 54 db a3 bc 48 68 5f be 63 77 aa bf 51 4d 3a 3f
       -0.020002045 -0.21817124 -1.3317684 0.72774225
0000a0 86 de 2f 3f 73 ca ad be be 5d db bd 81 2b 86 3d
       0.6869892 -0.3394352 -0.10711239 0.065512665
0000b0 6e 20 05 3f 3c 6e 40 3f f2 a8 45 3f b7 57 03 c0
       0.5200261 0.75168204 0.77210915 -2.0522287
0000c0 be 0e 32 be 64 7d ac be de 83 ad 3e eb f5 9b be
       -0.17388436 -0.33689415 0.3388967 -0.30461058
0000d0 91 48 0c c0 f0 83 02 c0 3e 1c 3f bf d8 17 3f 3e
       -2.191929 -2.0393028 -0.7465247 0.1866144
0000e0 fc f5 de bf 5b 51 a1 3f 62 83 3f bf 8f 98 a6 be
       -1.7418818 1.2602953 -0.7480985 -0.32538268
0000f0 f2 d3 e4 3f c9 2a 8a 39 db a2 b5 3f 7b 65 3f 3d
       1.787718 0.0002635329 1.4190325 0.04672764

model_old.model.model.2.weight f4 [64, 64]
000000 be 24 a3 bd 76 1d 8b be 72 fe e1 bd 4b 32 bd 3c
       -0.079659924 -0.27170914 -0.1103486 0.02309527
000010 c7 53 13 bc f6 45 2b be 22 1c 84 bd 6a 14 85 be
       -0.008992142 -0.16725907 -0.064506784 -0.25992137
000020 eb d1 0a be 64 83 c0 bd 12 bd 0d 3d 33 e7 ce bc
       -0.1355664 -0.09400061 0.03460414 -0.025256729
000030 9c 8d 20 3d d3 84 bd 3c 6e c2 26 be 17 2c 85 3d
       0.03919755 0.023134625 -0.16285107 0.0650255
000040 c1 78 2d 3d 00 e8 d3 ba fa 05 ed 3d 62 4d be bd
       0.042351488 -0.0016167164 0.115734056 -0.09292103
000050 a9 d5 06 3d 78 bd 49 bd 00 c7 76 3b ec 80 ae 3d
       0.032918606 -0.049252957 0.0037655234 0.08520684
000060 c8 cd 4c bd 58 35 f8 bd 82 de 27 be 40 20 4d bd
       -0.050000936 -0.121195495 -0.16393474 -0.050079584
000070 bc f6 1b be 70 e1 95 bb bb 44 5b bd 37 8f 8b 3d
       -0.1523084 -0.0045739934 -0.053532343 0.068144254
000080 30 90 38 be c9 5b 2c bd 0b 00 04 3d 9a 6c df 3c
       -0.18023753 -0.04207972 0.032226603 0.027273465
000090 ee 47 b2 bd a6 44 a7 bd 12 c4 e9 bd 7f 3a 80 3c
       -0.08705126 -0.081673905 -0.114143506 0.015652893
0000a0 1d a7 9b bc f0 d0 5a bc f4 05 bf bd d0 22 27 bc
       -0.019000584 -0.013355479 -0.09327307 -0.010201171
0000b0 da 12 a9 bd 56 e5 9b bd 33 fc 03 be cf e9 9b 3b
       -0.08255549 -0.07612102 -0.12889175 0.0047580968
0000c0 50 7a 2a bc 1e f1 a3 bd 00 90 30 ba 14 78 32 3d
       -0.010405138 -0.08004974 -0.0006735325 0.043571547
0000d0 1d b5 c2 bd 04 2d 2f 3d 0b 55 30 3f 12 f2 e5 bd
       -0.09507201 0.04276754 0.68879765 -0.11227812
0000e0 69 8b a1 bd a9 35 3b bd e6 4b bd 3b cc ba 42 3d
       -0.078879185 -0.04570547 0.00577687 0.047541425
0000f0 e8 b7 13 3c 5e 16 bb bd 39 00 47 be a8 16 a2 bd
       0.009016015 -0.091351256 -0.19433679 -0.079144776
000100 0c 02 33 3d 08 1e f4 3e 18 b2 0a bd 9e cb e7 3d
       0.043703124 0.47679162 -0.03386125 0.11318134
000110 c5 d4 b8 bb 28 b4 73 be b6 a1 ae bd 4f 01 86 be
       -0.0056405985 -0.23799193 -0.08526938 -0.26172873
000120 96 5c 3b bc e0 3d bb bc f6 6a 37 bd 16 c8 b6 be
       -0.011435648 -0.022856653 -0.04477974 -0.35699528
000130 5b 87 22 3d 53 c5 ba ba f3 bc 20 be d0 0f d0 bd
       0.039679866 -0.0014249481 -0.15697078 -0.10159266
000140 e0 ed 11 be 74 bd 55 bd 7c 8d 65 be c0 77 6b 3c
       -0.14250898 -0.05218263 -0.22417253 0.014371812
000150 d9 2b 43 be 90 33 d4 bd 94 b7 c4 3d 72 9c aa 3d
       -0.19059695 -0.10361397 0.09605327 0.08330621
000160 0d 52 88 be 12 43 38 be 32 49 19 bd a0 3d ff bc
       -0.266251 -0.17994335 -0.03742332 -0.031157315
000170 93 21 29 be 2c 28 24 bd 91 4f fb 3d 3f 05 22 be
       -0.16516714 -0.040077373 0.122710355 -0.15822314
000180 a5 95 df 3d dc be ac be 45 f3 a0 be 9f 5a 71 3d
       0.10917214 -0.33739364 -0.314356 0.058924314
000190 03 ad 52 bd 66 15 a3 3d b8 d9 72 be a2 86 92 3b
       -0.051434528 0.07963066 -0.23715866 0.004471616
0001a0 d0 06 ed bd fc 8a f4 bd d4 bd 8e 3d e2 bd d0 bd
       -0.11573565 -0.11940572 0.069698006 -0.10192467
0001b0 d9 85 10 bd 84 f1 5c be f1 a6 6a bd 6d df 73 be
       -0.035283897 -0.21576506 -0.057288114 -0.23815699
0001c0 40 a4 bc 3b 7c 26 9e bd 64 d6 0c 3d dd 90 0f bd
       0.005756885 -0.07722184 0.034384146 -0.03505026
0001d0 14 60 7f bd e0 43 00 be 13 b7 ed be 50 34 1c bc
       -0.062347487 -0.12525892 -0.46428737 -0.009533957
0001e0 20 b9 96 3c 46 22 4e be 3a 40 06 bd 88 56 c4 bd
       0.018398821 -0.20130262 -0.032776095 -0.09586817
0001f0 4a 94 6d be e8 0a 0b 3d a8 a6 97 be b8 df bf 3c
       -0.23201099 0.033945948 -0.29619336 0.023422107
000200 b0 53 60 3d d6 c0 fc bf 3c 79 1d 3d 4e 5c 7d be
       0.05476731 -1.9746349 0.038445696 -0.24742243
000210 d5 25 cb be cc 9b 89 bd 20 14 33 bd af 6f bf bf
       -0.396773 -0.06719169 -0.043720365 -1.4955958
000220 dd d8 26 bd d4 63 dd bd b0 43 4e bf 7e e8 50 3d
       -0.04073416 -0.10810056 -0.8057203 0.05100297
000230 17 8c 01 3e a8 25 91 3c e4 13 ea bd a8 82 af 3d
       0.12651096 0.017718151 -0.11429575 0.085698426
000240 9d d6 cf bd 78 78 e5 bd cd f5 2d 3f d0 2c 7b 3c
       -0.10148356 -0.11204618 0.6795319 0.015330508
000250 8a 1c 10 3e a4 69 09 bd 4c b7 4b 3d 90 54 9a bc
       0.14073387 -0.033548012 0.049735352 -0.01883915
000260 67 f1 eb be 66 4a 9a bd 16 22 d1 bf 48 81 c2 bd
       -0.46082613 -0.075337216 -1.6338527 -0.09497315
000270 43 75 54 be 55 21 b7 bd f1 b7 32 c0 83 88 bc bd
       -0.20747857 -0.089419045 -2.792477 -0.09205725
000280 07 4f ee be 4a e9 da 3d 43 06 81 3c 7b 51 c0 3c
       -0.46544668 0.106890276 0.015750056 0.023476353
000290 d0 93 24 bd a4 6b 88 bd 67 00 a3 3e c4 19 a8 bd
       -0.040180027 -0.06661156 0.31836244 -0.082080394
0002a0 cc d6 e0 3d 22 bb 93 bd f0 21 a3 3c b0 57 28 bc
       0.10978469 -0.07213427 0.019913644 -0.010274813
0002b0 ce b9 f5 bd 54 18 0c bf 87 f2 19 be 47 c1 8c 3e
       -0.1199833 -0.5472462 -0.15033923 0.2749121
0002c0 3a 4e 83 3d 68 4e db bc 2e 72 c1 3d b4 3c 31 3d
       0.06411405 -0.026770785 0.09445606 0.04327078
0002d0 7a 56 f2 3d ad 04 d7 3d 36 6a a7 3f de 3d ed bd
       0.118329 0.10498939 1.3079288 -0.11584066
0002e0 3c c9 49 bf 09 84 8f be 64 61 4f bd f0 35 7f bc
       -0.78822684 -0.28030422 -0.05062999 -0.015576825
0002f0 e6 dc f9 bf 20 43 f4 bd cb 12 7f bf a8 b5 a2 3d
       -1.9520538 -0.119268656 -0.9963805 0.079448044
000300 d0 0f ba bd 0d 16 ff be 80 0e b9 3b 41 87 ab 3d
       -0.09085047 -0.4982151 0.0056474805 0.08375407
000310 a8 1c aa bd 0f e5 70 be e0 72 47 3c 22 f2 51 bc
       -0.08306247 -0.23524879 0.012173384 -0.012814077
000320 5f d6 a2 3d 54 6e dc 3d 22 32 a5 bd de 23 9b bd
       0.07951044 0.10763231 -0.08066203 -0.075752005
000330 7b c5 f7 ba df a0 c4 bb 38 d1 de bd 79 a3 98 bd
       -0.0018903458 -0.0060006226 -0.10879749 -0.07453055
000340 28 ce fd 3c d8 2b e3 bd 83 fd 02 3e a0 11 8b bc
       0.030982092 -0.11092347 0.1279202 -0.016976178
000350 b6 2e 04 3d aa 20 85 bd 8e 8b aa bd e4 84 22 3d
       0.03227111 -0.06500371 -0.08327399 0.039677516
000360 05 02 3b 3d c7 a5 f1 bc b9 3c 67 be d2 44 b1 3d
       0.045656223 -0.029497994 -0.22581758 0.086557046
000370 a8 f0 86 3d ee 1d 16 3d 34 3e 69 be 07 ce 77 3d
       0.0658887 0.036649637 -0.22777635 0.060499217
000380 5e 9c e0 bd 88 5a 33 bd 50 3c 53 bd 93 cd c2 3c
       -0.10967325 -0.04378751 -0.05157119 0.023779666
000390 51 11 67 3d c0 61 23 3d 47 8c 8c 3d f1 60 4d 3e
       0.056413 0.039888144 0.06862693 0.20056511
0003a0 01 9b 03 be b0 2a 6b bc 0a 41 be bd 08 5f f6 bc
       -0.12852098 -0.014353439 -0.09289749 -0.030074611
0003b0 86 23 83 bd ae 7e 04 3c 77 39 12 bb b4 7b 8c 3d
       -0.0640326 0.008086843 -0.0022312084 0.06859532
0003c0 20 a7 2e bd 80 b2 34 bc a4 f5 62 bd 14 b1 4d 3d
       -0.04263985 -0.011028886 -0.055410042 0.050217703
0003d0 0b 11 93 bd 22 83 9d 3c 84 71 28 3f aa 8a c3 bd
       -0.07180985 0.019227568 0.6579821 -0.095479324
0003e0 f9 23 80 bd 24 d3 c6 bd e8 63 d7 bb 80 db a0 bb
       -0.06256861 -0.09708241 -0.006573189 -0.004908979
0003f0 7c 08 77 3d dc f9 e9 3d bf 5f 46 be a0 04 14 bc
       0.060310826 0.1142461 -0.19372462 -0.009034306

model_old.model.model.2.bias f4 [64]
000000 f5 9e bb be a5 fa 80 be ce 94 22 bf ac cb 7d be
       -0.36644712 -0.25191227 -0.6350831 -0.24784726
000010 95 67 09 be 89 42 2b 3c 3b 03 05 bf 09 2e 21 bd
       -0.1341842 0.010452875 -0.51958054 -0.039350543
000020 05 a6 08 be 97 ce 9d bf 44 b0 77 3d f3 7e 56 3f
       -0.13344581 -1.2328671 0.060470834 0.8378746
000030 97 34 fb 3b a3 de 17 be 4f a7 f5 bc c1 0a cc 3c
       0.0076661813 -0.14831023 -0.029987006 0.024907472
000040 57 99 ae bd 91 74 2e 3d 30 ff 26 3d 41 c1 00 bd
       -0.08525341 0.042591635 0.04077071 -0.0314343
000050 71 43 aa bf 42 a6 ce bd 22 be 74 3f 90 e3 28 bf
       -1.3301831 -0.10090305 0.9560262 -0.6597223
000060 e2 11 37 bd d2 fb 29 be e2 08 dd bd 7c 3a 8a be
       -0.04469479 -0.16599968 -0.1079271 -0.26997745
000070 25 ed 28 bd 4b 3c 93 3d d7 1b 24 3e ac a4 6e be
       -0.041241784 0.07189234 0.16026245 -0.23305005
000080 ad e1 21 3e fd 91 1e bd 19 80 86 3e e3 91 9a bf
       0.15808745 -0.038713444 0.26269606 -1.2075771
000090 ff a9 8d bb 5b e8 1f 3c 5a 44 5f be 2a f6 fe bd
       -0.0043232436 0.009759988 -0.21803418 -0.12449296
0000a0 71 1a b8 be 4e 4b a7 be fb aa 66 3c 16 47 5c 3c
       -0.35957673 -0.3267464 0.014078851 0.013444683
0000b0 6c 93 df bd f3 6f 11 be a2 00 b6 3c b2 1b fa bb
       -0.1091679 -0.14202861 0.022217099 -0.007632696
0000c0 33 f1 13 bf b8 76 e0 3e c1 02 8f bd d7 b2 4f 3e
       -0.57789916 0.43840575 -0.06982947 0.20283066
0000d0 d0 d2 04 be e9 53 01 3b 94 aa 53 3c c8 2a 1b be
       -0.12971044 0.0019733852 0.012919087 -0.15153039
0000e0 ac f4 34 be b3 a3 26 3f f0 50 28 be 1e 6e a3 3e
       -0.1767146 0.65093535 -0.16437125 0.3191995
0000f0 36 92 ab be 9a 1e da be 27 42 49 3d f9 e7 0e bb
       -0.33509988 -0.42601472 0.049135353 -0.0021805747

model_old.model.model.4.weight f4 [2, 64]
000000 e0 13 52 3c 0b cc fe bb e0 a1 58 be da aa 68 3c
       0.012822121 -0.0077757887 -0.211555 0.01420089
000010 9c e7 c3 bb bc 36 9a 3b d3 83 9f bc f7 2c 21 be
       -0.0059785377 0.004706232 -0.019472038 -0.15739809
000020 98 49 a5 3d c8 dd af be 52 13 18 3d 5e 68 fe 3e
       0.080706775 -0.34348893 0.0371278 0.49689
000030 02 84 a3 3d 63 2e 59 3c 8e fd 05 3c 3d 40 14 3b
       0.07984163 0.013255688 0.008178128 0.0022621297
000040 de 5e 4a 3c fe a0 c5 bd 15 ed 10 3e 7c d1 84 be
       0.01235172 -0.096498474 0.1415294 -0.25941074
000050 0c cb b2 3e ea d3 de bc c0 ed 93 be 01 f8 4e 3d
       0.34920537 -0.027200658 -0.28892326 0.050529484
000060 01 24 50 be 10 ea ce bd 4d 61 7f 3d af 8c 0b 3d
       -0.20326234 -0.10103238 0.062348653 0.034069713
000070 9c 39 b5 be fc 75 eb bd ab 9b b6 bc 71 a4 8d 3a
       -0.35395515 -0.11497113 -0.022291025 0.0010806454
000080 8f 52 17 bf 29 18 37 bf c6 8e 7d be b5 af b7 3e
       -0.5911035 -0.7152124 -0.24761495 0.3587624
000090 46 cd 8f 3a b1 e7 9f 3c fb b9 b2 3b df fd c1 3a
       0.001097121 0.019519659 0.0054542995 0.0014800391
0000a0 ec 13 e6 bd b4 7a 9e bb 32 3a f0 3d 05 23 a8 bc
       -0.112342685 -0.0048364047 0.1172985 -0.020524511
0000b0 48 8e 92 3d a1 fd 8c 3d 5d 39 39 be 95 be 23 bd
       0.07156044 0.068843134 -0.18088289 -0.039976675
0000c0 14 46 1a 3e 67 d3 b9 be 4e be 29 3c 4a b1 be bd
       0.15065795 -0.362941 0.010360314 -0.09311159
0000d0 c8 72 20 bb 6f 19 50 be f4 98 1b be 6a 96 ba bd
       -0.0024482477 -0.20322202 -0.15195066 -0.091107205
0000e0 78 b7 a9 bc ef b3 bb 3d 37 2f 80 bd ce 67 0c 3e
       -0.020717368 0.09165179 -0.062590055 0.13711473
0000f0 68 d0 f9 bb a9 5f d6 ba a6 e8 75 bd dd 8b b9 bc
       -0.007623721 -0.0016355413 -0.060036324 -0.0226497
000100 e6 01 c5 3c a9 df 45 be 30 7b 3a bd 6d 33 3b 3d
       0.024048757 -0.19323601 -0.045527637 0.04570334
000110 59 45 e1 3b 15 37 02 be b1 34 a1 bd 94 94 26 3e
       0.006874722 -0.12716325 -0.07871378 0.16267616
000120 2b ec d1 bb ad 28 e8 3d df 8c 42 3d e9 f8 9d bc
       -0.0064063272 0.11335883 0.047497626 -0.019283729
000130 88 8b 16 3a d1 58 5e bb e7 8d 57 3e c4 ff a0 3d
       0.00057428377 -0.003392745 0.21050225 0.078612834
000140 f0 5e d5 3d c2 74 db 3c 1c 54 3a be 22 30 8a be
       0.104184985 0.026789073 -0.18196148 -0.26989847
000150 55 30 60 3e 77 3e 29 be 64 dd 06 be 0e 89 82 3e
       0.21893437 -0.16527735 -0.13170391 0.2549519
000160 0a be 57 be 6b 09 9f bd 73 f2 ee bc f6 78 01 3e
       -0.21068588 -0.07765468 -0.029168343 0.12643799
000170 c6 b6 e6 bd a3 ff b7 be 65 ed 2a be 1a e5 05 3d
       -0.1126533 -0.35937223 -0.16692121 0.03268919
000180 5c 09 1f 3e 9e 85 cb 3d 43 7b 81 bd 81 36 10 3e
       0.15530914 0.09937595 -0.063223384 0.14083292
000190 5f 58 89 3c 02 73 f2 bd 8c 72 c0 39 5d 6e 12 3b
       0.016765771 -0.11838342 0.00036706438 0.0022343614
0001a0 b5 f5 6b bd 91 ea e9 3b f9 98 40 bd 4c 5a cb 3b
       -0.05760737 0.007138558 -0.047020886 0.0062058326
0001b0 54 c1 92 3c a8 44 55 ba 86 a9 04 3d fd aa 2c be
       0.017914452 -0.0008135536 0.032388233 -0.16862102
0001c0 a0 c2 89 be 6f 2c 5b bf 62 b0 73 be bd 01 55 be
       -0.269063 -0.85614675 -0.23797753 -0.20801444
0001d0 fc 10 62 3b fa 87 db 3e 06 36 b1 bb 22 49 1c 3b
       0.0034494987 0.4287718 -0.0054080514 0.0023847301
0001e0 5a 2b ca bd 30 31 68 3f 80 3c 31 3d cf b8 38 3e
       -0.0987155 0.90700054 0.043270588 0.18039249
0001f0 34 b9 9d bb c1 92 c3 3d b9 ab fd be 28 71 cc be
       -0.0048133377 0.095494755 -0.49545076 -0.3993008

model_old.model.model.4.bias f4 [2]
000000 85 ef 0a bf 42 01 0c 3d
       -0.5427173 0.034180887
