rl_compexp/save/Blackjack-DQN64/weights.npy (npy, 640 bytes, 1 tensors)

array (column-major) f4 [64, 2]
0	0xbdc367b8	-0.09541267
1	0x3b942556	0.0045210524
2	0xbdc822f7	-0.09772294
3	0xbd4ca15a	-0.049958564
4	0xbd4148a3	-0.047188412
5	0x3bd291f5	0.006426091
6	0x3cba4951	0.022740038
7	0x3d5cfadb	0.053950172
8	0xbe433c4d	-0.19065972
9	0xbe0b9d63	-0.13634257
10	0x3da64a4a	0.08119638
11	0xbd0dd458	-0.034626335
12	0xbdd6dac4	-0.10490945
13	0xbf299630	-0.6624479
14	0x3ea56c0a	0.3230899
15	0xbdc1ea57	-0.09468525
16	0x3ccf81bf	0.025330422
17	0xbdf3fbda	-0.11913271
18	0x3d0e2524	0.03470339
19	0xbdf57682	-0.11985494
20	0xbdce4e22	-0.100734964
21	0x3e1f7969	0.15573658
22	0xbd8d9f97	-0.06915205
23	0xbd4954fa	-0.049153306
24	0x3b57d06c	0.0032930626
25	0xbd1f38d0	-0.03887254
26	0x3c6edf1a	0.014579559
27	0xbba4294b	-0.0050098053
28	0x3ed5e4f2	0.41776234
29	0xbd448dca	-0.047986783
30	0x3c8d79df	0.017270027
31	0xbd003e7c	-0.03130959
32	0xbdb3996a	-0.08769496
33	0xbb44e316	-0.003004258
34	0xbe5a874d	-0.21340676
35	0xbb57af14	-0.0032910751
36	0xbd9b0a6a	-0.07570346
37	0xbdf8f807	-0.121566825
38	0x3e1d477f	0.15359305
39	0xba85ce02	-0.001020849
40	0xbd187215	-0.037218172
41	0xbd1de688	-0.03854993
42	0xba45c6d8	-0.00075445836
43	0xba7d20a2	-0.0009656047
44	0xbdc72a80	-0.09724903
45	0x3d162ca6	0.036663674
46	0xbe08587d	-0.13315006
47	0xbcbbb18e	-0.022911813
48	0x3ecd6e4e	0.40123218
49	0xbe10362d	-0.14083166
50	0x39049c92	0.00012646828
51	0xbd24294c	-0.040078446
52	0xbd1076a6	-0.035269402
53	0x3c2a8261	0.010407061
54	0x39a7d325	0.00032010037
55	0x3c00d3b8	0.007862978
56	0x3b53cb6a	0.003231729
57	0xbd83fbfe	-0.06444548
58	0x3de662e5	0.112493314
59	0x3db8d29a	0.09024544
60	0xbc6f39d5	-0.014601191
61	0xbd9e9cd8	-0.07744759
62	0x3c87492b	0.016514381
63	0xbeafdf9a	-0.34350282
64	0x3cd18adc	0.025578909
65	0x38e706dc	0.00011016216
66	0xba9a10f5	-0.0011754321
67	0xbdef3569	-0.11680109
68	0xbe1d43f1	-0.15357949
69	0x3da8ef22	0.08248736
70	0xbe4fe623	-0.20302634
71	0x3ad10a7e	0.0015948561
72	0x3d112a56	0.035440765
73	0xbde99070	-0.114045024
74	0xb9be4049	-0.0003628752
75	0xbe2bdeba	-0.16784182
76	0x3d539f8b	0.051665824
77	0xbf0df2a7	-0.55448383
78	0x3e4a5587	0.19759189
79	0x3d4046d7	0.04694256
80	0x3c039c9d	0.008032945
81	0xbd46301d	-0.04838573
82	0x3d15b77f	0.03655195
83	0xbbb37494	-0.0054765437
84	0xbc6811e5	-0.014164423
85	0xbc06f670	-0.008237466
86	0xbf21e2ba	-0.6323658
87	0xbe610d14	-0.21977645
88	0x3c75b49d	0.014996675
89	0x3d8232af	0.063573234
90	0x3cd0e924	0.025501795
91	0xbca90e6b	-0.020636758
92	0x3e58ba22	0.21164754
93	0xbd9c188e	-0.07621871
94	0xbd8dd22c	-0.06924853
95	0xbdacf259	-0.08444662
96	0x3ea6551c	0.32486808
97	0x3bd15fbf	0.0063895877
98	0x3f2e026a	0.67972434
99	0x3c8d7327	0.017266823
100	0x3dcf22fe	0.10114096
101	0xbbda0958	-0.006653946
102	0x3e2d5d5e	0.16930148
103	0xbda41bad	-0.08013091
104	0xbe3c0b13	-0.183636
105	0x3dfb49f4	0.12269965
106	0x3b66aea3	0.0035199306
107	0x3c552bba	0.0130109135
108	0xbd2cded4	-0.042204693
109	0x3cc3363a	0.023829568
110	0xbe2ddda3	-0.16979079
111	0x3e733d7e	0.23753926
112	0xbd4a008c	-0.049316928
113	0x3b76605f	0.0037594063
114	0xbb21616b	-0.0024624716
115	0x3ddb733a	0.10715337
116	0xbdb5034f	-0.08838522
117	0x3ed30108	0.41211724
118	0x3cf4f18a	0.029900331
119	0x3c3a676f	0.0113772
120	0x3d9e0bd6	0.07717101
121	0x3da99e05	0.08282093
122	0xbdacbd9c	-0.084346026
123	0xbde2196a	-0.110400036
124	0x3af3ad64	0.0018591103
125	0x3dfbb282	0.12289907
126	0x3d9446d4	0.07240072
127	0xbd95cf9c	-0.07314989
