rl_compexp/save/Blackjack-PPO1024/ppo_best.pth (torch, 277516 bytes, 22 tensors)

actor.preprocess.model.model.0.weight f4 [256, 3]
00000000: 15a4 9f3e 48a8 6b3d 3a4e 48be b684 8f3e
00000010: 397a ccbe d4c0 8e3e 586f 8f3e e0d5 3fbe
00000020: 8244 a9be ef71 adbe d8a8 cfbe 6daa 053f
00000030: 3dfb 4c3e ad03 d83e 3e19 0e3f fc70 e13e
00000040: 3a6f 00bf 2417 2bbf b3d1 c13e c5bb dc3e
00000050: 489a b3be 4e3d 9abe d1a7 1b3e 67bd f93e
00000060: a0a2 4b3d 611e 603c 3d18 1e3e e894 dcbe
00000070: 040d d3bd 96fa de3e b732 afbc 4c11 5e3c
00000080: e2af 323f 3148 033f af65 bfbe c6b7 2ebf
00000090: 22f7 70be 139d 87be a250 c33e 5196 f0be
000000a0: 2b52 1ebe 9efc 6d3e c13d e4bd 44ae bb3c
000000b0: e135 cfbe ca97 19be 506f 00bf 9ffd f3be
000000c0: 4c75 173d 8add bb3c 8215 98bf 0ba8 593e
000000d0: ce3a b6bd dadf ee3e 5cfd 393e 7213 683e
000000e0: 241d 41be e867 37bd 1557 483e 4131 c53e
000000f0: 779c 363e 6ebe 12bf ff90 a8be 8146 a83d
00000100: 7e63 113c 3f46 e0bd c8bd ad3e 4da2 d6be
00000110: e953 f53e 9c1c cfbe 072a 94be 3e3e bbbe
00000120: d619 96be 656f fd3e aeb6 23be 2714 533e
00000130: f34d c4be 577e 473e de1d a63e 261b dabe
00000140: 94ca 69be 6048 e1be d908 94be cc06 5b3e
00000150: e2dd f0be aac0 6f3c e051 bfbe f1e8 4dbd
00000160: 6317 033e 9682 073f 5a9c a33e 6a11 4ebd
00000170: 8e02 d03e 73a3 77bc ff56 b63e 72c7 c2be
00000180: 05b0 05bf 5f27 34be 3fb6 cfbc d7ad 913e
00000190: 2223 fbbe 3475 6cbe 4524 f13e 9021 da3c
000001a0: d2d7 22bf bf25 c63e db53 a8bd cedb f43e
000001b0: 684c 8fbe dc02 9c3e 6942 0ebf 497e e53e
000001c0: ff41 a3be 83f9 273e 7d6b 8f3b 5e90 883e
000001d0: 9b39 00be cd4c 293d 046f 3c3e 859f 153c
000001e0: 33a1 cb3e 4547 643e a621 b6be 08c0 793d
000001f0: 4305 e13e 63a5 28bf 5900 b13e 7832 b63e
00000200: 6aca 09bf e149 29be dd23 963e fa48 2d3f
00000210: 5326 923e e37d bcbd f31e 2cbf 1252 183e
00000220: d358 473e 9b82 77be c448 9cbe 4ba3 c13b
00000230: 9885 bdbd e4bf 26be b528 06be ffd2 723e
00000240: db5a b6be 34fb e53e 30d2 f73b 049f 7c3e
00000250: d941 0dbe 7da2 b5bd ac0b 663e e576 dd3d
00000260: a653 6abe 9bd4 173e fa5c 01be ba42 fdbe
00000270: 7dfb 0fbf dbb1 b7be 8661 903e 8b36 d63e
00000280: 34f9 9fbe a3b7 0abe fafe 09bf e5f3 a2be
00000290: fb1f f4be 0d12 db3d cd88 01bf cab4 e1be
000002a0: 1b9a 6ebe a236 1a3c c809 cebd 3bf4 ab3e
000002b0: b532 02be e558 b9be db5f 12bf 2933 e8be
000002c0: d22c 053f a843 e3bc 2c55 da3e 3dfc 493f
000002d0: f68e 9a3e 8d56 eb3e 48e4 893e ff84 94be
000002e0: 1732 ae3d b0ce 473e 2c11 13be b5ec 9cbe
000002f0: ab51 bd3e a4dc d63d cad2 a63e 2306 abbd
00000300: 3d7b 5d3e c66c 043e b05c 903e 88c9 09bf
00000310: f4bf bf3e bc9f d53e c639 893c 838a 4b3e
00000320: 76fa 693e 5b80 e9be ba79 993e 18e5 8fbe
00000330: 2da7 39bd 92be 1d3e 436d 053f 173e 5d3d
00000340: b1fd 84bd 2fb0 1b3f 83e8 d73e 10f8 a73d
00000350: 3ef2 ccbe 56d7 7ebe 351c 3abe 7e37 093f
00000360: 79f2 36be a5ef 71be 1669 3e3e f991 193e
00000370: ae43 cabd 7261 6d3e 6df1 0dbf 916b b0be
00000380: 9a8c 4bbd d91b d0be 833d c63e 9ed3 80bd
00000390: 34a3 c83e 3d70 3b3e da6b 1abe 88ac 10bf
000003a0: 1451 5fbe cc07 91be 4b8d 903e 9ae2 18be
000003b0: 2773 f5be 579e f2bd ae5d 0d3e 7e03 133d
000003c0: 4f40 963e 1525 c0be ec49 29bf 0df6 bcbe
000003d0: 718d fcbe 1ec1 723c 66ff 3a3e 8346 45be
000003e0: 2526 a0be c66d f63e c768 18bf aab5 53bf
000003f0: 15c8 673e e159 af3e 6a53 dfbe 74d2 f0be
0.31179872 0.057533532 -0.19561091 0.28030938 -0.39936998 0.2788149 0.28014636 -0.1873393
-0.3306008 -0.33875987 -0.40558505 0.52213174 0.20017715 0.42190304 0.55507267 0.44031513
-0.5016972 -0.66832185 0.378553 0.43112007 -0.35078645 -0.30124897 0.15200736 0.48777315
0.04971564 0.013679118 0.15438934 -0.43082356 -0.10305217 0.43550557 -0.021386487 0.013553929
0.69799626 0.5128203 -0.37382266 -0.68249166 -0.23531774 -0.26487026 0.38147455 -0.46989682
-0.15461032 0.23240897 -0.11144591 0.022910245 -0.40470794 -0.14999309 -0.5016985 -0.47654435
0.036977097 0.022932786 -1.1881564 0.2125551 -0.08897935 0.4665516 0.18163055 0.22663668
-0.18858773 -0.044776827 0.19564469 0.3851414 0.17833124 -0.5732182 -0.32923123 0.082165726
0.008873818 -0.109508984 0.33933854 -0.419207 0.4791558 -0.40451515 -0.28938314 -0.36570925
-0.29316586 0.4949905 -0.15987656 0.20613156 -0.3834072 0.19481789 0.32444662 -0.42598838
-0.22831184 -0.4400053 -0.28913 0.21389312 -0.47044283 0.014633337 -0.37367153 -0.05027098
0.1280189 0.52933633 0.31955224 -0.050309576 0.4062695 -0.015114653 0.35613248 -0.3804279
-0.5222171 -0.17593144 -0.025355456 0.28452942 -0.49050242 -0.23091584 0.47097984 0.026627332
-0.63610566 0.38700673 -0.08219119 0.47823948 -0.2798798 0.30470932 -0.55570084 0.4482291
-0.3188629 0.16403775 0.0043768273 0.26672643 -0.12521975 0.04133301 0.18401724 0.009132271
0.39771423 0.22292812 -0.35572547 0.06097415 0.43949327 -0.6587736 0.34570578 0.3558538
-0.53824484 -0.16532089 0.29324237 0.6768948 0.28544864 -0.092036985 -0.67234725 0.14875057
0.19467478 -0.24170916 -0.30524266 0.0059093586 -0.092539966 -0.16284138 -0.13101466 0.23713301
-0.35616192 0.44918215 0.007562898 0.24670035 -0.1379465 -0.08868883 0.2246539 0.10813693
-0.22883472 0.14827196 -0.12633124 -0.4946497 -0.56243116 -0.3587788 0.28199404 0.41838488
-0.31244814 -0.13546614 -0.5390469 -0.31826702 -0.4768065 0.10696802 -0.50599366 -0.44083244
-0.23300974 0.00941244 -0.100604594 0.3358477 -0.12714656 -0.36200634 -0.57177514 -0.45351532
0.52021515 -0.027742222 0.42643106 0.7890051 0.30187196 0.4596447 0.26931977 -0.29007718
0.08505648 0.19512439 -0.1436202 -0.30649343 0.3697637 0.104913026 0.32582694 -0.0835078
0.21629043 0.12932119 0.28195715 -0.5382314 0.37451136 0.4172343 0.016751181 0.19877057
0.2284945 -0.4560574 0.29975682 -0.28104472 -0.045325447 0.15404728 0.52119845 0.05401429
-0.064937 0.6081571 0.4216958 0.08201611 -0.40028566 -0.24886832 -0.18174823 0.536003
-0.17865933 -0.23626573 0.18594775 0.1499709 -0.0987619 0.23181704 -0.5544651 -0.34457067
-0.049694635 -0.40646246 0.38718805 -0.06290363 0.39187014 0.18304534 -0.15080205 -0.5651326
-0.21808273 -0.2832626 0.28232798 -0.14930192 -0.47939417 -0.11846607 0.13805267 0.035892002
0.2934594 -0.3752829 -0.6612842 -0.36906472 -0.4932666 0.014816551 0.1826149 -0.1926518
-0.31279102 0.48130625 -0.5953488 -0.8269907 0.22634919 0.3424826 -0.43618327 -0.47035563

actor.preprocess.model.model.0.bias f4 [256]
00000000: 7619 edbd 1f8e 213f 2436 43bf ec0e 33be
00000010: 2371 ae3e e235 39bf 8f60 1f3f 1dea a4be
00000020: a064 34bf c7ef 45be 20fe 223f 338d 0abf
00000030: ab10 94be bbef 1fbe 6d14 563e f621 bb3e
00000040: 80da cabd 60ef ca3e 2efa f7be de1d 013d
00000050: ea95 3dbf 9486 133f 933b 823b 8c33 00be
00000060: a60d 193f ad7b 153f 8c24 32bf 436f 0f3d
00000070: f7cc b93e f43e b13e 574c 8e3e b49f 07be
00000080: 8cc6 813e a55c 993d 6649 5dbf 7edc 973e
00000090: 579e 763e d99f 52bf 189d b7be 1194 063f
000000a0: 2779 67be 3be2 2fbf 5639 993c fd26 14be
000000b0: 5cdb c5be e139 c93c 71dd bd3e 0c1a f6bd
000000c0: 4379 84be 900c 1a3e 1c24 13bf 6f12 5bbf
000000d0: 2c9a dbbe fd83 1bbf 68d2 e33e 8aa3 fb3e
000000e0: 2522 0d3f 1249 163f 7def 78be 4158 343e
000000f0: cbf7 48bf c727 9c3e 8406 1bbe 5567 553f
00000100: cb6d ecbe 88c0 173f 6293 dbbe bcad 0d3e
00000110: 4ea1 093e a988 e63e b9c8 3fbf ee71 08bf
00000120: 0c40 11bf 5f54 ab3e f946 abbd f251 fe3e
00000130: 5f17 bf3e b826 b2be 58ff 9a3e 9c71 6e3f
00000140: d265 26bf 7e4a 113f 8d3e 4ebf 540b 9d3e
00000150: 1152 57bf 71a9 103f 7ca4 433e b03b 14bf
00000160: 3afd 34bf 429b 0cbf ea71 143e d28b 4cbf
00000170: 388c f93d 9fa4 4bbe fb16 d23e 89fc 86be
00000180: 50d2 f93e 4573 01bf 2cc8 c5be 16c9 1d3d
00000190: 5d2f 38bf da12 19bf 452e c93e 74c4 1d3f
000001a0: 9d68 3a3f aa2a aa3d 6577 03bf caf3 2dbf
000001b0: c775 c83d d915 083f d93a 153f 3fc0 d63d
000001c0: 4d61 0ebf 4949 5e3e 19e0 b0bc 0cdc 0d3f
000001d0: 917a d83e 7651 323e a3df 503e 9cf5 213f
000001e0: 4ff8 c1be 8108 d7bd 0e11 1ebe a0fa 7fbe
000001f0: a3e6 eb3e a2ae 07bf a449 043f cf7b 1cbf
00000200: 2a6d ed3d 40ef d8be 6d45 4c3d 0fe9 083f
00000210: 0ecd 2e3e 1d12 fcbd 886e 1c3f aa31 0abe
00000220: 60d6 1cbf cdb5 983e e230 833d 5eed 05be
00000230: 29d9 2bbd 015d 993e 67a6 af3e e9fa ba3e
00000240: 5b97 0d3f 106d d2be 0f66 b3be b25e f83e
00000250: 7967 103e f28a 003f dc9a c5be 653b c83e
00000260: 5e2b 423f 5fb9 94be 6e52 7e3e ea81 353f
00000270: ce74 b3bd 58c1 24bf e4a6 bdbe f640 3dbe
00000280: b985 b33d a1b2 29bf 5718 e7be 3baf 12bf
00000290: 7969 533f 4753 e93e c03d dbbe 7feb 973e
000002a0: cff5 b7bb 16f5 2abf 9b3c f5be 2120 e4be
000002b0: 5ab1 23bf ab7b ae3e b112 ea3e 50ef c0be
000002c0: 5a2f 8ebe dbdd 123d 1bff 853e 348b 6d3e
000002d0: a218 57bf f22e 33be 9aa6 433f fc10 6ebe
000002e0: 8c69 a8be c8b2 673e ee2b 1abe 963e a1be
000002f0: 2c0a 4b3f 4996 57bf de40 363f 2d52 033f
00000300: 5454 8ebe 3114 34bf 6a5d 48bf 0db2 4cbf
00000310: 7ef3 b73e fb3f e73d 712c 1f3f bc8d ea3e
00000320: abd3 7a3e 21d3 f33e 7434 d1be 5380 f8bd
00000330: 3394 cabe 1187 bebe 1977 a7be 59da aa3e
00000340: 6338 433f d498 0ebf 4858 19bf bc7f 143f
00000350: 16a2 c4be 3e82 f9be 2768 f63e 2106 95be
00000360: 837c b2bc 61c5 873d 30c2 1ebf d4ee 2e3f
00000370: 3b21 5e3e 911f 50bf 9711 ea3d 3f04 8abd
00000380: 3c95 21be bcbd bd3e 2999 64be 57b9 ef3e
00000390: 7fe9 b53e 4d4a 16be ca50 9dbe 9a93 e23d
000003a0: 28c8 42bf 879d e63d e7ad 9d3d 59fc 4ebf
000003b0: 9f4c 703e dd2a 09be 4678 f13e d21a eabd
000003c0: f953 1dbf 1b53 93be 53ae 623e 2170 32bd
000003d0: bd6a f13e 78c7 3abe b26d 8a3e 54b5 32bf
000003e0: 510c 81be 6bfb eabd 60b2 ec3e d6c8 6f3e
000003f0: 2e15 06bf 58e3 ae3d 5ed3 973e 4eba 64be
-0.11577122 0.63107485 -0.7625449 -0.17486161 0.3407069 -0.72347844 0.6225671 -0.32209864
-0.7046604 -0.19329749 0.63669014 -0.541217 -0.28918967 -0.15618794 0.2090623 0.36549348
-0.09904957 0.39635754 -0.4843306 0.031522624 -0.74056876 0.57627225 0.003974387 -0.12519664
0.5978645 0.5839184 -0.69587016 0.035018217 0.36289188 0.34618342 0.27792618 -0.13244516
0.25346792 0.07488374 -0.8644012 0.2966041 0.2408384 -0.8227516 -0.3586204 0.5256968
-0.2260481 -0.68704575 0.018704098 -0.14467998 -0.3864392 0.024563732 0.3708301 -0.12016687
-0.25873765 0.15043855 -0.57476974 -0.85575 -0.4289106 -0.60748273 0.44496465 0.49148208
0.55130225 0.58705246 -0.24310108 0.17611791 -0.785031 0.30499098 -0.15139204 0.833608
-0.46177515 0.59278154 -0.42885882 0.13835806 0.13440439 0.45026138 -0.74915653 -0.5329884
-0.5673835 0.33462808 -0.08363146 0.49671894 0.37322518 -0.34795165 0.30272937 0.93142104
-0.64999115 0.5675429 -0.80564195 0.30672705 -0.841096 0.5650855 0.19105715 -0.57903576
-0.70698893 -0.54924405 0.1449658 -0.7990085 0.12184948 -0.19887017 0.41033158 -0.26364544
0.48793268 -0.5056651 -0.38629282 0.03852185 -0.7194727 -0.5979439 0.39293113 0.6162789
0.7281588 0.08308919 -0.51354057 -0.6795012 0.09788089 0.53158337 0.5829292 0.10485887
-0.5561722 0.21707644 -0.021591233 0.5541389 0.4228101 0.17413887 0.2039781 0.63265395
-0.37884757 -0.10499669 -0.15436193 -0.2499795 0.460744 -0.53000844 0.51674867 -0.61126417
0.11593087 -0.42370033 0.049870897 0.5348062 0.1707041 -0.12308142 0.6110616 -0.13495508
-0.6126461 0.29826203 0.06405808 -0.1307883 -0.041955147 0.2995377 0.34306642 0.36519554
0.55309075 -0.41098833 -0.35038802 0.48509747 0.14101972 0.50212014 -0.3859471 0.39107814
0.75847423 -0.29047677 0.24836132 0.7090136 -0.08762513 -0.6435752 -0.3704139 -0.18481812
0.0876574 -0.6628819 -0.45135757 -0.5729863 0.82582814 0.45571348 -0.4282055 0.29671857
-0.0056140195 -0.6678022 -0.478978 -0.44555762 -0.6394249 0.34078726 0.45717385 -0.3768258
-0.277705 0.03585611 0.26171193 0.23197633 -0.8402196 -0.17498377 0.7642609 -0.23248667
-0.32893026 0.22626793 -0.1505582 -0.31493062 0.79312396 -0.8421369 0.7119273 0.51297265
-0.27798712 -0.7034331 -0.7826754 -0.79959184 0.35927957 0.112915 0.6217719 0.4581126
0.24494807 0.47622016 -0.4086033 -0.12133851 -0.39566192 -0.37212422 -0.32708052 0.3336971
0.76257914 -0.5570195 -0.5990033 0.5800741 -0.38404912 -0.4873218 0.48126337 -0.29106238
-0.021787887 0.06629444 -0.62015057 0.6833317 0.21692364 -0.81298167 0.11429136 -0.06739091
-0.15779585 0.37058818 -0.22324051 0.4682109 0.35529706 -0.14676781 -0.307257 0.11063309
-0.76086664 0.11260515 0.07699185 -0.808538 0.23466729 -0.13395257 0.47162074 -0.11430897
-0.6145626 -0.28774342 0.22136812 -0.043563966 0.47151747 -0.18240154 0.27036816 -0.69807935
-0.2520471 -0.114737354 0.4622984 0.23416457 -0.5237607 0.08539456 0.29653448 -0.22336695

actor.preprocess.model.model.2.weight f4 [256, 256]
00000000: e50b 98bc 52fd 913d 8b02 06bd 7e18 43bd
00000010: 046f cdbc bedf 913c 0c6a 193d 6fc6 91bd
00000020: 3c09 03bf 62c5 0b3d 7d80 863e 68d8 6fbd
00000030: 2e00 1abd 00d3 fdbc 8170 adbd a4d5 81bc
00000040: 100a 33bd 7bae 7f3d d3ee 8bbc cc06 e63c
00000050: 1472 db3c 4180 783d af43 ba3b 0662 543d
00000060: 26f6 c53b a689 043e ec19 f83a 4c50 2fbd
00000070: 88fe 423d d9e3 423e 5b0a 513d e8a5 363d
00000080: c81d 5fbd d5c4 a03d a919 54bd f989 d0bc
00000090: b8d5 9e3c 8b50 303d 9d58 303d 4cb8 4e3d
000000a0: 5ec7 1d3d 4ddd 9cbd 2d0b 7a3d cf9c da3d
000000b0: bd41 92bd ef26 efbc 18fa 42bc 1cee 0b3d
000000c0: 07dc a8bd 2101 2c3d 933c 33bd e207 6ebe
000000d0: 381a 70bd 10f5 22bd 34d4 eebc 1192 c43d
000000e0: e0c9 963b ed7f 38bb 880d 393c 8826 afbc
000000f0: cbaf 983c 781e 4cbd 568f 4b3d ec9b d83c
00000100: 5a8d aabb fb1c 72bd b80f d0bc 8de9 0abd
00000110: c5e1 e13d 88dd 113e 6f0e 9abd 70d3 463d
00000120: 009e f33b ddc7 84bb e0d7 973c 8e4d a93d
00000130: 9cbb 853d 2cf6 183d 8968 5f3c 620b a03e
00000140: c927 e5bd 021c 41bd ca6d a6bd 0c2f 39bd
00000150: 7cda 75bd 2c57 d4bd 9a1b 16bd db39 25bd
00000160: bf86 a03c 57ab 8ebe f8b9 e2bc a824 7dbc
00000170: a699 cbbc 8cea 4d3d 9045 0dbd 39bb 83bd
00000180: c90a 8cbc 602a 14bd 0c1f 5e3c 2071 46bc
00000190: 5c0a 4abd 60c9 16be c9e7 de3c 877e ab3d
000001a0: 27e8 07bd 801c babc 4586 cc3d 8217 8fbb
000001b0: 2c19 6c3d 4ee3 af3e f876 04bd e1ab b73d
000001c0: 592a 83bc 60da 163c 1e14 59bd b830 ad3e
000001d0: a474 873d 0021 943a 8e8e 4abd 5224 ebbd
000001e0: a8f7 603c 171d 533d 42c2 1c3d 54dd 4bbd
000001f0: a8ff 60bd 216c 0a39 a95a de3d 78b5 14bd
00000200: 752e 3f3d 914d 133d 2ee7 683d c751 243d
00000210: ede7 bd3d c01a f1bb 67fa 9b3d 9d66 1a3d
00000220: f533 51bd 84cf e6bc d635 f13b f4ad 6abd
00000230: cee2 8f3c 08c3 fcbc 6087 3bbc 9e79 303d
00000240: ea42 17bc 8eb5 7f3d c0fe ee3b 3562 9b3d
00000250: efb4 a43d 443b 21bd 6552 90bc e777 8f3d
00000260: 1fd6 9d3d f6a5 423d ffe8 83bd c4aa e13c
00000270: f842 3c3c bde6 a43c dcbe 57bd 88c7 4d3c
00000280: 041d 3a3d e45a 92bd faf9 00bd b9e3 94bd
00000290: a082 663d 5055 dfbc 2594 bcbd c067 5f3b
000002a0: e672 803d b069 5ebd 605a e53c 568c d03b
000002b0: 3ef6 72bd 04cb 42bd b31e cd3d 8ee5 303d
000002c0: a6aa 68bd a0c1 1b3d a3e0 173c de29 393d
000002d0: 6f9f a3bc 48ba 823c 9f47 d03c 6deb 5e3d
000002e0: ae3a 71bd 9bd8 51bc 5f2e fa3d 0057 783a
000002f0: 143a 5d3d b9fc bebc c00e b13d 986f 9d3a
00000300: 9ddf 8dbc 59bb 20bf 0402 333d 472c 9e3b
00000310: c08d 5d3c ea39 103d b061 7d3e b0a3 193d
00000320: 5eb4 ae3b 597f 80bb 44e1 9a3c d3b1 2d3d
00000330: 84b2 7dbd aaa7 123d 0c13 eebc 422e 853d
00000340: 40b6 063e 62f0 7fbc fdbd 89bb 9c81 af3d
00000350: 789f a63c a460 0a3d a4ad 473d 4ac1 b43c
00000360: 22c6 713d ada5 1a3e 2193 b2bd a508 0b3d
00000370: f27d 223d 8ce3 9fbd ec24 6a3d 796a b53c
00000380: 0489 5bbd 13b6 b33d 02fa 923c 66b9 3cbc
00000390: 52cc 17bd bdc8 b4b8 30df eabb 64b8 1e3d
000003a0: c86f 8dbd e0e1 753b 363e c53d 4ee4 98be
000003b0: fb24 9d3d a8d9 573d 0aa3 c03d 9e34 833d
000003c0: 3f46 32bd 4795 223d 4825 e7bd ea7d 45bd
000003d0: 2ed2 793d 23b3 2dbd 63fb e93a 0ff4 aebc
000003e0: 20e6 54bd 24c7 d83e 8ed3 863c eb57 ccbc
000003f0: c036 f2bb 7fb3 84bc 812c a53d d003 da3c
-0.01856036 0.07128395 -0.03271727 -0.04763078 -0.02507735 0.017806884 0.03745465 -0.07117926
-0.51185966 0.034123786 0.26269904 -0.05855599 -0.037597828 -0.030984402 -0.08468724 -0.015848942
-0.04371077 0.062422257 -0.017081654 0.028079413 0.026787795 0.060669187 0.005684338 0.051851295
0.006041306 0.12943134 0.0018928624 -0.042801186 0.04760602 0.1903223 0.051035266 0.044591814
-0.05447176 0.07850043 -0.051782284 -0.025456415 0.019389018 0.04304556 0.04305326 0.050468728
0.03852021 -0.07659397 0.061045814 0.1067444 -0.07141445 -0.02919337 -0.011900447 0.034162626
-0.08245092 0.041993264 -0.04375894 -0.23245195 -0.058618754 -0.03978449 -0.02915392 0.095981725
0.004601702 -0.0028152422 0.01129473 -0.021380678 0.018638512 -0.049833745 0.049697243 0.026441537
-0.0052048387 -0.05910967 -0.02539812 -0.033914138 0.1102939 0.14244664 -0.07522284 0.048541486
0.0074346066 -0.004052146 0.018535554 0.082667455 0.06529924 0.037344143 0.013635763 0.31258684
-0.11189229 -0.04714585 -0.08126409 -0.045210883 -0.060022816 -0.10368189 -0.036647417 -0.04033838
0.019595502 -0.27865097 -0.027676567 -0.015450634 -0.024853539 0.05027251 -0.034490168 -0.06432194
-0.017094987 -0.036173224 0.013557207 -0.012111932 -0.049326286 -0.14725256 0.027210133 0.083737426
-0.033180382 -0.022718668 0.099865474 -0.004366816 0.057641193 0.34353107 -0.03234002 0.0896833
-0.016011404 0.009207338 -0.0529977 0.33826232 0.06614044 0.0011301339 -0.049452357 -0.11481537
0.013730921 0.051541414 0.038271196 -0.04977162 -0.054931313 0.00013200987 0.10857136 -0.036305875
0.046675164 0.035962645 0.056861095 0.04011705 0.09272752 -0.007357925 0.0761612 0.037695516
-0.05107494 -0.028175123 0.007361154 -0.0572948 0.017564204 -0.030854717 -0.01144585 0.043084733
-0.009232262 0.062429003 0.007293552 0.07587091 0.08042323 -0.03936316 -0.017617414 0.070052914
0.07706856 0.047521554 -0.06440925 0.027547248 0.011490576 0.020129556 -0.052672252 0.012559779
0.045437828 -0.07146242 -0.031488396 -0.07269997 0.056276917 -0.02726236 -0.09207944 0.003408894
0.06271915 -0.05430001 0.027997196 0.0063643856 -0.059316866 -0.047556892 0.10015621 0.04318767
-0.056803368 0.038026452 0.009269866 0.045205943 -0.019973485 0.015957966 0.025424777 0.05442374
-0.058893852 -0.01280799 0.12215876 0.0009473413 0.054010466 -0.023313867 0.086453915 0.0012011407
-0.017318541 -0.6278587 0.043703094 0.0048270556 0.013522565 0.03521148 0.24744296 0.03750962
0.00533156 -0.003921431 0.018906243 0.042405915 -0.061937824 0.03580443 -0.029061817 0.065029636
0.1315546 -0.015621277 -0.0042035566 0.08569643 0.020339713 0.03378357 0.04874958 0.022064824
0.059026845 0.15102263 -0.08719469 0.03394379 0.039670892 -0.07807073 0.057164118 0.022145497
-0.053597465 0.08774962 0.017941479 -0.011518812 -0.03706009 -8.620459e-05 -0.0071677193 0.038750067
-0.06906086 0.0037518665 0.096310064 -0.29861683 0.07673069 0.052697808 0.09406097 0.0640652
-0.043524023 0.039693143 -0.11286408 -0.048215784 0.06099146 -0.042407166 0.0017851408 -0.02135661
-0.051977277 0.42339432 0.016458299 -0.024944266 -0.0073917806 -0.016198872 0.08065129 0.026613146

actor.preprocess.model.model.2.bias f4 [256]
00000000: 26d1 083e 482a 77bd f05c 213d d407 8dbd
00000010: 258d 023e a8f1 47be d854 913c 0112 eebd
00000020: 16ea 093e 6cec 683d f0fa 59bc 8cc1 e03c
00000030: cbe9 8e3c bcb6 f3bb 26e9 4cbd 0d6d bfbc
00000040: 92d1 24bd 6183 a2bc fefc 89ba 2915 02bd
00000050: 7943 9c3c 4a52 67bd e1fe 0cbd 846c 05be
00000060: 347f 893c 9c5d 5fbd 62f2 203d d02c 033e
00000070: dfa8 bf3d 13e4 07bb 07c0 f33d ccbf f3bc
00000080: 3a8d 743d 952d 223d df53 b1bd e5ed 3abd
00000090: 4446 b83c c211 573d 2c90 f9bb 6476 7f3d
000000a0: cb0a 64be 7372 52be 7a2d 103e e3df a0be
000000b0: 0859 3c3c e613 1cbe ea15 1f3c 7218 373d
000000c0: 25ea c0bc 08bc 43bd f8ac 533c 2adf 44bd
000000d0: c32f bcbc cfc7 33be 4e92 34bb c8d9 4fbd
000000e0: dd0f 9cbc 053d 1a3e 3ed1 febd 1171 4ebd
000000f0: 0cc5 10be d39f 1ebe 2a1e 2e3d 32e3 febd
00000100: a589 e93b 38d6 96bc e7b0 6e3d dfdf 12be
00000110: ff3e 033d ac36 ce3c 67a5 c4bc 2891 6b3d
00000120: d054 4c3c 508d 453d 0073 a83d a8d8 0cbd
00000130: 5861 b7bd 81c7 913c 1d2c 343e 1127 d83b
00000140: 1c2e 1cbd 0c2c e7bc 58df 10bc 12ef 62bd
00000150: 3c5b 64bd 182f f03c a475 903c a01e a53b
00000160: b42e b53c 0097 7ebc 79fc a23c 1694 133d
00000170: 3059 d5bb de33 8fbc 974a 253e 03a7 983d
00000180: ab91 c13c e074 09bb 16bd ab3d 1b92 97bc
00000190: d6e3 293e cb09 a1bc b465 ce3a a452 753d
000001a0: 1ce1 c73c c482 b6be bc1b adbc f029 6fbd
000001b0: 691b 1ebd aa5b 223d 8943 48bd 3297 163d
000001c0: b90b 7c3d d7db fbbd 924b e33b 8e98 c2bd
000001d0: a7f5 6d3d 44f7 3ebd 1fac e83d 0ec9 e13c
000001e0: 7a74 09bd 00b2 98b9 9ae6 8bbd 05ac ba3d
000001f0: ce01 493e eb22 db3c 5758 bfbd 1fc8 1ebd
00000200: 968e 4b3d 54f6 acba 64c1 6f3e 5623 69be
00000210: c006 bfbb 6310 b1ba a155 bcbe c07e 19bc
00000220: cf0e 61bd 34ad 86bd 4232 3e3c 70ad 27bd
00000230: 56c5 a03b b4e3 ee3c 1e17 7b3d 086f 90bc
00000240: 28fb 5ebd 30f2 67bd e888 f43c 6806 ba3c
00000250: 03b2 103e 85ec ecbd 2036 4b3b 60e6 c4bd
00000260: 6e05 1fbd 1d2f 3d3d e512 d0bc fe91 673c
00000270: ddf7 15bd 95fa 60be 11e3 893e f32d 0abe
00000280: e856 54bd 0d66 b2bd 25e7 2bbe c007 d6bc
00000290: e29a e53d c02e 233c c7f1 04be 9a37 fabc
000002a0: 1c12 143e 5f1a 6abe 3b84 b5bd 8079 763b
000002b0: b3b3 fd3c a004 193e 0d96 c33d 38bf 593c
000002c0: 4a93 273e 4a3a 70bd 0802 233d 4c4c f8bc
000002d0: ded8 13be 4f24 8dbe d940 18bd a42c 9dbc
000002e0: d19a 723d e580 963c 39c5 143e 38e2 be3c
000002f0: 3dbf 773e 34c6 ca3c e189 3f3d 6499 45bd
00000300: f4a8 81bd f289 a3bc 8e5c 55bd 2406 35bd
00000310: 1e15 4bbc f946 9fbd 3898 24bd 61b4 813e
00000320: 0b66 a5bc b835 73be b7d1 9bbd c0b5 8fbc
00000330: 70e2 953b bc42 8cbd 4c42 cabc b59f fd3c
00000340: eabb 22bd d1ed 893e 4634 cb3c 2a55 f7b7
00000350: c54d 2c3c f0c9 65bd 3b4a fbbd 22a2 7dbd
00000360: d42a 93bc d0b1 4e3c d4ae 33bd a9b0 e13d
00000370: 0824 05bd fa23 d43d aa85 3bbd 8de7 fcbd
00000380: 499e 14be 2bb7 7fbd 87cf a8bc 8868 4cbd
00000390: 6edf 363d a96b c53d 8652 053e 1a7a a03c
000003a0: b118 07be c6fd cdbc a413 0c3d b8a9 45bc
000003b0: 5700 7ebd b8f8 8f3e 7905 abbc 2440 84bc
000003c0: 015f 9e3e e0cf 52be d580 233d c93e 39bd
000003d0: 3d73 053e c1ef 05bd 87b1 f83d 006f c83b
000003e0: 1fad 1ebe df6b 3ebe 6f66 0fbe 9b96 0fbc
000003f0: df84 aabd 8718 553e c172 babc 3084 3ebd
0.13361034 -0.060343057 0.039395273 -0.06886259 0.12749155 -0.19525778 0.017740652 -0.11624528
0.13468203 0.056866094 -0.013304457 0.02743604 0.017445466 -0.007437555 -0.050027035 -0.02336743
-0.040238924 -0.019838037 -0.0010527668 -0.03175846 0.019075142 -0.05647496 -0.03442276 -0.13029677
0.016784288 -0.054532632 0.039293654 0.12810063 0.093583815 -0.0020735308 0.11901861 -0.029754542
0.059704997 0.03959425 -0.08658575 -0.04563703 0.022494443 0.05250717 -0.0076160636 0.062368765
-0.22269742 -0.20551471 0.14079848 -0.31420812 0.011495836 -0.15241966 0.009709815 0.044701047
-0.023549149 -0.047786742 0.012919657 -0.04806439 -0.022971993 -0.1755669 -0.0027553025 -0.0507448
-0.019050533 0.1506234 -0.124422535 -0.050400797 -0.14137667 -0.15490656 0.042509235 -0.12445678
0.007127004 -0.018412694 0.058274176 -0.14343213 0.0320425 0.025172554 -0.024004651 0.05751148
0.012471393 0.04823047 0.082250595 -0.034386307 -0.08954114 0.017795326 0.17594953 0.006596454
-0.03812991 -0.028219245 -0.008842312 -0.055403776 -0.05575107 0.029319331 0.01763422 0.005039051
0.022116996 -0.015538931 0.019895779 0.036029898 -0.006510876 -0.017480787 0.16141735 0.0745373
0.02362903 -0.0020974204 0.08385675 -0.018502286 0.16590819 -0.01965799 0.0015746863 0.059893265
0.024399333 -0.3564664 -0.021131389 -0.058389604 -0.03860036 0.0396382 -0.04889253 0.036765285
0.061534617 -0.122977905 0.006936499 -0.09501754 0.0580956 -0.04662253 0.113609545 0.02756169
-0.033558346 -0.0002912432 -0.06831093 0.09114841 0.19629595 0.026750049 -0.09343021 -0.03876507
0.049696527 -0.001319597 0.23413616 -0.22767386 -0.005829662 -0.0013508912 -0.3678408 -0.009368598
-0.054945763 -0.065760046 0.011608662 -0.040936887 0.004906337 0.029161312 0.061301343 -0.017631069
-0.05443874 -0.056627452 0.029850438 0.022708133 0.14130406 -0.1156855 0.0031007603 -0.09614253
-0.038823538 0.04618751 -0.025399635 0.014133928 -0.036613334 -0.2197059 0.2693105 -0.1349409
-0.051840693 -0.08710871 -0.16787393 -0.026126742 0.11211182 0.009959877 -0.12982856 -0.030544091
0.14460033 -0.22861622 -0.088631116 0.003760904 0.030969476 0.1494317 0.09550104 0.013290219
0.1636478 -0.05864934 0.03979686 -0.030309819 -0.14438197 -0.27566764 -0.03717122 -0.019186325
0.059229676 0.018372009 0.1452836 0.023301229 0.24194045 0.024752714 0.04676235 -0.048241988
-0.063310534 -0.019963238 -0.05209022 -0.04419531 -0.012395171 -0.07777209 -0.04018423 0.2533293
-0.02019026 -0.23750961 -0.07608359 -0.01754272 0.0045741126 -0.06848666 -0.024689816 0.030959943
-0.03972999 0.26939252 0.0248052 -2.9484352e-05 0.010516589 -0.056100786 -0.12270018 -0.0619222
-0.017964758 0.012615636 -0.0438679 0.110200234 -0.032505065 0.103584245 -0.04578177 -0.12348852
-0.14513506 -0.062430542 -0.02060677 -0.049904376 0.044646673 0.09639675 0.13019761 0.019589473
-0.13193013 -0.025145423 0.03419842 -0.01206439 -0.062012043 0.28119445 -0.020876633 -0.016143866
0.30931857 -0.2058711 0.039917786 -0.045225892 0.13032241 -0.03269935 0.12143236 0.006116748
-0.15495728 -0.18595837 -0.14003919 -0.0087639345 -0.083261244 0.20810138 -0.022759797 -0.046512783

actor.last.model.0.weight f4 [2, 256]
00000000: c84b 2fbe 5c05 bc3c 7a4c 2d3d 985b 123c
00000010: c9ad d5bd b8fa 6a3e 48c1 90bc bd64 643d
00000020: b345 abbd 9670 7c3d 2436 4bbd d0f2 aabc
00000030: 37db e9bc fba9 f13c 68c5 313c 13a5 4b3c
00000040: 889f fd3c b586 61bc af03 313d 2210 0a3c
00000050: 82dc 73bd 78f7 9d3c 2372 a03c 00a4 b13d
00000060: e213 88bd 0002 14bd faa0 4fbd 956f cebd
00000070: 50ef 35be ac7a 433d e6d7 bebd a4f4 2fbd
00000080: fa57 363d e8cc 113b b443 e23c 7c80 2d3d
00000090: 1c91 353d c558 2fbc e925 233c 6ca3 6e3d
000000a0: 0ad0 e73d ad14 643e 28ff ecbd b889 d13e
000000b0: e0ca db3c dce2 223e 960a 72bd 424e 51bd
000000c0: 9dbc 5dbb d19b e1bc 5005 66bc f6b3 293d
000000d0: ef16 bdbb 1d4a 27bc ea7d b13c 7d8b 013d
000000e0: 5982 a73b 8238 23be dc32 c33d f7a1 66bd
000000f0: b275 ae3d 261f 193d 3881 6bbc ba35 8c3c
00000100: 5e49 70bd 2c81 20bd 3608 c13c 02ed a53d
00000110: 91bd f8bc caaa 683d 2077 a03b bc6e f3bc
00000120: c0cf ec3b 77d2 b9bd 1493 9cbc 3897 58bc
00000130: ce3c 0f3d a221 1d3d e2c5 b0bd 1679 58bd
00000140: 4086 ab3b 9950 113d 0af2 0dbd d31e edbc
00000150: 9029 69bc 504a ccbc 304a b7bb 90d3 c2bc
00000160: 348f 03bd 6212 16bd ee56 4d3d 0cb5 d13c
00000170: 44d7 f93b 7753 7c3d c0a3 2dbe 7363 c8bd
00000180: 136a ab3c e080 8bbc e3a2 93bd d3cd 9fbc
00000190: f945 a9bc a693 4d3c 5673 bd3c 7b91 45bd
000001a0: 2559 2cbd 1f59 503f 09bf 8ebc 8872 55bd
000001b0: 6c4d 013d d86c a9bc 7b44 1e3d 6ad4 73bd
000001c0: a3cb 89ba 3971 813d e01c a5bb 3d6f 4c3d
000001d0: e1ee 34bd 5e03 623d 0b46 66bd 6d64 1d3d
000001e0: e00f 0dbb f4b7 1cbd b543 c83d 4f3c 98bd
000001f0: 4ab9 a3bd 008d 70bd 3fc5 a53d 5504 90ba
00000200: 983f 793c 6903 513d 0ed0 e7be cdff c73d
00000210: 7c35 aabc 1ad4 ec3d 3558 2f3f 68b4 7cbc
00000220: 48bb 9bba 8c27 793c 8b57 6b3d b8be 5e3d
00000230: 9e6d 4938 c877 033c 38f8 383c 00fa 1cbb
00000240: 401a d8bb 5290 acbb a0a1 233c fc2a f43c
00000250: f5eb 33be 4649 043e feab 44bd 7bff 0e3e
00000260: 34bf 97bc 7ccb f9bc b2fd 2d3d 9e67 0e3d
00000270: b18d 243d 3543 93bb 1446 02be 43c0 9b3d
00000280: 68b3 3abc 3d37 133d ba8d a83d d061 373d
00000290: 054b 81bd 466d 4e3d 77c9 a03c 1f0d 01bc
000002a0: d55b e7bd 81d5 753d ada8 9c3d b852 e3bc
000002b0: 9f55 00bd c519 27be 01ea 5fbd d053 6bbc
000002c0: 92bb cbbd 302d 143c 30a8 513c a024 f03b
000002d0: 9f6a 9c3d 7237 2f3f 3642 5e3d e622 5dbd
000002e0: da3c c5bd 8d8c 47bc 1eb2 e2bd 9270 1abd
000002f0: 24ee a5be a6a0 46bd 27e3 7f3d 88fd c93c
00000300: cb8b 19bc eff6 303d 48f5 613d c9fa 12bc
00000310: c316 c9bc 4af6 13bd 23b3 683d 9b77 6ebe
00000320: a8d5 243d 237c 873d a672 823c 8ce4 ef3c
00000330: 8497 8e3c def1 943d 825f 083d 3ecb cc3b
00000340: 9cda 493d f353 5bbc 9fd2 7d3d aef2 8dbb
00000350: 45fe 3bbc e8da ec3c 180b 963d 78f8 7abd
00000360: 7500 653c e0fd 033b 0dbf 96bd 222d 2abe
00000370: f861 60bd b06e 87bd 02d9 4b3d 95f8 873e
00000380: d95b f63d 2dbd 823b f545 29bc 6442 47bd
00000390: 0093 e639 1cb2 9cbd 72b5 c9bd aeed 3fbc
000003a0: f6fe 8c3d 5404 c63c 00f4 d4b8 08ba 9cbc
000003b0: 1ae1 96bc bd23 b1be 1a38 a23c b812 39bd
000003c0: 7b90 b1be cc69 133e 4c47 57bd 04e7 08bd
000003d0: d6d1 3ebd 3e4f 4e3c 4e6f bbbd 32a9 7dbd
000003e0: eb43 b93d 7717 3a3e 8501 393e 78f3 3d3d
000003f0: dd58 923d a8b0 f5bd 39a6 3a3c b829 f63b
-0.17118752 0.022951774 0.04230926 0.00893297 -0.104335375 0.22947204 -0.017670289 0.055760134
-0.083629034 0.061630808 -0.04961218 -0.020867735 -0.028546913 0.029499998 0.010850288 0.0124294935
0.03095986 -0.013765027 0.043216404 0.008426698 -0.059536465 0.019283041 0.019585675 0.08673859
-0.06644417 -0.03613472 -0.05069063 -0.10079876 -0.17767072 0.04772441 -0.09318523 -0.042957917
0.044517495 0.0022247378 0.027620174 0.04235886 0.04432784 -0.010702317 0.009957769 0.05826132
0.11318977 0.22273512 -0.11572105 0.40925384 0.026830137 0.15906852 -0.059092127 -0.051100023
-0.0033834346 -0.02754012 -0.014039353 0.04143139 -0.005770556 -0.010210541 0.021666486 0.031627167
0.005111974 -0.15939525 0.09531185 -0.056306805 0.08518542 0.03738322 -0.01437407 0.017115463
-0.05866372 -0.039185688 0.023563486 0.08101846 -0.03036383 0.056803502 0.0048970133 -0.029715888
0.007226914 -0.09073346 -0.019113101 -0.013219647 0.034970097 0.038362153 -0.08631493 -0.05284985
0.0052345097 0.035477255 -0.034654655 -0.028945362 -0.014231101 -0.024937779 -0.0055935606 -0.023782521
-0.03211899 -0.036638625 0.05013173 0.025599025 0.0076245386 0.061603036 -0.16956997 -0.097845934
0.020924604 -0.017029226 -0.072088026 -0.019507324 -0.020663248 0.012547409 0.023126286 -0.048234444
-0.042077202 0.8138599 -0.017425077 -0.05211118 0.031567976 -0.020681784 0.038639527 -0.059528746
-0.0010512959 0.06320424 -0.0050388426 0.049910773 -0.044173125 0.055178992 -0.056219142 0.03842585
-0.0021524355 -0.03826137 0.09778539 -0.07433378 -0.079943255 -0.058728218 0.08094262 -0.0010987619
0.015212916 0.051028643 -0.4527592 0.09765587 -0.020777456 0.11563893 0.6849397 -0.015423872
-0.0011881376 0.015207183 0.057456534 0.054381102 4.8024223e-05 0.008024164 0.011289649 -0.0023952723
-0.006594926 -0.0052662278 0.009987265 0.029805653 -0.17570479 0.12918577 -0.048015587 0.13964646
-0.01852379 -0.030492537 0.04247827 0.034766786 0.04017419 -0.0044940957 -0.12722045 0.076050304
-0.011395313 0.03594135 0.08230157 0.044771016 -0.06313137 0.05039718 0.019627316 -0.0078766635
-0.112968124 0.060018066 0.0764936 -0.027749404 -0.031331655 -0.16318424 -0.054666523 -0.014363244
-0.099478856 0.009043977 0.012796447 0.007328585 0.07637524 0.6844398 0.054262362 -0.05398836
-0.09630747 -0.012179506 -0.110691294 -0.03770501 -0.3240825 -0.04849305 0.06247249 0.024657026
-0.009371708 0.043204244 0.05516556 -0.008970925 -0.024546986 -0.03612355 0.056811463 -0.23287813
0.04024282 0.06615474 0.01592381 0.029283784 0.017406233 0.07272695 0.03329421 0.0062498143
0.049280748 -0.013386714 0.061968442 -0.004331908 -0.011474197 0.028912976 0.07326335 -0.061272115
0.01397716 0.0020140335 -0.07360659 -0.1661878 -0.05478093 -0.06612909 0.0497675 0.2655684
0.12029237 0.0039898367 -0.01033162 -0.0486473 0.00043978542 -0.07651159 -0.09849061 -0.011714382
0.068845674 0.024171986 -0.00010154396 -0.019131675 -0.018417884 -0.3459758 0.019802142 -0.045183867
-0.34680542 0.14395827 -0.05255823 -0.03342344 -0.046586834 0.012592135 -0.09152089 -0.061928935
0.090461574 0.18173014 0.18066986 0.046374768 0.071458556 -0.11996585 0.01139217 0.0075122975

actor.last.model.0.bias f4 [2]
00000000: dd65 64be 3909 013e
-0.22304483 0.12601174

critic.preprocess.model.model.0.weight f4 [256, 3]
00000000: 15a4 9f3e 48a8 6b3d 3a4e 48be b684 8f3e
00000010: 397a ccbe d4c0 8e3e 586f 8f3e e0d5 3fbe
00000020: 8244 a9be ef71 adbe d8a8 cfbe 6daa 053f
00000030: 3dfb 4c3e ad03 d83e 3e19 0e3f fc70 e13e
00000040: 3a6f 00bf 2417 2bbf b3d1 c13e c5bb dc3e
00000050: 489a b3be 4e3d 9abe d1a7 1b3e 67bd f93e
00000060: a0a2 4b3d 611e 603c 3d18 1e3e e894 dcbe
00000070: 040d d3bd 96fa de3e b732 afbc 4c11 5e3c
00000080: e2af 323f 3148 033f af65 bfbe c6b7 2ebf
00000090: 22f7 70be 139d 87be a250 c33e 5196 f0be
000000a0: 2b52 1ebe 9efc 6d3e c13d e4bd 44ae bb3c
000000b0: e135 cfbe ca97 19be 506f 00bf 9ffd f3be
000000c0: 4c75 173d 8add bb3c 8215 98bf 0ba8 593e
000000d0: ce3a b6bd dadf ee3e 5cfd 393e 7213 683e
000000e0: 241d 41be e867 37bd 1557 483e 4131 c53e
000000f0: 779c 363e 6ebe 12bf ff90 a8be 8146 a83d
00000100: 7e63 113c 3f46 e0bd c8bd ad3e 4da2 d6be
00000110: e953 f53e 9c1c cfbe 072a 94be 3e3e bbbe
00000120: d619 96be 656f fd3e aeb6 23be 2714 533e
00000130: f34d c4be 577e 473e de1d a63e 261b dabe
00000140: 94ca 69be 6048 e1be d908 94be cc06 5b3e
00000150: e2dd f0be aac0 6f3c e051 bfbe f1e8 4dbd
00000160: 6317 033e 9682 073f 5a9c a33e 6a11 4ebd
00000170: 8e02 d03e 73a3 77bc ff56 b63e 72c7 c2be
00000180: 05b0 05bf 5f27 34be 3fb6 cfbc d7ad 913e
00000190: 2223 fbbe 3475 6cbe 4524 f13e 9021 da3c
000001a0: d2d7 22bf bf25 c63e db53 a8bd cedb f43e
000001b0: 684c 8fbe dc02 9c3e 6942 0ebf 497e e53e
000001c0: ff41 a3be 83f9 273e 7d6b 8f3b 5e90 883e
000001d0: 9b39 00be cd4c 293d 046f 3c3e 859f 153c
000001e0: 33a1 cb3e 4547 643e a621 b6be 08c0 793d
000001f0: 4305 e13e 63a5 28bf 5900 b13e 7832 b63e
00000200: 6aca 09bf e149 29be dd23 963e fa48 2d3f
00000210: 5326 923e e37d bcbd f31e 2cbf 1252 183e
00000220: d358 473e 9b82 77be c448 9cbe 4ba3 c13b
00000230: 9885 bdbd e4bf 26be b528 06be ffd2 723e
00000240: db5a b6be 34fb e53e 30d2 f73b 049f 7c3e
00000250: d941 0dbe 7da2 b5bd ac0b 663e e576 dd3d
00000260: a653 6abe 9bd4 173e fa5c 01be ba42 fdbe
00000270: 7dfb 0fbf dbb1 b7be 8661 903e 8b36 d63e
00000280: 34f9 9fbe a3b7 0abe fafe 09bf e5f3 a2be
00000290: fb1f f4be 0d12 db3d cd88 01bf cab4 e1be
000002a0: 1b9a 6ebe a236 1a3c c809 cebd 3bf4 ab3e
000002b0: b532 02be e558 b9be db5f 12bf 2933 e8be
000002c0: d22c 053f a843 e3bc 2c55 da3e 3dfc 493f
000002d0: f68e 9a3e 8d56 eb3e 48e4 893e ff84 94be
000002e0: 1732 ae3d b0ce 473e 2c11 13be b5ec 9cbe
000002f0: ab51 bd3e a4dc d63d cad2 a63e 2306 abbd
00000300: 3d7b 5d3e c66c 043e b05c 903e 88c9 09bf
00000310: f4bf bf3e bc9f d53e c639 893c 838a 4b3e
00000320: 76fa 693e 5b80 e9be ba79 993e 18e5 8fbe
00000330: 2da7 39bd 92be 1d3e 436d 053f 173e 5d3d
00000340: b1fd 84bd 2fb0 1b3f 83e8 d73e 10f8 a73d
00000350: 3ef2 ccbe 56d7 7ebe 351c 3abe 7e37 093f
00000360: 79f2 36be a5ef 71be 1669 3e3e f991 193e
00000370: ae43 cabd 7261 6d3e 6df1 0dbf 916b b0be
00000380: 9a8c 4bbd d91b d0be 833d c63e 9ed3 80bd
00000390: 34a3 c83e 3d70 3b3e da6b 1abe 88ac 10bf
000003a0: 1451 5fbe cc07 91be 4b8d 903e 9ae2 18be
000003b0: 2773 f5be 579e f2bd ae5d 0d3e 7e03 133d
000003c0: 4f40 963e 1525 c0be ec49 29bf 0df6 bcbe
000003d0: 718d fcbe 1ec1 723c 66ff 3a3e 8346 45be
000003e0: 2526 a0be c66d f63e c768 18bf aab5 53bf
000003f0: 15c8 673e e159 af3e 6a53 dfbe 74d2 f0be
0.31179872 0.057533532 -0.19561091 0.28030938 -0.39936998 0.2788149 0.28014636 -0.1873393
-0.3306008 -0.33875987 -0.40558505 0.52213174 0.20017715 0.42190304 0.55507267 0.44031513
-0.5016972 -0.66832185 0.378553 0.43112007 -0.35078645 -0.30124897 0.15200736 0.48777315
0.04971564 0.013679118 0.15438934 -0.43082356 -0.10305217 0.43550557 -0.021386487 0.013553929
0.69799626 0.5128203 -0.37382266 -0.68249166 -0.23531774 -0.26487026 0.38147455 -0.46989682
-0.15461032 0.23240897 -0.11144591 0.022910245 -0.40470794 -0.14999309 -0.5016985 -0.47654435
0.036977097 0.022932786 -1.1881564 0.2125551 -0.08897935 0.4665516 0.18163055 0.22663668
-0.18858773 -0.044776827 0.19564469 0.3851414 0.17833124 -0.5732182 -0.32923123 0.082165726
0.008873818 -0.109508984 0.33933854 -0.419207 0.4791558 -0.40451515 -0.28938314 -0.36570925
-0.29316586 0.4949905 -0.15987656 0.20613156 -0.3834072 0.19481789 0.32444662 -0.42598838
-0.22831184 -0.4400053 -0.28913 0.21389312 -0.47044283 0.014633337 -0.37367153 -0.05027098
0.1280189 0.52933633 0.31955224 -0.050309576 0.4062695 -0.015114653 0.35613248 -0.3804279
-0.5222171 -0.17593144 -0.025355456 0.28452942 -0.49050242 -0.23091584 0.47097984 0.026627332
-0.63610566 0.38700673 -0.08219119 0.47823948 -0.2798798 0.30470932 -0.55570084 0.4482291
-0.3188629 0.16403775 0.0043768273 0.26672643 -0.12521975 0.04133301 0.18401724 0.009132271
0.39771423 0.22292812 -0.35572547 0.06097415 0.43949327 -0.6587736 0.34570578 0.3558538
-0.53824484 -0.16532089 0.29324237 0.6768948 0.28544864 -0.092036985 -0.67234725 0.14875057
0.19467478 -0.24170916 -0.30524266 0.0059093586 -0.092539966 -0.16284138 -0.13101466 0.23713301
-0.35616192 0.44918215 0.007562898 0.24670035 -0.1379465 -0.08868883 0.2246539 0.10813693
-0.22883472 0.14827196 -0.12633124 -0.4946497 -0.56243116 -0.3587788 0.28199404 0.41838488
-0.31244814 -0.13546614 -0.5390469 -0.31826702 -0.4768065 0.10696802 -0.50599366 -0.44083244
-0.23300974 0.00941244 -0.100604594 0.3358477 -0.12714656 -0.36200634 -0.57177514 -0.45351532
0.52021515 -0.027742222 0.42643106 0.7890051 0.30187196 0.4596447 0.26931977 -0.29007718
0.08505648 0.19512439 -0.1436202 -0.30649343 0.3697637 0.104913026 0.32582694 -0.0835078
0.21629043 0.12932119 0.28195715 -0.5382314 0.37451136 0.4172343 0.016751181 0.19877057
0.2284945 -0.4560574 0.29975682 -0.28104472 -0.045325447 0.15404728 0.52119845 0.05401429
-0.064937 0.6081571 0.4216958 0.08201611 -0.40028566 -0.24886832 -0.18174823 0.536003
-0.17865933 -0.23626573 0.18594775 0.1499709 -0.0987619 0.23181704 -0.5544651 -0.34457067
-0.049694635 -0.40646246 0.38718805 -0.06290363 0.39187014 0.18304534 -0.15080205 -0.5651326
-0.21808273 -0.2832626 0.28232798 -0.14930192 -0.47939417 -0.11846607 0.13805267 0.035892002
0.2934594 -0.3752829 -0.6612842 -0.36906472 -0.4932666 0.014816551 0.1826149 -0.1926518
-0.31279102 0.48130625 -0.5953488 -0.8269907 0.22634919 0.3424826 -0.43618327 -0.47035563

critic.preprocess.model.model.0.bias f4 [256]
00000000: 7619 edbd 1f8e 213f 2436 43bf ec0e 33be
00000010: 2371 ae3e e235 39bf 8f60 1f3f 1dea a4be
00000020: a064 34bf c7ef 45be 20fe 223f 338d 0abf
00000030: ab10 94be bbef 1fbe 6d14 563e f621 bb3e
00000040: 80da cabd 60ef ca3e 2efa f7be de1d 013d
00000050: ea95 3dbf 9486 133f 933b 823b 8c33 00be
00000060: a60d 193f ad7b 153f 8c24 32bf 436f 0f3d
00000070: f7cc b93e f43e b13e 574c 8e3e b49f 07be
00000080: 8cc6 813e a55c 993d 6649 5dbf 7edc 973e
00000090: 579e 763e d99f 52bf 189d b7be 1194 063f
000000a0: 2779 67be 3be2 2fbf 5639 993c fd26 14be
000000b0: 5cdb c5be e139 c93c 71dd bd3e 0c1a f6bd
000000c0: 4379 84be 900c 1a3e 1c24 13bf 6f12 5bbf
000000d0: 2c9a dbbe fd83 1bbf 68d2 e33e 8aa3 fb3e
000000e0: 2522 0d3f 1249 163f 7def 78be 4158 343e
000000f0: cbf7 48bf c727 9c3e 8406 1bbe 5567 553f
00000100: cb6d ecbe 88c0 173f 6293 dbbe bcad 0d3e
00000110: 4ea1 093e a988 e63e b9c8 3fbf ee71 08bf
00000120: 0c40 11bf 5f54 ab3e f946 abbd f251 fe3e
00000130: 5f17 bf3e b826 b2be 58ff 9a3e 9c71 6e3f
00000140: d265 26bf 7e4a 113f 8d3e 4ebf 540b 9d3e
00000150: 1152 57bf 71a9 103f 7ca4 433e b03b 14bf
00000160: 3afd 34bf 429b 0cbf ea71 143e d28b 4cbf
00000170: 388c f93d 9fa4 4bbe fb16 d23e 89fc 86be
00000180: 50d2 f93e 4573 01bf 2cc8 c5be 16c9 1d3d
00000190: 5d2f 38bf da12 19bf 452e c93e 74c4 1d3f
000001a0: 9d68 3a3f aa2a aa3d 6577 03bf caf3 2dbf
000001b0: c775 c83d d915 083f d93a 153f 3fc0 d63d
000001c0: 4d61 0ebf 4949 5e3e 19e0 b0bc 0cdc 0d3f
000001d0: 917a d83e 7651 323e a3df 503e 9cf5 213f
000001e0: 4ff8 c1be 8108 d7bd 0e11 1ebe a0fa 7fbe
000001f0: a3e6 eb3e a2ae 07bf a449 043f cf7b 1cbf
00000200: 2a6d ed3d 40ef d8be 6d45 4c3d 0fe9 083f
00000210: 0ecd 2e3e 1d12 fcbd 886e 1c3f aa31 0abe
00000220: 60d6 1cbf cdb5 983e e230 833d 5eed 05be
00000230: 29d9 2bbd 015d 993e 67a6 af3e e9fa ba3e
00000240: 5b97 0d3f 106d d2be 0f66 b3be b25e f83e
00000250: 7967 103e f28a 003f dc9a c5be 653b c83e
00000260: 5e2b 423f 5fb9 94be 6e52 7e3e ea81 353f
00000270: ce74 b3bd 58c1 24bf e4a6 bdbe f640 3dbe
00000280: b985 b33d a1b2 29bf 5718 e7be 3baf 12bf
00000290: 7969 533f 4753 e93e c03d dbbe 7feb 973e
000002a0: cff5 b7bb 16f5 2abf 9b3c f5be 2120 e4be
000002b0: 5ab1 23bf ab7b ae3e b112 ea3e 50ef c0be
000002c0: 5a2f 8ebe dbdd 123d 1bff 853e 348b 6d3e
000002d0: a218 57bf f22e 33be 9aa6 433f fc10 6ebe
000002e0: 8c69 a8be c8b2 673e ee2b 1abe 963e a1be
000002f0: 2c0a 4b3f 4996 57bf de40 363f 2d52 033f
00000300: 5454 8ebe 3114 34bf 6a5d 48bf 0db2 4cbf
00000310: 7ef3 b73e fb3f e73d 712c 1f3f bc8d ea3e
00000320: abd3 7a3e 21d3 f33e 7434 d1be 5380 f8bd
00000330: 3394 cabe 1187 bebe 1977 a7be 59da aa3e
00000340: 6338 433f d498 0ebf 4858 19bf bc7f 143f
00000350: 16a2 c4be 3e82 f9be 2768 f63e 2106 95be
00000360: 837c b2bc 61c5 873d 30c2 1ebf d4ee 2e3f
00000370: 3b21 5e3e 911f 50bf 9711 ea3d 3f04 8abd
00000380: 3c95 21be bcbd bd3e 2999 64be 57b9 ef3e
00000390: 7fe9 b53e 4d4a 16be ca50 9dbe 9a93 e23d
000003a0: 28c8 42bf 879d e63d e7ad 9d3d 59fc 4ebf
000003b0: 9f4c 703e dd2a 09be 4678 f13e d21a eabd
000003c0: f953 1dbf 1b53 93be 53ae 623e 2170 32bd
000003d0: bd6a f13e 78c7 3abe b26d 8a3e 54b5 32bf
000003e0: 510c 81be 6bfb eabd 60b2 ec3e d6c8 6f3e
000003f0: 2e15 06bf 58e3 ae3d 5ed3 973e 4eba 64be
-0.11577122 0.63107485 -0.7625449 -0.17486161 0.3407069 -0.72347844 0.6225671 -0.32209864
-0.7046604 -0.19329749 0.63669014 -0.541217 -0.28918967 -0.15618794 0.2090623 0.36549348
-0.09904957 0.39635754 -0.4843306 0.031522624 -0.74056876 0.57627225 0.003974387 -0.12519664
0.5978645 0.5839184 -0.69587016 0.035018217 0.36289188 0.34618342 0.27792618 -0.13244516
0.25346792 0.07488374 -0.8644012 0.2966041 0.2408384 -0.8227516 -0.3586204 0.5256968
-0.2260481 -0.68704575 0.018704098 -0.14467998 -0.3864392 0.024563732 0.3708301 -0.12016687
-0.25873765 0.15043855 -0.57476974 -0.85575 -0.4289106 -0.60748273 0.44496465 0.49148208
0.55130225 0.58705246 -0.24310108 0.17611791 -0.785031 0.30499098 -0.15139204 0.833608
-0.46177515 0.59278154 -0.42885882 0.13835806 0.13440439 0.45026138 -0.74915653 -0.5329884
-0.5673835 0.33462808 -0.08363146 0.49671894 0.37322518 -0.34795165 0.30272937 0.93142104
-0.64999115 0.5675429 -0.80564195 0.30672705 -0.841096 0.5650855 0.19105715 -0.57903576
-0.70698893 -0.54924405 0.1449658 -0.7990085 0.12184948 -0.19887017 0.41033158 -0.26364544
0.48793268 -0.5056651 -0.38629282 0.03852185 -0.7194727 -0.5979439 0.39293113 0.6162789
0.7281588 0.08308919 -0.51354057 -0.6795012 0.09788089 0.53158337 0.5829292 0.10485887
-0.5561722 0.21707644 -0.021591233 0.5541389 0.4228101 0.17413887 0.2039781 0.63265395
-0.37884757 -0.10499669 -0.15436193 -0.2499795 0.460744 -0.53000844 0.51674867 -0.61126417
0.11593087 -0.42370033 0.049870897 0.5348062 0.1707041 -0.12308142 0.6110616 -0.13495508
-0.6126461 0.29826203 0.06405808 -0.1307883 -0.041955147 0.2995377 0.34306642 0.36519554
0.55309075 -0.41098833 -0.35038802 0.48509747 0.14101972 0.50212014 -0.3859471 0.39107814
0.75847423 -0.29047677 0.24836132 0.7090136 -0.08762513 -0.6435752 -0.3704139 -0.18481812
0.0876574 -0.6628819 -0.45135757 -0.5729863 0.82582814 0.45571348 -0.4282055 0.29671857
-0.0056140195 -0.6678022 -0.478978 -0.44555762 -0.6394249 0.34078726 0.45717385 -0.3768258
-0.277705 0.03585611 0.26171193 0.23197633 -0.8402196 -0.17498377 0.7642609 -0.23248667
-0.32893026 0.22626793 -0.1505582 -0.31493062 0.79312396 -0.8421369 0.7119273 0.51297265
-0.27798712 -0.7034331 -0.7826754 -0.79959184 0.35927957 0.112915 0.6217719 0.4581126
0.24494807 0.47622016 -0.4086033 -0.12133851 -0.39566192 -0.37212422 -0.32708052 0.3336971
0.76257914 -0.5570195 -0.5990033 0.5800741 -0.38404912 -0.4873218 0.48126337 -0.29106238
-0.021787887 0.06629444 -0.62015057 0.6833317 0.21692364 -0.81298167 0.11429136 -0.06739091
-0.15779585 0.37058818 -0.22324051 0.4682109 0.35529706 -0.14676781 -0.307257 0.11063309
-0.76086664 0.11260515 0.07699185 -0.808538 0.23466729 -0.13395257 0.47162074 -0.11430897
-0.6145626 -0.28774342 0.22136812 -0.043563966 0.47151747 -0.18240154 0.27036816 -0.69807935
-0.2520471 -0.114737354 0.4622984 0.23416457 -0.5237607 0.08539456 0.29653448 -0.22336695

critic.preprocess.model.model.2.weight f4 [256, 256]
00000000: e50b 98bc 52fd 913d 8b02 06bd 7e18 43bd
00000010: 046f cdbc bedf 913c 0c6a 193d 6fc6 91bd
00000020: 3c09 03bf 62c5 0b3d 7d80 863e 68d8 6fbd
00000030: 2e00 1abd 00d3 fdbc 8170 adbd a4d5 81bc
00000040: 100a 33bd 7bae 7f3d d3ee 8bbc cc06 e63c
00000050: 1472 db3c 4180 783d af43 ba3b 0662 543d
00000060: 26f6 c53b a689 043e ec19 f83a 4c50 2fbd
00000070: 88fe 423d d9e3 423e 5b0a 513d e8a5 363d
00000080: c81d 5fbd d5c4 a03d a919 54bd f989 d0bc
00000090: b8d5 9e3c 8b50 303d 9d58 303d 4cb8 4e3d
000000a0: 5ec7 1d3d 4ddd 9cbd 2d0b 7a3d cf9c da3d
000000b0: bd41 92bd ef26 efbc 18fa 42bc 1cee 0b3d
000000c0: 07dc a8bd 2101 2c3d 933c 33bd e207 6ebe
000000d0: 381a 70bd 10f5 22bd 34d4 eebc 1192 c43d
000000e0: e0c9 963b ed7f 38bb 880d 393c 8826 afbc
000000f0: cbaf 983c 781e 4cbd 568f 4b3d ec9b d83c
00000100: 5a8d aabb fb1c 72bd b80f d0bc 8de9 0abd
00000110: c5e1 e13d 88dd 113e 6f0e 9abd 70d3 463d
00000120: 009e f33b ddc7 84bb e0d7 973c 8e4d a93d
00000130: 9cbb 853d 2cf6 183d 8968 5f3c 620b a03e
00000140: c927 e5bd 021c 41bd ca6d a6bd 0c2f 39bd
00000150: 7cda 75bd 2c57 d4bd 9a1b 16bd db39 25bd
00000160: bf86 a03c 57ab 8ebe f8b9 e2bc a824 7dbc
00000170: a699 cbbc 8cea 4d3d 9045 0dbd 39bb 83bd
00000180: c90a 8cbc 602a 14bd 0c1f 5e3c 2071 46bc
00000190: 5c0a 4abd 60c9 16be c9e7 de3c 877e ab3d
000001a0: 27e8 07bd 801c babc 4586 cc3d 8217 8fbb
000001b0: 2c19 6c3d 4ee3 af3e f876 04bd e1ab b73d
000001c0: 592a 83bc 60da 163c 1e14 59bd b830 ad3e
000001d0: a474 873d 0021 943a 8e8e 4abd 5224 ebbd
000001e0: a8f7 603c 171d 533d 42c2 1c3d 54dd 4bbd
000001f0: a8ff 60bd 216c 0a39 a95a de3d 78b5 14bd
00000200: 752e 3f3d 914d 133d 2ee7 683d c751 243d
00000210: ede7 bd3d c01a f1bb 67fa 9b3d 9d66 1a3d
00000220: f533 51bd 84cf e6bc d635 f13b f4ad 6abd
00000230: cee2 8f3c 08c3 fcbc 6087 3bbc 9e79 303d
00000240: ea42 17bc 8eb5 7f3d c0fe ee3b 3562 9b3d
00000250: efb4 a43d 443b 21bd 6552 90bc e777 8f3d
00000260: 1fd6 9d3d f6a5 423d ffe8 83bd c4aa e13c
00000270: f842 3c3c bde6 a43c dcbe 57bd 88c7 4d3c
00000280: 041d 3a3d e45a 92bd faf9 00bd b9e3 94bd
00000290: a082 663d 5055 dfbc 2594 bcbd c067 5f3b
000002a0: e672 803d b069 5ebd 605a e53c 568c d03b
000002b0: 3ef6 72bd 04cb 42bd b31e cd3d 8ee5 303d
000002c0: a6aa 68bd a0c1 1b3d a3e0 173c de29 393d
000002d0: 6f9f a3bc 48ba 823c 9f47 d03c 6deb 5e3d
000002e0: ae3a 71bd 9bd8 51bc 5f2e fa3d 0057 783a
000002f0: 143a 5d3d b9fc bebc c00e b13d 986f 9d3a
00000300: 9ddf 8dbc 59bb 20bf 0402 333d 472c 9e3b
00000310: c08d 5d3c ea39 103d b061 7d3e b0a3 193d
00000320: 5eb4 ae3b 597f 80bb 44e1 9a3c d3b1 2d3d
00000330: 84b2 7dbd aaa7 123d 0c13 eebc 422e 853d
00000340: 40b6 063e 62f0 7fbc fdbd 89bb 9c81 af3d
00000350: 789f a63c a460 0a3d a4ad 473d 4ac1 b43c
00000360: 22c6 713d ada5 1a3e 2193 b2bd a508 0b3d
00000370: f27d 223d 8ce3 9fbd ec24 6a3d 796a b53c
00000380: 0489 5bbd 13b6 b33d 02fa 923c 66b9 3cbc
00000390: 52cc 17bd bdc8 b4b8 30df eabb 64b8 1e3d
000003a0: c86f 8dbd e0e1 753b 363e c53d 4ee4 98be
000003b0: fb24 9d3d a8d9 573d 0aa3 c03d 9e34 833d
000003c0: 3f46 32bd 4795 223d 4825 e7bd ea7d 45bd
000003d0: 2ed2 793d 23b3 2dbd 63fb e93a 0ff4 aebc
000003e0: 20e6 54bd 24c7 d83e 8ed3 863c eb57 ccbc
000003f0: c036 f2bb 7fb3 84bc 812c a53d d003 da3c
-0.01856036 0.07128395 -0.03271727 -0.04763078 -0.02507735 0.017806884 0.03745465 -0.07117926
-0.51185966 0.034123786 0.26269904 -0.05855599 -0.037597828 -0.030984402 -0.08468724 -0.015848942
-0.04371077 0.062422257 -0.017081654 0.028079413 0.026787795 0.060669187 0.005684338 0.051851295
0.006041306 0.12943134 0.0018928624 -0.042801186 0.04760602 0.1903223 0.051035266 0.044591814
-0.05447176 0.07850043 -0.051782284 -0.025456415 0.019389018 0.04304556 0.04305326 0.050468728
0.03852021 -0.07659397 0.061045814 0.1067444 -0.07141445 -0.02919337 -0.011900447 0.034162626
-0.08245092 0.041993264 -0.04375894 -0.23245195 -0.058618754 -0.03978449 -0.02915392 0.095981725
0.004601702 -0.0028152422 0.01129473 -0.021380678 0.018638512 -0.049833745 0.049697243 0.026441537
-0.0052048387 -0.05910967 -0.02539812 -0.033914138 0.1102939 0.14244664 -0.07522284 0.048541486
0.0074346066 -0.004052146 0.018535554 0.082667455 0.06529924 0.037344143 0.013635763 0.31258684
-0.11189229 -0.04714585 -0.08126409 -0.045210883 -0.060022816 -0.10368189 -0.036647417 -0.04033838
0.019595502 -0.27865097 -0.027676567 -0.015450634 -0.024853539 0.05027251 -0.034490168 -0.06432194
-0.017094987 -0.036173224 0.013557207 -0.012111932 -0.049326286 -0.14725256 0.027210133 0.083737426
-0.033180382 -0.022718668 0.099865474 -0.004366816 0.057641193 0.34353107 -0.03234002 0.0896833
-0.016011404 0.009207338 -0.0529977 0.33826232 0.06614044 0.0011301339 -0.049452357 -0.11481537
0.013730921 0.051541414 0.038271196 -0.04977162 -0.054931313 0.00013200987 0.10857136 -0.036305875
0.046675164 0.035962645 0.056861095 0.04011705 0.09272752 -0.007357925 0.0761612 0.037695516
-0.05107494 -0.028175123 0.007361154 -0.0572948 0.017564204 -0.030854717 -0.01144585 0.043084733
-0.009232262 0.062429003 0.007293552 0.07587091 0.08042323 -0.03936316 -0.017617414 0.070052914
0.07706856 0.047521554 -0.06440925 0.027547248 0.011490576 0.020129556 -0.052672252 0.012559779
0.045437828 -0.07146242 -0.031488396 -0.07269997 0.056276917 -0.02726236 -0.09207944 0.003408894
0.06271915 -0.05430001 0.027997196 0.0063643856 -0.059316866 -0.047556892 0.10015621 0.04318767
-0.056803368 0.038026452 0.009269866 0.045205943 -0.019973485 0.015957966 0.025424777 0.05442374
-0.058893852 -0.01280799 0.12215876 0.0009473413 0.054010466 -0.023313867 0.086453915 0.0012011407
-0.017318541 -0.6278587 0.043703094 0.0048270556 0.013522565 0.03521148 0.24744296 0.03750962
0.00533156 -0.003921431 0.018906243 0.042405915 -0.061937824 0.03580443 -0.029061817 0.065029636
0.1315546 -0.015621277 -0.0042035566 0.08569643 0.020339713 0.03378357 0.04874958 0.022064824
0.059026845 0.15102263 -0.08719469 0.03394379 0.039670892 -0.07807073 0.057164118 0.022145497
-0.053597465 0.08774962 0.017941479 -0.011518812 -0.03706009 -8.620459e-05 -0.0071677193 0.038750067
-0.06906086 0.0037518665 0.096310064 -0.29861683 0.07673069 0.052697808 0.09406097 0.0640652
-0.043524023 0.039693143 -0.11286408 -0.048215784 0.06099146 -0.042407166 0.0017851408 -0.02135661
-0.051977277 0.42339432 0.016458299 -0.024944266 -0.0073917806 -0.016198872 0.08065129 0.026613146
