rl_compexp/save/LL_hyper/LunarLander-DQN-128x4/dqn.pth (torch, 832680 bytes, 40 tensors)

model.model.model.0.weight f4 [128, 8]
-0.58675957 0.24669747 0.22020991 0.8189298 -0.5508344 -0.6878859 0.19401695 0.01912401
-0.18897459 0.09710897 -0.5104072 0.3393417 0.2792579 0.31786475 -0.72839963 -0.67556185
0.41050428 0.2413122 0.0076230015 -0.1322655 0.7571701 0.45902273 -0.25773463 -0.4328151
-0.50845534 0.099255145 -0.5723988 -0.2766718 -0.27408636 0.2539533 -0.39319405 -0.18489279
-0.048047397 -0.10055776 0.3969579 -0.19648361 -0.4157303 -0.13579421 -0.051345535 0.3099471
-0.47128522 0.16958271 -0.43466952 0.008662831 -0.08086961 0.59271616 -0.4781206 -0.06244545
0.23340645 -0.17911547 0.1135961 -0.3674604 -0.7244803 -0.73967016 0.2222694 -0.83428025
-1.0026668 0.043009974 0.002345658 -0.061333474 0.13479875 -0.5144844 0.36159456 0.05245371
-0.22857687 -0.17972006 -0.28905496 0.0304133 0.405947 -0.030295756 -0.33431748 0.11249394
0.1533723 -0.62134457 -1.1095202 0.33898604 0.19790931 0.15729114 -0.36466452 0.21693294
0.64893556 0.112071365 -0.45072225 -0.16007341 -0.5575185 0.26908237 0.2863725 0.39731652
0.79515785 -0.13458037 -0.29724127 -0.38369074 0.4716553 -0.4444569 0.02405819 0.12501223
0.37430882 -0.59395295 -0.45426497 0.6668068 1.037856 0.34073603 0.6087756 0.12978242
0.058994498 0.026171397 0.1611203 -0.27930203 -0.62376994 0.51623 0.15672061 -0.771397
-0.0016137571 -0.5065018 -0.4245916 0.10467522 0.1943183 0.16579637 -0.13685043 0.20145258
0.29435182 -0.4886435 -0.8024597 0.24994622 0.36103493 -0.50834084 0.07607912 0.095988736
0.22849219 -0.049259767 0.22693944 0.4587766 0.64431417 0.22764447 -0.083299085 0.25015888
-0.108277306 -1.5764905 -0.4545021 -0.6640462 0.6743689 0.15719846 0.37545052 0.008852432
-0.3794321 0.12952712 0.013942903 0.3530488 0.014541518 -0.37953126 -0.061684474 0.32531995
-0.31316167 0.22526155 -0.025232717 -0.3159159 -0.7873827 0.35836688 0.3143583 0.22063458
0.8469376 -0.11375336 0.659375 0.6036739 0.3409686 0.5708651 0.43302676 -0.02788564
0.06783859 -0.9064504 1.2498752 0.115976624 0.44243887 -0.55785596 0.52194464 -0.2428249
0.507452 0.106787354 -0.53598213 -0.057841722 -0.10577836 0.62477815 -0.6342366 -0.09501942
-0.5451285 0.19915554 -0.6419014 0.31314597 0.110955074 0.4857426 0.5554978 -0.43026444
0.26470938 -1.4886987 -0.09719785 0.070457555 0.6272723 0.2593074 -0.1484708 -0.03789581
-0.7312999 0.07516292 0.10937801 -0.463979 0.19958076 -0.45590168 0.29569337 0.3132993
0.9832648 -0.9989413 0.013915513 -0.7264579 -0.12826563 0.051418323 0.23257197 -0.14082564
-0.15608175 0.22407953 0.058907557 -0.27421603 0.8300759 0.565446 0.10361851 -0.105690084
-0.10191995 -1.075813 -0.15573065 -0.026825199 -0.8870886 0.1611678 0.14400397 -0.37480772
0.9069021 -0.4504079 0.7768478 0.06838726 -0.017308434 0.21271743 -0.0018969065 0.23889184
-0.16727379 -0.07292442 -0.16539863 -0.41062945 0.6270956 0.690007 0.09180687 -0.13616922
0.21389827 0.32632607 0.3916231 -0.41201648 0.7132025 -0.49405423 -0.27751464 0.07245827
00000000: e035 16bf 439e 7c3e b57e 613e 62a5 513f
00000010: 7c03 0dbf 4a19 30bf 61ac 463e f5a9 9c3c
00000020: 8e82 41be 11e1 c63d 0caa 02bf 32be ad3e
00000030: e4fa 8e3e 2bbf a23e 6678 3abf 9ff1 2cbf
00000040: 9e2d d23e 8c1a 773e 5fca f93b 9b70 07be
00000050: e6d5 413f 0705 eb3e cbf5 83be f199 ddbe
00000060: 212a 02bf 4846 cb3d ba88 12bf eda7 8dbe
00000070: 0c55 8cbe 2b06 823e bb50 c9be 8954 3dbe
00000080: 59cd 44bd 3af1 cdbd 113e cb3e 0033 49be
00000090: 9ada d4be a30d 0bbe b24f 52bd 63b1 9e3e
000000a0: 4c4c f1be 17a7 2d3e 018d debe 8cee 0d3c
000000b0: f79e a5bd 3fbc 173f 39cc f4be cdc6 7fbd
000000c0: 1a02 6f3e 0c6a 37be 12a5 e83d c523 bcbe
000000d0: 8a77 39bf 065b 3dbf 979a 633e 6493 55bf
000000e0: 6357 80bf 3a2b 303d 9cb9 193b cf38 7bbd
000000f0: af08 0a3e 40b5 03bf ec22 b93e b4d9 563d
00000100: 0e10 6abe 8908 38be 03ff 93be 5025 f93c
00000110: 49d8 cf3e ce2e f8bc a92b abbe 3963 e63d
00000120: a10d 1d3e 7010 1fbf c204 8ebf 948f ad3e
00000130: bda8 4a3e ee10 213e 4fb5 babe ab23 5e3e
00000140: a420 263f ac85 e53d 11c5 e6be 49ea 23be
00000150: 88b9 0ebf 2ac5 893e 6b9f 923e 126d cb3e
00000160: 778f 4b3f 70cf 09be 0230 98be 1d73 c4be
00000170: ce7c f13e db8f e3be ae15 c53c 3503 003e
00000180: 68a5 bf3e 4d0d 18bf 6b95 e8be dab3 2a3f
00000190: 77d8 843f f474 ae3e b8d8 1b3f afe5 043e
000001a0: 37a4 713d 6665 d63c b8fc 243e ad00 8fbe
000001b0: 63af 1fbf a627 043f 5e7b 203e 467a 45bf
000001c0: b484 d3ba 1aaa 01bf 1264 d9be f65f d63d
000001d0: 60fb 463e 86c6 293e 8522 0cbe 9649 4e3e
000001e0: 48b5 963e 7b2f fabe 006e 4dbf e7f1 7f3e
000001f0: 92d9 b83e a022 02bf 5fcf 9b3d be95 c43d
00000200: dbf9 693e 9cc4 49bd d062 683e c4e4 ea3e
00000210: c6f1 243f a21b 693e b698 aabd d314 803e
00000220: 7ec0 ddbd 71ca c9bf 80b4 e8be effe 29bf
00000230: 71a3 2c3f a2f8 203e 0d3b c03e ca09 113c
00000240: ed44 c2be c2a2 043e c670 643c d0c2 b43e
00000250: 8c3f 6e3c ec51 c2be dca8 7cbd 5690 a63e
00000260: ba56 a0be f7aa 663e d8b4 cebc bbbf a1be
00000270: ea91 49bf dd7b b73e 92f3 a03e 08ee 613e
00000280: e7d0 583f 86f7 e8bd cdcc 283f 5f8a 1a3f
00000290: 7093 ae3e 3724 123f afb5 dd3e 6d70 e4bc
000002a0: f5ee 8a3d 220d 68bf e9fb 9f3f 2785 ed3d
000002b0: 5987 e23e a6cf 0ebf 2a9e 053f 17a7 78be
000002c0: 60e8 013f 54b3 da3d 2036 09bf 71eb 6cbd
000002d0: 53a2 d8bd 76f1 1f3f 545d 22bf 8b99 c2bd
000002e0: 8b8d 0bbf 6eef 4b3e a653 24bf ab54 a03e
000002f0: 6a3c e33d 41b3 f83e 1b35 0e3f 9f4b dcbe
00000300: fd87 873e ae8d bebf ab0f c7bd 0d4c 903d
00000310: eb94 203f f1c3 843e bb08 18be a338 1bbd
00000320: 7836 3bbf 04ef 993d 9401 e03d a88e edbe
00000330: e65e 4c3e f26b e9be 1f65 973e c468 a03e
00000340: 3eb7 7b3f 9eba 7fbf e4fd 633c 25f9 39bf
00000350: 1158 03be 059c 523d 5927 6e3e 9934 10be
00000360: e5d3 1fbe 1b75 653e 0d49 713d 0b66 8cbe
00000370: db7f 543f 12c1 103f f135 d43d 0b74 d8bd
00000380: 68bb d0bd 3eb4 89bf db77 1fbe 85c0 dbbc
00000390: 3d18 63bf 2c09 253e c775 133e cce6 bfbe
000003a0: bc2a 683f dd9b e6be 7fdf 463f 9f0e 8c3d
000003b0: 6bca 8dbc 99d2 593e 9fa1 f8ba 10a0 743e
000003c0: d249 2bbe 6659 95bd 425e 29be 063e d2be
000003d0: 5689 203f 4ca4 303f 3e05 bc3d f26f 0bbe
000003e0: 2608 5b3e 3614 a73e d382 c83e d3f3 d2be
000003f0: 7094 363f adf4 fcbe 6616 8ebe 0065 943d

model.model.model.0.bias f4 [128]
-0.065585814 0.17225586 -0.1355661 -0.16878425 0.109633185 -0.5354139 -0.09946762 -0.1596733
0.15667479 0.05339588 -0.21907596 -0.01599551 -0.53487253 0.2555657 0.4515809 -0.05303175
0.05645876 -0.22964656 0.37877995 -0.3033358 -0.35141644 -0.15304995 -0.04933201 -0.3359629
0.1652242 -0.33130738 -0.033294853 -0.42002848 0.3462313 -0.4666042 -0.44397596 0.0054080137
0.15166289 -0.27662015 -0.168099 0.07028618 -0.01999302 0.42723972 -0.12671088 -0.4632304
0.12787524 -0.10537345 -0.16593844 0.22676165 0.018530618 0.15678734 -0.46546882 -0.124119386
-0.009111284 0.29692554 -0.15765515 -0.03738762 0.027206855 0.10544523 0.13108228 -0.27685827
0.16665599 -0.4529357 0.20477667 -0.45781985 -0.047494054 -0.030355236 0.16719116 -0.49225557
-0.43170533 -0.050674487 0.118810385 -0.31323177 -0.2987366 -0.39370704 0.22460304 0.09522179
0.3472183 0.03213454 0.024642287 -0.018064573 0.23954356 -0.17409576 0.25644445 0.18713532
-0.0846755 0.43018794 -0.0752894 -0.5394468 -0.14687979 0.015355052 0.31300986 0.027429933
-0.21149261 0.11421427 -0.121512495 0.17376983 -0.08542772 0.012822796 -0.07498396 -0.019215018
-0.5385658 0.0024836618 0.059054762 0.22017159 -0.070943356 0.0048708767 0.026652746 -0.27249342
-0.09464237 0.22311018 -0.09468906 0.29361078 -0.31417257 -0.07583851 0.41007093 0.026222443
-0.06629216 -0.51702106 0.055454116 0.023636362 -0.47301954 -0.0035745553 -0.17127219 0.3055348
-0.3597661 -0.4478233 0.01984761 -0.06865228 0.18755545 0.123102434 -0.122003235 -0.020294437
00000000: db51 86bd d763 303e d7d1 0abe c7d5 2cbe
00000010: 5d87 e03d e310 09bf aeb5 cbbd 6681 23be
00000020: 5b6f 203e a3b5 5a3d 7355 60be 0409 83bc
00000030: 68ed 08bf 82d9 823e 9d35 e73e d237 59bd
00000040: 4d41 673d 7828 6bbe 72ef c13e d44e 9bbe
00000050: dbec b3be 20b9 1cbe 5d10 4abd 5403 acbe
00000060: 8830 293e 1fa1 a9be 2f60 08bd f90d d7be
00000070: 3b45 b13e bfe6 eebe d150 e3be b535 b13b
00000080: 844d 1b3e 28a1 8dbe 2522 2cbe 33f2 8f3d
00000090: 67c8 a3bc 2abf da3e 7fc0 01be 892c edbe
000000a0: baf1 023e 09ce d7bd c4eb 29be 3534 683e
000000b0: 86cd 973c dc8c 203e ee51 eebe 4e32 febd
000000c0: 7f47 15bc a006 983e 5a70 21be c323 19bd
000000d0: e9e0 de3c abf3 d73d 6f3a 063e 5ec0 8dbe
000000e0: dea7 2a3e 30e7 e7be fab0 513e 5d67 eabe
000000f0: 2089 42bd 8bab f8bc 2934 2b3e ec08 fcbe
00000100: 7b08 ddbe 0d90 4fbd dc52 f33d ea5f a0be
00000110: 01f4 98be f893 c9be 57fe 653e a403 c33d
00000120: 99c6 b13e 829f 033d 9fde c93c 28fc 93bc
00000130: e84a 753e 2946 32be b04c 833e 67a0 3f3e
00000140: 596a adbd 9841 dc3e 5431 9abd 2f19 0abf
00000150: a867 16be c293 7b3c d442 a03e bdb4 e03c
00000160: 8591 58be 2ce9 e93d 8bdb f8bd b8f0 313e
00000170: baf4 aebd b416 523c 3191 99bd d068 9dbc
00000180: 73df 09bf eec4 223b 68e3 713d a974 613e
00000190: c04a 91bd e09b 9f3b dc56 da3c 4284 8bbe
000001a0: dcd3 c1bd ff76 643e 56ec c1bd 2754 963e
000001b0: 3adb a0be 3951 9bbd d1f4 d13e 73d0 d63c
000001c0: 2fc4 87bd 7e5b 04bf db23 633d 0ba1 c13c
000001d0: 9e2f f2be 1643 6abb fa61 2fbe 0f6f 9c3e
000001e0: 4333 b8be 1849 e5be 7497 a23c 9199 8cbd
000001f0: 890e 403e 211d fc3d d5dc f9bd 8540 a6bc

model.model.model.2.weight f4 [128, 128]
0.07004134 -0.3501132 -0.30336487 0.31859767 0.24550149 -0.033994276 0.19937396 -0.09341488
-0.17332204 -0.25575462 -0.18189755 -0.23571081 -0.5921471 0.107919395 -0.036802962 -0.29676083
0.051877774 -0.30003387 -0.23633815 -0.10587557 0.44776314 0.06821079 0.21311532 -0.050623313
0.14974791 0.04507627 -0.15201718 0.18552628 0.374826 -0.09049744 -0.21900871 -0.091527455
-0.08902118 0.14855632 -0.0008925636 -0.15678482 0.322295 0.15650183 -0.24003938 0.4014744
0.06882173 0.09681993 -0.5162016 0.5933197 -0.04201689 0.35974833 -0.07889818 -0.40105906
0.29446685 -0.52080977 0.07146359 0.2202174 -0.15412176 0.110671885 0.0020477078 0.32277703
0.22979078 -0.014267063 -0.07398021 0.019396242 0.12897956 0.14112376 -0.91257894 0.16305827
0.39462337 -0.20763229 -0.58763325 0.013933563 -0.37936658 0.19587128 0.55245876 -0.11755404
0.13310207 -0.12774761 0.20481022 0.07981884 0.4700353 0.065174215 0.026300212 -0.116888545
0.18136689 0.5159719 0.7356925 -0.012803175 -0.03749147 -0.29441115 -0.06348161 -0.6359168
-0.061330836 0.15416287 0.40362304 -0.07391725 -0.08900675 -0.13422598 -0.16649295 0.056676853
0.24363399 0.109317586 0.07969367 0.21227257 0.37256703 0.4661903 0.42723978 0.242556
0.50951874 0.26132804 0.029104771 0.3911167 -0.08384419 -0.12427398 -0.006750604 0.039094836
-0.27129218 -0.040506095 -0.0697715 -0.5288693 -0.23280716 -0.019392604 -0.26153466 0.015215153
-0.2147056 -0.0044671088 -0.24183516 -0.048537068 -0.29495627 0.49484786 0.2846907 0.26896185
-0.09216155 -0.068215884 -0.007615964 -0.06758965 0.028135719 -0.08744491 -0.019736009 -0.011287301
-0.008346902 0.05663561 0.037714306 -0.036982257 -0.028105183 -0.0053158714 0.07084293 -0.087065466
-0.08397103 -0.068848886 0.06394089 -0.09082336 0.05900241 -0.060817797 0.05905509 -0.07243637
-0.030919107 -0.058196474 -0.062306624 -0.032178864 0.029071536 0.01735968 -0.076794736 -0.021080488
-0.017954495 0.06396603 -0.069536634 -0.06021424 -0.06098633 0.0070493766 -0.026979025 -0.04160931
-0.06919529 -0.026624752 -0.035185378 0.07252196 -0.0730023 -0.040147863 0.063544564 -0.076490626
0.013503924 0.043479912 0.041825455 -0.030758442 -0.037544593 -0.03393125 -0.057637677 -0.0806481
-0.041933797 -0.0050500142 0.02170904 -0.02948072 0.016622227 0.023687972 0.011592305 -0.02452917
0.031221269 -0.076672725 -0.0074900184 0.05014357 0.002172923 -0.0028938132 -0.09695643 -0.0010365951
0.056539427 -0.10252601 0.024072424 0.08297473 0.07510024 -0.031216651 -0.023750413 -0.08229228
0.051128447 -0.07557401 -0.05672262 -0.04283031 0.07790789 -0.037756104 -0.059215173 -0.08477698
-0.024513679 -0.057701048 -0.05404082 0.054278262 -0.022705272 -0.05686681 -0.011958877 0.0366696
-0.104834974 -0.0087593375 -0.027904017 -0.06513928 -0.038035676 0.014635103 -0.037716623 -0.040373426
0.05691941 0.051268246 0.04603466 0.007504952 0.051640846 -0.07353453 -0.09236472 0.021217443
0.047846705 -0.02853579 -0.0052635935 0.05532571 -0.054540414 0.04677183 0.03375175 0.0012775237
-0.09180186 0.011550654 -0.03520007 0.08818871 -0.06410581 0.023013465 0.003201238 -0.050485395
00000000: d671 8f3d 0a42 b3be a452 9bbe 3c1f a33e
00000010: be64 7b3e 953d 0bbd b028 4c3e 4d50 bfbd
00000020: 557b 31be 45f2 82be 5a43 3abe 2d5e 71be
00000030: f496 17bf d804 dd3d b4be 16bd 09f1 97be
00000040: ca7d 543d 0a9e 99be a102 72be 4ad5 d8bd
00000050: 3641 e53e 19b2 8b3d e73a 5a3e 645a 4fbd
00000060: 8457 193e e5a1 383d 64aa 1bbe 9afa 3d3e
00000070: 32e9 bf3e b956 b9bd d243 60be bf72 bbbd
00000080: bd50 b6bd 261f 183e eefa 69ba 338c 20be
00000090: da03 a53e 0442 203e e2cc 75be 0d8e cd3e
000000a0: 68f2 8c3d 8749 c63d ca25 04bf cde3 173f
000000b0: e719 2cbd ef30 b83e 5e95 a1bd 9d57 cdbe
000000c0: 5cc4 963e ca53 05bf 815b 923d ac80 613e
000000d0: 18d2 1dbe f1a7 e23d d632 063b 0843 a53e
000000e0: 464e 6b3e 66c0 69bc f082 97bd dee4 9e3c
000000f0: 3813 043e bf82 103e c69e 69bf bff8 263e
00000100: 130c ca3e 8f9d 54be 226f 16bf 9949 643c
00000110: 563c c2be 7b92 483e f06d 0d3f 2cc0 f0bd
00000120: e94b 083e 45d0 02be c5b9 513e 0f78 a33d
00000130: 78a8 f03e 0f7a 853d 8b73 d73c 4363 efbd
00000140: 3eb8 393e bc16 043f 5856 3c3f 68c4 51bc
00000150: a890 19bd 0fbd 96be a502 82bd 72cb 22bf
00000160: 0b36 7bbd dfdc 1d3e aea7 ce3e ed61 97bd
00000170: 2c49 b6bd 8972 09be 217d 2abe fd25 683d
00000180: 307b 793e e6e1 df3d 6f36 a33d fb5d 593e
00000190: 1bc1 be3e 7fb0 ee3e 2cbf da3e 9a60 783e
000001a0: d26f 023f cacc 853e 216d ee3c 7340 c83e
000001b0: 81b6 abbd 5b83 febd 2c34 ddbb e821 203d
000001c0: cfe6 8abe b8e9 25bd 5ce4 8ebd fa63 07bf
000001d0: 0065 6ebe 3ddd 9ebc dfe7 85be fa48 793c
000001e0: c9db 5bbe d360 92bb a3a3 77be cece 46bd
000001f0: 8204 97be b35c fd3e fbc2 913e 5eb5 893e
00000200: 32bf bcbd c5b4 8bbd 568f f9bb 716c 8abd
00000210: e17c e63c 5116 b3bd 69ad a1bc 5fee 38bc
00000220: 72c1 08bc befa 673d 517a 1a3d b57a 17bd
00000230: d73c e6bc c330 aebb 1916 913d 614f b2bd
00000240: 01f9 abbd a500 8dbd 71f3 823d 9901 babd
00000250: 83ac 713d 151c 79bd c0e3 713d 8559 94bd
00000260: 114a fdbc 6d5f 6ebd 3b35 7fbd fccd 03bd
00000270: 6e27 ee3c e335 8e3c 8f46 9dbd fdb0 acbc
00000280: 4e15 93bc 9f00 833d 3969 8ebd 35a3 76bd
00000290: cdcc 79bd 75fe e63b 1e03 ddbc 866e 2abd
000002a0: 43b6 8dbd 271c dabc 8b1e 10bd 6586 943d
000002b0: 3b82 95bd 1672 24bd a723 823d 1ea7 9cbd
000002c0: 903f 5d3c fe17 323d 2b51 2b3d 21f9 fbbc
000002d0: 5cc8 19bd 7ffb 0abd 7c15 6cbd d52a a5bd
000002e0: c6c2 2bbd 977a a5bb 28d7 b13c 8d81 f1bc
000002f0: 562b 883c 470d c23c a7ed 3d3c 66f1 c8bc
00000300: bfc3 ff3c 9706 9dbd d46e f5bb 5863 4d3d
00000310: 9967 0e3b 21a6 3dbb 1891 c6bd 5cde 87ba
00000320: e395 673d 28f9 d1bd 8833 c53c a8ee a93d
00000330: 28ce 993d 10ba ffbc 3a90 c2bc db88 a8bd
00000340: 106c 513d 8cc6 9abd fa55 68bd d66e 2fbd
00000350: 2c8e 9f3d 25a6 1abd 9c8b 72bd 8e9f adbd
00000360: e9d0 c8bc ef57 6cbd e859 5dbd e252 5e3d
00000370: 6800 babc 2ced 68bd 2aef 43bc dd32 163d
00000380: b8b3 d6bd 5383 0fbc f796 e4bc be67 85bd
00000390: 4ccb 1bbd 12c8 6f3c bf7c 1abd 9b5e 25bd
000003a0: 5424 693d a7fe 513d d78e 3c3d 1aec f53b
000003b0: 5a85 533d 4699 96bd b729 bdbd 34d0 ad3c
000003c0: e8fa 433d e4c3 e9bc 397a acbb 369d 623d
000003d0: c565 5fbd d293 3f3d 463f 0a3d 9572 a73a
000003e0: 9d02 bcbd f43e 3d3c f32d 10bd 489c b43d
000003f0: e849 83bd bc86 bc3c ddcb 513b c6c9 4ebd

model.model.model.2.bias f4 [128]
-0.10023178 -0.07847182 -0.17531796 0.11308487 0.020660335 -0.06678513 -0.10784943 -0.08584112
0.12600562 -0.04091088 -0.0945916 0.0068272185 0.04376881 0.2643899 -0.15261886 -0.12941842
-0.18329942 -0.025577484 -0.1311403 -0.1673796 0.20674917 -0.10190257 0.030519444 0.10631115
-0.09107839 0.14268133 -0.11630366 -0.22835866 -0.04149217 0.058372203 0.07081334 0.3004939
-0.2431157 0.14093994 -0.15511763 0.014566185 -0.034792863 -0.043551713 -0.025057701 -0.0877976
-0.0565866 0.3267129 0.16723633 0.26442614 0.008501474 0.13072899 -0.04250928 0.13543177
-0.024671528 -0.08044192 0.16681187 0.04819478 -0.13840456 -0.036379788 -0.046986558 -0.0015906158
-0.09920211 0.00078391447 -0.058923826 0.00022733404 0.034252964 0.12339842 0.13143945 0.20238256
0.11790341 -0.28357276 0.09480083 0.02473861 -0.01765248 0.073816426 0.0399398 0.15046519
-0.17510375 -0.03169106 -0.023085583 0.15749341 0.14172542 -0.09840091 0.24408744 0.17184529
0.031277444 0.21424639 -0.09089226 -0.012154021 -0.044847403 -0.007211437 -0.1719871 0.1533703
0.08965279 0.02881256 0.16301805 -0.15356104 -0.088113725 0.23950388 -0.008417886 -0.024977198
-0.1986735 0.060452778 0.018918322 0.114005044 -0.01779259 -0.005000244 0.10838396 -0.26996657
0.21871267 -0.14399065 0.09492877 -0.040932156 -0.12231904 0.0069092116 0.1698319 0.005365647
0.11663681 0.20365089 -0.062298175 0.081929065 -0.017294213 -0.073379986 -0.07732947 0.13281737
-0.24076006 0.065127715 0.16657102 0.07350268 -0.0039175455 -0.09923349 -0.06229067 -0.023391278
00000000: 5246 cdbd d5b5 a0bd 8d86 33be 0a99 e73d
00000010: dd3f a93c a4c6 88bd 29e0 dcbd 78cd afbd
00000020: 9e07 013e 2b92 27bd 3eb9 c1bd dcb6 df3b
00000030: ec46 333d 1d5e 873e 1e48 1cbe 4386 04be
00000040: d8b2 3bbe df87 d1bc a549 06be 8f65 2bbe
00000050: 0eb6 533e 4bb2 d0bd ea03 fa3c a9b9 d93d
00000060: 4f87 babd 0e1b 123e 9d30 eebd dad6 69be
00000070: b2f3 29bd b117 6f3d 9606 913d 56da 993e
00000080: 52f3 78be 8f52 103e 28d7 1ebe 02a7 6e3c
00000090: f682 0ebd 4863 32bd cf45 cdbc 3acf b3bd
000000a0: 5ac7 67bd ea46 a73e 0040 2b3e dd62 873e
000000b0: c449 0b3c d2dd 053e 361e 2ebd a0ae 0a3e
000000c0: f21b cabc bcbe a4bd bbd0 2a3e e467 453d
000000d0: edb9 0dbe f902 15bd fa74 40bd 367c d0ba
000000e0: 7a2a cbbd 9c7f 4d3a 1c5a 71bd 8460 6e39
000000f0: d64c 0c3d 50b8 fc3d 1098 063e 603d 4f3e
00000100: 5877 f13d 7330 91be f026 c23d a0a8 ca3c
00000110: ef9b 90bc 112d 973d ea97 233d 8c13 1a3e
00000120: 664e 33be 7cce 01bd fa1d bdbc f445 213e
00000130: 7820 113e 6b86 c9bd 0ff2 793e 36f8 2f3e
00000140: c71c 003d 6863 5b3e b925 babd a921 47bc
00000150: e9b1 37bd eb4d ecbb 631d 30be 1b0d 1d3e
00000160: e29b b73d 5108 ec3c 34ee 263e 1b3f 1dbe
00000170: f874 b4bd 8140 753e 2ceb 09bc fb9c ccbc
00000180: 1171 4bbe 559d 773d 99fa 9a3c 7a7b e93d
00000190: c4c1 91bc 16d9 a3bb 69f8 dd3d 0f39 8abe
000001a0: 37f6 5f3e 4972 13be 046a c23d 7aa8 27bd
000001b0: 6882 fabd ab66 e23b 6ae8 2d3e 4fd2 af3b
000001c0: 48df ee3d dc89 503e 5f2c 7fbd 6dca a73d
000001d0: 98ac 8dbc 3f48 96bd ea5e 9ebd 4701 083e
000001e0: ce89 76be ae61 853d 9891 2a3e 9388 963d
000001f0: c15e 80bb ee3a cbbd 8024 7fbd 119f bfbc

model.model.model.4.weight f4 [128, 128]
-0.09981882 0.03771011 -0.12615387 -0.012161807 0.012853103 0.084092475 -0.04144135 -0.09578028
0.0003358583 -0.02421171 0.055294946 -0.07967236 0.057674654 -0.12687585 -0.07786909 -0.059087064
0.060147986 0.060873855 -0.016314154 -0.12141492 -0.089998685 0.03104189 0.03073213 -0.015130983
-0.010674163 -0.1503391 0.08770327 0.056626387 0.054516483 0.046048123 -0.0022512877 -0.029337531
0.062489603 -0.043063186 -0.026620276 -0.06976376 -0.08492117 -0.057477806 0.07026291 0.019312434
-0.026927095 0.012563824 -0.020595688 -0.07196032 -0.042909577 -0.023254557 -0.05196456 0.082261086
-0.017453283 -0.04208454 0.05770173 0.011336111 0.04460912 -0.17787947 -0.033927947 -0.056142688
0.015890198 -0.117690355 -0.10792921 0.0040949266 -0.08519214 -0.025703672 0.10062761 -0.12174786
-0.06815635 -0.07032036 -0.16836275 -0.04103595 0.060758613 -0.07175147 -0.043015514 -0.08582692
-0.11508019 -0.009815406 -0.12496929 -0.098718114 -0.083877854 0.05004921 0.0036565452 0.10004157
0.0025462436 0.016509775 0.054977424 -0.050396487 -0.02917005 -0.15536334 0.0028612337 -0.07137445
0.030285629 -0.14090751 -0.06234092 0.06621398 -0.05134256 -0.002661495 0.036956474 -0.09832994
-0.044838734 -0.063316956 -0.031241413 -0.14082152 -0.044028025 -0.07344273 -0.079528585 -0.121361494
-0.037224274 -0.060853112 -0.087616 -0.0247724 -0.049415577 0.009571152 -0.1263788 -0.031134214
-0.09527689 0.08453833 0.055757318 -0.05154669 0.012822962 0.046783168 0.034762587 -0.04534338
-0.052636754 -0.015768154 -0.058259785 0.004911012 -0.060959667 -0.0878091 0.038127027 -0.052212074
-0.30976382 -0.042637352 -0.2058053 -0.1388594 -0.021051263 -0.31538007 -0.011743556 -0.13119437
-0.32797953 0.093618855 -0.11496974 0.011356974 -0.00359913 -0.3371233 0.15966684 -0.05696756
-0.22963433 -0.003851809 0.13986228 -0.5077749 -0.13590616 -0.034123875 0.08903948 -0.17363028
0.093249194 0.16541003 -0.06284084 -0.045310237 0.07746656 -0.25780326 -0.52527153 -0.009931162
-0.22098282 -0.08197464 -0.1243407 -0.040532354 -0.06553264 -0.048127137 -0.1400458 -0.002607471
0.025343604 -0.63553256 -0.12736967 0.16732913 -0.5143959 -0.32416505 0.16479005 -0.3080926
-0.07221468 0.25300288 0.14264414 0.07063125 -0.10898052 0.1459378 -0.03622336 -0.010128119
-0.02822227 -0.23856117 0.034152992 -0.4904944 -0.25558114 -0.010953646 -0.23298144 -0.14555685
-0.41855234 -0.06920609 -0.07603867 -0.21001227 0.05220592 0.3385449 -0.06407968 0.12942673
-0.11118976 0.10092202 -0.046023473 0.2930571 -0.37731025 0.076343834 -0.5339909 -0.025463931
0.46926367 0.21148564 -0.011069174 -0.13475442 -0.051851757 -0.005648025 -0.07797086 -0.12898542
-0.32404214 0.21187335 -1.251941 0.26661804 0.052004904 -0.11398918 0.1075154 0.0056312615
0.14864598 -0.22478998 -0.026318263 -0.5528134 -0.34093696 0.22250439 0.03933483 0.10370177
-0.3659436 -0.1627034 -0.19780658 0.06674055 0.6752488 -0.44274685 -0.11505846 -0.15896037
0.12214986 0.2973234 -0.044600237 0.1382599 -0.06790581 0.25881428 -0.1702927 -0.61503434
-0.10719847 -0.36749354 -0.39475045 0.11358209 -0.37935692 -0.14603133 -0.12095994 -0.09716216
00000000: cf6d ccbd eb75 1a3d 7b2e 01be 5142 47bc
00000010: d295 523c ad38 ac3d 68be 29bd 7428 c4bd
00000020: 2316 b039 a357 c6bc f47c 623d 432b a3bd
00000030: 423c 6c3d beeb 01be d479 9fbd 4705 72bd
00000040: bc5d 763d dd56 793d 43a5 85bc 63a8 f8bd
00000050: 3b51 b8bd 904b fe3c f3c1 fb3c f1e7 77bc
00000060: afe2 2ebc 7ef2 19be c69d b33d 12f1 673d
00000070: ad4c 5f3d f59c 3c3d 578a 13bb 4355 f0bc
00000080: 19f5 7f3d 0663 30bd c412 dabc 4de0 8ebd
00000090: 26eb adbd d96d 6bbd 00e6 8f3d 1c35 9e3c
000000a0: 3696 dcbc 7fd8 4d3c 4ab8 a8bc ef5f 93bd
000000b0: f4c1 2fbd 5780 bebc cad8 54bd 8078 a83d
000000c0: 30fa 8ebc d760 2cbd a658 6c3d 19bb 393c
000000d0: 0db8 363d 0926 36be 08f8 0abd e0f5 65bd
000000e0: 292c 823c a407 f1bd fd09 ddbd bc2e 863b
000000f0: 3779 aebd 8290 d2bc d915 ce3d f156 f9bd
00000100: 8e95 8bbd 1f04 90bd 4967 2cbe 5015 28bd
00000110: 06de 783d 6ff2 92bd 0931 30bd 06c6 afbd
00000120: 2aaf ebbd ccd0 20bc e6ef ffbd b92c cabd
00000130: 27c8 abbd 6700 4d3d a6a2 6f3b 98e2 cc3d
00000140: e1de 263b 823f 873c 0230 613d 8c6c 4ebd
00000150: 07f6 eebc 9117 1fbe 8983 3b3b c52c 92bd
00000160: 9119 f83c 0f4a 10be 3159 7fbd 329b 873d
00000170: 944c 52bd 7a6c 2ebb ac5f 173d 3561 c9bd
00000180: d2a8 37bd 52ac 81bd feed ffbc 8433 10be
00000190: bb56 34bd 2469 96bd e2df a2bd 608c f8bd
000001a0: 7b78 18bd 1d41 79bd 0470 b3bd 7def cabc
000001b0: fd67 4abd 52d0 1c3c 7269 01be 2e0d ffbc
000001c0: 8820 c3bd 6f22 ad3d c961 643d 9f22 53bd
000001d0: 6717 523c b59f 3f3d 3763 0e3d fbb9 39bd
000001e0: a399 57bd 372c 81bc d0a1 6ebd 8eec a03b
000001f0: d8b0 79bd 42d5 b3bd 162b 1c3d 54dc 55bd
00000200: 5d99 9ebe 81a4 2ebd a0be 52be 2931 0ebe
00000210: b373 acbc 7f79 a1be 0b68 40bc d157 06be
00000220: efec a7be 3ebb bf3d 4175 ebbd 9a12 3a3c
00000230: 62df 6bbb 6d9b acbe b47f 233e d156 69bd
00000240: 4325 6bbe a26e 7cbb 0f38 0f3e 89fd 01bf
00000250: fc2a 0bbe 7ac5 0bbd 555a b63d 23cc 31be
00000260: 6ff9 be3d 3f61 293e b3b2 80bd 3a97 39bd
00000270: caa6 9e3d cafe 83be 3278 06bf 50b6 22bc
00000280: 5249 62be 52e2 a7bd 56a6 febd 4105 26bd
00000290: fa35 86bd f620 45bd 2b68 0fbe 1be2 2abb
000002a0: 649d cf3c 43b2 22bf 326d 02be 5458 2b3e
000002b0: 73af 03bf f6f8 a5be b9be 283e 50be 9dbe
000002c0: 4ae5 93bd 9889 813e 4e11 123e 1ea7 903d
000002d0: 2e31 dfbd b870 153e f25e 14bd 69f0 25bc
000002e0: 6432 e7bc 6149 74be 02e4 0b3d 1522 fbbe
000002f0: 88db 82be ec76 33bc b092 6ebe db0c 15be
00000300: 7e4c d6be ecbb 8dbd 2aba 9bbd 750d 57be
00000310: e0d5 553d c255 ad3e 353c 83bd 7188 043e
00000320: 75b7 e3bd 34b0 ce3d 1c83 3cbd 950b 963e
00000330: cf2e c1be 285a 9c3d a1b3 08bf bc99 d0bc
00000340: 5443 f03e b18f 583e 7b5b 35bc 10fd 09be
00000350: 8262 54bd 1113 b9bb 30af 9fbd c114 04be
00000360: dae8 a5be 54f5 583e 9a3f a0bf 2982 883e
00000370: 1803 553d 2973 e9bd 0931 dc3d 7286 b83b
00000380: a736 183e 582f 66be 6699 d7bc 2e85 0dbf
00000390: 4a8f aebe 31d8 633e 8f1d 213d 9861 d43d
000003a0: f65c bbbe b89b 26be cf8d 4abe 45af 883d
000003b0: 1bdd 2c3f b7af e2be c5a3 ebbd 82c6 22be
000003c0: b529 fa3d c63a 983e bdae 36bd 0194 0d3e
000003d0: 3412 8bbd 4e83 843e 3661 2ebe e472 1dbf
000003e0: df8a dbbd 1d28 bcbe bb1c cabe ba9d e83d
000003f0: 123b c2be 3d89 15be d8b9 f7bd f4fc c6bd

model.model.model.4.bias f4 [128]
-0.043671753 -0.11690193 0.596369 -0.12832241 -0.12562397 -0.017010625 0.39876685 -0.24684754
-0.14630887 -0.107791394 0.27088043 -0.17391565 0.22132017 0.0298602 0.10207134 0.15394637
0.061438214 0.33465442 0.067195535 0.23654486 0.07187201 -0.13473418 -0.03313882 0.05938948
-0.102866456 0.22340694 -0.1593432 -0.11035108 -0.08496847 -0.10780252 0.20875552 -0.08347399
-0.02448112 -0.102158405 -0.26445487 -0.009043195 0.027486617 0.2660614 0.14116758 0.5296937
-0.12271312 0.018203551 -0.011553512 -0.15679201 0.031948935 -0.23923689 -0.041873377 -0.03363826
-0.048431106 -0.019139402 -0.10577543 -0.022601211 -0.11784102 0.109763905 -0.17700063 0.3382104
-0.106590234 -0.15852542 -0.3001838 -0.02171773 0.12113028 -0.030320356 0.11782169 0.05499469
0.14446673 -0.04161645 0.15554327 -0.12836869 -0.104998425 0.06962615 -0.14601077 -0.12731403
0.106958754 -0.068519905 -0.054984696 -0.052893158 -0.06696336 0.043621633 -0.1750566 -0.08596419
-0.07474926 0.06011412 0.02585894 0.3904169 0.14354609 -0.13616972 0.2628917 0.121254645
-0.07964107 -0.018713657 -0.08713013 -0.015000362 0.047114756 0.100806944 -0.3109632 0.29500106
0.24540348 -0.1334115 0.10790238 -0.13847205 0.13333964 0.19756566 0.3638601 0.04649655
-0.018960854 -0.036802426 0.25914624 0.39251405 0.08302437 -0.12546237 0.3184675 0.18402077
0.007401336 0.3504086 0.27201945 -0.17994492 -0.24955954 0.22560383 0.12113239 0.11599928
0.31476197 0.01914449 -0.11958071 -0.0013466767 0.2453725 -0.022676948 0.017316842 -0.06841912
00000000: 27e1 32bd 476a efbd a4ab 183f f366 03be
00000010: 92a3 00be de59 8bbc 2b2b cc3e 9ac5 7cbe
00000020: fed1 15be bcc1 dcbd d7b0 8a3e f216 32be
00000030: c1a1 623e 619d f43c c70a d13d 1ea4 1d3e
00000040: a3a6 7b3d d357 ab3e d09d 893d d138 723e
00000050: a231 933d c2f7 09be 92bc 07bd 6242 733d
00000060: a6ab d2bd cac4 643e dd2a 23be bfff e1bd
00000070: f303 aebd 91c7 dcbd 02c4 553e 69f4 aabd
00000080: a18c c8bc 6d38 d1bd a166 87be e929 14bc
00000090: 9d2b e13c 3339 883e 3c8e 103e 029a 073f
000000a0: 0451 fbbd 9d1f 953c f14a 3dbc 168e 20be
000000b0: e3dc 023d 84fa 74be 6b83 2bbd 46c8 09bd
000000c0: b25f 46bd 3cca 9cbc caa0 d8bd 2d26 b9bc
000000d0: a256 f1bd e6cb e03d a73f 35be ea29 ad3e
000000e0: fb4b dabd 7d54 22be b1b1 99be 62e9 b1bc
000000f0: 2713 f83d 6562 f8bc 804c f13d 1d42 613d
00000100: 16ef 133e 0376 2abd bc46 1f3e 1573 03be
00000110: 6a09 d7bd 2898 8e3d d983 15be 9c5e 02be
00000120: 310d db3d 2a54 8cbd a237 61bd 7fa6 58bd
00000130: 1624 89bd 99ac 323d 0a42 33be fe0d b0bd
00000140: 2416 99bd 393a 763d 21d6 d33c b9e4 c73e
00000150: bffd 123e 1370 0bbe be99 863e 5b54 f83d
00000160: db1a a3bd 624d 99bc 4871 b2bd 14c4 75bc
00000170: 67fb 403d df73 ce3d 9236 9fbe 610a 973e
00000180: 0d4b 7b3e 069d 08be ecfb dc3d 9ecb 0dbe
00000190: 308a 083e a74e 4a3e df4b ba3e 2b73 3e3d
000001a0: cb53 9bbc 24be 16bd d1ae 843e 9af7 c83e
000001b0: ae08 aa3d 3579 00be 2c0e a33e f16f 3c3e
000001c0: e886 f23b c268 b33e 2246 8b3e 7b43 38be
000001d0: 898c 7fbe b104 673e 4214 f83d 0891 ed3d
000001e0: 7b28 a13e e8d4 9c3c bbe6 f4bd f982 b0ba
000001f0: ee42 7b3e 02c5 b9bc 0ddc 8d3c 531f 8cbd

model.model.model.6.weight f4 [128, 128]
-0.09000224 0.18726799 -0.5335755 0.08076871 0.23229375 0.0829176 -1.2411333 0.055700626
-0.13884567 0.46433958 -0.3673197 0.11699486 -0.15956365 0.13856092 -0.32109597 0.34706697
-1.004367 -0.3244445 -0.16988198 -0.81587666 0.42549923 -0.026698172 0.016128374 -0.40119275
-0.013404909 -0.15897161 -0.0805033 0.01051663 -0.07603477 -0.06246362 0.1308616 -0.08814832
-0.9147112 0.017607532 0.578681 0.016483493 0.11193942 1.3409207 -0.3388967 -0.28385064
0.050666012 -0.18874447 0.3591915 0.07755007 -0.45490435 -0.03793586 0.0397088 0.05187994
0.027391706 0.21020305 0.05702695 -0.0077091237 -0.038136017 -0.100098744 -0.10387583 -0.41363743
-0.028898673 0.11986462 -0.055290967 0.26402026 -0.42186376 0.039141253 -0.13675186 -0.38206276
0.23623641 0.103794366 0.18807612 0.27539963 -0.040881734 0.10212894 0.020790309 -0.37409043
-0.13672072 0.03381593 0.01940229 0.41811678 -0.13215773 0.071284585 0.32600296 -0.42802548
-0.031220762 -0.77315027 -0.14247546 -0.547869 0.5862517 0.04705342 0.15471269 0.7000051
-0.015107285 0.0505793 -0.05578772 0.08915246 0.16924231 -0.5794425 -0.15420519 -0.10628301
0.13947926 0.16177867 0.09724602 -0.18222064 0.86734647 -0.20582353 0.1737665 0.5208646
-0.09126855 -0.49225792 -0.86148936 -0.39501122 -0.60548574 0.063952446 -0.95216066 0.30582264
0.45842698 0.2817653 0.61733186 0.1268961 0.0906157 -0.080944374 -0.21174294 -0.10462842
0.32667258 0.16579072 0.06633456 0.047863867 0.22728007 -0.6227998 -0.5574212 0.039661102
-0.029020447 -0.13286804 0.2829421 0.46246442 -0.11288078 -0.6305508 0.3693673 0.002431309
-0.0008552955 -0.8480314 0.41570893 -0.13796477 -0.39146847 -0.113677315 -0.0038469785 -0.09299292
-0.24817878 0.42202383 0.5634987 0.43880773 0.19021049 -0.06401473 0.10500183 0.15391354
-0.0855879 0.23209102 -0.09030412 -0.30125692 -0.050967537 -0.03769696 -0.18613514 0.08664787
-1.2057203 -0.096787006 -0.089733765 0.039955426 -0.24419273 0.19183137 -0.22811887 0.25610143
-0.038900044 -0.406562 0.08285842 -0.018679127 0.39123487 -0.6127439 -0.047481798 -0.027705634
0.19990498 -0.059153255 -0.31684995 -0.028355114 -0.009187823 -0.3430475 0.0070451447 0.43777525
0.011158737 -0.0217697 0.06489535 -0.024563495 0.39518863 -0.0633281 0.6244117 -0.34649736
-0.048793856 0.11404227 -0.09244316 -0.47852805 0.033778958 -0.28853977 0.04693396 -0.034107093
0.20778705 -0.007947178 -0.013877903 0.037155762 -0.08564733 0.33636454 -0.8885164 0.31188935
0.0015230069 -0.22891343 -0.1360155 0.7473349 -0.24682467 -0.025737328 0.21424039 -0.13633265
-0.6670364 0.028184097 -0.0037488237 0.027989069 -0.9529525 0.29225576 -0.261726 0.28774425
0.041412793 -0.41036668 0.5475098 -0.37045386 0.3081623 0.38457674 0.013981788 0.082610294
0.10976716 -0.19440952 0.16249315 -0.53031874 0.24072212 0.025165338 0.2888814 -0.4339575
-0.026518883 0.18951973 0.10211804 -0.38815975 -0.026159216 -0.56540596 0.06757399 -0.31916642
0.038143054 -0.25086206 -0.55084234 0.014831623 -0.29725748 -0.11656633 -1.3925653 -0.03551714
00000000: 1853 b8bd 2ec3 3f3e 6798 08bf 116a a53d
00000010: 6ade 6d3e b4d0 a93d 75dd 9ebf 5726 643d
00000020: 8f2d 0ebe ebbd ed3e 5411 bcbe 009b ef3d
00000030: a764 23be eae2 0d3e b166 a4be c3b2 b13e
00000040: 198f 80bf 971d a6be 8bf5 2dbe 4bdd 50bf
00000050: 09db d93e 20b6 dabc a71f 843c 2369 cdbe
00000060: 43a0 5bbc 74c9 22be eade a4bd f14d 2c3c
00000070: 1eb8 9bbd dad9 7fbd 9500 063e 1b87 b4bd
00000080: 832a 6abf ac3d 903c 7024 143f 6408 873c
00000090: 7f40 e53d 4aa3 ab3f de83 adbe df54 91be
000000a0: 2a87 4f3d 3b46 41be f3e7 b73e 92d2 9e3d
000000b0: 39e9 e8be a262 1bbd b2a5 223d 0f80 543d
000000c0: 9264 e03c 783f 573e 1795 693d d19c fcbb
000000d0: 8334 1cbd 9200 cdbd dabc d4bd 49c8 d3be
000000e0: e9bc ecbc 957b f53d c878 62bd aa2d 873e
000000f0: 87fe d7be 9452 203d ae08 0cbe bb9d c3be
00000100: f5e7 713e 2492 d43d 0797 403e 2e01 8d3e
00000110: 9b73 27bd fa28 d13d 7050 aa3c c888 bfbe
00000120: 8400 0cbe 9382 0a3d 8df1 9e3c 6713 d63e
00000130: 5b54 07be a7fd 913d dce9 a63e 2826 dbbe
00000140: afc2 ffbc 2ded 45bf 16e5 11be 2541 0cbf
00000150: 9714 163f 16bb 403d 016d 1e3e 8933 333f
00000160: 8c84 77bc 3d2c 4f3d aa81 64bd 9195 b63d
00000170: db4d 2d3e 5856 14bf f7e7 1dbe e8aa d9bd
00000180: a7d3 0e3e 4fa9 253e ec28 c73d 0c98 3abe
00000190: 6b0a 5e3f 67c3 52be d8ef 313e 6257 053f
000001a0: 01eb babd 3b09 fcbe 918a 5cbf e93e cabe
000001b0: 1d01 1bbf 80f9 823d cdc0 73bf c994 9c3e
000001c0: f1b6 ea3e 8b43 903e 7609 1e3f 0df1 013e
000001d0: b994 b93d 2ac6 a5bd 24d3 58be 6d47 d6bd
000001e0: a141 a73e 0bc5 293e 6ada 873d e70c 443d
000001f0: 1bbc 683e cf6f 1fbf 28b3 0ebf ae73 223d
00000200: 4abc edbc 8f0e 08be c9dd 903e 23c8 ec3e
00000210: 0a2e e7bd c76b 21bf b61d bd3e 9956 1f3b
00000220: e935 60ba 9618 59bf cdd7 d43e a346 0dbe
00000230: 8e6e c8be a7cf e8bd 971d 7cbb 1273 bebd
00000240: 9422 7ebe 8213 d83e 7341 103f 68ab e03e
00000250: 8ac6 423e 281a 83bd 330b d73d 839b 1d3e
00000260: b548 afbd 45a9 6d3e 5ef1 b8bd 593e 9abe
00000270: 56c3 50bd 2168 1abd 369a 3ebe 7074 b13d
00000280: 0b55 9abf 4438 c6bd 56c6 b7bd 4da8 233d
00000290: a90d 7abe 716f 443e fe97 69be ba1f 833e
000002a0: a755 1fbd e528 d0be adb1 a93d f804 99bc
000002b0: f04f c83e c9dc 1cbf 467c 42bd edf6 e2bc
000002c0: e4b3 4c3e af4a 72bd 283a a2be fc48 e8bc
000002d0: 8688 16bc eca3 afbe f5da e63b 1424 e03e
000002e0: 23d3 363c 5f56 b2bc dae7 843d 6239 c9bc
000002f0: 2a56 ca3e 2ab2 81bd 72d9 1f3f 1a68 b1be
00000300: 11dc 47bd fe8e e93d d752 bdbd a101 f5be
00000310: ce5b 0a3d 7cbb 93be d33d 403d e1b3 0bbd
00000320: 21c6 543e e134 02bc 2560 63bc a430 183d
00000330: de67 afbd f937 ac3e d075 63bf f6af 9f3e
00000340: a29f c73a 4868 6abe a647 0bbe 5751 3f3f
00000350: 9bbf 7cbe 17d7 d2bc d561 5b3e c99a 0bbe
00000360: e6c2 2abf 56e2 e63c d3ae 75bb 5549 e53c
00000370: b2f4 73bf 8ca2 953e f300 86be 3753 933e
00000380: 76a0 293d 951b d2be 9a29 0c3f 21ac bdbe
00000390: 73c7 9d3e 3ee7 c43e df13 653c 962f a93d
000003a0: 9bcd e03d 4a13 47be 9b64 263e f8c2 07bf
000003b0: dc7f 763e 8a27 ce3c 43e8 933e ad2f debe
000003c0: 213e d9bc 7611 423e 4323 d13d e0bc c6be
000003d0: da4b d6bc 72be 10bf 3b64 8a3d c869 a3be
000003e0: e43b 1c3d fe70 80be 0104 0dbf 5600 733c
000003f0: 2232 98be 54ba eebd 943f b2bf 6c7a 11bd

model.model.model.6.bias f4 [128]
-0.14241491 0.16867228 0.73644984 -0.04820362 -0.08769402 0.7450301 0.2195249 -0.26706445
0.06680565 0.28519952 0.011681663 -0.017620692 0.2067027 0.106658295 0.4263619 0.034100875
0.20391129 -0.06250695 -0.17510088 0.4440492 0.0074826684 0.2803231 0.10440372 -0.071529575
0.123064116 -0.066726826 0.49542746 0.038553976 0.43080845 -0.10658803 0.7308277 -0.16853428
-0.021578189 0.5504387 0.054865167 0.14015171 -0.07706667 -0.07867603 0.09299942 0.13007647
0.10352044 0.25365013 0.20555958 -0.053730696 -0.08228662 0.10992206 -0.024749633 0.18246922
-0.014141033 0.26703793 0.120366886 0.16546087 -0.06784 0.2761491 0.15351318 0.09455211
0.02194824 0.6113158 0.056292858 0.56040484 -0.16162136 0.22534253 -0.15244842 0.24555917
-0.06807811 -0.141118 0.38978028 0.14478832 0.031364996 -0.052459277 -0.362349 0.21101391
0.15950164 -0.02939645 0.6866567 0.634522 0.054624256 0.26135054 0.03707527 0.18458067
-0.2438882 0.17949405 0.43598562 0.05077783 0.21231925 -0.006754429 0.150089 0.10182704
0.14172065 -0.34582692 0.21702287 0.07727487 -0.0653989 0.19314826 0.10337399 0.11686987
0.55597496 0.46423107 0.7441128 -0.09729267 0.24292377 0.3366022 0.20484158 0.4340878
0.56525856 0.20750673 -0.028956618 0.1544659 0.16676088 0.49617523 0.32828078 0.52479726
0.23268174 0.015754728 0.07695231 -0.31290665 0.16399486 0.15510552 -0.20520566 -0.26555014
-0.16229561 -0.052792605 -0.071757644 0.15278454 0.18758386 0.12533274 -0.021967605 0.74540097
00000000: 37d5 11be 6db8 2c3e fa87 3c3f 2971 45bd
00000010: ec98 b3bd 4bba 3e3f 23cb 603e acbc 88be
00000020: 67d1 883d ac05 923e 7264 3f3c 4559 90bc
00000030: dfa9 533e aa6f da3d 1b4c da3e 5cad 0b3d
00000040: 1fce 503e a503 80bd a54d 33be 6b5a e33e
00000050: 2c31 f53b 8286 8f3e 9ed1 d53d 197e 92bd
00000060: 0a09 fc3d 13a8 88bd aba8 fd3e c6ea 1d3d
00000070: ed92 dc3e d34a dabd 8617 3b3f 4094 2cbe
00000080: bec4 b0bc 8de9 0c3f 4cba 603d ee83 0f3e
00000090: 21d5 9dbd e620 a1bd 7b76 be3d c432 053e
000000a0: 8602 d43d 6ede 813e 367e 523e b814 5cbd
000000b0: e385 a8bd d11e e13d bebf cabc 36d9 3a3e
000000c0: cbaf 67bc 32b9 883e ea82 f63d 936e 293e
000000d0: b3ef 8abd 6a63 8d3e 8f32 1d3e 89a4 c13d
000000e0: cccc b33c 317f 1c3f 5793 663d b176 0f3f
000000f0: 1280 25be 31c0 663e 701b 1cbe dd73 7b3e
00000100: 896c 8bbd 3d81 10be 4891 c73e 6443 143e
00000110: 9578 003d 8adf 56bd cf85 b9be 0814 583e
00000120: 6654 233e d3d0 f0bc bcc8 2f3f 0970 223f
00000130: afbd 5f3d bdcf 853e 3ddc 173d b702 3d3e
00000140: d4bd 79be 4acd 373e 8239 df3e 6afc 4f3d
00000150: 386a 593e 4254 ddbb eeb0 193e b28a d03d
00000160: 381f 113e 3a10 b1be 3e3b 5e3e 4942 9e3d
00000170: dcef 85bd a8c8 453e beb5 d33d 7859 ef3d
00000180: 6054 0e3f b2af ed3e 2d7e 3e3f 6141 c7bd
00000190: 02c1 783e 2057 ac3e fec1 513e c240 de3e
000001a0: c9b4 103f a57c 543e 6e36 edbc 4f2c 1e3e
000001b0: 5dc3 2a3e ae0a fe3e 6b14 a83e 1d59 063f
000001c0: 1f44 6e3e 0f10 813c 2c99 9d3d 4d35 a0be
000001d0: 45ee 273e fbd3 1e3e 6f21 52be 30f6 87be
000001e0: d230 26be 0f3d 58bd acf5 92bd 8d73 1c3e
000001f0: fc15 403e 3a57 003e 68f5 b3bc 99d2 3e3f

model.model.model.8.weight f4 [4, 128]
0.47238526 0.7015548 0.54259366 -0.3795181 0.0059473272 0.639819 -0.5446517 0.038479254
-0.18094037 -0.2806593 0.05577359 -0.4141431 -0.28058642 0.29845542 0.6730233 -0.4109307
-0.43674365 -0.172036 0.1505524 0.9587451 0.22334939 0.00646065 -0.36673677 -0.8030338
0.0040407805 0.056090984 -0.12859124 -0.60748905 -0.907941 -0.06802973 0.5542059 0.08029771
-0.5454878 0.8113125 -0.109404884 -0.2110312 0.0018888536 0.15970698 0.26511168 -0.48271915
-0.25798282 -0.7978052 0.17858651 0.00925674 0.01979268 -0.3843302 0.3683128 -1.0601025
0.17062165 -0.24141148 0.3210449 -0.74296147 -0.6410609 -0.26547745 -0.4755706 -0.62817264
-0.016778536 0.64209276 0.23319891 0.43798834 -0.57518345 -0.38338065 -0.2549842 -0.08318762
0.0073462226 0.0412211 0.025767874 -0.428363 -0.46108747 -0.3426224 0.023706736 -0.7343654
-0.39604342 -0.41735825 0.6263281 0.7985751 -0.53186095 -0.24635768 -0.101040535 -0.56158626
-0.06456285 -0.36196727 0.42455396 -0.71380764 -0.69260997 -0.31834197 -0.46597877 -0.37309062
0.036465958 0.11932439 1.1117215 0.06324648 -0.43481416 0.09076998 -0.6607726 -0.31785902
0.19818422 0.74192375 -0.32105005 0.0020025554 0.25331005 0.20912635 -0.23267928 0.6604828
0.30951068 0.6416308 -0.004088449 -0.012665811 0.9710062 0.62533885 0.2552853 0.76623
-0.5951237 -0.3014646 0.29221466 0.06752156 -0.10721663 -0.7209073 0.014032319 -0.26457858
-0.50770247 -0.18291008 0.31659156 0.105598524 0.9737598 -0.18808535 0.04434853 0.38438028
-1.0836449 0.5638185 0.518439 -0.6753626 -0.018254474 0.8271434 -0.59187 -0.6607747
-0.3815834 -0.49661013 0.04326535 -0.3524231 -0.21445408 0.5147852 0.28048652 -0.24830928
-0.43145412 -0.53045946 -0.60937005 0.40374878 0.47274357 -0.61557484 -0.39024934 0.23864678
0.15993673 -0.48904163 -0.38035822 0.26224157 -0.3444925 0.0025078363 1.0153373 -0.15679361
-0.3762109 1.4288179 0.6996853 -0.8223114 0.0026981372 -0.03352049 -0.748442 -0.33010632
-0.53488606 -0.38520387 -0.4103624 -0.29572317 -0.014202784 0.3368806 0.053380627 -0.10335684
-0.2905455 -0.6792108 1.0082134 -0.54172647 -0.22253233 -0.77802575 -1.0346203 -0.49445817
-0.121472694 1.171497 0.5111868 0.8305988 -0.4312526 -0.1510206 -0.5075175 -0.92672706
-0.01561624 -0.0102404095 0.20338413 -0.37323007 -0.54092354 -0.018142486 0.49948823 -0.107220545
-0.4988543 -0.393935 0.41023707 0.84027886 -0.7364056 -0.7183267 -0.116516486 -0.4326377
0.06202266 -0.40029252 0.30104154 -0.21679051 -0.26485893 -0.16263616 -0.29047093 -0.3570136
-0.5341911 -0.28489372 0.2273738 -0.6069884 -0.17291184 -0.531951 -0.14865728 -0.57612574
0.6824271 0.2891621 0.8470445 0.34344178 0.7351617 0.36639246 -0.8060596 0.36065155
0.40242448 -0.2074685 0.64341086 -1.0589589 0.40085828 0.92598987 0.57646024 0.4146689
-0.5850176 -0.1498263 -0.8321384 0.5791692 -0.21370669 0.13241279 0.0559651 -0.16605799
-0.13921274 -0.43691775 -0.1673089 -0.43481672 -0.25153548 -0.7537451 0.019624049 0.74473065
00000000: 7bdc f13e 1899 333f 6be7 0a3f 3250 c2be
00000010: cce1 c23b 2ecb 233f 4b6e 0bbf 6c9c 1d3d
00000020: 6f48 39be 93b2 8fbe d972 643d 900a d4be
00000030: 06a9 8fbe 26cf 983e 414b 2c3f 8265 d2be
00000040: dd9c dfbe 352a 30be 692a 1a3e 5270 753f
00000050: b4b5 643e dcb3 d33b ecc4 bbbe a093 4dbf
00000060: 8668 843b a9bf 653d 6cad 03be 6784 1bbf
00000070: d26e 68bf 2c53 8bbd 70e0 0d3f 2073 a43d
00000080: 17a5 0bbf 2db2 4f3f ab0f e0bd 9018 58be
00000090: 6993 f73a 3a8a 233e b8bc 873e f726 f7be
000000a0: 5316 84be f63c 4cbf 62df 363e 95a9 173c
000000b0: 4224 a23c eec6 c4be 7f93 bc3e 70b1 87bf
000000c0: 71b7 2e3e 9234 77be ff5f a43e b932 3ebf
000000d0: 911c 24bf a9ec 87be fd7d f3be eccf 20bf
000000e0: 2473 89bc 3160 243f b2cb 6e3e 0240 e03e
000000f0: 393f 13bf 784a c4be 4a8d 82be 455e aabd
00000100: 95b8 f03b 75d7 283d 2617 d33c 6552 dbbe
00000110: a813 ecbe 346c afbe a134 c23c 5fff 3bbf
00000120: 34c6 cabe fbaf d5be 0a57 203f 6b6f 4c3f
00000130: 0a28 08bf 3045 7cbe 57ee cebd 1ec4 0fbf
00000140: 8739 84bd c653 b9be 235f d93e 19bc 36bf
00000150: e34e 31bf b8fd a2be c594 eebe bc05 bfbe
00000160: 545d 153d 5960 f43d e44c 8e3f 5f87 813d
00000170: f69f debe 9ce5 b93d 6528 29bf 6bbe a2be
00000180: cef0 4a3e b7ee 3d3f ac60 a4be 4e3d 033b
00000190: dbb1 813e 3825 563e 7a43 6ebe 6715 293f
000001a0: 2f78 9e3e eb41 243f 65f8 85bb 4384 4fbc
000001b0: dd93 783f 3516 203f c1b4 823e a627 443f
000001c0: 075a 18bf 9159 9abe 299d 953e be48 8a3d
000001d0: 6494 dbbd 618d 38bf d0e7 653c d876 87be
000001e0: caf8 01bf c84c 3bbe 4a18 a23e 0a44 d83d
000001f0: 5248 793f 7299 40be cea6 353d 7ecd c43e
00000200: e0b4 8abf 6956 103f 6bb8 043f 90e4 2cbf
00000210: 688a 95bc abbf 533f cb84 17bf 8828 29bf
00000220: e65e c3be af43 febe 0237 313d cd70 b4be
00000230: da99 5bbe f6c8 033f ee9b 8f3e ca44 7ebe
00000240: 8ee7 dcbe 31cc 07bf adff 1bbf 29b8 ce3e
00000250: 720b f23e 5096 1dbf c3ce c7be d25f 743e
00000260: 74c6 233e aa63 fabe 50be c2be 8744 863e
00000270: 5261 b0be 835a 243b 93f6 813f 818e 20be
00000280: b79e c0be 81e3 b63f 931e 333f 0083 52bf
00000290: 3bd3 303b c84c 09bd e599 3fbf b203 a9be
000002a0: 4bee 08bf 7139 c5be 051b d2be 0769 97be
000002b0: cbb2 68bc 9d7b ac3e a5a5 5a3d c0ac d3bd
000002c0: 61c2 94be c2e0 2dbf 230d 813f 96ae 0abf
000002d0: 84df 63be b22c 47bf 706e 84bf 9f29 fdbe
000002e0: adc6 f8bd 9df3 953f 23dd 023f 1fa2 543f
000002f0: 24cd dcbe 25a5 1abe abec 01bf fc3d 6dbf
00000300: 42db 7fbc 64c7 27bc ee43 503e 0318 bfbe
00000310: f779 0abf 8d9f 94bc ecbc ff3e 7296 dbbd
00000320: d569 ffbe d9b1 c9be 980a d23e 841c 573f
00000330: 1485 3cbf 42e4 37bf 32a0 eebd b082 ddbe
00000340: 790b 7e3d 24f3 ccbe 1e22 9a3e 55fe 5dbe
00000350: 979b 87be 188a 26be 9bb8 94be 7dca b6be
00000360: bfc0 08bf 97dd 91be add4 683e 9763 1bbf
00000370: cd0f 31be f12d 08bf 9d39 18be fa7c 13bf
00000380: 8bb3 2e3f 0e0d 943e e9d7 583f 9ad7 af3e
00000390: 8f33 3c3f cb97 bb3e ec59 4ebf 52a7 b83e
000003a0: 950a ce3e 9f72 54be 93b6 243f f78b 87bf
000003b0: 4c3d cd3e ac0d 6d3f e692 133f 7b4f d43e
000003c0: b7c3 15bf 116c 19be 0607 55bf 6f44 143f
000003d0: edd5 5abe 3897 073e a93b 653d 1b0b 2abe
000003e0: c98d 0ebe afb3 dfbe 0653 2bbe 4ca0 debe
000003f0: 42c9 80be 70f5 40bf 9dc2 a03c aba6 3e3f

model.model.model.8.bias f4 [4]
0.1545518 -0.10388901 0.05848499 0.32076868
00000000: d442 1e3e c3c3 d4bd f58d 6f3d cb3b a43e

model_old.model.model.0.weight f4 [128, 8]
-0.5907607 0.25498703 0.2137586 0.8094098 -0.55218804 -0.68941253 0.18732314 0.01843671
-0.20761247 0.0977837 -0.50126517 0.34107438 0.2770942 0.32758868 -0.69098324 -0.67556185
0.3816183 0.23879823 -0.0008514371 -0.10909097 0.7379012 0.44945195 -0.3088189 -0.41262016
-0.50951695 0.104294926 -0.5602954 -0.27317196 -0.29400975 0.27905485 -0.37792292 -0.1679987
-0.04520665 -0.10005625 0.39594376 -0.19196332 -0.39355454 -0.13273378 -0.04281485 0.31611767
-0.47092578 0.17655872 -0.43754616 -0.0063864957 -0.08205345 0.5942026 -0.4781206 -0.06244545
0.2630661 -0.17501956 0.08730313 -0.36050418 -0.71080345 -0.7564834 0.2284603 -0.845428
-0.98732936 0.047290944 0.0064222966 -0.05898017 0.13656117 -0.5209345 0.35952947 0.055839855
-0.22044516 -0.19563323 -0.29391116 0.045134746 0.39652026 -0.031489603 -0.3244957 0.11978335
0.14863758 -0.615173 -1.1120956 0.34231094 0.17749827 0.14583011 -0.36905172 0.21422432
0.6362287 0.12970579 -0.45857018 -0.16989526 -0.5476729 0.27079037 0.28537804 0.39357796
0.7963961 -0.13077055 -0.3156742 -0.3674182 0.45209938 -0.44259304 0.026120262 0.12760463
0.37203407 -0.59694403 -0.44128352 0.6807243 1.0227827 0.33481994 0.6060112 0.124245584
0.043876518 0.03639787 0.16790806 -0.2811872 -0.61934894 0.515945 0.13536538 -0.7712539
0.0036539952 -0.5082171 -0.41434434 0.10291885 0.20067316 0.16015399 -0.12954754 0.2031526
0.28828925 -0.49307775 -0.8141026 0.25566438 0.35977137 -0.5012955 0.085675165 0.09368729
0.21421447 -0.036016732 0.21642551 0.45673436 0.6583558 0.23218052 -0.084886014 0.25332862
-0.10561232 -1.5796233 -0.46867356 -0.64134413 0.67423546 0.13054444 0.36959693 0.009148814
-0.37884596 0.13006902 0.014091793 0.34830076 0.02682143 -0.36937726 -0.0534748 0.32903287
-0.31597674 0.21366748 -0.033229955 -0.3393178 -0.77961665 0.36469716 0.31353617 0.21942721
0.82911265 -0.10605122 0.6753712 0.60599864 0.33382374 0.55655825 0.43564886 -0.028328987
0.061676413 -0.8820706 1.2521392 0.11083561 0.4396117 -0.55259746 0.5145729 -0.2512511
0.48984927 0.11444951 -0.5373011 -0.06687 -0.09033233 0.6270738 -0.64951646 -0.10576763
-0.52231103 0.18906447 -0.66631657 0.30456194 0.112331934 0.4938999 0.5627089 -0.4250863
0.26763374 -1.4935495 -0.09561435 0.067245565 0.60658336 0.2560098 -0.15378563 -0.03279854
-0.71684843 0.07798915 0.04574128 -0.4606802 0.23226482 -0.44205067 0.30807325 0.32969615
0.9830362 -0.9716445 0.02747552 -0.72648305 -0.13280159 0.057500012 0.2339276 -0.14844778
-0.1621459 0.23842105 0.0690703 -0.27455947 0.817384 0.5728106 0.078831784 -0.12378726
-0.10269668 -1.0712522 -0.14393388 -0.041014504 -0.89248735 0.16490868 0.13887385 -0.37559137
0.90061045 -0.44851625 0.7756361 0.0765403 -0.019863777 0.20434412 0.0067409463 0.25242037
-0.17254156 -0.06648595 -0.13088334 -0.40581572 0.6145909 0.6904691 0.07301084 -0.17771696
0.21331109 0.32340088 0.40930492 -0.4030931 0.6957256 -0.48806524 -0.2820187 0.06591738
00000000: 183c 17bf a98d 823e 89e3 5a3e 7b35 4f3f
00000010: 325c 0dbf 577d 30bf a3d1 3f3e 9508 973c
00000020: 5d98 54be d242 c83d ea52 00bf 4da1 ae3e
00000030: 4adf 8d3e b4b9 a73e 47e4 30bf 9ff1 2cbf
00000040: 7963 c33e 8687 743e fa32 5fba 166b dfbd
00000050: 18e7 3c3f 911e e63e 831d 9ebe f342 d3be
00000060: b46f 02bf 9498 d53d 856f 0fbf 32dd 8bbe
00000070: 7288 96be 47e0 8e3e 1d7f c1be da07 2cbe
00000080: 9c2a 39bd 4bea ccbd 24b9 ca3e 0892 44be
00000090: fb7f c9be 5deb 07be a05e 2fbd 2dda a13e
000000a0: 2f1d f1be cfcb 343e 0d06 e0be cf45 d1bb
000000b0: a40b a8bd a91d 183f 39cc f4be cdc6 7fbd
000000c0: 9ab0 863e 5438 33be fccb b23d 0194 b8be
000000d0: 37f7 35bf e5a8 41bf 7ff1 693e f86d 58bf
000000e0: 9ec1 7cbf 26b4 413d 2172 d23b 3195 71bd
000000f0: b1d6 0b3e f75b 05bf 3f14 b83e 55b8 643d
00000100: 60bc 61be 1454 48be 867b 96be 36df 383d
00000110: b404 cb3e 3efb 00bd 4d24 a6be f950 f53d
00000120: 7334 183e fa7b 1dbf 2659 8ebf 6143 af3e
00000130: 1bc2 353e 7d54 153e 59f4 bcbe 9f5d 5b3e
00000140: e2df 223f 98d1 043e b6c9 eabe 06f9 2dbe
00000150: 4b34 0cbf 09a5 8a3e 121d 923e 0d83 c93e
00000160: 9de0 4b3f b7e8 05be 0ca0 a1be 3d1e bcbe
00000170: 9279 e73e 8e9b e2be 29fa d53c caaa 023e
00000180: 407b be3e 53d1 18bf eaef e1be f343 2e3f
00000190: 8bea 823f 856d ab3e 8d23 1b3f 7874 fe3d
000001a0: ddb7 333d ef15 153d 17f0 2b3e c5f7 8fbe
000001b0: a78d 1ebf f914 043f 399d 0a3e e570 45bf
000001c0: de77 6f3b 841a 02bf f124 d4be 1ec7 d23d
000001d0: 447d 4d3e 68ff 233e 1ca8 04be 3c07 503e
000001e0: a69a 933e b074 fcbe 0769 50bf 71e6 823e
000001f0: f433 b83e e754 00bf 7676 af3d 1fdf bf3d
00000200: 0a5b 5b3e 4886 13bd a69e 5d3e 16d9 e93e
00000210: 018a 283f bbc0 6d3e b8d8 adbd 4ab4 813e
00000220: 464b d8bd 1931 cabf fbf5 efbe 212f 24bf
00000230: b29a 2c3f 71ad 053e cf3b bd3e e8e4 153c
00000240: 19f8 c1be d030 053e 44e1 663c 7a54 b23e
00000250: 9eb8 db3c 041f bdbe 6408 5bbd ff76 a83e
00000260: b4c7 a1be a6cb 5a3e 221c 08bd 10bb adbe
00000270: f594 47bf 96b9 ba3e d087 a03e 87b1 603e
00000280: ba40 543f 6231 d9bd 21e5 2c3f ba22 1b3f
00000290: f2ea aa3e 9a7a 0e3f 5e0d df3e 3112 e8bc
000002a0: 68a0 7c3d 61cf 61bf 1946 a03f c8fd e23d
000002b0: c914 e13e 0777 0dbf 0dbb 033f fca3 80be
000002c0: 86cd fa3e 8164 ea3d 918c 09bf 23f3 88bd
000002d0: 2800 b9bd e987 203f b646 26bf b39c d8bd
000002e0: 2db6 05bf 1e9a 413e b993 2abf 8bef 9b3e
000002f0: 490e e63d 73e0 fc3e b10d 103f e9a4 d9be
00000300: 4a07 893e a12c bfbf 75d1 c3bd 0bb8 893d
00000310: 0c49 1b3f b713 833e fb79 1dbe c357 06bd
00000320: 6183 37bf c7b8 9f3d 355b 3b3d 46de ebbe
00000330: d4d6 6d3e 7754 e2be c7bb 9d3e efcd a83e
00000340: 43a8 7b3f b2bd 78bf 5714 e13c cbfa 39bf
00000350: 24fd 07be 2285 6b3d b78a 6f3e b202 18be
00000360: 9309 26be a624 743e bb74 8d3d 0f93 8cbe
00000370: 1440 513f b7a3 123f 8f72 a13d 2d84 fdbd
00000380: a352 d2bd cb1e 89bf 6763 13be d3fe 27bd
00000390: 0d7a 64bf d2dd 283e f234 0e3e 834d c0be
000003a0: 688e 663f eca3 e5be 1690 463f 29c1 9c3d
000003b0: 5cb9 a2bc 963f 513e 28e3 dc3b 3e3d 813e
000003c0: bcae 30be c929 88bd 4806 06be 14c7 cfbe
000003d0: d455 1d3f 95c2 303f b586 953d 6ffb 35be
000003e0: 396e 5a3e cd94 a53e 6a90 d13e 3862 cebe
000003f0: 131b 323f b0e3 f9be c164 90be b1ff 863d
