rl_compexp/save/LL_hyper/LunarLander-DQN-128x4/dqn_best.pth (torch, 835318 bytes, 40 tensors)

model.model.model.0.weight f4 [128, 8]
00000000: f4f0 03bf d5d0 c73e 4d9b 813e 30df 1b3f
00000010: 8bc0 0ebf 4d8f 39bf 9e06 413e a01b e9bc
00000020: 52b1 c6bd 7026 1b3e fb7c d4be bf04 ed3e
00000030: 42d6 973e b7f2 863e 47e4 30bf 4d4d cfbe
00000040: 3a1e a03e 1964 1c3e 0b85 49bd 3670 67bd
00000050: 22b4 5a3f c359 c23e abed c4be 6867 d4bd
00000060: 7c36 babe 5c9d 93bc cc1e 17bf eaaf adbe
00000070: 8984 a2be 4157 c03e a37e d3be 114f e9bd
00000080: 6cfc 6e3d 6697 8cbe 0a04 ca3e 924e 2dbe
00000090: 8728 bebe 112f 51be e426 69bc da54 933e
000000a0: 92c8 c2be c347 00be 83ee f6be a2e2 56bc
000000b0: d879 0d3e e646 313f c697 d9be 20b8 543d
000000c0: c372 b03e a7cf a8be d35b 35be 64e6 8fbe
000000d0: e425 25bf b604 4abf 5e78 7c3e 48e2 57bf
000000e0: d50a 37bf 8a97 2fbb 0589 9e3e 2ddc 1cbd
000000f0: d3ce 663e f5a4 0dbf 91d1 9f3e 684d f93d
00000100: 8329 8dbe fc6e b2bd 37d9 4abe 580a 463e
00000110: 398e 7d3d 059c b1bd 590b 9abe 215f b83c
00000120: 21a4 783b 664c 8fbe faae 7fbf 3dd0 f13e
00000130: c1af 973d b3d5 983d 5bc8 5bbe ee85 2f3e
00000140: fd3f 0f3f 2d51 1d3e 9d26 e6be eb0a 80be
00000150: 784f 08bf bcf6 5d3e a167 993e b185 af3e
00000160: 8b07 4f3f 9b27 15be 0746 c0be 6dc0 aebe
00000170: e06b 113f 7805 aabe 57fb 9a3d 81d4 cd3d
00000180: 235d da3e 2ce4 36bf 3c4a bbbe fed6 013f
00000190: 106c 773f 139b 923e c560 1a3f 3f7e 443e
000001a0: 150c 82bd 5d96 a63d 8b1c a03e 591b 90be
000001b0: ff24 01bf 5755 ea3e 5464 f0bc 8858 11bf
000001c0: 2feb edbc d5df e2be ce43 05bf a170 043e
000001d0: 996e 4e3e 43dc 153e 0633 d6bd 1af3 513e
000001e0: de1d 353e 5fd7 c0be 82fe 63bf 099b 3b3e
000001f0: e3d8 d43e 8eac f8be 5250 c83d e2d5 413d
00000200: efad 9b3e 872f afbd 8e8e d73d fa17 af3e
00000210: b4d0 193f 2617 cc3e 9c29 8bbd bf3f 7e3e
00000220: 2ca1 bcbe 07ee bbbf 34a3 fcbe 12ff babe
00000230: 6d4a c13e 93ff 473e fbe5 b83e 6fce 48bd
00000240: 02bc bcbe ad1b 903d efbf e53d a8b0 d43e
00000250: 1499 c5bd b54a d7be 81b1 04bd 8b24 983e
00000260: 640f ccbe 0521 8f3e 1cf0 413e e807 9bbe
00000270: 586d 3cbf a90e d23e 8aad 803e 5faa 303e
00000280: 5762 633f 6cf4 853d 8c84 183f eb24 543f
00000290: cdf8 803e 75e4 f43e 4378 c63e c410 27bd
000002a0: eb28 e53d badb ffbe c63e 913f a69c 2b3d
000002b0: 00ee 033f 9573 edbe 3027 e03e c695 93be
000002c0: 115e 363f bf30 f83d 76b9 e3be 9a6a fdbd
000002d0: 2570 4dbe 3005 a33e 6ac6 30bf 64fd 7ebe
000002e0: e26f 03bf 71ea 323e ccd5 4bbf 8c24 513e
000002f0: 601e 593e f941 f83e 0c93 143f faf5 b3be
00000300: da67 043e 2950 95bf 7302 87be 8eff e93d
00000310: 2a51 173f c731 843e 7a7d 6cbe 052c 02bd
00000320: 3b22 2cbf 204c 183e a911 643e 65a9 d9be
00000330: 62ce a83e 1668 e4be 7b62 6e3e bad4 953e
00000340: 184c 723f 2839 71bf 0aa4 d9bd 2b91 06bf
00000350: 94ee 353d 1a3e eb3d f308 673e 1269 aabd
00000360: 3ab5 d2bd 84e8 503e 77ff 9c3d 22a3 60be
00000370: 6d18 2b3f c426 d73e 93ae d7bd fd98 84be
00000380: 445b 80be 3e1c 5dbf 92de febd 9ec5 b1bd
00000390: e831 4abf dbc0 7b3c b59e 083e 19a3 d0be
000003a0: 2b92 5e3f 6bf3 a7be c6d4 0d3f 8893 3d3e
000003b0: 32c5 d1bd 6990 7f3d bf34 c53c f9d0 f73d
000003c0: 72f1 1ebe dda5 debd 980e 01be 3d63 cdbe
000003d0: 917a 1f3f b9e8 263f 167b 813e 337a 32bd
000003e0: 8054 9f3e 4222 a63e 576f e63e 0fca fabe
000003f0: cdc8 133f c5fb f9be 5e9b 7fbe 58dd 0f3d
-0.5153954 0.39026514 0.25313798 0.6088743 -0.5576255 -0.72484285 0.1885018 -0.028455555
-0.0970179 0.15151381 -0.41501603 0.46292683 0.29655653 0.26357052 -0.69098324 -0.40488663
0.3127306 0.15272559 -0.049199145 -0.056503497 0.8543111 0.37959108 -0.38462576 -0.10371286
-0.36369693 -0.01801937 -0.5903137 -0.33923274 -0.3174174 0.3756657 -0.41307554 -0.11392034
0.058346197 -0.27459258 0.39456207 -0.16924503 -0.37140295 -0.2042811 -0.014230464 0.28775674
-0.38043648 -0.12527375 -0.48228845 -0.013115557 0.13816011 0.6924881 -0.42498606 0.051933408
0.34462556 -0.32970926 -0.1771081 -0.28105462 -0.6451094 -0.7891344 0.24655291 -0.8432965
-0.71500903 -0.0026793205 0.30963913 -0.038295913 0.22539835 -0.5532983 0.31214574 0.12172967
-0.27570733 -0.08712575 -0.19809423 0.19339883 0.061903212 -0.086723365 -0.30086783 0.022506298
0.0037939625 -0.27987975 -0.9987637 0.47229186 0.07406569 0.07462635 -0.21463148 0.17140934
0.55957013 0.15362997 -0.44951335 -0.2500833 -0.5324626 0.21676153 0.29961875 0.34281686
0.80870885 -0.1456589 -0.37553427 -0.34131184 0.5680523 -0.33207297 0.075674705 0.100502975
0.42649183 -0.7144191 -0.36580074 0.5071868 0.96649265 0.28633937 0.6030391 0.19188784
-0.06349961 0.08134148 0.31271777 -0.28145865 -0.50447077 0.45768234 -0.029344715 -0.5677571
-0.029042808 -0.44311395 -0.52056587 0.1293359 0.20159377 0.14634804 -0.10458951 0.20502892
0.17687175 -0.37664315 -0.89060223 0.1832086 0.4157172 -0.4856915 0.09780945 0.047323115
0.30406138 -0.08553987 0.10525237 0.3419798 0.6008408 0.3986141 -0.06795046 0.24829005
-0.36841714 -1.4682015 -0.49343264 -0.36522728 0.37752095 0.19531088 0.3611296 -0.049024995
-0.3686219 0.07036529 0.11218249 0.41541028 -0.09648338 -0.42049184 -0.032395843 0.2971538
-0.39855492 0.2795488 0.1893925 -0.3027947 -0.73604345 0.4102681 0.251324 0.17252491
0.8882193 0.065407604 0.5957725 0.8286883 0.2518982 0.4783055 0.38763627 -0.040787473
0.11189445 -0.49972326 1.1347282 0.04189744 0.51535034 -0.46377245 0.43779898 -0.28825206
0.71237284 0.121186726 -0.44477433 -0.12373848 -0.20062311 0.31839895 -0.69052756 -0.24901348
-0.51342595 0.17472245 -0.79623103 0.20424098 0.21202993 0.48487833 0.58036876 -0.35148603
0.12930241 -1.1665088 -0.26369056 0.11425696 0.5910822 0.25819227 -0.2309474 -0.03178026
-0.6723973 0.1487279 0.22272362 -0.4251205 0.32969958 -0.4461066 0.23279755 0.2926386
0.9464736 -0.9422784 -0.10626991 -0.5256526 0.04441698 0.11486454 0.22562008 -0.08320822
-0.102884725 0.20401198 0.076659136 -0.2193723 0.66834146 0.42021763 -0.10531344 -0.2589797
-0.2506963 -0.8637122 -0.12444796 -0.086802706 -0.789824 0.015365805 0.13341792 -0.40749434
0.86941785 -0.328029 0.5540279 0.1851331 -0.1024269 0.06239358 0.024073003 0.12100405
-0.15521792 -0.1087148 -0.12603223 -0.40114775 0.62296396 0.65198857 0.2528922 -0.04357357
0.31119156 0.32448012 0.4500682 -0.48982283 0.5772827 -0.48824897 -0.24961612 0.0351232

model.model.model.0.bias f4 [128]
00000000: 4094 8abd 6e6a 163e feff 86bd 13e2 04be
00000010: 53f7 0c3e f606 c3be 2b58 64bd 47cd 58be
00000020: 222c 0f3e d2e0 2f3d f9db 6abe e8d8 88bc
00000030: fac1 06bf 8b13 043e f699 f13e 933c 20bd
00000040: a96f e63d 6474 babe d6a8 a13e 1fdc b3be
00000050: 73a0 c7be 3bde 3bbe 9895 83bd f26c 8fbe
00000060: c302 3f3e 4840 bdbe 5add 6cbd 16d3 d5be
00000070: 1070 9a3e 88fb 04bf a1f7 b6be 6ef7 803c
00000080: 655f e13d 34ad 60be e508 08be 9db1 493c
00000090: a387 9abc d329 de3e 1200 2cbd abdc cfbe
000000a0: 5edf df3d b986 08be 1faa b6bd e645 363e
000000b0: 2f05 a0bc 88c5 a63d d126 e0be 179b 0bbc
000000c0: 309f da3d e641 923e e9fc bcbd edc5 cc3d
000000d0: 00ce 793d 3565 eabb 1f26 c83d 6c71 84be
000000e0: 0038 213e fbca adbe da78 573e f944 6fbe
000000f0: b2a8 00bc e1f5 49bd de11 2f3e b3cd e9be
00000100: ebf1 b9be 4c04 20bd fd53 193e 8845 a6be
00000110: 4d0b b8be 4788 a1be 69ea 5a3e 389f bb3d
00000120: 0ca2 c53e 1ca1 663d 0b6d 753d b1c4 763d
00000130: 68e4 103e f14f 90bd b326 863e 0f46 3b3e
00000140: 21b1 75bc a5b1 a93e 7832 31be 7760 e5be
00000150: ef05 49be 9c80 c23c ad71 b63e f3e7 2c3c
00000160: 1220 36bd 0bfc d03d 6f97 783d 4ee1 1d3e
00000170: 5dd4 71bc 3a2e 44bc ea9a e8bd 5c95 81bc
00000180: 97c1 f2be 63b7 4fbb 76cb 223e cc6f 253e
00000190: 697e 2abd fccd 2ebd 8b48 753b 2a40 00bf
000001a0: 5b1e bebd 1c8f 3b3e 2f55 c0bd 60d3 933e
000001b0: cecd 66be 3def 13bd 4827 c63e 8481 4dbc
000001c0: 14d8 a9bc acb9 00bf b5b3 783d c271 803d
000001d0: f8d3 02bf 8577 a5bc 06f6 3cbe ef92 7a3e
000001e0: 7a0e bebe 0e28 bfbe 2635 44bd 5f17 503a
000001f0: d3e1 453e cf4f 5e3d e6f3 dbbd e4b2 043d
-0.06766558 0.14689037 -0.065917954 -0.12976865 0.13766222 -0.38091248 -0.055748146 -0.21172057
0.13981679 0.042939015 -0.22935475 -0.016704991 -0.52639735 0.1289808 0.47187775 -0.039120268
0.11251766 -0.36416924 0.31574124 -0.35128877 -0.389896 -0.18346493 -0.06425017 -0.28012806
0.18653397 -0.36963105 -0.057828285 -0.41762608 0.30163622 -0.51946306 -0.357358 0.015742984
0.11004523 -0.21941072 -0.13284643 0.012310413 -0.018863505 0.43391284 -0.041992255 -0.40598044
0.10931276 -0.13332643 -0.08919167 0.17800102 -0.019533722 0.08143145 -0.43779615 -0.008520863
0.10674894 0.28565902 -0.09227926 0.09998689 0.060987473 -0.007153178 0.09772896 -0.25867784
0.15744019 -0.33943924 0.21042195 -0.23366155 -0.00785272 -0.049306754 0.1709666 -0.4566475
-0.3631738 -0.039066598 0.14973445 -0.32474923 -0.35946122 -0.31549284 0.21378483 0.09161228
0.38600194 0.05630599 0.059918445 0.060246173 0.1414963 -0.070464976 0.262014 0.18288444
-0.014995844 0.33143345 -0.17304409 -0.4480016 -0.1963117 0.023742966 0.35633603 0.010553348
-0.04446418 0.102043234 0.060691293 0.15417978 -0.014760104 -0.011973912 -0.113576725 -0.01581829
-0.47413322 -0.0031695 0.15897927 0.16155928 -0.04162446 -0.04267691 0.0037427272 -0.50097907
-0.092831336 0.1831631 -0.093912475 0.28872204 -0.22539446 -0.036116827 0.38701844 -0.012543086
-0.020732917 -0.5028331 0.060718257 0.062716976 -0.5110469 -0.020198593 -0.18453225 0.24470113
-0.3712042 -0.37335247 -0.04790225 0.0007938053 0.19324426 0.05427533 -0.10739879 0.032397166

model.model.model.2.weight f4 [128, 128]
00000000: a1b8 c63d 7006 23be e370 02be 7ff0 d13e
00000010: 2e0d 7d3e 0c11 d13e e666 9a3e a725 88bc
00000020: cfff a2be b3e7 a0be 5e5c 2dbe 0fe8 00be
00000030: 9e2a fcbe b896 983d e9b9 74bb ade4 11be
00000040: 9e6e e93d 00cf 66be eeaa 6dbe daf3 1cbe
00000050: e83f f53e 0643 b1bc 3627 823e 2113 d7bd
00000060: a9ba 3c3e 570a d93d acaa eabd 9d44 763e
00000070: b78e a23e b4e4 5fbd 5af6 02be 82f0 bdbd
00000080: d0f1 c8bc f526 a3bc 94d6 f93d cb24 afbd
00000090: aa60 8a3e c2b4 233e 2080 49be 84a2 063f
000000a0: 8ae5 4c3d e8c5 113e cb91 d3be ccf0 0d3f
000000b0: 7468 1dbd 6a22 c23e e06d a3bd 2d0a b2be
000000c0: d935 bc3e 3cc5 fcbe 12e6 e03d be0f 653e
000000d0: 2ea4 91be d1d5 1c3e 86d2 513c bb6e cf3e
000000e0: 572e 803e b528 f6bc e5e3 c23d f62d b53c
000000f0: 4d91 f03d 1688 733e ed4b 25bf b5ef 263e
00000100: 0b23 803e 2c6a c0bd 563c 11bf 48fb 96bd
00000110: c6c6 89be 0a4f 4f3e 4b58 fa3e bfe3 0ebe
00000120: 9d57 2e3e 9050 edbd 55e0 3a3e cbde e53d
00000130: bd04 d03e 6235 073d 5e7c a33d cfad d8bd
00000140: 5eb9 863e 3fb5 1c3f f7a7 143f 3405 a73d
00000150: fb99 61bd b207 8abe 57ec 6dbd 897d 16bf
00000160: 4dc8 3fbd 5a22 f93d 23d3 593e 140c 57bc
00000170: bf58 bcbd dc63 22be 453d a0bd ce21 4a3d
00000180: 7104 3b3e be7b e23d ba1b be3d 4077 3a3e
00000190: 7448 f83e 7b46 e23e fdaa b03e b5bc 193e
000001a0: c584 0c3f b94f 8e3e a12b 753d f2f6 ad3e
000001b0: c704 81bd b4f8 05be 3598 933c 46bd 033c
000001c0: 1a4d 86be d1e4 28be 9a50 b2bd 8226 08bf
000001d0: 837a 8fbe bbd2 81bd 4916 1fbe 006f 993d
000001e0: d4d8 2bbe 4a95 ff3d 7aa2 8abe 05a0 54bd
000001f0: 3b43 86be 7b03 cf3e b65e 903e d636 243e
00000200: 32bf bcbd c5b4 8bbd 568f f9bb 716c 8abd
00000210: e17c e63c 5116 b3bd 69ad a1bc 5fee 38bc
00000220: 72c1 08bc befa 673d 517a 1a3d b57a 17bd
00000230: d73c e6bc c330 aebb 1916 913d 614f b2bd
00000240: 01f9 abbd a500 8dbd 71f3 823d 9901 babd
00000250: 83ac 713d 151c 79bd c0e3 713d 8559 94bd
00000260: 114a fdbc 6d5f 6ebd 3b35 7fbd fccd 03bd
00000270: 6e27 ee3c e335 8e3c 8f46 9dbd fdb0 acbc
00000280: 4e15 93bc 9f00 833d 3969 8ebd 35a3 76bd
00000290: cdcc 79bd 75fe e63b 1e03 ddbc 866e 2abd
000002a0: 43b6 8dbd 271c dabc 8b1e 10bd 6586 943d
000002b0: 3b82 95bd 1672 24bd a723 823d 1ea7 9cbd
000002c0: 903f 5d3c fe17 323d 2b51 2b3d 21f9 fbbc
000002d0: 5cc8 19bd 7ffb 0abd 7c15 6cbd d52a a5bd
000002e0: c6c2 2bbd 977a a5bb 28d7 b13c 8d81 f1bc
000002f0: 562b 883c 470d c23c a7ed 3d3c 66f1 c8bc
00000300: bfc3 ff3c 9706 9dbd d46e f5bb 5863 4d3d
00000310: 9967 0e3b 21a6 3dbb 1891 c6bd 5cde 87ba
00000320: e395 673d 28f9 d1bd 8833 c53c a8ee a93d
00000330: 28ce 993d 10ba ffbc 3a90 c2bc db88 a8bd
00000340: 106c 513d 8cc6 9abd fa55 68bd d66e 2fbd
00000350: 2c8e 9f3d 25a6 1abd 9c8b 72bd 8e9f adbd
00000360: e9d0 c8bc ef57 6cbd e859 5dbd e252 5e3d
00000370: 6800 babc 2ced 68bd 2aef 43bc dd32 163d
00000380: b8b3 d6bd 5383 0fbc f796 e4bc be67 85bd
00000390: 4ccb 1bbd 12c8 6f3c bf7c 1abd 9b5e 25bd
000003a0: 5424 693d a7fe 513d d78e 3c3d 1aec f53b
000003b0: 5a85 533d 4699 96bd b729 bdbd 34d0 ad3c
000003c0: e8fa 433d e4c3 e9bc 397a acbb 369d 623d
000003d0: c565 5fbd d293 3f3d 463f 0a3d 9572 a73a
000003e0: 9d02 bcbd f43e 3d3c f32d 10bd 489c b43d
000003f0: e849 83bd bc86 bc3c ddcb 513b c6c9 4ebd
0.09703184 -0.15920424 -0.12738375 0.41003796 0.24712059 0.40833318 0.3015663 -0.016619517
-0.3183579 -0.31426772 -0.16929767 -0.12588523 -0.49251264 0.07450622 -0.0037342256 -0.14247389
0.11398052 -0.22539902 -0.23209736 -0.15327397 0.4790032 -0.021638405 0.2542054 -0.105016954
0.1843058 0.10597675 -0.11458334 0.24049611 0.31749508 -0.054661468 -0.12789288 -0.09274389
-0.024529368 -0.019916037 0.12199131 -0.085519396 0.27026874 0.15986922 -0.19677782 0.5259173
0.050023593 0.14235651 -0.4132217 0.5544555 -0.038429692 0.3791688 -0.07979941 -0.34773389
0.36759833 -0.49369228 0.109813824 0.22369286 -0.28445572 0.1531594 0.01280654 0.40514168
0.25035354 -0.030048708 0.09516124 0.022116642 0.11746464 0.23782381 -0.6456898 0.16302378
0.25026736 -0.09395251 -0.5673269 -0.07372147 -0.26909465 0.20244995 0.48895487 -0.13954066
0.1702561 -0.11587632 0.18249638 0.11224135 0.40628615 0.033009894 0.079827055 -0.10580026
0.263133 0.6121406 0.58068794 0.08155289 -0.055078488 -0.26958996 -0.05808672 -0.587853
-0.04682188 0.12164755 0.21271949 -0.013125438 -0.091966145 -0.15858406 -0.07824186 0.049348645
0.18263413 0.11058758 0.09282632 0.18209553 0.48492777 0.44194397 0.34505454 0.15013392
0.5489009 0.277952 0.05985606 0.33977467 -0.06299739 -0.13083154 0.018016914 0.008040732
-0.262307 -0.16493537 -0.0870678 -0.5318376 -0.28023157 -0.06339022 -0.15535845 0.07491875
-0.16781932 0.124796465 -0.27077085 -0.05191042 -0.26223168 0.40432343 0.2819726 0.16036543
-0.09216155 -0.068215884 -0.007615964 -0.06758965 0.028135719 -0.08744491 -0.019736009 -0.011287301
-0.008346902 0.05663561 0.037714306 -0.036982257 -0.028105183 -0.0053158714 0.07084293 -0.087065466
-0.08397103 -0.068848886 0.06394089 -0.09082336 0.05900241 -0.060817797 0.05905509 -0.07243637
-0.030919107 -0.058196474 -0.062306624 -0.032178864 0.029071536 0.01735968 -0.076794736 -0.021080488
-0.017954495 0.06396603 -0.069536634 -0.06021424 -0.06098633 0.0070493766 -0.026979025 -0.04160931
-0.06919529 -0.026624752 -0.035185378 0.07252196 -0.0730023 -0.040147863 0.063544564 -0.076490626
0.013503924 0.043479912 0.041825455 -0.030758442 -0.037544593 -0.03393125 -0.057637677 -0.0806481
-0.041933797 -0.0050500142 0.02170904 -0.02948072 0.016622227 0.023687972 0.011592305 -0.02452917
0.031221269 -0.076672725 -0.0074900184 0.05014357 0.002172923 -0.0028938132 -0.09695643 -0.0010365951
0.056539427 -0.10252601 0.024072424 0.08297473 0.07510024 -0.031216651 -0.023750413 -0.08229228
0.051128447 -0.07557401 -0.05672262 -0.04283031 0.07790789 -0.037756104 -0.059215173 -0.08477698
-0.024513679 -0.057701048 -0.05404082 0.054278262 -0.022705272 -0.05686681 -0.011958877 0.0366696
-0.104834974 -0.0087593375 -0.027904017 -0.06513928 -0.038035676 0.014635103 -0.037716623 -0.040373426
0.05691941 0.051268246 0.04603466 0.007504952 0.051640846 -0.07353453 -0.09236472 0.021217443
0.047846705 -0.02853579 -0.0052635935 0.05532571 -0.054540414 0.04677183 0.03375175 0.0012775237
-0.09180186 0.011550654 -0.03520007 0.08818871 -0.06410581 0.023013465 0.003201238 -0.050485395

model.model.model.2.bias f4 [128]
00000000: e638 bfbd d5b5 a0bd c28e 23be d16d 643d
00000010: dd3f a93c 09be dcbd 9ad9 8cbd 696d 8ebc
00000020: 6013 263d 7f85 2abc 3eb9 c1bd dcb6 df3b
00000030: ec46 333d dd85 663e 1e48 1cbe b6c1 a8bd
00000040: d8b2 3bbe df87 d1bc a549 06be 3d83 c7bd
00000050: 81e3 093e 4bb2 d0bd 8b56 143d c7f7 323e
00000060: 78a4 06be a2a0 103e 9d30 eebd dad6 69be
00000070: b2f3 29bd 9d44 ab3d cdb1 173d 71c9 5b3e
00000080: ca9d 0dbe 4aa1 943d 12ab bcbd 02a7 6e3c
00000090: f682 0ebd 4863 32bd 528c 45bd 3acf b3bd
000000a0: 5ac7 67bd b18e 7f3e b7b4 383e f5fb 4d3e
000000b0: 53c3 773d c662 df3d 361e 2ebd d25a ed3d
000000c0: f21b cabc bcbe a4bd 9a4e ae3d e467 453d
000000d0: edb9 0dbe e2fe 87bc fa74 40bd 367c d0ba
000000e0: 7a2a cbbd 94fb 80bc ea61 77bc cfe8 133d
000000f0: 6210 563d cb95 2f3e ec14 cd3d 21a0 4d3e
00000100: 50e8 de3d 46a2 6dbe 254d 6b3d caf1 723d
00000110: 723b 673c 84cd b63d ea97 233d 2c1c d83d
00000120: 38f6 cbbd 7cce 01bd d094 9dbc b61a 073e
00000130: 1091 873d 6b86 c9bd fb4e 3d3e 8ea0 1f3e
00000140: b13a 9bba 3280 373e b925 babd ee72 823d
00000150: 1124 2cbd 81c7 a83d f55d c7bd 6eed af3d
00000160: b6ac cd3d fbae 8e3d c566 293e e76f f9bd
00000170: f874 b4bd e9c0 3c3e 2ceb 09bc 0c6e 4ebd
00000180: 3a18 17be 7d45 e33d 8ad0 573b b8b8 833d
00000190: 17c8 23bd 94fc babc f044 193e 3d20 4abe
000001a0: e6ae 403e 3401 bdbc f068 b33d 1846 1dbc
000001b0: 9ca3 e1bc da56 d3bb f8ff 1f3e 4ab3 d8bc
000001c0: 9c86 fe3d 475a 383e 5f2c 7fbd 6286 933d
000001d0: 5148 87bd 3f48 96bd b55f 1fbd 70ef 123e
000001e0: ed45 55be 4ccb 223d 981c 1d3e 011e 1d3d
000001f0: 98fc ca3c ee3a cbbd 8024 7fbd 8545 9fbc
-0.093370244 -0.07847182 -0.15972427 0.05576879 0.020660335 -0.10778434 -0.06877442 -0.017386155
0.04054582 -0.0104078045 -0.0945916 0.0068272185 0.04376881 0.22512002 -0.15261886 -0.082400724
-0.18329942 -0.025577484 -0.1311403 -0.097418286 0.13465692 -0.10190257 0.036215346 0.17477332
-0.13148677 0.14123777 -0.11630366 -0.22835866 -0.04149217 0.08362696 0.0370348 0.21463563
-0.13829723 0.07257326 -0.092123166 0.014566185 -0.034792863 -0.043551713 -0.048229523 -0.0877976
-0.0565866 0.24956776 0.18037687 0.20115645 0.06048901 0.109075114 -0.04250928 0.11589588
-0.024671528 -0.08044192 0.08511086 0.04819478 -0.13840456 -0.01660103 -0.046986558 -0.0015906158
-0.09920211 -0.015744962 -0.015099028 0.036110695 0.052261718 0.17146985 0.10013756 0.20080616
0.10884154 -0.23206434 0.057446618 0.05931262 0.014113294 0.08925918 0.0399398 0.10552248
-0.09959072 -0.03169106 -0.019235998 0.13193783 0.06619465 -0.09840091 0.1848716 0.1558859
-0.0011843053 0.17919996 -0.09089226 0.06369577 -0.042026583 0.08241177 -0.09734718 0.08590208
0.100427076 0.069669686 0.1654311 -0.12179547 -0.088113725 0.18432964 -0.008417886 -0.050397918
-0.14755335 0.11097238 0.0032930695 0.06431717 -0.039985742 -0.022825517 0.14967704 -0.1973886
0.18816718 -0.023071863 0.087602496 -0.009599231 -0.027543835 -0.0064495625 0.15624988 -0.02645268
0.124280185 0.18003188 -0.062298175 0.07203366 -0.0660559 -0.073379986 -0.038909633 0.1434915
-0.20827456 0.03974466 0.15342939 0.038358692 0.02477865 -0.09923349 -0.06229067 -0.01944233

model.model.model.4.weight f4 [128, 128]
00000000: bc79 a7bd eb75 1a3d 1ad6 ddbc 5e3e 66bd
00000010: d295 523c ad38 ac3d 68be 29bd 0487 83bd
00000020: 97bc 9f3c a357 c6bc f47c 623d 432b a3bd
00000030: 423c 6c3d 7aee d9bd d479 9fbd 26ee 993c
00000040: bc5d 763d dd56 793d 43a5 85bc af5a c1bd
00000050: 6b1b 07be 904b fe3c bcb6 9fbc b129 973c
00000060: 2c40 193d 1069 b7bd c69d b33d 12f1 673d
00000070: ad4c 5f3d cf3a b13d 1b94 c03c 8eb2 f2bb
00000080: d3ef 393d 9aea bf3c 2467 803c 4de0 8ebd
00000090: 26eb adbd d96d 6bbd 00e6 8f3d 1c35 9e3c
000000a0: 3696 dcbc 33be 97bc 9943 d0bb e02c d3bd
000000b0: 6b6a 89bd f439 993c cad8 54bd b4cd 8a3d
000000c0: 30fa 8ebc d760 2cbd 139f 4dbc 19bb 393c
000000d0: 0db8 363d 040d a9bd 08f8 0abd e0f5 65bd
000000e0: 292c 823c fa28 d0bd 23ea 6fbd b254 f43b
000000f0: 305c 93bd 32f3 7a3c 2938 ec3c 42dc 29bd
00000100: b02e 8fbd a9e1 5ebd 1b22 c5bd 220f e8b9
00000110: 06de 783d 6ff2 92bd 0931 30bd fe1b 9ebd
00000120: 4bd1 83bb ccd0 20bc db3e 94bc 810d a0bd
00000130: 27c8 abbd 6700 4d3d b88f 043c 030c 843d
00000140: b712 dfbb fa12 b8bc 0230 613d 8c6c 4ebd
00000150: 6b2e 50bc 1923 e5bd c4de edbc f5c1 a7bd
00000160: f59c ba39 b93c 98bd b0cd 25bd 329b 873d
00000170: 944c 52bd 6576 5ebc ac5f 173d 1ddc 81bc
00000180: d2a8 37bd 2e5e 80bd aa6c 37bd 4640 f5bc
00000190: f46d e0bc 2469 96bd 36bb 93bd 9201 40bd
000001a0: 2ff8 febc a45b eebc 8d50 1dbd 7def cabc
000001b0: fd67 4abd 1bcf 9dbb 2752 acbd ca81 dabd
000001c0: 0c24 47bd 81ff 683d c961 643d 9f22 53bd
000001d0: 92e2 d4bb b59f 3f3d 3666 ea3c 5df4 b1bc
000001e0: 2712 8abc 677f 053c 3d7e 49bd 4050 723d
000001f0: d70d 5bbd 42d5 b3bd 162b 1c3d a01d 77bc
00000200: 5d99 9ebe 81a4 2ebd a0be 52be 5bb9 e8bd
00000210: b373 acbc 7f79 a1be 0b68 40bc d157 06be
00000220: 8145 a9be 3ebb bf3d 4175 ebbd 9a12 3a3c
00000230: 62df 6bbb 17ed a8be b47f 233e 9491 55bd
00000240: 4325 6bbe a26e 7cbb 0f38 0f3e 89fd 01bf
00000250: ea27 fcbd 7ac5 0bbd d92e bf3d 787c 19be
00000260: a836 e33d 3f61 293e b3b2 80bd 3a97 39bd
00000270: caa6 9e3d 2226 7abe 3278 06bf 50b6 22bc
00000280: 5249 62be 52e2 a7bd 18de dabd 4105 26bd
00000290: fa35 86bd f620 45bd 2b68 0fbe 1be2 2abb
000002a0: 649d cf3c 43b2 22bf 326d 02be f58b 3b3e
000002b0: 73af 03bf 69d2 a3be b9be 283e 50be 9dbe
000002c0: 4ae5 93bd 9889 813e 4e11 123e 1ea7 903d
000002d0: 2e31 dfbd f0f7 283e f25e 14bd 69f0 25bc
000002e0: 6432 e7bc 201e 74be 7ae8 0b3d 1522 fbbe
000002f0: 88db 82be ec76 33bc b092 6ebe 28eb efbd
00000300: 017f d1be ecbb 8dbd 2e7f 67bd 750d 57be
00000310: e0d5 553d c255 ad3e 353c 83bd 7188 043e
00000320: 9cd5 c9bd 34b0 ce3d 044c 14bd 133a 9f3e
00000330: a728 bebe 285a 9c3d 6a33 04bf bc99 d0bc
00000340: c253 fa3e b18f 583e 7b5b 35bc 2d21 09be
00000350: 8262 54bd 7bf9 283c 0643 64bd fac9 03be
00000360: dae8 a5be 63f4 623e 7f69 9fbf 2982 883e
00000370: 1803 553d 38f9 c1bd 0931 dc3d 7286 b83b
00000380: a736 183e 582f 66be 6699 d7bc 2e85 0dbf
00000390: 1e0d a1be ca8f 853e 8f1d 213d 76c2 fe3d
000003a0: f65c bbbe b89b 26be b208 2abe 45af 883d
000003b0: 1bdd 2c3f 4e84 ccbe fb5b acbd 86bc 12be
000003c0: eead 0b3e c63a 983e bdae 36bd c80d 203e
000003d0: a414 82bd 4e83 843e 763f 26be e472 1dbf
000003e0: df8a dbbd 1d28 bcbe bb1c cabe 7361 053e
000003f0: 123b c2be 3d89 15be d8b9 f7bd 53a3 a3bd
-0.08177516 0.03771011 -0.02707963 -0.05621182 0.012853103 0.084092475 -0.04144135 -0.064222366
0.019499106 -0.02421171 0.055294946 -0.07967236 0.057674654 -0.10641189 -0.07786909 0.018790316
0.060147986 0.060873855 -0.016314154 -0.09441125 -0.13194053 0.03104189 -0.019496314 0.018452497
0.037414715 -0.08955586 0.08770327 0.056626387 0.054516483 0.08653795 0.023508122 -0.0074065393
0.04539473 0.023427296 0.015674181 -0.06976376 -0.08492117 -0.057477806 0.07026291 0.019312434
-0.026927095 -0.018523311 -0.0063557145 -0.103112936 -0.06709751 0.018704392 -0.05196456 0.06777516
-0.017453283 -0.04208454 -0.012550133 0.011336111 0.04460912 -0.08254436 -0.033927947 -0.056142688
0.015890198 -0.10164066 -0.0585729 0.0074563855 -0.07195318 0.015316771 0.028835373 -0.04146982
-0.06991327 -0.054414425 -0.09625646 -0.00044261763 0.060758613 -0.07175147 -0.043015514 -0.07720183
-0.0040227524 -0.009815406 -0.018096378 -0.07815076 -0.083877854 0.05004921 0.008090906 0.064476036
-0.006807651 -0.022469986 0.054977424 -0.050396487 -0.012706379 -0.11188335 -0.029036887 -0.08191291
0.00035593627 -0.07433457 -0.040479362 0.06621398 -0.05134256 -0.013578032 0.036956474 -0.015852029
-0.044838734 -0.06267963 -0.044781365 -0.029937875 -0.02739618 -0.07344273 -0.07213442 -0.046876498
-0.031124203 -0.029096432 -0.038406897 -0.0247724 -0.049415577 -0.0048159487 -0.08414107 -0.106692865
-0.04861836 0.056884293 0.055757318 -0.05154669 -0.006496736 0.046783168 0.028613191 -0.021722967
-0.016854359 0.008148051 -0.049192656 0.059158564 -0.053479996 -0.0878091 0.038127027 -0.015082747
-0.30976382 -0.042637352 -0.2058053 -0.11363479 -0.021051263 -0.31538007 -0.011743556 -0.13119437
-0.3306084 0.093618855 -0.11496974 0.011356974 -0.00359913 -0.32993385 0.15966684 -0.052140787
-0.22963433 -0.003851809 0.13986228 -0.5077749 -0.123123005 -0.034123875 0.09335107 -0.14988887
0.11094409 0.16541003 -0.06284084 -0.045310237 0.07746656 -0.24428609 -0.52527153 -0.009931162
-0.22098282 -0.08197464 -0.10686892 -0.040532354 -0.06553264 -0.048127137 -0.1400458 -0.002607471
0.025343604 -0.63553256 -0.12736967 0.18315108 -0.5143959 -0.31996468 0.16479005 -0.3080926
-0.07221468 0.25300288 0.14264414 0.07063125 -0.10898052 0.1650083 -0.03622336 -0.010128119
-0.02822227 -0.23839617 0.034157254 -0.4904944 -0.25558114 -0.010953646 -0.23298144 -0.11714774
-0.4091721 -0.06920609 -0.056517772 -0.21001227 0.05220592 0.3385449 -0.06407968 0.12942673
-0.09855196 0.10092202 -0.036205307 0.31098995 -0.3714039 0.076343834 -0.5164095 -0.025463931
0.48892027 0.21148564 -0.011069174 -0.13391562 -0.051851757 0.010313387 -0.05572798 -0.12870017
-0.32404214 0.22163539 -1.245407 0.26661804 0.052004904 -0.09471363 0.1075154 0.0056312615
0.14864598 -0.22478998 -0.026318263 -0.5528134 -0.3145532 0.26086265 0.03933483 0.12439434
-0.3659436 -0.1627034 -0.1660488 0.06674055 0.6752488 -0.3994469 -0.084159814 -0.14329728
0.13640568 0.2973234 -0.044600237 0.15630257 -0.06351593 0.25881428 -0.16235146 -0.61503434
-0.10719847 -0.36749354 -0.39475045 0.13025455 -0.37935692 -0.14603133 -0.12095994 -0.07990136

model.model.model.4.bias f4 [128]
00000000: 17e0 29bd 3834 c6bd 7dc9 0e3f 3088 2bbe
00000010: 39dc dcbc 7729 72bc 43bd c53e 9ac5 7cbe
00000020: fed1 15be aa5a ebbc d91d 543e f216 32be
00000030: 644e 4a3e c15f 933d a510 d53d 90f3 313e
00000040: 9c22 c93d aee2 733e d2c6 a33c 3c47 1d3e
00000050: 07d6 ca3d 2fe1 d2bd dc5f f6bb 3c20 073e
00000060: 416a 76bd c55b 2d3e dd2a 23be de0e 5b3d
00000070: f303 aebd 91c7 dcbd 807a 4f3e 21e1 5dbd
00000080: e71b d53c 6d38 d1bd da36 11be e929 14bc
00000090: 8d24 3c3d 519a 543e f466 153e 31d9 d73e
000000a0: ea42 babd e67f 7f3d 8735 0b3e d151 13be
000000b0: cac5 1b3d ffc9 11be 6b83 2bbd ac84 27bd
000000c0: b25f 46bd bb1b 28bd f9cd babd 2d26 b9bc
000000d0: a256 f1bd deac c63d a73f 35be fc48 803e
000000e0: fb4b dabd bff8 72bc 78d2 19be cc5a 6ebc
000000f0: a747 953d 6562 f8bc aaba c63d 0a9f b93d
00000100: b6f2 993d 0376 2abd 90c8 df3d 8d6a 5fbd
00000110: 6a09 d7bd 1c41 8f3d d983 15be 3ffd a7bd
00000120: 0441 083e dd95 16bd a237 61bd 7de4 05be
00000130: 1624 89bd dcde 943d ec7e b5bb ca9b 0e3d
00000140: 2416 99bd 3363 d73d 18a2 37bd dc89 873e
00000150: 162d 973d ced1 d5bd a3c0 493e 62b2 273e
00000160: 4a83 583c 624d 99bc 4871 b2bd 14c4 75bc
00000170: 8f96 dc3d cf0a 143e 95cf 5cbe b327 803e
00000180: 149b 883e 67dc 05be 688d 1c3e bb1b a9bd
00000190: 4034 3b3e 3785 4c3e d0f2 aa3e bb6d 163d
000001a0: a4cb 0cbe 78ba 443d 958e 0f3e ecc5 ad3e
000001b0: e1e4 893d 1fe4 bfbd bc52 1e3e a0e5 2c3e
000001c0: b7d2 46bc 18c9 8e3e ebfc af3d cc80 25be
000001d0: b930 6cbe 5cda 4f3e ab42 b23d d795 c33d
000001e0: ef75 a23e 84bd 873b 0a1f 31bd f982 b0ba
000001f0: 8e41 793e dc7a 1e3d 7081 523d 531f 8cbd
-0.041473474 -0.09677929 0.55776197 -0.1675117 -0.02696048 -0.014780394 0.38620958 -0.24684754
-0.14630887 -0.028729755 0.20714511 -0.17391565 0.19756466 0.07195998 0.10403565 0.17378068
0.09821054 0.2381694 0.019992266 0.15359205 0.09904104 -0.102968566 -0.0075187515 0.1319589
-0.060159925 0.16929539 -0.1593432 0.053480975 -0.08496847 -0.10780252 0.20261574 -0.054169778
0.026014281 -0.102158405 -0.1418108 -0.009043195 0.045933295 0.20761992 0.14590055 0.4215789
-0.09094794 0.062377833 0.13594638 -0.14386679 0.038030423 -0.14237212 -0.041873377 -0.04089801
-0.048431106 -0.04104207 -0.091213174 -0.022601211 -0.11784102 0.097009405 -0.17700063 0.25055683
-0.106590234 -0.0148298135 -0.15021694 -0.014548015 0.07289057 -0.030320356 0.09703572 0.090635374
0.075169966 -0.04161645 0.10926926 -0.054544974 -0.104998425 0.069948405 -0.14601077 -0.082026
0.13306051 -0.036764015 -0.054984696 -0.13075443 -0.06696336 0.072690696 -0.005538812 0.03481654
-0.07474926 0.105169676 -0.04483232 0.26472366 0.07381646 -0.10440408 0.19702391 0.16376641
0.0132148955 -0.018713657 -0.08713013 -0.015000362 0.10770904 0.14457248 -0.21563561 0.25030288
0.26680815 -0.13072358 0.15288317 -0.08257242 0.1828165 0.19972692 0.33388376 0.03672574
-0.13749558 0.048029393 0.14019234 0.33940065 0.06733108 -0.093696825 0.15461248 0.1688447
-0.012135199 0.27887797 0.08593162 -0.16162413 -0.23065461 0.20298141 0.08704122 0.09550064
0.317306 0.004142465 -0.04324249 -0.0013466767 0.24341413 0.038691387 0.051392972 -0.06841912

model.model.model.6.weight f4 [128, 128]
00000000: 6297 95bd 41d8 3f3e de86 f9be ccb8 8d3d
00000010: 7762 dc3a cac2 4d3e 7b5d 83bf 5726 643d
00000020: 8f2d 0ebe bd4d 8b3e 02be 8abd 009b ef3d
00000030: de00 08be 846e 603e 13eb 14bf 46a2 053d
00000040: 8c60 85bf cad5 acbe e5a9 1cbc 4556 abbe
00000050: a567 c1bd 20b6 dabc 86c4 ac3d d8f9 0ebf
00000060: cb51 c73d 3cbc 9abc eade a4bd 5c4a 1e3c
00000070: 1eb8 9bbd dad9 7fbd dbbd 6e3e 1b87 b4bd
00000080: 85e8 1cbf ac3d 903c de7a c23e 6408 873c
00000090: 40a2 3b3e 7285 893f 4d71 afbe ad54 89be
000000a0: 97c5 a83c 79c1 9abe 19f5 f93e 92d2 9e3d
000000b0: 850b e5be c9d3 683d b2a5 223d 0768 293e
000000c0: 9264 e03c 75d3 603e 3235 573c d19c fcbb
000000d0: 8334 1cbd 3f53 8abc dabc d4bd af90 4fbe
000000e0: e9bc ecbc 094e 993e 7b16 0dbe c6e1 e83d
000000f0: c986 b8be 9452 203d 7f53 fbbd a3aa debe
00000100: 0b8d 68be 2492 d43d 322b b53e 8879 873e
00000110: 9b73 27bd 3111 91bb 7050 aa3c 8628 7e3c
00000120: c29e a0bd 9382 0a3d 8df1 9e3c 5d1f a23e
00000130: 5b54 07be 5294 ccba c3d7 8b3e e9b0 28bf
00000140: afc2 ffbc 9d82 01bf 84d9 21be 2531 21bf
00000150: 7c02 823e f8db 7a3c 0d4c 5a3d f259 543f
00000160: cc6f 06be 3d2c 4f3d aa81 64bd 9195 b63d
00000170: 4c13 c4bd 4c70 4dbe 8504 debd 2e50 123e
00000180: 32d7 693d 8fe9 d33c 0180 32be 52ae 82be
00000190: 7eb0 813f c2df b8be 180d d43e abf0 493e
000001a0: 4095 0abd 6719 0ebf db5e ccbe c7e0 cbbe
000001b0: de43 62bf 80f9 823d bb63 1ebf 161b 273e
000001c0: aa90 443e 50a7 a23e cd26 1c3f fa33 813e
000001d0: b994 b93d 541b 653b 512b 69be afdd d7bc
000001e0: 3602 a13e 7826 433e ad5d 433e e70c 443d
000001f0: fe60 6c3d e24a a2be be94 10bd ae73 223d
00000200: 210b 91bd 92f3 15be 5784 953e 5ac6 f13e
00000210: ebf3 b9bd da98 83be a56f d63e 9956 1f3b
00000220: e935 60ba 71b3 3abf bd02 d33e a346 0dbe
00000230: 1c63 c7be 73d1 46bc 4a0c 903c 4b87 58be
00000240: 9f9f 6dbe e77e ac3e d641 1f3f 3bfc fd3e
00000250: 3217 983d f226 c4bd ac86 223e 1cc9 2a3e
00000260: 518c 88bd 3234 033e 5ef1 b8bd 2f47 adbe
00000270: 56c3 50bd 2168 1abd 4c4d d7be 30a8 9e3c
00000280: df90 a5bf 4438 c6bd 2020 e53d 4da8 233d
00000290: 595c 2dbe 99a2 1a3e 3a0f b3bd 9794 2c3e
000002a0: 3da9 90bd 2cdd babe 22a9 713d f804 99bc
000002b0: 30ed a13e 8827 06bf 467c 42bd 9827 053e
000002c0: e4b3 4c3e 2e4c babd d2f1 debc fc48 e8bc
000002d0: 8688 16bc 9423 9abe f5da e63b 6fc5 e23e
000002e0: 23d3 363c b6c1 0ebd dadd e33d 49b0 d7bc
000002f0: 6eec 613e 2ab2 81bd 521e 0f3f 9ae0 94be
00000300: 6cfd 8bbd fe8e e93d 5c40 92be a952 fdbe
00000310: ce5b 0a3d 025d 053e d33d 403d 0d8f a03d
00000320: 5411 9e3e 2912 c23c 2560 63bc 638b a13d
00000330: de67 afbd fd8f a63e 0bd8 33bf 97d1 053f
00000340: a29f c73a 0e30 4fbe 5617 87be f645 393f
00000350: e874 72be 7083 6bbd 7543 5a3e ec0f 43be
00000360: a47b 2bbf 56e2 e63c d3ae 75bb 5549 e53c
00000370: 4373 89bf 24e0 d03e 26ff 5cbe 8331 6c3e
00000380: 2828 04be ea3c 0ebf a98a e53e d718 08bf
00000390: e3de 863e 276c 8a3e 3091 a8bb 903e a53d
000003a0: 21ed 8e3d b098 76be ccca 243e 3e89 15bf
000003b0: 8c58 763e 8a27 ce3c 79c1 d53d 1962 b9be
000003c0: 867b 13bd a176 003e 95bf 693d 4a8c d1be
000003d0: 1494 213c 1889 1abf c50a dabb 7da3 b8be
000003e0: ab4a 1a3e acc8 3ebe 5d76 45bf 5600 733c
000003f0: 47b3 bdbe bfe7 e5bd 71ea a1bf 6c7a 11bd
-0.073042646 0.18734838 -0.48735708 0.06920013 0.0016814013 0.20093837 -1.0262903 0.055700626
-0.13884567 0.27207747 -0.06774522 0.11699486 -0.13281581 0.21917158 -0.58171195 0.03262546
-1.0420089 -0.33756858 -0.00956199 -0.33464256 -0.09443597 -0.026698172 0.08435921 -0.5584998
0.09732398 -0.018888585 -0.0805033 0.009661283 -0.07603477 -0.06246362 0.23314612 -0.08814832
-0.61292297 0.017607532 0.37984365 0.016483493 0.18323612 1.0743849 -0.3426613 -0.26822415
0.02060203 -0.30225733 0.48819807 0.07755007 -0.4473535 0.0568426 0.0397088 0.1654359
0.027391706 0.21955664 0.013135241 -0.0077091237 -0.038136017 -0.016885398 -0.10387583 -0.20270036
-0.028898673 0.2994235 -0.13778107 0.11371188 -0.36040333 0.039141253 -0.12271785 -0.4348956
-0.22710054 0.103794366 0.35384518 0.26459908 -0.040881734 -0.004427098 0.020790309 0.015512591
-0.07842781 0.03381593 0.01940229 0.31664553 -0.13215773 -0.0015608168 0.2731305 -0.65894943
-0.031220762 -0.50589925 -0.15805632 -0.62965614 0.2539252 0.015311234 0.053295184 0.82949746
-0.13128585 0.0505793 -0.05578772 0.08915246 -0.09573993 -0.20062369 -0.10840706 0.14288399
0.057089992 0.025868205 -0.17431642 -0.2552362 1.0131986 -0.36108214 0.4141624 0.19720714
-0.033833742 -0.5550751 -0.3991612 -0.3981993 -0.8838481 0.063952446 -0.61870927 0.16318926
0.1919581 0.31768274 0.60996705 0.25234967 0.0906157 0.0034958916 -0.2277043 -0.026350824
0.31447 0.19057643 0.19078703 0.047863867 0.057709686 -0.31697756 -0.0352981 0.039661102
-0.07082201 -0.14643696 0.2920253 0.47221643 -0.09079727 -0.25702554 0.41882053 0.002431309
-0.0008552955 -0.72930056 0.41213027 -0.13796477 -0.38942802 -0.0121348975 0.017583985 -0.2114536
-0.23205422 0.3369057 0.6220983 0.496065 0.07426299 -0.09577741 0.15871686 0.1667828
-0.06667388 0.1281288 -0.09030412 -0.3384337 -0.050967537 -0.03769696 -0.4205116 0.019367307
-1.2934836 -0.096787006 0.11187768 0.039955426 -0.16929759 0.15101089 -0.087431386 0.16853558
-0.0706353 -0.36496866 0.05899919 -0.018679127 0.31626272 -0.5240407 -0.047481798 0.13003385
0.19990498 -0.09096561 -0.027214918 -0.028355114 -0.009187823 -0.3010527 0.0070451447 0.44291255
0.011158737 -0.034852706 0.11126299 -0.026329177 0.22062847 -0.0633281 0.5590564 -0.29077607
-0.06835446 0.11404227 -0.28564727 -0.49477127 0.033778958 0.13023761 0.04693396 0.07839785
0.30872595 0.0236903 -0.013877903 0.07887914 -0.08564733 0.3253173 -0.7025153 0.52272934
0.0015230069 -0.20233175 -0.2638499 0.72372377 -0.23677409 -0.057498395 0.21314795 -0.19049042
-0.66985536 0.028184097 -0.0037488237 0.027989069 -1.07383 0.40796006 -0.21581706 0.23065762
-0.12905943 -0.555617 0.44832352 -0.531629 0.26341924 0.2703564 -0.005144261 0.080685735
0.069788225 -0.24081683 0.16092986 -0.5841254 0.24057215 0.025165338 0.104372926 -0.36207655
-0.036006473 0.12545253 0.057067472 -0.40927345 0.009861965 -0.6036544 -0.006654116 -0.36062232
0.15067546 -0.18631238 -0.77133733 0.014831623 -0.3705084 -0.11225843 -1.2649671 -0.03551714

model.model.model.6.bias f4 [128]
00000000: 9f4b 27be e3e1 053d 14a7 1f3f b573 81be
00000010: ec98 b3bd 85fb 263f 6725 bc3d 8ffc b7be
00000020: 05ec bebc 9400 863e 7264 3f3c 61a3 ab3b
00000030: 61ff 1c3e 2cd0 933c c0f7 9b3e bc7e 233e
00000040: d8b6 c73d 939d 8dbd 052d cfbd 6084 b43e
00000050: 0a41 e6bc 39a2 663d 0941 e63d c28b cdbd
00000060: 9f4d c03c c93c 053d 225e 023f 5f0d 153e
00000070: 004a d53e d34a dabd 57de 223f 4094 2cbe
00000080: 368a 27bd 8c0e f53e bbec 573d b6bd 793d
00000090: 21d5 9dbd 608b 6ebd 96d6 9abd db8a 003e
000000a0: f843 813d e805 373e fb22 8f3e b9bb 21be
000000b0: e385 a8bd aa6c 323d 3bab c23b 4675 6f3e
000000c0: 8c5d 80bc d664 043e b651 3a3e c828 a83d
000000d0: 6616 10bb 3c2e d53d def4 cd3c 9781 813c
000000e0: 41fe 5b3d 35cc f73e 2f83 fd3c d94a e33e
000000f0: e524 1abe b56c 6d3e 352a 0bbe 6b4b 993d
00000100: e8bc 14bd cc32 e0bd a8e5 803e ffa5 113e
00000110: d4ed 3b3e 9583 d5bd a6ec 8ebe 4502 893e
00000120: 9a67 59bb abf6 d53b 7083 203f 20ea f33e
00000130: 65d5 9b3c 320b 343e 2821 65ba 2592 423e
00000140: d4bd 79be 47b6 b53d df24 b03e ac8f e33c
00000150: 4f2a 013e 1b3a a53c b8be 053e dbf7 ba3d
00000160: 972e 273e dbda 31be ca29 c33d c936 b3bd
00000170: 0b88 273b 098b 103e 9f8e 48bd 6b3c 0b3c
00000180: c712 eb3e bb5c a63e e566 1b3f 2ed2 4cbe
00000190: 13f7 3f3e 4d1b 3b3e e640 8e3d cca4 c83e
000001a0: 993c fb3e 0e2e 2b3e 7376 febd 47a6 03bd
000001b0: 161c 8f3d b716 c83e 48b3 923e fb72 f53e
000001c0: 8bb3 1a3e 7410 183d 2dc2 69bd bc7d 8cbe
000001d0: af4b 853e 47d0 1a3e 189e 31be 698d 86be
000001e0: 12eb 4ebe 1277 1dbd 1c1a 81bd 9b82 a23d
000001f0: fe27 2a3e 3d72 18be 68f5 b3bc 2813 333f
-0.16337441 0.032686125 0.62364316 -0.2528359 -0.08769402 0.6522754 0.091868214 -0.35934874
-0.023305902 0.26172316 0.011681663 0.005237982 0.15331794 0.0180436 0.30462456 0.15966314
0.097516716 -0.069148205 -0.10116009 0.35257244 -0.028107185 0.05630705 0.11242873 -0.10036422
0.023474513 0.032528672 0.50924885 0.14555882 0.4165802 -0.10658803 0.63620514 -0.16853428
-0.040903293 0.4786266 0.052716 0.060971938 -0.07706667 -0.058238387 -0.0756046 0.12552969
0.06311792 0.17873347 0.27956375 -0.15794267 -0.08228662 0.04356066 0.0059408224 0.2338458
-0.015669607 0.12929091 0.18195233 0.082109034 -0.0021986007 0.10409209 0.025141176 0.015808864
0.053709272 0.48397985 0.030946342 0.44393042 -0.15053137 0.23186 -0.1359032 0.07485088
-0.036312968 -0.10947189 0.25175214 0.14223479 0.18352443 -0.10425488 -0.27914923 0.26759544
-0.0033173324 0.0065296493 0.6270056 0.4763956 0.019022653 0.17582396 -0.00087405974 0.19001062
-0.2438882 0.08872657 0.3440313 0.027778469 0.12613796 0.020169308 0.13061035 0.09129306
0.16326366 -0.17368643 0.09529455 -0.08750684 0.0025563266 0.14115538 -0.04896414 0.0084982915
0.45912763 0.32492623 0.6070388 -0.20002052 0.18746595 0.18272133 0.06945972 0.3918823
0.4906967 0.16716787 -0.12424936 -0.032140996 0.06987779 0.3907983 0.28652406 0.47939286
0.15107553 0.037125066 -0.057069946 -0.27439678 0.26034304 0.15118514 -0.17345464 -0.26279762
-0.2020686 -0.038443632 -0.06303808 0.07935067 0.16616818 -0.14887328 -0.021967605 0.69951105

model.model.model.8.weight f4 [4, 128]
00000000: bf58 a83e 7253 3e3f 1536 113f 67af 1abf
00000010: cce1 c23b 37c1 1b3f 9662 99be 6c9c 1d3d
00000020: 22ca 26be df2c 90be d972 643d 6953 c0be
00000030: 75db 2abe 1b32 613e bcd7 163f d550 c4be
00000040: ac40 84be a025 26be 559c 25bd a053 763f
00000050: 51ec 883e 0041 c73c a0d7 9ebe 9432 13bf
00000060: 978b b53c 8376 e43c ca1c 94bd b196 2bbf
00000070: ad04 16bf 2c53 8bbd 6c39 063f 2073 a43d
00000080: 8bff 18bf 0ef0 803e 04cb cdbe c0b8 52be
00000090: 6993 f73a 1ada 8d3e 221f 43bd 5de9 dfbe
000000a0: 88ae 81be 4df2 42bf ce4c 313e 3699 e2bc
000000b0: 4224 a23c a31a 83be a979 dc3e fd9f 6dbf
000000c0: 4600 5d3e e856 72be b0d9 fb3d d1b1 bcbe
000000d0: ccd4 e3be 0d84 8fbe 976b 503b f4fd babe
000000e0: 6541 753c 41bc 203f 6f1a df3e 96a0 c13e
000000f0: 2fb5 88be 08a7 9bbe e922 95be db50 12be
00000100: 95b8 f03b 75d7 283d 860e 923d 7337 b6be
00000110: c6df 9dbe 865c 76be f312 b23c 60fd 1abf
00000120: cbfe d8be 3e0a c7be 3248 1d3f c506 443f
00000130: 2e74 dbbe 4db0 62be a5fc 7abe eebb e1be
00000140: 8739 84bd db3d 94be ad8c d93e 1221 0bbf
00000150: 6faa d5be b66a b0be a12a c8be 7d27 a1be
00000160: 7d6d 843d f414 c53c 5acc 643f f562 fbbd
00000170: b622 3abe 8cf2 103e 0638 23bf 2abb 88be
00000180: d4c9 353e aa47 3c3f 0c63 91be edaf afbe
00000190: 4f31 743e 0e11 963e 21bd 76be 2aab 243f
000001a0: 95a3 a23e 8008 183f b5c4 7bbc ccae 56bd
000001b0: 19d8 463f e786 1a3f 05cc 3c3e a3d6 3b3f
000001c0: 0ce7 bebe 6a9b 94be bba8 5a3d be48 8a3d
000001d0: e37a a4be 45a9 d7be d0e7 653c 1ace e0be
000001e0: b5ab 1bbf d824 69be 0a2e 8f3e ff34 0a3d
000001f0: 8169 7b3f aa06 ac3c cea6 353d 9c3f c83e
00000200: 6b52 28bf ddf3 0d3f 6e87 123f 9614 48be
00000210: 688a 95bc be45 5b3f 7b7d e3be 3045 c9be
00000220: 337b a9be c172 a3be 0237 313d 3ae6 8ebe
00000230: b6d7 90be cc4c 203f da66 c13e fe3b 6ebe
00000240: 5a17 b9be 9e16 76be 3b43 16bf 1b0c da3e
00000250: 4458 d23e 4caa 99be c283 aebe e6f1 733e
00000260: 92d0 383e 7409 c7be 243e b9be ed10 843e
00000270: b705 abbe 835a 243b 599c 773f 818e 20be
00000280: 3add d0be 6e42 953f 5171 0d3f 5740 d1be
00000290: 3bd3 303b 437f 9dbe ba89 d5be 56cc a6be
000002a0: b61d a1be 0636 a4be 4552 55be 6ee0 9dbe
000002b0: cbb2 68bc 991b 7b3e 7e1c b03d 27be 9abe
000002c0: 4677 66be 6134 e4be 7d2f 893f c3c0 a8be
000002d0: 8a00 83be 061c f0be 2e26 b4be 559b 8fbe
000002e0: adc6 f8bd 3384 943f 7492 bd3e b2d2 513f
000002f0: a5f2 aebe f1b6 54be 9978 a7be 4782 00bf
00000300: 42db 7fbc 64c7 27bc 7c05 753e 6288 c5be
00000310: 77e5 01bf 7529 ccbd 02da 053f 6ddf 45be
00000320: 0b62 45be d831 b3be 76fb dd3e c8e2 5b3f
00000330: d93f d6be f23f 03bf 1b2e 00be d235 a0be
00000340: 790b 7e3d 7597 b0be a559 963e a276 95be
00000350: 6776 49be 1de9 25be c7f7 7dbe 39f2 7bbe
00000360: 11fd d5be 9b00 81be b30f d53d d682 f2be
00000370: f6b8 33be f750 98be 91ff 86be 1d13 49be
00000380: ebd2 403f ff60 923e d343 713f 2cf6 ee3d
00000390: c383 1b3f bc11 803e 5b77 f0be b184 cc3e
000003a0: a761 ee3e b931 9ebe 247c d53d d8c9 4cbd
000003b0: e56a ac3e 8e17 6b3f 6cbb 113f 511b d93e
000003c0: 1d08 b5be e9d1 1abe 362a 14bf 6f44 143f
000003d0: 1d7f 51be 8d32 ffbb a93b 653d e393 43bd
000003e0: 276c 8cbe 8c8e 8bbe 0f64 8e3d 9a9f 34bd
000003f0: 757a 93be 1158 debb 9dc2 a03c 82b6 453f
0.32880208 0.7434608 0.5672315 -0.6042389 0.0059473272 0.608417 -0.29958028 0.038479254
-0.16288045 -0.28159234 0.05577359 -0.37563637 -0.16685279 0.2199177 0.58922935 -0.3834292
-0.2583059 -0.1622529 -0.040432293 0.9622135 0.26742795 0.024322987 -0.31023884 -0.5749905
0.022161288 0.027888542 -0.072320536 -0.6702681 -0.58600885 -0.06802973 0.5243137 0.08029771
-0.5976493 0.25183147 -0.4019395 -0.20578289 0.0018888536 0.2770546 -0.047637112 -0.4373273
-0.2532847 -0.7615097 0.17314455 -0.027660947 0.01979268 -0.2560626 0.4306157 -0.9282225
0.21582136 -0.23665965 0.1229738 -0.36854413 -0.4449829 -0.28030434 0.003180241 -0.36521876
0.014969205 0.6278725 0.43574855 0.3781783 -0.26700732 -0.30400872 -0.29128197 -0.14288656
0.0073462226 0.0412211 0.071316764 -0.3558918 -0.30834788 -0.24058732 0.021737551 -0.6054287
-0.42381892 -0.38875002 0.61438286 0.7657283 -0.42862076 -0.22137566 -0.24510439 -0.4408869
-0.06456285 -0.28953442 0.4249014 -0.54347336 -0.41731593 -0.34456414 -0.39095023 -0.3147544
0.06466196 0.024057843 0.89374316 -0.12274734 -0.18177304 0.14155024 -0.6375736 -0.26705295
0.17752773 0.7354685 -0.2839588 -0.34313908 0.23846935 0.29309887 -0.24095584 0.64323676
0.31765428 0.5938797 -0.015366723 -0.052412793 0.7767349 0.60362095 0.18437202 0.73374385
-0.3728565 -0.29024822 0.05338357 0.06752156 -0.32125005 -0.4212133 0.014032319 -0.43907243
-0.6080888 -0.22767961 0.27964813 0.033741947 0.9820786 0.020999271 0.04434853 0.3911103
-0.6575076 0.5545023 0.572379 -0.19539103 -0.018254474 0.85653293 -0.44431672 -0.39310598
-0.33101806 -0.31923488 0.04326535 -0.27910024 -0.28289574 0.6261718 0.37773782 -0.23265073
-0.36150628 -0.24032065 -0.58696336 0.4258736 0.41082966 -0.3001274 -0.34084898 0.23822746
0.18048313 -0.388744 -0.36180222 0.25794163 -0.33402798 0.0025078363 0.9672294 -0.15679361
-0.40793782 1.1660898 0.5525103 -0.408694 0.0026981372 -0.30761155 -0.4170664 -0.3257777
-0.3146798 -0.32072467 -0.20832165 -0.3083529 -0.014202784 0.24522246 0.085991845 -0.302232
-0.22506437 -0.44571212 1.0717617 -0.32959566 -0.2558635 -0.4689638 -0.3518538 -0.28048196
-0.121472694 1.1602844 0.37025797 0.8196212 -0.34169498 -0.20772912 -0.32709196 -0.5019879
-0.01561624 -0.0102404095 0.23927873 -0.38580614 -0.5074076 -0.09968845 0.5228578 -0.19323511
-0.19275682 -0.34998965 0.43355912 0.85892916 -0.41845587 -0.5126945 -0.12517588 -0.31291062
0.06202266 -0.34490553 0.29365268 -0.29192072 -0.19674073 -0.16202207 -0.24801551 -0.2460412
-0.41794637 -0.25195774 0.10403385 -0.47365445 -0.17551026 -0.2974927 -0.26366857 -0.19636197
0.75321835 0.28589627 0.94244117 0.11668047 0.6074793 0.2501353 -0.4696606 0.39944986
0.46558878 -0.3089731 0.104240686 -0.04999718 0.33675304 0.91832817 0.5692661 0.42403653
-0.35357752 -0.15119137 -0.5787691 0.5791692 -0.20458646 -0.0077880085 0.0559651 -0.047748458
-0.27426264 -0.27257192 0.069526784 -0.04409752 -0.28804365 -0.0067854007 0.019624049 0.7723161

model.model.model.8.bias f4 [4]
00000000: 352c 093e 9069 f9bd d779 82bc 2ae6 9d3e
0.1339577 -0.121783376 -0.015927238 0.30839664

model_old.model.model.0.weight f4 [128, 8]
00000000: 80a0 fabe 734e bf3e 6a66 883e e221 203f
00000010: dfc1 0dbf 2d20 3abf 55f3 3d3e 5d03 8dbc
00000020: ee0f d8bd 9a7c 103e 371d d2be 723f f03e
00000030: 793b 923e 6e29 923e 47e4 30bf d8b4 c8be
00000040: 2dfc a23e 6d69 153e 949a 48bd 5188 75bd
00000050: a4b9 603f 0753 c53e 881b c3be 61e3 a4bd
00000060: cbce adbe 3212 69bc 6b04 12bf 48e5 aabe
00000070: 2d8f a7be 3a32 cc3e b430 bfbe 4041 88bc
00000080: 92be 833d 764e 96be 2ff1 d33e 5de8 26be
00000090: 9cbd c0be c21c 4ebe 41df acbc cc5e 923e
000000a0: 7b31 bbbe 7b1e 05be be39 f7be 82de b0bc
000000b0: d54d 063e 62da 303f 1198 dcbe 1172 f23c
000000c0: 49b2 af3e 8ce1 b4be 6d65 75be f7db 8fbe
000000d0: 7983 22bf dc66 4bbf 0a9f 803e dbd6 5dbf
000000e0: d20a 3abf 0137 5dbc aa1f b63e cc6f 28bb
000000f0: e0b0 5e3e e0b0 11bf f14e 9b3e 96d1 f83d
00000100: 7665 73be c4e2 92bd 96c4 eebd 91ee 3c3e
00000110: bf24 9d3c bf57 8bbd ee01 a9be 6470 fd3c
00000120: 3858 e43b 0a91 81be 7fa7 7bbf f107 e83e
00000130: 1106 8b3d 8bde eb3d 1e52 57be e18d 323e
00000140: 4f4d 0e3f 1d8c 193e cb3a eabe d260 80be
00000150: 0f57 06bf b141 763e fa68 933e 72ac ab3e
00000160: 9761 513f 48a7 07be 54a2 c6be 373b a8be
00000170: 1c41 133f 94a9 98be 0ef3 9f3d ec8d c73d
00000180: 92db e43e 6b23 2cbf 12d0 bdbe fd65 f43e
00000190: 3eac 6f3f 6401 993e 408f 183f 725c 433e
000001a0: d589 a5bd c278 ca3d 8daf 983e e685 95be
000001b0: f3e0 02bf f0a7 e43e 45c9 febc be35 15bf
000001c0: 3bdc 13bd b433 d5be ff64 0cbf 258e 0f3e
000001d0: 253e 3e3e 162a 1a3e 6c6e e9bd 9aa1 513e
000001e0: c724 303e 4044 b6be db8e 5ebf b515 6f3e
000001f0: 252b d33e f7b2 fabe 45bf c83d 54c2 2f3d
00000200: e943 903e 7cee abbd 19f0 b03d 9a36 ad3e
00000210: a208 143f 5e65 d13e f66c a8bd f47e 743e
00000220: 7554 babe a16d b8bf 28ab e7be 76f8 b4be
00000230: 4140 c53e 438e 583e bf55 b83e 202b 04bd
00000240: 262d b9be 6304 903d 5770 003e 5c6d d23e
00000250: af76 d5bd e1b1 cdbe 1951 08bd 079f 9a3e
00000260: d013 bfbe 95ef 953e b452 693e ee52 8bbe
00000270: a438 3abf 4ef4 d53e 1aba 763e 7615 2a3e
00000280: 177f 5f3f 1f95 b53d 4db5 173f 357b 573f
00000290: ea5b 7f3e 327d ec3e 465d c13e e1df 1fbd
000002a0: 226d a33d 6189 00bf 87fd 8b3f 4d2c 003b
000002b0: 9658 ed3e bc79 ffbe 98e4 e33e 57d1 90be
000002c0: a211 253f 4d49 023e d873 d7be 9272 0bbe
000002d0: 4757 52be b47a a03e 6ac6 30bf a5db 82be
000002e0: b110 f3be c054 3f3e 30b7 4bbf dbb2 663e
000002f0: 6b1e 543e 202d f63e 416a 153f b4be afbe
00000300: 2510 ea3d 5557 92bf 74ea 95be d964 133e
00000310: c38a 0f3f e745 803e 94d4 6abe cf95 0abd
00000320: 96d8 2abf e9f7 013e f7b4 8e3e 01f5 d4be
00000330: 13bb a73e 6add e0be 5ecb 6c3e b046 9a3e
00000340: 648b 703f 421b 6abf 7252 b8bd 1876 05bf
00000350: cd0b 3c3d 6986 0f3e b259 6a3e c22e a1bd
00000360: a626 eabd a425 463e f8ba 783d 1438 65be
00000370: 0d8a 283f 8ffa db3e c3cb bfbd 61c2 8bbe
00000380: d3fb 82be fb1b 5abf 740e 1fbe 830b b4bd
00000390: 0a25 44bf 019a 473c 43cc 073e f72a d2be
000003a0: 2b92 5e3f 6bf3 a7be c6d4 0d3f 8893 3d3e
000003b0: 32c5 d1bd 6990 7f3d bf34 c53c f9d0 f73d
000003c0: d417 3bbe 7c74 d0bd 0f7e 09be 1778 d1be
000003d0: 94b9 213f 12a6 273f 9431 7d3e e5b0 3ebd
000003e0: b211 983e 2912 a53e f15c e43e e226 fcbe
000003f0: bba5 143f d229 f6be 34c6 90be b8ba 9f3c
-0.48950577 0.3736454 0.26640636 0.625517 -0.5537395 -0.72705346 0.18549855 -0.017213518
-0.10549913 0.14110032 -0.41037914 0.46923405 0.28561 0.28547233 -0.69098324 -0.39200473
0.3183302 0.14590998 -0.048975542 -0.059944455 0.87783265 0.38539907 -0.38106942 -0.080511816
-0.33946833 -0.0142255295 -0.5703799 -0.33378053 -0.32726422 0.3988207 -0.37341845 -0.016632676
0.06432833 -0.29356736 0.41394946 -0.16299577 -0.3764466 -0.20128158 -0.02110255 0.2858795
-0.36561188 -0.12999909 -0.4828624 -0.021590475 0.13115628 0.69083226 -0.43084767 0.029595407
0.34315708 -0.3532833 -0.23964472 -0.28097507 -0.6348186 -0.79453826 0.25121337 -0.8665597
-0.7267276 -0.0135018835 0.35571033 -0.0025701402 0.2174716 -0.56910515 0.30333665 0.1214935
-0.23769173 -0.07172158 -0.116585895 0.18450381 0.019182561 -0.068038456 -0.33009285 0.030937381
0.0069685243 -0.2530597 -0.98302454 0.4531856 0.067882665 0.11517056 -0.21027419 0.17436935
0.55586714 0.14994855 -0.4574798 -0.25073868 -0.5247659 0.24048497 0.28791028 0.33530003
0.81789535 -0.13247406 -0.38795722 -0.32857677 0.57521224 -0.29816878 0.07810031 0.09743866
0.4469877 -0.67241544 -0.37072808 0.4773406 0.93622196 0.29883873 0.5959358 0.19078234
-0.0808293 0.09886314 0.29821435 -0.2920372 -0.51124495 0.44659376 -0.031101832 -0.5828513
-0.0360987 -0.4164101 -0.5484161 0.14019068 0.18578394 0.15055117 -0.113980144 0.20471802
0.1720153 -0.35598946 -0.8693673 0.23348124 0.41243854 -0.48964664 0.09802107 0.042909935
0.2817681 -0.08395097 0.08639545 0.3383072 0.5782567 0.4089765 -0.08223908 0.23876554
-0.3639256 -1.4408456 -0.4524777 -0.3534581 0.38525584 0.21148019 0.3600292 -0.03226769
-0.36167258 0.07032087 0.12542854 0.4109906 -0.10423028 -0.40174773 -0.033280466 0.30199453
-0.37319803 0.2928435 0.22785455 -0.27211708 -0.72742677 0.41787952 0.2409443 0.16609749
0.873033 0.08866333 0.5926102 0.84172374 0.24937406 0.46189266 0.37766474 -0.039031867
0.079798 -0.50209624 1.0936745 0.0019557655 0.46356648 -0.49897563 0.4451034 -0.28284714
0.6448003 0.12723275 -0.4208057 -0.13617924 -0.20541106 0.31343615 -0.69052756 -0.255582
-0.47473672 0.18684673 -0.79576397 0.22529165 0.20714729 0.48081303 0.58365256 -0.34325182
0.114288606 -1.1432902 -0.29280436 0.14393939 0.5607111 0.2505333 -0.22932655 -0.033834275
-0.66736734 0.12692226 0.2787244 -0.41593173 0.32759914 -0.43918926 0.23124453 0.30132055
0.93962693 -0.9144784 -0.090001 -0.5213332 0.04590969 0.14016117 0.22885779 -0.078702465
-0.11433153 0.19350296 0.060725182 -0.22384673 0.6583565 0.429646 -0.09365036 -0.27296737
-0.25582752 -0.85198945 -0.15532857 -0.08791258 -0.7661902 0.0121827135 0.13261513 -0.41048405
0.86941785 -0.328029 0.5540279 0.1851331 -0.1024269 0.06239358 0.024073003 0.12100405
-0.18270808 -0.10178468 -0.13426994 -0.40911934 0.63173795 0.6548778 0.24725944 -0.04655542
0.29701 0.32240418 0.4460216 -0.49248415 0.58065385 -0.4807878 -0.28276217 0.019498214
