rl_compexp/save/LunarLander-DQN64/dqn.pth (torch, 88372 bytes, 24 tensors)

model.model.model.0.weight f4 [64, 8]
000000 d1 3f 70 be e2 08 89 3f ec e7 3e 3f 93 6e a4 bf
       -0.23461844 1.0705836 0.74572635 -1.2846245
000010 a0 47 8a 3e f8 c4 84 bf f2 8a 0e 3f b8 c2 28 bf
       0.2700777 -1.037261 0.55680764 -0.6592212
000020 c0 81 25 3e 7e 19 90 bf df 27 3d bf e1 62 8a 40
       0.16162777 -1.125778 -0.73888963 4.32457
000030 bf 38 d6 3f 47 df 84 bf 0b df 05 bf ad 63 d9 bd
       1.6736068 -1.0380639 -0.5229346 -0.10614715
000040 86 43 bf 3f 0d 3b e8 3e fd c5 5f 3e c0 ce e9 3e
       1.4942482 0.45357552 0.2185287 0.4566555
000050 f9 ed 11 c0 f4 7e e7 3f ee 30 44 bf ed 9f 59 3e
       -2.2801497 1.8085618 -0.7663716 0.21252413
000060 e7 a9 0f 40 de 89 1f 3f c2 18 b7 be 64 2b 8b bf
       2.244745 0.62319744 -0.35761076 -1.0872617
000070 be 0b af 3f e2 61 3a bf e6 5a b0 be 63 c1 88 bf
       1.3675458 -0.7280561 -0.3444435 -1.0684017
000080 c5 c0 4f bf 8b 0d 47 c0 0f 31 a3 be d7 a2 24 bf
       -0.8115352 -3.1102016 -0.31873366 -0.64310974
000090 e9 9d 5f 3f 7b e2 b5 3f 17 7f 97 3e 28 30 55 3f
       0.87350327 1.4209741 0.2958915 0.83276606
0000a0 2e 35 25 c0 a5 23 f1 bf 0c a0 3e bf d9 10 f0 bf
       -2.5813708 -1.8839003 -0.7446296 -1.8755141
0000b0 26 85 25 bf b0 73 8f be 1e b0 99 bd c6 8d 95 bd
       -0.64656293 -0.2801795 -0.07504295 -0.07302432
0000c0 88 d9 61 bf 71 79 3c 3f 0c b5 4d 3e a7 ac 6c bf
       -0.8822255 0.73622805 0.20088595 -0.92450947
0000d0 ed e8 e3 3f f5 3c 51 3f 08 5a b9 bf 32 8c 50 bf
       1.7805458 0.8173364 -1.44806 -0.8146392
0000e0 4e 5d 02 3f a4 22 7a 3f 6f dd 3a 3f 8e 0d 50 bf
       0.5092362 0.9770911 0.7299413 -0.8127068
0000f0 2c b2 43 3f 5d 4f 25 bf 32 2d d7 bf 67 4d 27 bf
       0.76443744 -0.64574224 -1.6810668 -0.6535248
000100 3d ea 89 3f d8 2d 3b 3f 45 48 32 3f c1 55 95 3f
       1.0774609 0.73116827 0.69641525 1.1666795
000110 f2 0e c0 bf ba b5 d1 bc cd f4 89 be 63 58 76 bf
       -1.5004561 -0.02559935 -0.2694458 -0.9622862
000120 16 5d c3 3f bc 8c 90 be ee 3a 58 c0 97 39 ae bd
       1.5262783 -0.28232372 -3.3785968 -0.08507078
000130 bb 23 89 bf e4 26 43 3f 6e b7 3b 3f 0c 66 d3 be
       -1.0714029 0.7623122 0.73326766 -0.41288793
000140 0b 4d 1b 3f 79 f5 d4 bf 84 00 a6 3f d4 8b b3 3f
       0.60664433 -1.6637412 1.2968907 1.4027047
000150 aa 59 c3 bf 69 ae c3 bf 33 8b 5b 3f 63 86 04 3f
       -1.5261738 -1.5287601 0.85759276 0.5176756
000160 f5 06 23 bf ec d7 e4 3e b1 67 54 bf 23 80 18 bd
       -0.6368249 0.44695985 -0.8297072 -0.037231576
000170 ec d9 27 3f eb de 2c bf cc 02 68 3e 79 90 89 bf
       0.655669 -0.67527646 0.22657317 -1.0747215
000180 3b b5 77 3f d3 dd cf 3e 11 77 7d 3f d9 db 03 c0
       0.9676091 0.40598926 0.99009806 -2.0602934
000190 03 5d 95 be c7 8f 27 be 68 45 13 3e dc 82 55 bf
       -0.29172525 -0.1636344 0.14381945 -0.834028
0001a0 05 fb c4 be 7f cc 9a bf 99 7e 31 3f b9 36 87 bf
       -0.38472763 -1.2093657 0.693338 -1.0563575
0001b0 6c 6a 56 bf 2a 9b 48 3e 93 a2 1b 3f cc 44 78 bf
       -0.83756137 0.1959044 0.60794944 -0.96979976
0001c0 0a ab 32 bd e8 73 d1 3e 7b d8 97 bf 46 94 43 3e
       -0.043620147 0.40908742 -1.186294 0.1909953
0001d0 88 68 d4 3c 03 83 28 40 43 14 bc 3b b6 3b 40 bf
       0.02592875 2.6329963 0.00573972 -0.7509111
0001e0 c6 39 b4 3f 49 06 29 c0 3c 9d dc bf 84 2e 8d 3e
       1.4080131 -2.6410086 -1.7235484 0.2757455
0001f0 74 b7 f3 3f 09 b5 2b bf 64 5e 73 bf a4 10 88 3f
       1.904036 -0.6707311 -0.95065904 1.0630078
000200 2c d3 c0 bf f5 a8 98 be 94 31 06 bf 12 fa a8 bf
       -1.5064445 -0.29816404 -0.524194 -1.3201315
000210 bd 9e 8e be a9 42 df be 7e a8 4e bf f6 b0 e4 3f
       -0.27855483 -0.43605545 -0.8072585 1.7866504
000220 9d 17 2e bf a2 ae ec 3e c9 0d 1b 3f b2 02 91 3e
       -0.6800478 0.46226984 0.6056791 0.2832237
000230 1c ff 93 bf d8 2c 12 bf 21 42 a4 bf d1 39 18 bf
       -1.1562228 -0.57099676 -1.2832681 -0.5946322
000240 ba 2b 06 40 8b 48 8c be be 1f 83 3f 79 6d 9a bf
       2.0964189 -0.27399096 1.0244062 -1.2064658
000250 cd d5 c4 bd f9 3e 67 bd 59 df 75 3e 5f 16 08 3e
       -0.09611092 -0.05645654 0.24010982 0.13289784
000260 c7 f7 91 bd 3e 69 34 3f 37 70 2b 40 76 7c 08 c0
       -0.07127338 0.70473087 2.678724 -2.1325965
000270 67 f0 ca bd f1 7f 4e 3e db ad b6 bd 97 3e df be
       -0.09909134 0.20165993 -0.08919879 -0.4360244
000280 7b d0 d6 3f 87 25 75 bd b8 fa 66 3e 87 da a7 bf
       1.6782373 -0.059850242 0.22556579 -1.3113564
000290 be 8a 4f bf 3a 18 7b 3f a0 d6 c3 3d fd 32 b7 bd
       -0.8107108 0.9808384 0.09562421 -0.08945272
0002a0 c2 57 34 be e0 aa 6f bf 69 f8 03 40 b7 00 19 c0
       -0.17611602 -0.9362011 2.0620368 -2.3906686
0002b0 64 c8 1d be 02 e8 68 3f 57 16 44 3f 2a 4a ad be
       -0.15408474 0.90979016 0.7659659 -0.33845645
0002c0 80 da e5 3e 4b fa e8 bd 3c 9f 84 b9 2e 76 13 bd
       0.44893265 -0.113758646 -0.0002529564 -0.036001377
0002d0 31 02 32 c0 ef d3 3d 3d 14 fc 9c bf b1 3e d1 3e
       -2.7813838 0.046344694 -1.2264428 0.40868142
0002e0 15 17 78 bf 54 ca a9 3f d5 ea bb bf 7d 2c ad bf
       -0.9691022 1.3264871 -1.468104 -1.3529202
0002f0 7a 1a 4f bf c3 14 b1 bf e3 98 1d be 5d 46 75 3e
       -0.80899775 -1.3834461 -0.15390353 0.23952623
000300 71 68 1b 3d a2 4f 8a 3f 19 62 b8 3f 04 5e e5 bf
       0.0379414 1.0805552 1.4404937 -1.7919316
000310 4d df b0 be c6 ff 07 3f 84 fd 35 bf 56 92 19 bc
       -0.34545365 0.53124654 -0.7108996 -0.009373268
000320 af 70 f4 3f 93 c5 e0 bf 47 96 ab be 59 0a d6 bf
       1.9096888 -1.7560295 -0.3351309 -1.6721908
000330 1a 05 88 bf ab 97 55 be 36 a9 a4 3d 48 a8 de 3c
       -1.0626557 -0.20858638 0.08040087 0.027179852
000340 a5 eb 65 be 1f 50 33 be 8e ae 8c be d9 09 e4 be
       -0.22453173 -0.17511033 -0.27476925 -0.44538763
000350 de fd 45 c0 dd ab cc be 23 c3 f4 be 6e f9 57 bf
       -3.0936198 -0.3997487 -0.47805128 -0.84364974
000360 19 a5 0f 3f fd 7c 10 3f d1 4b 3e bf da 71 ad bf
       0.56111294 0.56440717 -0.74334437 -1.355037
000370 5b 28 9f 3f d8 51 d0 bc b6 7c 16 3e 43 0d 1f 3f
       1.243419 -0.025429651 0.14696011 0.6212961
000380 c4 8b 84 3e 40 7c 12 c0 0e f6 e2 3f d5 37 18 c0
       0.25887883 -2.2888336 1.773134 -2.3784077
000390 52 20 83 be c6 22 29 be 54 80 3a be c4 98 ce 3e
       -0.25610596 -0.16517171 -0.18213016 0.40350926
0003a0 b5 a0 aa bf 33 fb ea 3e 3a d4 05 be 52 8f d8 3f
       -1.3330294 0.45894775 -0.1306924 1.6918738
0003b0 a8 d6 e7 bf fc c5 cf 3d 88 07 77 bf 43 4c 7d bd
       -1.8112383 0.101451844 -0.96495867 -0.061840307
0003c0 22 4e 0d 3e 09 88 31 bf f8 2d 99 3e 3b c1 cd bf
       0.13799337 -0.693482 0.29917884 -1.6074594
0003d0 02 93 44 be 75 7c 3e bf 2e 39 be 3c 5f b3 24 3f
       -0.19196704 -0.74408656 0.023220625 0.643362
0003e0 e6 ff 12 3f 67 14 10 be 68 92 e9 3f e1 00 9c bf
       0.5742172 -0.14070283 1.8247805 -1.2187768
0003f0 5c 55 7e 3f 3b 16 34 3f de 4c 88 bf 2c 02 af bf
       0.99349 0.7034642 -1.0648458 -1.3672538

model.model.model.0.bias f4 [64]
000000 5a e8 16 3f 49 d1 c3 3e 35 13 15 3f 7e 5e 8a 3f
       0.5894829 0.3824561 0.5823243 1.0810087
000010 dc 84 40 3f 04 4c 45 be 28 a3 51 3e a3 f1 43 3f
       0.7520273 -0.19267279 0.20472395 0.76540583
000020 00 ee 4e 3e 66 6f 85 3e f8 3f 8e 3e 9f 69 35 bf
       0.20207977 0.26061553 0.2778318 -0.7086429
000030 2c 9a ae 3e 80 70 3b 3f 1c e3 3c 3f ab 6c e4 3d
       0.34102 0.73218536 0.7378404 0.11153539
000040 96 fa 7b 3f df 98 98 3e f6 61 b9 be c1 d0 06 3f
       0.9842924 0.2980413 -0.3620755 0.52662283
000050 a0 0c dd 3e a1 72 84 bc 54 54 f0 3d f9 63 a4 bf
       0.43173695 -0.01616794 0.11734834 -1.2843009
000060 7f 0b 0c 3f 23 09 99 be d0 42 72 3e b8 19 6d bd
       0.5470504 -0.29889783 0.236583 -0.057885855
000070 d9 c8 61 be f8 13 ef be 98 27 0f 3f 34 04 e3 3e
       -0.22049274 -0.46694922 0.5591979 0.44339144
000080 86 ac df bd f1 a1 b2 3e 7f 8c ea 3d 35 d7 3a 3e
       -0.10921578 0.34889176 0.11452579 0.18246157
000090 df aa c0 bd d3 00 ac 3e 9c 0c 03 3f 9a 79 fd 3c
       -0.09407591 0.3359438 0.51191115 0.030941773
0000a0 88 5b 5b 3f 3d 1b 5a 3f d3 24 34 3f da 7d 8b bc
       0.8568654 0.8519781 0.7036869 -0.017027784
0000b0 5f ad 6d 3f 3a 6e 32 3f c1 1e 34 3e e6 b8 96 bd
       0.9284267 0.6969944 0.17589857 -0.07359485
0000c0 8f 50 14 3f 62 4e 68 3f 99 41 90 3e 8b 2d 3c 3f
       0.5793542 0.907446 0.28175047 0.73506993
0000d0 b0 ac b4 3d b7 36 fd 3e 61 48 d3 3e 1c 95 12 be
       0.08822 0.49455807 0.41266158 -0.14314693
0000e0 54 52 ab 3e c8 4a f5 3e 96 8d 3e 3b d5 de 0e 3e
       0.3346125 0.47908616 0.002907609 0.13952191
0000f0 23 1c 36 3e 23 a9 6f 3f d0 60 0b 3f ae ab ca 3e
       0.17784171 0.9361746 0.544446 0.39584106

model.model.model.2.weight f4 [64, 64]
000000 68 f4 ac bd f0 2d 63 bf f9 fd ea be 43 e6 11 bf
       -0.08445054 -0.8874197 -0.4589689 -0.56991976
000010 cd fa 41 c0 54 08 a9 be d4 6a 58 3e 55 3c c3 be
       -3.0309327 -0.33014166 0.21134502 -0.38131967
000020 d0 6f 20 3e 78 12 fc 3e 33 3d ca 3f a5 53 28 3f
       0.15667653 0.4923284 1.5799927 0.6575263
000030 d5 38 24 3e c4 e3 5e 3f 32 31 af 3e ce 86 f1 3d
       0.16037305 0.8706629 0.3421722 0.1179329
000040 89 a1 5e 3f b4 b2 6b bf fa cf 8b 3f 1e 46 a1 3e
       0.86965233 -0.92069554 1.0922844 0.31498808
000050 50 f3 d3 3e 35 df 9b 3e ce 5f c8 3f 16 7d 6f be
       0.4139657 0.3044373 1.5654237 -0.2338756
000060 6e a1 2e bf 77 97 11 40 be de 8c 3f a3 91 7f be
       -0.6821507 2.2748697 1.1005476 -0.249579
000070 29 46 52 3f 2a 7d a7 bd 48 73 7d 3f 13 f1 b6 3e
       0.82138306 -0.0817817 0.9900403 0.357308
000080 29 52 6d 3f 35 2a 29 3f 50 ab a3 be 49 98 04 3f
       0.9270349 0.6608003 -0.3196664 0.5179487
000090 ad 86 a9 bc 4c 66 8c be 86 ce c6 be 86 e6 02 3f
       -0.020694101 -0.27421796 -0.3882944 0.51133
0000a0 64 ff bd 3b 9d 8d db be a7 48 05 c0 25 80 f4 bf
       0.005798267 -0.4288148 -2.0825593 -1.9101607
0000b0 c4 45 60 3f fd c4 83 be 52 f0 8e 3f 9a c1 01 bf
       0.87606454 -0.25736228 1.116709 -0.5068604
0000c0 1b 3d 41 bf 21 07 35 3c 90 d6 1b 3f dd 7b 54 3f
       -0.75483865 0.011049063 0.6087427 0.830015
0000d0 c8 82 47 bc 22 90 a1 3e 2d 1b 80 3f 6f 31 45 3f
       -0.012177177 0.31555277 1.0008293 0.77028555
0000e0 b9 a3 ae bf 01 21 2b 3e 27 03 6e 3f 93 28 e0 bf
       -1.3643714 0.16711809 0.9297356 -1.7512382
0000f0 51 cd 03 3f fb 41 0c bd 72 73 a6 bf 18 09 01 be
       0.5148516 -0.03424261 -1.3003981 -0.12601125
000100 10 0b 53 3f bc 45 cd 3f 3b 49 c0 be f3 22 37 3f
       0.82438755 1.6036906 -0.3755587 0.71537703
000110 93 66 09 40 60 32 38 bf 7c 96 88 3f 14 e6 5a 3e
       2.1468856 -0.71951866 1.0670924 0.2137683
000120 92 f4 ae be 68 24 32 bf 6e b9 6d bf 17 d8 03 bf
       -0.34170967 -0.695868 -0.9286107 -0.515016
000130 a9 fe df bd 0d 7a c2 bf f6 b0 ac be 22 05 bc be
       -0.109372444 -1.5193497 -0.3372876 -0.36722666
000140 13 87 1d bf ef e6 1a bf 66 0f 93 be c1 39 87 be
       -0.6153423 -0.60508627 -0.28722686 -0.2641125
000150 2c a6 4f be a5 71 b6 be 3c 74 71 3e f0 95 09 3f
       -0.20278233 -0.3563358 0.23579496 0.5374441
000160 ff 03 1b 3e e0 5b cf bf 3f 5f a0 3f 57 f1 01 3f
       0.15138243 -1.6199913 1.2529067 0.5075888
000170 fe d8 05 bf 65 8f 78 be f3 8d a1 3f d2 6c e1 3e
       -0.5228423 -0.2427345 1.2621444 0.44028336
000180 81 f1 df bf 50 1b 11 bf 25 c8 6f 3e ac 23 f5 3e
       -1.7495576 -0.566823 0.23416193 0.47878778
000190 1c 2c 29 be e8 60 78 3f 74 69 0d 3e f0 4b bc 3f
       -0.16520733 0.9702287 0.13809758 1.4710674
0001a0 36 1d 09 3f 9c 63 17 be e8 a1 85 3f 9b a2 99 3f
       0.535602 -0.14784092 1.0440035 1.2002748
0001b0 3c 56 57 bf 10 37 45 3d 9e 22 6e bd 79 9e e5 bf
       -0.8411596 0.048148215 -0.058138482 -1.7938987
0001c0 7f 94 44 be 55 63 20 3f da 1c b4 be d8 a2 23 be
       -0.19197272 0.6265157 -0.35178262 -0.15980089
0001d0 68 a8 c3 bf c2 c6 1c bd a9 bb 82 bf 8b d6 53 be
       -1.5285769 -0.038275488 -1.0213519 -0.2068731
0001e0 71 3c 80 3f 38 2a 9d 3e ef 17 94 bf 71 da f6 bf
       1.0018445 0.30696273 -1.1569804 -1.9285413
0001f0 e8 be 9b be 06 60 89 3a 25 cb 2d 3f f9 04 27 3e
       -0.30419087 0.0010480888 0.678881 0.1631049
000200 8e d0 a7 be 3d 19 ab bf e8 c6 7d 3d 80 eb ce 3e
       -0.32776302 -1.3367077 0.06195727 0.40414047
000210 ef d9 68 bf 8e 69 c9 bd 98 c6 0b be 40 c4 57 bc
       -0.9095754 -0.09834586 -0.13649976 -0.013169348
000220 4f 49 c1 3f 1d 16 ab 3c 96 25 1e bf 2b 45 11 be
       1.5100497 0.020884568 -0.617761 -0.14186542
000230 a4 24 47 3f c8 8f d4 bf 77 cc 3e 3e 37 43 4d 3f
       0.77790284 -1.6606379 0.18632685 0.80180687
000240 e9 b2 54 bf 77 bb 0e 3f 6f b0 a4 3f 2c f1 1e 3e
       -0.83085495 0.557548 1.2866343 0.15521687
000250 ad e8 0e 3f ab fc a2 3e c5 60 f5 bf 66 bd 04 3f
       0.55823785 0.31833395 -1.9170157 0.518515
000260 c0 fd 5e be 02 a5 f7 3f da 54 77 bf b0 9a 06 3e
       -0.21776485 1.9347231 -0.9661385 0.13144946
000270 12 6b a2 3f 8d 9c 80 bf cc c7 1d be 11 24 7b 3e
       1.2688925 -1.0047776 -0.15408248 0.24525477
000280 75 74 d8 bf 03 97 3e 3e 52 73 21 be a8 c6 28 3f
       -1.691054 0.18612294 -0.15766647 0.65928125
000290 71 a2 0e 3e 95 14 83 be 3b a6 50 bd 69 4f 1c 3e
       0.13929154 -0.2560164 -0.05093978 0.15264668
0002a0 fa 63 bc 3e ca 3f 95 3c f2 91 97 bf 80 05 91 bf
       0.36795026 0.018218894 -1.1841414 -1.1329803
0002b0 60 0e 2c be 71 9c 1d be ad 49 ec 3e a1 04 c1 3e
       -0.16802359 -0.15391709 0.4614996 0.37698844
0002c0 bd 2e 47 be 0d 52 35 3e 30 0e 85 3e ca 41 65 bd
       -0.19451423 0.17707081 0.25987387 -0.055970944
0002d0 b0 97 13 c0 c2 03 d6 3d 47 ed 92 3e 3c 55 56 bf
       -2.3061333 0.104499355 0.28696653 -0.8372381
0002e0 e2 71 5c 3f e8 0d 21 3e 1e 84 37 3f 93 c8 9f 3f
       0.8611127 0.15727961 0.7168597 1.2483085
0002f0 a1 a2 f2 3e e7 95 c2 3d 1c d8 2b 3f f5 ea 75 3f
       0.473897 0.09501248 0.6712663 0.9606164
000300 7c cf 1a bd 56 4f 9c bc 2a 61 4c 3d b9 4e 74 3d
       -0.03779553 -0.0190808 0.04989735 0.05964539
000310 2e 4c a7 3c 47 58 80 bd 6f a1 b3 3d c4 bb 06 bd
       0.020422067 -0.062668376 0.087710254 -0.03289391
000320 6b 62 4d ba 4c 14 af bc da 07 a3 bd 04 9e 35 bc
       -0.0007834795 -0.021371983 -0.07960482 -0.011085037
000330 ec 43 22 be 26 f5 4e bc 92 ea 8a 3c d3 1a 9e bd
       -0.15846223 -0.01263169 0.016957555 -0.0771996
000340 8d 39 22 bd 03 83 e0 bc 11 86 3e bc ee 88 0b be
       -0.039605666 -0.027406221 -0.011628644 -0.13626453
000350 a8 89 b2 bd 51 87 40 bd b9 07 aa bd 84 74 62 bd
       -0.08717662 -0.047004048 -0.08302254 -0.0552869
000360 f9 95 25 3d 14 e9 09 3c 18 2f e8 bd 0a 5d f8 bb
       0.04042623 0.008417387 -0.113371074 -0.0075794505
000370 43 51 d3 bc aa 62 e7 3d 08 61 cb 3c b0 7f 4b 3d
       -0.025795585 0.112981156 0.024826542 0.04968232
000380 99 51 b2 bc c9 54 0f be bd d2 6f 3d 89 1e b0 bc
       -0.021767424 -0.13997187 0.058550585 -0.021498935
000390 ec bb 00 be b8 a2 1f be af 8f 82 bd 7e 85 60 bc
       -0.12571687 -0.15589416 -0.06375062 -0.013703702
0003a0 11 76 8f bb 25 9f ee bd 1f 83 b3 bd 31 fe a9 bc
       -0.0043780883 -0.11651448 -0.08765244 -0.02075109
0003b0 72 13 58 3c fe 79 77 bd cc 71 15 3d f2 f2 a7 3c
       0.01318823 -0.060419075 0.03648548 0.020501588
0003c0 6a e3 8c bb f5 e5 30 be 2e 86 53 bc 0e 31 aa bc
       -0.004299571 -0.17275222 -0.012910409 -0.020775344
0003d0 69 bd 19 bd e4 db 81 bc 1b cc 89 bc f8 23 81 3d
       -0.03753415 -0.015851922 -0.016820958 0.063056886
0003e0 2e 8d 5e bb f1 8c 2f be ac 05 7f bd 4c 79 13 bc
       -0.0033958661 -0.17143609 -0.06226127 -0.009001087
0003f0 5a 15 30 bd 53 51 d7 bd 9b bc d3 bc 4f 5f 32 be
       -0.042989112 -0.10513558 -0.02584677 -0.1741917

model.model.model.2.bias f4 [64]
000000 a7 4b 98 3e 73 39 a5 3d 94 5d 2f 3e 8c 35 c1 3c
       0.29745218 0.08067598 0.17125541 0.023585103
000010 47 dc 93 3e 48 3f bd be a9 48 40 3f 6e 5d 05 bd
       0.28878996 -0.36962342 0.7511087 -0.032559805
000020 2d 28 ca 3a 0d 00 36 3e da ea ff 3c c7 71 6c 3f
       0.001542335 0.17773457 0.031239916 0.9236111
000030 28 0a 93 3d 06 f5 17 3d 1c b7 3a be f2 d0 85 3e
       0.071796715 0.037098907 -0.18233913 0.26135975
000040 8f a8 d3 bd 27 97 b2 3e a0 e1 c6 3e 8c 72 d7 3d
       -0.103348844 0.34880945 0.38844013 0.10519895
000050 09 c9 0f 3e 4b 8b 19 3d 9e 7c 0d 3e 46 4e 85 bd
       0.14041533 0.037486356 0.13817069 -0.0650907
000060 ab 0b c4 3c 60 25 70 bd 5f d0 21 3e a3 65 5d 3c
       0.023931345 -0.058629394 0.15802144 0.013513002
000070 ad 62 6e 3e 5a b1 03 3f 98 34 98 3e 76 61 1e bb
       0.2327983 0.5144249 0.29727626 -0.0024166978
000080 63 e2 cd 3e d8 e1 9a 3e 8c 9f 2a be 3c cd bb 3d
       0.40211782 0.3025043 -0.16662425 0.09170005
000090 d2 8b 9d bd 24 4a 68 3e 9e da e2 3e 5f c2 88 3e
       -0.07692684 0.22684532 0.44307417 0.26710793
0000a0 25 cc 21 3f 78 9f 0c 3f bd 75 12 3f 65 4c 22 3f
       0.63202125 0.5493083 0.57210904 0.6339782
0000b0 0b 09 eb bd 6c 71 9b 3a 22 00 6d 3b e0 c8 b1 3d
       -0.11476334 0.0011859364 0.003616341 0.08680892
0000c0 42 97 d2 bd 9b 01 80 3e b7 d3 16 3e eb df a3 bd
       -0.102827564 0.25001225 0.147292 -0.08001693
0000d0 cf 05 88 3e ad c4 d0 3c 61 50 b2 3e 10 9d 81 3e
       0.26566932 0.025484407 0.3482695 0.25315142
0000e0 7c 2c e3 3d c9 af 00 bd 39 aa e1 3e e6 d5 cf bd
       0.11092469 -0.03141764 0.44075182 -0.1014822
0000f0 3d 37 20 bf 91 7b c2 3d 5d cb 40 3e 53 a2 ab 3e
       -0.62584287 0.09496225 0.18827577 0.3352228

model.model.model.4.weight f4 [4, 64]
000000 28 50 86 bf ff 10 b0 bf a5 fd 91 bf 07 fb 8a 3d
       -1.0493212 -1.3755187 -1.1405531 0.06786161
000010 d0 20 6a 3f 39 ea 18 c0 8d 9c 0b 3f 9f 42 75 bf
       0.9145632 -2.3892958 0.5453575 -0.9580478
000020 52 17 a4 3e 81 3b 5c be c7 1b 52 bf ed a9 e0 3f
       0.32049042 -0.21507074 -0.82073635 1.7551857
000030 41 d6 ab bf 2f 9f 76 ba fc c8 c3 bb d0 b3 3e bf
       -1.342476 -0.00094078755 -0.005974887 -0.7449312
000040 48 a4 8f bf 1a a4 6a be 0f 4b f0 be af 3e cc bf
       -1.122201 -0.22914162 -0.46932265 -1.595663
000050 19 32 1f c0 3b 36 df bf de 1e 21 bf 3a d3 50 3d
       -2.4874327 -1.7438425 -0.62937725 0.05098269
000060 93 3e 64 bc 8b bc a5 bd e4 a4 00 c0 f2 15 1d c0
       -0.0139309345 -0.08092602 -2.0100641 -2.4544644
000070 d2 f0 00 c0 8f 0f 04 40 f7 86 75 bf bd dd 66 bf
       -2.0146985 2.0634496 -0.95909065 -0.90182096
000080 d0 00 14 c0 b5 04 96 bf f2 1a 30 bd ff 6d b1 bf
       -2.3125496 -1.1720186 -0.042994447 -1.3861693
000090 75 36 49 3e 38 f0 45 c0 17 18 ec bf cc 2f cd bf
       0.1964968 -3.0927868 -1.8444852 -1.6030211
0000a0 14 01 1f c0 69 38 e4 be b4 85 06 40 31 35 40 40
       -2.4844408 -0.44574288 2.1019106 3.0032465
0000b0 1a d1 be be be e4 1a 3d 76 47 d9 bf 78 f4 95 bf
       -0.37268907 0.0378158 -1.6974933 -1.1715231
0000c0 4b 4d 3d bf e3 f3 ea bf 26 5d 1b 40 68 fd 98 3c
       -0.73946065 -1.8355678 2.4275603 0.018675521
0000d0 b4 59 0a c0 eb 7c c3 be 51 02 82 be 00 82 12 c0
       -2.161725 -0.38181242 -0.25392392 -2.2891846
0000e0 f5 86 e6 bf 7d 1b a8 bd bc 74 7a 3f b2 73 95 bd
       -1.8009936 -0.08208368 0.9783437 -0.07297458
0000f0 4a 76 b3 3f 36 52 13 3c eb 6b 04 bf ca 62 a0 bf
       1.4020474 0.008991769 -0.5172717 -1.2530148
000100 65 f2 3b 3f fb 2f 9c 3f 86 c6 40 bf fa 0e a6 3c
       0.7341674 1.2202142 -0.7530292 0.020270813
000110 69 2c 6a bf 83 c5 0e 40 cb 15 d4 3f 74 56 7e bf
       -0.91474015 2.2308052 1.6569151 -0.99350667
000120 5b bb 8a bd 64 0a 08 c0 4f 35 28 bf f2 f9 25 3f
       -0.067740165 -2.1256342 -0.6570634 0.6483451
000130 de 2e b2 bf 76 77 45 3d 81 94 7e bd 58 50 ca bf
       -1.3920553 0.04820963 -0.062153343 -1.5805769
000140 53 77 86 bf 98 b2 48 bf b1 5c 5e bf 13 a7 dd 3e
       -1.0505165 -0.7839751 -0.86860186 0.4329153
000150 59 df b0 bf 11 fd a9 bf 18 e8 8b bf d6 60 ba 3d
       -1.381816 -1.3280355 -1.0930204 0.09100501
000160 9a 4d b4 3c a7 49 01 bf ee 3d b6 be 73 15 b2 bf
       0.02200966 -0.5050301 -0.35594124 -1.3912796
000170 74 bd 4d bf 29 39 00 40 0f cb 5f bf 80 94 20 bf
       -0.8036721 2.0034888 -0.8741922 -0.62726593
000180 47 96 1b be 20 23 57 bf 7e 1c 40 bf d9 b0 82 be
       -0.15194045 -0.8403797 -0.75043476 -0.2552555
000190 ad a1 f6 bd 8e 15 89 bf 48 6b 00 bf 8d fa 90 3e
       -0.12042556 -1.0709703 -0.501637 0.28316155
0001a0 e4 71 ab bf 87 be 01 40 e5 9a 05 3f 5a 9b cd 3f
       -1.3394132 2.0272539 0.52189475 1.6063035
0001b0 61 19 91 bf f8 81 89 3d f6 32 b5 bf ea d7 f0 bf
       -1.133587 0.06714243 -1.4156177 -1.8815892
0001c0 5e 54 ba be 25 db bf be ff ea bf 3e 57 92 a1 3d
       -0.36392492 -0.37471882 0.37483975 0.0788924
0001d0 dd d4 9e be 6a f2 7c 3d 1f ad 98 bd cd ba 41 bf
       -0.31021777 0.06175462 -0.07454895 -0.7567566
0001e0 5e 89 08 c0 a7 1d a1 3d d4 b6 0b be 52 01 bd 3c
       -2.1333842 0.07866984 -0.13643962 0.023071919
0001f0 fa 4e c8 3f e0 40 cd 3d c9 39 3d bf bb be 85 bf
       1.5649102 0.100221395 -0.739163 -1.0448831
000200 8f 84 cc 3f 7f 6d 67 3f f3 48 a5 bf 60 66 b2 bd
       1.5977954 0.9040145 -1.2912887 -0.08710933
000210 bd 99 bf bf f8 0f b8 3f 2e 1a 46 3f 19 40 80 bf
       -1.4968792 1.4379873 0.773837 -1.0019561
000220 26 86 f5 be ae ae 35 3f 9e a3 2e bf 5b 7a 77 3f
       -0.4795391 0.70969665 -0.6821841 0.96671075
000230 1b 35 96 be 44 c1 d8 bd 10 f5 50 bd 76 05 bf be
       -0.2933739 -0.105837375 -0.05101496 -0.37308854
000240 57 ef cb be a2 74 e0 bf 8b c4 a3 bf d7 3d 29 3e
       -0.3983104 -1.7535594 -1.2794355 0.16527496
000250 43 9c 98 3e a6 4f ea be 2c aa 4e bf bf 98 8b bd
       0.29806718 -0.45763892 -0.8072841 -0.068162434
000260 02 7a 1c 3d 2a fe 2f bf 5a bc 23 c0 25 11 6a bf
       0.038202293 -0.687472 -2.558371 -0.9143241
000270 5a 0f a8 bf 5c 14 e8 3f 7a f8 15 bf 43 9b f4 be
       -1.3129685 1.8131213 -0.5858227 -0.47774705
000280 cb 07 c3 bf 34 dd 9d bf 9d c6 3c bf 61 eb 3e bf
       -1.5236753 -1.2333131 -0.7374056 -0.7457791
000290 a9 b4 2a bf ee b1 a7 bf a4 fb e5 bf 9a db 94 bf
       -0.66681916 -1.3101175 -1.796742 -1.1629517
0002a0 3c 05 c6 bf 0e 9f af 3f fd 7e db 3f f6 4b 8b 3f
       -1.5470347 1.3720415 1.7148129 1.0882556
0002b0 f9 fe bc bf 18 c6 66 bd 75 85 26 bf 3a fd b7 bf
       -1.4765311 -0.05634126 -0.6504739 -1.4374154
0002c0 ba ad 42 bf a2 4e 9e bf fc 83 0c 40 f6 c6 a1 bd
       -0.76046336 -1.2367747 2.1955557 -0.07899277
0002d0 c2 22 cf bf 15 0d 05 bf 69 56 8c 3f 3d d5 10 be
       -1.6182482 -0.51973087 1.096387 -0.14143844
0002e0 ce e1 ce bf 36 22 99 3b ec 40 5f 3f ac af fd 3d
       -1.616266 0.0046732677 0.8720844 0.123870224
0002f0 b4 d0 d0 3f c0 00 51 3b 50 2c b5 bf 34 05 8d 3e
       1.6313691 0.0031891316 -1.4154148 0.27543032
000300 df c8 07 3f 10 f0 09 3e 60 bf c3 bf 4b 2c 70 bb
       0.5304088 0.13470483 -1.5292778 -0.0036647494
000310 fb 9e 91 bf bf ac d3 3f a8 b7 0d 3f cb 6a 67 be
       -1.1376642 1.6537093 0.5535836 -0.22599332
000320 b0 79 63 bf b3 23 e6 bf 93 cf ca be 00 ec c8 3f
       -0.88857555 -1.7979645 -0.39611492 1.5697021
000330 e7 91 90 be 32 0e ae 3b 19 7e 30 3a 3b f5 68 bf
       -0.28236315 0.005311751 0.0006732657 -0.9099919
000340 9f 85 0e bf be 67 d0 be 01 69 62 bf dd a0 a2 3f
       -0.5567264 -0.4070415 -0.88441473 1.2705342
000350 d0 16 57 bf 17 1f 58 bf 4f d4 0b bf 80 4b de bb
       -0.84019184 -0.8442244 -0.5462083 -0.0067839026
000360 c2 69 4d 3c 85 0b d9 bf 5a 12 c4 bf d7 dd 04 c0
       0.012537422 -1.695664 -1.53181 -2.07604
000370 69 b8 a0 bf d5 5d 1b 40 20 de 05 bf a0 f9 bd be
       -1.2556278 2.427602 -0.5229206 -0.3710451
000380 8e 49 33 bf ec 82 10 bf ce 2d d1 bf d6 c8 12 bf
       -0.7003411 -0.5644977 -1.6342103 -0.573377
000390 78 f3 94 bf 25 42 d6 bf 82 27 a1 bf 13 8a 67 bf
       -1.1636801 -1.6738936 -1.2590182 -0.9044506
0003a0 d1 32 a5 bf d7 7c b1 3f 00 ec 9b 3f 09 3d ae 3f
       -1.2906133 1.3866223 1.2181396 1.3612376
0003b0 9c 3a 4a bf 68 fa 60 3d 43 9c 0a bf ef 1e 9d be
       -0.7899568 0.054926306 -0.54144686 -0.30687663
0003c0 3f e6 7f bf b3 25 b7 bf 59 8b 90 3f cc c5 a6 3d
       -0.999607 -1.430838 1.1292526 0.081431955
0003d0 36 7d 27 c0 72 a1 c6 bf 9f 29 bb 3d 3e d0 c9 bf
       -2.6170173 -1.5518019 0.09138798 -1.5766675
0003e0 16 13 28 c0 00 fe 2e bd e9 ec 0b 3e e8 68 6e bd
       -2.626165 -0.042722702 0.13664593 -0.058205515
0003f0 7a 15 9c 3e 98 65 a0 bd ee 26 e4 be c2 f3 f0 bd
       0.30485135 -0.078318775 -0.4456095 -0.11765243

model.model.model.4.bias f4 [4]
000000 bc f2 75 3e 7c 30 48 bd 3b b1 f7 3e 4f b8 25 bd
       0.24018377 -0.048874363 0.48377404 -0.040458973

model_old.model.model.0.weight f4 [64, 8]
000000 e1 c7 68 be 02 c6 88 3f bf f0 3f 3f 8d e9 a3 bf
       -0.22732498 1.0685427 0.74976724 -1.2805649
000010 25 1b 8c 3e 6c cc 85 bf 69 50 0d 3f 77 ae 2b bf
       0.2736446 -1.045301 0.5520082 -0.6706309
000020 17 f7 17 3e 54 4b 90 bf 41 0b 45 bf af 69 8a 40
       0.14840351 -1.1272988 -0.769703 4.325401
000030 b7 65 d5 3f f2 37 86 bf cc 1a 03 bf 3d d1 e6 bd
       1.6671666 -1.0485823 -0.51212764 -0.11270378
000040 da 55 bc 3f 92 89 e9 3e 8a a0 6f 3e 59 ae e9 3e
       1.47137 0.4561277 0.23401085 0.4564083
000050 06 54 11 c0 2e b2 e4 3f 4a 8e 49 bf a3 74 52 3e
       -2.2707534 1.7866876 -0.7873274 0.20552306
000060 cb bf 0f 40 10 7d 1d 3f 37 8b b1 be 50 09 86 bf
       2.246081 0.61518955 -0.34676525 -1.0471592
000070 d7 69 b1 3f 01 4e 36 bf 67 65 b0 be 2d 0b 87 bf
       1.3860425 -0.71212775 -0.34452364 -1.0550286
000080 07 3f 4f bf 80 c0 42 c0 32 bd a6 be 69 24 28 bf
       -0.8095555 -3.0429993 -0.3256622 -0.6568056
000090 4f ba 5e 3f 0c 34 b5 3f 76 15 96 3e 89 98 53 3f
       0.87003034 1.4156508 0.29313248 0.82654625
0000a0 74 e8 24 c0 6a 34 f0 bf b1 47 31 bf 3d 4b ef bf
       -2.5766878 -1.8765996 -0.6925002 -1.8694836
0000b0 1d 41 2d bf 55 57 88 be 33 4d aa bd 57 aa a9 bd
       -0.6767748 -0.2662913 -0.08315506 -0.08284443
0000c0 f8 a8 5a bf fc f8 3b 3f 11 eb 54 3e cc 0f 6e bf
       -0.85414076 0.73426795 0.20792796 -0.92992854
0000d0 e4 fa e5 3f 65 4d 4b 3f 1c df b6 bf d4 57 4e bf
       1.7967191 0.7941497 -1.4286838 -0.80602765
0000e0 8e 4e 05 3f 21 77 7a 3f 16 06 39 3f 5c 8c 51 bf
       0.5207299 0.97838026 0.7227491 -0.81854796
0000f0 9f 3a 43 3f 6e 10 28 bf 32 2d d7 bf d3 be 2b bf
       0.76261324 -0.6565007 -1.6810668 -0.6708805
000100 fc c8 86 3f cc df 3d 3f e7 09 26 3f 18 9c 94 3f
       1.0530086 0.7416961 0.6485886 1.1610136
000110 d7 53 c1 bf a9 02 36 bd 00 3a 85 be 63 58 76 bf
       -1.5103711 -0.04443613 -0.26020813 -0.9622862
000120 06 fd c2 3f 0b 71 88 be 57 a0 58 c0 11 5a b7 bd
       1.5233467 -0.26648745 -3.3847864 -0.08952726
000130 03 d0 8b bf 33 98 41 3f 19 66 3d 3f e6 ab c6 be
       -1.0922855 0.7562286 0.73983914 -0.38803023
000140 e8 ae 14 3f ff 3b cc bf a7 7a a4 3f df 56 b8 3f
       0.58079386 -1.5955809 1.284993 1.4401511
000150 c6 99 c5 bf 54 31 c8 bf 5c ad 5c 3f 38 f7 04 3f
       -1.5437553 -1.5640054 0.86202025 0.51939726
000160 b2 79 25 bf 01 2b e8 3e 8f 82 53 bf 09 c2 40 bd
       -0.6463882 0.4534531 -0.8262109 -0.047060046
000170 cf be 23 3f 40 9c 2c bf 65 bb 6c 3e 79 90 89 bf
       0.63963026 -0.6742592 0.2311836 -1.0747215
000180 b1 a8 78 3f e2 cf d0 3e 9d c3 81 3f 10 fd 02 c0
       0.971324 0.40783602 1.0137821 -2.0466957
000190 c9 89 90 be aa 2b 1f be 38 fb 0a 3e d6 d8 51 bf
       -0.28230122 -0.15544 0.13572395 -0.8197149
0001a0 0a 16 bb be d0 65 9e bf 77 5a 36 3f db c3 84 bf
       -0.36540252 -1.2374821 0.7123179 -1.037227
0001b0 82 ec 51 bf 45 0b 45 3e eb 68 1c 3f 79 46 77 bf
       -0.8200151 0.1924258 0.6109759 -0.9659191
0001c0 b8 ad 17 bd 13 88 d1 3e ee d4 99 bf 4e 90 47 3e
       -0.037030905 0.4092413 -1.2018106 0.19488642
0001d0 8b b9 31 3d 8b 39 29 40 3d 97 d7 3b 51 00 3f bf
       0.04338984 2.6441371 0.0065793083 -0.7460986
0001e0 26 15 b5 3f c3 1d 2d c0 f8 7f dc bf ba 00 8d 3e
       1.4147079 -2.7049415 -1.7226553 0.27539617
0001f0 d6 62 f2 3f 65 2a 24 bf 12 55 6f bf ec f0 89 3f
       1.8936412 -0.6412719 -0.9348918 1.0776649
000200 2b 92 bf bf b7 0f 93 be aa ed 05 bf 5e 46 a9 bf
       -1.4966482 -0.28722927 -0.5231577 -1.3224599
000210 32 12 9f be 3a eb db be a9 9b 4a bf a3 2d e4 3f
       -0.3106857 -0.429529 -0.7914377 1.7826427
000220 3a 3d 26 bf dd ed f2 3e 02 5c 1a 3f d9 6e 8d 3e
       -0.64937174 0.474471 0.6029664 0.27623633
000230 0a fa 92 bf f6 1d 12 bf 61 fe a0 bf c3 db 18 bf
       -1.1482556 -0.57076967 -1.257763 -0.5971033
000240 4e 23 04 40 35 28 8b be 75 90 7f 3f 0a 49 9c bf
       2.0646548 -0.27179113 0.998298 -1.220979
000250 31 ae 5b bd 11 80 19 bd eb 9b 78 3e 88 d0 08 3e
       -0.05363292 -0.03747565 0.24278228 0.13360798
000260 03 9b 8f bd 9f dd 2d 3f 54 77 2c 40 78 9a 09 c0
       -0.07011988 0.6791629 2.6947832 -2.150053
000270 8a 1d af bd cb 03 40 3e 85 5f bd bd b3 74 db be
       -0.08550556 0.18751447 -0.092467345 -0.42862472
000280 9a 8f d5 3f 8d 28 90 bd 75 c8 63 3e b6 0b a7 bf
       1.6684449 -0.070389844 0.22244437 -1.3050449
000290 0f ba 47 bf 0b 4c 7f 3f 2a d4 bf 3d dd 77 98 bd
       -0.7801828 0.9972541 0.09366639 -0.07444737
0002a0 39 8c 27 be ac 32 6e bf 85 7b 04 40 98 28 19 c0
       -0.16362084 -0.9304607 2.070039 -2.3931026
0002b0 eb 9a 16 be 52 5f 6c 3f bc 51 45 3f 99 a4 a7 be
       -0.14707534 0.9233295 0.7707784 -0.32742766
0002c0 06 af e5 3e d4 c6 ed bd 89 30 38 3c ea da 5e bd
       0.44860095 -0.11610189 0.01124204 -0.05440799
0002d0 57 56 32 c0 24 0e 58 3d e6 b0 9a bf 15 f4 d4 3e
       -2.7865198 0.05274786 -1.2085235 0.4159247
0002e0 3d 8e 7b bf 2f 01 ad 3f 89 f3 b6 bf 1b 59 ab bf
       -0.98263913 1.3515986 -1.4293071 -1.3386568
0002f0 37 54 45 bf 52 96 ae bf f8 ca 19 be 7b ce 5a 3e
       -0.77081627 -1.3639624 -0.15018833 0.21367829
000300 31 d3 55 3d b3 01 8b 3f 83 6f b8 3f fa 74 e4 bf
       0.05220336 1.0859894 1.4409031 -1.7848198
000310 d3 ce b6 be 96 2c 06 3f fc 3c 34 bf cc fc b9 bb
       -0.3570467 0.5241178 -0.70405555 -0.0056758877
000320 85 8d f1 3f 83 8a e8 bf 68 40 a4 be 9b 97 d4 bf
       1.8871313 -1.816727 -0.32080388 -1.6608766
000330 4e 5e 80 bf 7b e1 49 be 03 e2 a6 3d 1d 38 f1 3c
       -1.002878 -0.1971492 0.08148577 0.029445702
000340 78 df 72 be 84 40 39 be 62 ba 8a be ce ad e7 be
       -0.23718059 -0.18091017 -0.27095324 -0.4524979
000350 e8 e8 45 c0 bb 3f d9 be 3d 2b ea be a1 7b 4c bf
       -3.0923405 -0.42431435 -0.45736113 -0.7987614
000360 a0 1f 11 3f cf 19 0e 3f 8c 79 3a bf 1d 44 ac bf
       0.5668888 0.5550813 -0.72841716 -1.3458287
000370 52 32 9a 3f 9a 1c 04 bd df 13 19 3e e1 01 20 3f
       1.2046607 -0.03225384 0.14948986 0.62502867
000380 27 7c 82 3e e7 43 15 c0 be de e4 3f 89 f4 17 c0
       0.25485346 -2.3322694 1.7880476 -2.3743002
000390 02 bb 7b be 1d 1d 19 be 14 8b 46 be 40 6d c3 3e
       -0.24583057 -0.14952512 -0.19388992 0.3816929
0003a0 7d 21 a8 bf f0 5f f1 3e e7 ac 19 be 42 95 d6 3f
       -1.313522 0.47143507 -0.15007363 1.67643
0003b0 62 fe dd bf 84 9f 3b 3e 88 07 77 bf 69 7e 82 bd
       -1.7343256 0.18322569 -0.96495867 -0.06371767
0003c0 b9 e0 1c 3e cd df 2e bf 1d 17 97 3e 2b ad cc bf
       0.153201 -0.6831024 0.29509822 -1.5990347
0003d0 97 fa 4a be 75 84 3e bf 83 2c be 3c 2d 71 23 3f
       -0.19822155 -0.74420863 0.023214584 0.6384457
0003e0 25 39 11 3f 51 20 23 be ea 99 e9 3f c3 fe 98 bf
       0.5672782 -0.15930296 1.8250096 -1.1952747
0003f0 f7 2d 7c 3f 53 26 39 3f 06 ab 82 bf ab ad ae bf
       0.98507637 0.72324103 -1.0208442 -1.3646749

model_old.model.model.0.bias f4 [64]
000000 b3 3f 15 3f 60 1d c9 3e 7b f9 12 3f 1d 5b 8a 3f
       0.5830032 0.39280224 0.57411927 1.0809056
000010 f5 f0 3f 3f 47 26 4d be 19 99 50 3e 34 04 43 3f
       0.74977046 -0.20034133 0.20370902 0.7617829
000020 b7 61 52 3e c4 b9 85 3e dc e1 81 3e 92 b6 31 bf
       0.20545088 0.2611829 0.2536763 -0.69419205
000030 1a 67 ae 3e 38 0e 3c 3f 6a 60 3b 3f 51 5b 16 3e
       0.34063035 0.73459196 0.7319399 0.14683272
000040 35 d9 7a 3f 20 4b 9a 3e 35 22 b7 be 43 63 08 3f
       0.9798768 0.3013544 -0.35768285 0.5327646
000050 f8 17 e0 3e 8d 1a 26 b9 09 62 e4 3d 95 94 a4 bf
       0.43768287 -0.00015840885 0.11151511 -1.2857844
000060 34 62 0c 3f a7 5d 94 be 8d f2 77 3e 6e 4d 2b bd
       0.54837346 -0.289777 0.2421362 -0.04182189
000070 60 f3 5c be 0c 5d ed be cc 4d 0f 3f 6a 62 ec 3e
       -0.21577215 -0.46360052 0.55978084 0.46168834
000080 75 97 e8 bd 11 b4 a9 3e 32 29 f2 3d 47 8c 36 3e
       -0.11357013 0.33145192 0.11824264 0.17826949
000090 8d 4d bf bd f2 4c af 3e 55 a3 03 3f 77 12 0c 3d
       -0.093409635 0.34238392 0.514211 0.034197297
0000a0 cf 08 5d 3f e0 f7 5c 3f 53 3a 32 3f 7c 01 0e bd
       0.86341566 0.8631573 0.69620246 -0.034669384
0000b0 f5 b0 6e 3f 5d 48 32 3f 54 18 34 3e a8 bf 98 bd
       0.93238765 0.6964167 0.17587405 -0.074584305
0000c0 ce bc 12 3f 55 fe 69 3f 79 47 8f 3e 26 43 39 3f
       0.57319343 0.91403705 0.27984217 0.72368085
0000d0 24 a0 93 3d 7c 36 00 3f 24 60 d5 3e 1b 5f f4 bd
       0.07208279 0.50083137 0.41674912 -0.119322024
0000e0 fe 7a ad 3e 7c 62 f9 3e cf 68 70 bb ef 50 0e 3e
       0.33882898 0.4870795 -0.0036683565 0.13898061
0000f0 e7 dc 3a 3e a2 ce 6f 3f 02 14 09 3f de d3 ce 3e
       0.1824833 0.9367467 0.53546154 0.40396017

model_old.model.model.2.weight f4 [64, 64]
000000 d4 90 c5 bd b3 54 62 bf 28 75 d5 be 43 f1 12 bf
       -0.096467644 -0.8841049 -0.41690946 -0.57399386
000010 b4 24 41 c0 32 0e b0 be 45 cd 68 3e f0 d0 c2 be
       -3.0178652 -0.3438583 0.22734554 -0.38050032
000020 f3 f6 0e 3e aa 07 04 3f 9a c3 cb 3f 89 0b 2c 3f
       0.13961391 0.51574194 1.5919068 0.672051
000030 db c4 13 3e 16 0b 5c 3f f2 92 b9 3e 38 71 d6 3d
       0.14430563 0.85954416 0.36244923 0.104708135
000040 c8 95 60 3f 6b 51 6e bf b8 82 8d 3f f2 71 98 3e
       0.8772855 -0.93092984 1.1055517 0.29774433
000050 43 0c df 3e 77 09 a3 3e 1f 12 c4 3f 97 dc 65 be
       0.43564042 0.3184316 1.531803 -0.2244743
000060 5e 3a 31 bf 12 da 12 40 71 63 87 3f 8c 5c 79 be
       -0.69229686 2.29456 1.0577222 -0.2435171
000070 fd ed 4e 3f fb 99 e3 bd e5 8b 7e 3f ba b3 b8 3e
       0.8083189 -0.11113354 0.9943221 0.3607462
000080 a4 c4 6e 3f de 2a 27 3f 7a 1a 9e be 05 97 02 3f
       0.932688 0.65299785 -0.30879575 0.5101169
000090 79 80 61 bc 92 ca 91 be a4 33 cd be 13 27 fc 3e
       -0.01376354 -0.2847486 -0.4007846 0.4924856
0000a0 fc 51 32 3b 99 a1 c6 be 2c 61 04 c0 79 b3 f4 bf
       0.002720951 -0.38795164 -2.068431 -1.9117271
0000b0 11 ae 64 3f d7 f6 7e be d8 c6 91 3f 9d af 04 bf
       0.89328104 -0.2489885 1.1388807 -0.51830465
0000c0 cb 07 41 bf 7b d4 3f 3c 77 ec 1f 3f 00 d0 55 3f
       -0.75402516 0.011708374 0.6247019 0.8352051
0000d0 20 e1 b9 3c ea 87 a3 3e c2 72 81 3f f0 c8 41 3f
       0.022690356 0.31939632 1.0113146 0.7569723
0000e0 7a 1c ad bf ed e4 29 3e a8 60 6d 3f fa 61 e1 bf
       -1.3524315 0.16591235 0.9272561 -1.7608025
0000f0 c0 20 07 3f f6 bc c4 bc 96 4f a4 bf d7 a1 09 be
       0.5278435 -0.024015885 -1.2836788 -0.13440643
000100 46 2a 53 3f f7 d4 cd 3f 95 af c6 be 7a df 36 3f
       0.8248638 1.6080617 -0.38805833 0.7143475
000110 b5 5b 09 40 14 8e 3b bf 93 50 86 3f 30 e0 51 3e
       2.1462224 -0.7326367 1.0493339 0.20495677
000120 5e 67 b1 be 52 00 2e bf 19 de 73 bf b6 e5 f0 be
       -0.34649175 -0.6796924 -0.9526077 -0.47050256
000130 9a b1 d2 bd 5e 59 be bf 1b d7 9d be d4 e1 c0 be
       -0.10287781 -1.4871023 -0.30828175 -0.37672293
000140 55 e7 23 bf 54 17 20 bf 76 00 9b be 3f b1 86 be
       -0.6402486 -0.62535596 -0.3027379 -0.26307103
000150 e8 80 46 be 7a 02 a7 be fb 55 55 3e ff 2e 0a 3f
       -0.19385111 -0.32619077 0.2083358 0.5397796
000160 05 1b 15 3e 5b 22 d1 bf 4d cd 9d 3f 69 6b fb 3e
       0.14561088 -1.633861 1.2328278 0.49105385
000170 be 19 08 bf c8 c0 73 be 65 4c 9f 3f 4c 11 d9 3e
       -0.5316428 -0.23804009 1.2445189 0.4239601
000180 6f f6 e2 bf d9 4f 13 bf 96 32 6f 3e c9 42 ea 3e
       -1.7731456 -0.5754371 0.23359141 0.45754078
000190 aa c3 21 be b3 b9 78 3f b2 3a 16 3e f2 60 bc 3f
       -0.15797296 0.97158355 0.14670828 1.4717085
0001a0 d1 e0 06 3f da d4 08 be 0f 61 84 3f 67 ef 99 3f
       0.5268679 -0.13362446 1.034212 1.2026185
0001b0 7b 5c 56 bf 4e 7e 40 3d 01 71 d2 bd 78 f8 e7 bf
       -0.83734864 0.046995454 -0.1027546 -1.8122702
0001c0 32 58 55 be f4 89 1c 3f 75 a2 ba be ef 30 36 be
       -0.20834425 0.61148 -0.3645207 -0.17792104
0001d0 2a 7f c3 bf 3b e4 3d bd 93 31 86 bf 28 35 61 be
       -1.5273182 -0.046360236 -1.0483879 -0.21992934
0001e0 d7 29 81 3f ac 7a 9b 3e d4 55 97 bf 2b 1d f8 bf
       1.0090894 0.3036703 -1.1823068 -1.9383901
0001f0 e9 3c a9 be 39 bd b9 bc b9 0b 33 3f 90 5f 23 3e
       -0.33054283 -0.022673236 0.6993976 0.15954423
000200 4b e3 ac be 7e 46 ae bf 60 3b 3e 3d 96 bf cc 3e
       -0.3376716 -1.3615263 0.046443343 0.39989918
000210 dd 33 60 bf d2 da f7 bd 20 4b 12 be 37 1d 82 bc
       -0.8757914 -0.121022835 -0.1428647 -0.015883071
000220 94 a0 bf 3f e4 ac 3e 3c dd 71 21 bf 70 95 1f be
       1.497088 0.0116379 -0.63064367 -0.1558435
000230 7e ff 42 3f 77 40 d8 bf b0 18 31 3e a3 c6 51 3f
       0.761711 -1.6894673 0.17294574 0.8194372
000240 5f e7 52 bf f5 05 0b 3f 8d a5 a3 3f ac 1b 13 3e
       -0.82384294 0.54305965 1.2784897 0.14366025
000250 75 30 0c 3f de be 96 3e 90 ff f6 bf 1e a5 00 3f
       0.5476144 0.29442495 -1.9296741 0.5025195
000260 2a 47 65 be 36 1b f5 3f 6e ba 7c bf 87 b0 07 3e
       -0.22390428 1.9148929 -0.9872197 0.13250934
000270 62 34 a5 3f a1 5b 73 bf f4 5b 1f be 32 39 68 3e
       1.2906611 -0.9506169 -0.15562421 0.22678068
000280 32 af db bf ec d6 3a 3e 6e 2f 1f be 07 6c 2a 3f
       -1.716284 0.18246049 -0.15545437 0.66571087
000290 ff 62 f6 3d 6b a3 85 be a9 b3 74 bd e8 54 2a 3e
       0.12030601 -0.2610124 -0.05974165 0.16633952
0002a0 c0 9d ba 3e 9c 90 bb 3b 5b fe 90 bf 48 74 90 bf
       0.3644848 0.005724026 -1.1327623 -1.1285486
0002b0 f2 17 38 be 36 04 1f be e7 85 e9 3e 00 9b ba 3e
       -0.17977884 -0.1552895 0.45609972 0.3644638
0002c0 2a 54 5a be a6 42 35 3e 77 e3 7e 3e 93 b3 68 bd
       -0.21321169 0.17701206 0.24891458 -0.05681188
0002d0 27 45 15 c0 30 7f cc 3d cf 2a 89 3e 54 4b 51 bf
       -2.3323457 0.099851966 0.26790473 -0.81755567
0002e0 25 34 5d 3f d2 4d 27 3e 20 0b 34 3f 0c bb 9f 3f
       0.8640769 0.1633828 0.70329475 1.2478957
0002f0 80 54 f1 3e c3 3a cd 3d cd 1f 2b 3f 5b b1 71 3f
       0.4713478 0.100209735 0.668454 0.9441125
000300 7c cf 1a bd 56 4f 9c bc 2a 61 4c 3d b9 4e 74 3d
       -0.03779553 -0.0190808 0.04989735 0.05964539
000310 2e 4c a7 3c 47 58 80 bd 6f a1 b3 3d c4 bb 06 bd
       0.020422067 -0.062668376 0.087710254 -0.03289391
000320 6b 62 4d ba 4c 14 af bc da 07 a3 bd 04 9e 35 bc
       -0.0007834795 -0.021371983 -0.07960482 -0.011085037
000330 ec 43 22 be 26 f5 4e bc 92 ea 8a 3c d3 1a 9e bd
       -0.15846223 -0.01263169 0.016957555 -0.0771996
000340 8d 39 22 bd 03 83 e0 bc 11 86 3e bc ee 88 0b be
       -0.039605666 -0.027406221 -0.011628644 -0.13626453
000350 a8 89 b2 bd 51 87 40 bd b9 07 aa bd 84 74 62 bd
       -0.08717662 -0.047004048 -0.08302254 -0.0552869
000360 f9 95 25 3d 14 e9 09 3c 18 2f e8 bd 0a 5d f8 bb
       0.04042623 0.008417387 -0.113371074 -0.0075794505
000370 43 51 d3 bc aa 62 e7 3d 08 61 cb 3c b0 7f 4b 3d
       -0.025795585 0.112981156 0.024826542 0.04968232
000380 99 51 b2 bc c9 54 0f be bd d2 6f 3d 89 1e b0 bc
       -0.021767424 -0.13997187 0.058550585 -0.021498935
000390 ec bb 00 be b8 a2 1f be af 8f 82 bd 7e 85 60 bc
       -0.12571687 -0.15589416 -0.06375062 -0.013703702
0003a0 11 76 8f bb 25 9f ee bd 1f 83 b3 bd 31 fe a9 bc
       -0.0043780883 -0.11651448 -0.08765244 -0.02075109
0003b0 72 13 58 3c fe 79 77 bd cc 71 15 3d f2 f2 a7 3c
       0.01318823 -0.060419075 0.03648548 0.020501588
0003c0 6a e3 8c bb f5 e5 30 be 2e 86 53 bc 0e 31 aa bc
       -0.004299571 -0.17275222 -0.012910409 -0.020775344
0003d0 69 bd 19 bd e4 db 81 bc 1b cc 89 bc f8 23 81 3d
       -0.03753415 -0.015851922 -0.016820958 0.063056886
0003e0 2e 8d 5e bb f1 8c 2f be ac 05 7f bd 4c 79 13 bc
       -0.0033958661 -0.17143609 -0.06226127 -0.009001087
0003f0 5a 15 30 bd 53 51 d7 bd 9b bc d3 bc 4f 5f 32 be
       -0.042989112 -0.10513558 -0.02584677 -0.1741917

model_old.model.model.2.bias f4 [64]
000000 24 69 9a 3e cc bb 9d 3d 61 4b 30 3e 8c 35 c1 3c
       0.3015834 0.07701835 0.17216255 0.023585103
000010 8f c0 94 3e 90 39 bc be 92 07 41 3f 70 0b da bc
       0.2905316 -0.36762667 0.75402176 -0.026616782
000020 22 22 88 ba b2 2c 3d 3e b2 c4 0a 3d a8 f4 6b 3f
       -0.0010386149 0.18474081 0.03387899 0.9217019
000030 1a 42 8d 3d 06 f5 17 3d 1c b7 3a be e3 31 88 3e
       0.068973735 0.037098907 -0.18233913 0.2660056
000040 c8 63 bf bd b0 75 ae 3e 07 5a c2 3e 06 e9 db 3d
       -0.09345204 0.34074163 0.3795931 0.10737805
000050 17 e9 0f 3e 24 80 02 3d c5 af 10 3e 46 4e 85 bd
       0.1405376 0.031860486 0.14129551 -0.0650907
000060 ab 0b c4 3c 8c 09 66 bd bb 62 11 3e df c7 ea 3c
       0.023931345 -0.05616145 0.14197819 0.02865976
000070 67 ee 6b 3e 92 fc 02 3f 16 f3 94 3e 73 17 32 bc
       0.23040162 0.5116664 0.2909171 -0.010869849
000080 83 e2 cb 3e 14 72 9d 3e 8f 8e 2c be 8b 92 cb 3d
       0.39821252 0.30751097 -0.16851257 0.0994006
000090 9c e2 99 bd 5d fc 61 3e 3e 9e e7 3e c4 39 86 3e
       -0.075139254 0.22068925 0.45237917 0.26215947
0000a0 85 f2 23 3f b5 c7 0d 3f 09 99 14 3f 67 f9 23 3f
       0.6404193 0.55382854 0.58046013 0.6405243
0000b0 6f be e6 bd 6c 71 9b 3a 5a 92 1b bc 81 4f b8 3d
       -0.11266791 0.0011859364 -0.009495342 0.08999539
0000c0 d6 6e e7 bd bd a9 8a 3e 2c f5 11 3e eb df a3 bd
       -0.11300437 0.27082625 0.14253682 -0.08001693
0000d0 d2 82 8a 3e 1a b3 c0 3c 9d 0c b3 3e 58 6b 80 3e
       0.27052933 0.023522902 0.3497056 0.25081897
0000e0 24 d0 f1 3d c9 af 00 bd 0b 8e df 3e e6 d5 cf bd
       0.11807278 -0.03141764 0.43663058 -0.1014822
0000f0 b6 b2 24 bf 91 7b c2 3d 0c 32 37 3e 09 67 a8 3e
       -0.6433519 0.09496225 0.17890185 0.3289111

model_old.model.model.4.weight f4 [4, 64]
000000 d3 e0 86 bf 9d 97 b0 bf a6 2b 91 bf 07 fb 8a 3d
       -1.0537361 -1.3796269 -1.1341445 0.06786161
000010 1c 65 65 3f cf c5 15 c0 12 5d 0a 3f 0b 7c 72 bf
       0.89607406 -2.3401983 0.54048264 -0.94720525
000020 5b 89 a0 3e 85 e8 6d be 5e 76 53 bf a9 cd df 3f
       0.31354794 -0.2323323 -0.8260249 1.7484637
000030 ac a2 ac bf 2f 9f 76 ba fc c8 c3 bb 60 7c 42 bf
       -1.3487144 -0.00094078755 -0.005974887 -0.7597103
000040 09 a8 90 bf 4d 79 69 be dd 23 eb be f7 8e cc bf
       -1.130128 -0.22800179 -0.459258 -1.598113
000050 14 5e 1e c0 4a 59 dc bf 61 87 20 bf 3a d3 50 3d
       -2.474492 -1.7214749 -0.6270657 0.05098269
000060 93 3e 64 bc 0c 39 d4 bd e4 a4 00 c0 70 e5 1c c0
       -0.0139309345 -0.10362443 -2.0100641 -2.4515038
000070 ea 79 fd bf de a6 03 40 a5 57 72 bf e6 54 6f bf
       -1.980283 2.0570598 -0.94664985 -0.9348892
000080 dd 86 14 c0 bc d8 94 bf 80 2a 13 bd 7c e9 ae bf
       -2.3207314 -1.1628642 -0.035929203 -1.3665004
000090 4a 59 49 3e 7c 91 44 c0 0e 73 eb bf f9 c2 cc bf
       0.19662967 -3.0713797 -1.8394487 -1.5997001
0000a0 e0 5d 20 c0 3b 75 e1 be 8b f2 05 40 06 a0 3f 40
       -2.5057297 -0.44034752 2.0929286 2.994142
0000b0 94 9e cc be be e4 1a 3d 76 47 d9 bf 97 a5 94 bf
       -0.39964736 0.0378158 -1.6974933 -1.1613034
0000c0 60 cf 3a bf 6f 19 e7 bf d6 64 1b 40 68 fd 98 3c
       -0.7297268 -1.8054637 2.4280295 0.018675521
0000d0 41 dd 08 c0 61 dd c1 be 1b 15 83 be eb 22 13 c0
       -2.1385043 -0.3786421 -0.2560204 -2.2990062
0000e0 f5 86 e6 bf 7d 1b a8 bd bf 4c 79 3f b2 73 95 bd
       -1.8009936 -0.08208368 0.9738273 -0.07297458
0000f0 f1 ad a6 3f 36 52 13 3c bb 7e 03 bf 94 b4 a1 bf
       1.3021833 0.008991769 -0.5136525 -1.2633233
000100 cf 4f 3a 3f c0 37 9c 3f 4f e9 40 bf fa 0e a6 3c
       0.7277803 1.2204514 -0.75356 0.020270813
000110 39 8f 65 bf e2 58 0f 40 bf 41 d4 3f a2 94 7d bf
       -0.89671665 2.2398 1.6582564 -0.9905492
000120 e3 22 56 bd fc a9 08 c0 67 a4 27 bf 19 48 27 3f
       -0.052279364 -2.135375 -0.65485233 0.6534439
000130 6e 8c b0 bf 76 77 45 3d 81 94 7e bd 00 d7 c9 bf
       -1.3792856 0.04820963 -0.062153343 -1.5768738
000140 32 8f 87 bf b7 00 48 bf da f8 5d bf 7a cb e1 3e
       -1.0590575 -0.7812609 -0.8670784 0.44100553
000150 7d 06 b5 bf 5d 82 a9 bf b2 8d 8b bf d6 60 ba 3d
       -1.4142605 -1.3242909 -1.0902617 0.09100501
000160 9a 4d b4 3c a7 49 01 bf 6e 81 b3 be 9f f5 af bf
       0.02200966 -0.5050301 -0.35059685 -1.3746833
000170 2d 8c 4a bf c4 a2 01 40 65 6e 5f bf ff 26 17 bf
       -0.7912014 2.0255594 -0.87277824 -0.5904388
000180 4e ae 22 be dc 14 57 bf 58 97 47 bf 7f 74 82 be
       -0.15886804 -0.84016204 -0.7796531 -0.25479504
000190 b0 37 f4 bd 76 3c 8c bf 38 fd 00 bf 82 8f 90 3e
       -0.11924684 -1.0955951 -0.5038638 0.28234488
0001a0 9c 43 a5 bf 17 6d 01 40 6f 35 05 3f 47 67 cd 3f
       -1.2911258 2.0222833 0.5203466 1.6047143
0001b0 6f 42 90 bf f8 81 89 3d 08 41 b5 bf 9e fe ef bf
       -1.1270274 0.06714243 -1.4160471 -1.8749578
0001c0 3f 76 ba be 7b b0 a3 be ef 58 c1 3e 57 92 a1 3d
       -0.3641834 -0.3197058 0.37763163 0.0788924
0001d0 97 0c a8 be f3 2a 90 3d 2e f9 a6 bd 8b bd 41 bf
       -0.32822105 0.07039442 -0.08152996 -0.75679845
0001e0 60 dd 07 c0 a7 1d a1 3d ff 40 0e be 52 01 bd 3c
       -2.1228867 0.07866984 -0.13891982 0.023071919
0001f0 c3 33 c5 3f e0 40 cd 3d 57 89 3b bf ed d0 86 bf
       1.5406421 0.100221395 -0.7325644 -1.0532509
000200 fc ca cc 3f 96 98 65 3f 37 6f a4 bf 60 66 b2 bd
       1.5999446 0.8968595 -1.284644 -0.08710933
000210 f9 3e c1 bf a7 13 b7 3f 8d 67 46 3f 9b 5c 80 bf
       -1.5097343 1.4302872 0.77501756 -1.0028261
000220 fb cf f3 be a1 9a 36 3f d0 c8 2b bf 43 cb 76 3f
       -0.47619614 0.71329695 -0.6710329 0.964039
000230 e5 35 98 be 44 c1 d8 bd 10 f5 50 bd 8a 52 be be
       -0.29728618 -0.105837375 -0.05101496 -0.37172347
000240 d4 aa bd be ac 7e df bf ce ec a2 bf eb fe 37 3e
       -0.37044394 -1.7460532 -1.2728517 0.17968337
000250 fd 68 9c 3e 3a e6 e4 be 56 4e 4d bf bf 98 8b bd
       0.3054885 -0.447069 -0.80197656 -0.068162434
000260 02 7a 1c 3d 2c 35 3d bf 78 a7 20 c0 d4 60 63 bf
       0.038202293 -0.7390926 -2.5102215 -0.88819623
000270 5a cb a9 bf 0f 75 e9 3f 0a 92 15 bf 7b 19 02 bf
       -1.3265183 1.8238848 -0.5842596 -0.5082013
000280 36 1b c1 bf fa 8b 9d bf c7 f8 36 bf b4 cd 3b bf
       -1.5086429 -1.2308342 -0.71473354 -0.73360753
000290 82 46 27 bf e3 ca 9c bf b2 a8 e5 bf 45 ca 92 bf
       -0.6534196 -1.2249416 -1.7942107 -1.1467978
0002a0 ad 1e c8 bf 3e 54 af 3f 74 b3 dc 3f 20 94 8c 3f
       -1.5634362 1.3697584 1.7242265 1.0982704
0002b0 bf 6b ba bf 18 c6 66 bd b4 53 1a bf 41 f2 b4 bf
       -1.4564131 -0.05634126 -0.6028397 -1.413643
0002c0 a5 74 3a bf 02 b4 9b bf fd b1 0b 40 f6 c6 a1 bd
       -0.72834235 -1.2164309 2.1827385 -0.07899277
0002d0 af dd c6 bf 46 a8 05 bf a5 1b 8b 3f 79 01 09 be
       -1.5536402 -0.5220989 1.0867811 -0.13379468
0002e0 ca e8 c9 bf 36 22 99 3b 8b ce 5e 3f ac af fd 3d
       -1.5774167 0.0046732677 0.8703391 0.123870224
0002f0 b2 3e d4 3f c0 00 51 3b 9b 13 b4 bf 79 8b 8a 3e
       1.6581633 0.0031891316 -1.4068483 0.27059534
000300 8c c3 00 3f af 3b 0f 3e 8f 68 c2 bf 4b 2c 70 bb
       0.5029838 0.13987611 -1.5188159 -0.0036647494
000310 6f 1b 90 bf 59 f4 d5 3f 29 58 0d 3f 77 e1 66 be
       -1.1258372 1.6715194 0.55212647 -0.22546946
000320 5d 27 63 bf 4d 38 e7 bf d9 b4 cd be 79 f5 c8 3f
       -0.8873194 -1.8064057 -0.40177038 1.5699912
000330 b7 bd 92 be 32 0e ae 3b 19 7e 30 3a 35 ef 6c bf
       -0.28660366 0.005311751 0.0006732657 -0.925525
000340 2e 83 0e bf 8d ac cf be f4 35 61 bf d0 be a1 3f
       -0.55668914 -0.40561333 -0.8797295 1.2636356
000350 03 c2 54 bf 54 6b 53 bf d2 3e 0c bf 80 4b de bb
       -0.8310854 -0.82585645 -0.54783356 -0.0067839026
000360 c2 69 4d 3c 40 7e d9 bf 79 c8 c3 bf 07 69 04 c0
       0.012537422 -1.6991653 -1.5295554 -2.0689104
000370 b1 09 9e bf 84 6b 1b 40 4e 77 04 bf e6 72 c9 be
       -1.2346708 2.4284372 -0.51744545 -0.39345473
000380 18 3b 34 bf 98 f5 0f bf a2 c5 cd bf 67 b5 12 bf
       -0.7040267 -0.5623412 -1.6075938 -0.5730805
000390 99 ce 93 bf bd f3 d5 bf 56 87 a0 bf 08 09 6b bf
       -1.1547424 -1.6715008 -1.2541301 -0.91810656
0003a0 2e 2f a4 bf 0c 46 b2 3f 77 9a 9a 3f e2 c8 ac 3f
       -1.2826898 1.3927627 1.2078389 1.3498805
0003b0 61 ce 46 bf 68 fa 60 3d 43 9c 0a bf 24 65 9c be
       -0.7765866 0.054926306 -0.54144686 -0.30545914
0003c0 6d cd 73 bf bf 84 b2 bf 5d 74 90 3f cc c5 a6 3d
       -0.9523533 -1.3946761 1.1285511 0.081431955
0003d0 46 56 27 c0 b7 e4 c6 bf 16 82 bd 3d 27 b0 c5 bf
       -2.6146407 -1.5538548 0.092533275 -1.5444382
0003e0 c9 e3 25 c0 00 fe 2e bd 2b 9a 0d 3e e8 68 6e bd
       -2.592028 -0.042722702 0.13828342 -0.058205515
0003f0 55 01 a9 3e 98 65 a0 bd c3 67 e1 be 98 fc e4 bd
       0.3300883 -0.078318775 -0.44024476 -0.11180991

model_old.model.model.4.bias f4 [4]
000000 ff 11 72 3e dc 75 34 bd c7 41 f9 3e d1 0b 2b bd
       0.23639677 -0.044057712 0.48682997 -0.041759316
