rl_compexp/save/LunarLander-DQN64/dqn_best.pth (torch, 89822 bytes, 24 tensors)

model.model.model.0.weight f4 [64, 8]
-0.22710206 1.0531459 0.6370623 -1.4420788 0.46813607 -1.113405 0.5826343 -0.64862615
-0.13920951 -0.4439024 -1.1089864 4.563042 0.94724023 -0.6866012 -0.7985114 -0.4405032
1.4444921 0.33801103 -0.014908412 0.4307453 -2.0424204 1.9948529 -0.73680353 0.043682434
1.9858338 0.77515656 -0.36745855 -0.65321 1.1405903 -0.3312866 -0.35743585 -0.8659889
-0.7292527 -3.5698283 -0.4959668 -0.66648334 1.084591 1.6990306 0.24523522 0.71152925
-2.3750057 -2.2016537 -0.7765571 -1.8185394 -0.6449666 0.025561027 0.01992657 0.07917181
-0.83615834 0.61036074 0.22950503 -0.9863029 1.6435909 0.6222966 -1.1623694 -0.9865667
0.41313854 0.9161062 0.40744147 -0.92219734 1.105322 -0.5648023 -1.3623377 -0.7172817
1.2863077 0.818772 0.38171554 0.94040555 -1.3880335 -0.051298507 0.11338412 -1.3614695
1.2451781 -0.07865271 -3.1924996 0.038006127 -1.3055179 0.7599568 0.567376 -0.49015957
0.12531345 -1.2824785 1.5104779 1.8113776 -1.4129632 -1.8113178 0.74615204 0.40484396
-0.66194624 0.31785965 -0.8706129 -0.019609034 0.31028008 -0.82851696 0.2578897 -0.8335971
0.70985794 0.46614403 1.2029983 -1.8114246 -0.6561241 0.017024454 0.1904034 -0.7635591
-0.043485966 -1.9778484 0.64509255 -1.0340585 -0.49472088 0.2196878 0.6706684 -0.9046904
0.032239046 0.5482471 -1.4668647 0.14903487 -0.1463486 2.3880398 0.011380782 -0.6851583
0.59074235 -1.7683547 -1.2106242 0.8984603 1.1866745 -0.5109777 -0.8771791 1.2165061
-1.510397 -0.31890318 -0.50683635 -1.3655015 -0.04909139 -0.55176073 -0.7087746 1.6468105
-0.3358187 0.40594056 0.52776176 -0.044282116 -1.1877619 -0.92876965 -0.92647696 -0.51102066
1.5423716 -0.23597808 1.1599381 -0.96900207 -0.45129803 0.1921728 0.28447232 0.10653766
0.100747086 0.4840783 2.7412598 -2.116741 -0.6191946 0.23902906 -0.09146465 -0.33378026
1.3881003 0.016231734 0.3222418 -1.1258271 -1.0813202 1.020876 0.0086096 0.048738454
-0.5499707 -0.54696506 2.2886925 -2.1325865 -0.25587144 1.037255 0.7020346 -0.38118887
0.13167095 -0.0047941925 -0.017894845 0.018657867 -2.931194 0.13768074 -1.0680671 0.32027978
-1.0395347 1.319508 -1.40296 -1.2706295 -0.9648745 -1.1479086 -0.20735624 -0.24966963
-0.15612063 1.0506457 1.4586655 -1.8325472 -0.2017724 0.43710023 -0.5207569 -0.22084847
1.2195601 -1.031735 0.18499012 -1.3978807 -1.3159924 -0.33121422 -0.0072629275 0.19657384
-0.21734904 -0.15530285 -0.30326915 -0.4525073 -3.1581967 -0.46876332 -0.34232137 -0.6004934
0.13817684 0.57313687 -0.44379285 -1.3525928 1.1469654 0.053830415 0.28238013 0.67798793
-0.15045013 -2.3122823 2.1045504 -1.9923913 -0.6280026 0.13800497 -0.23651749 0.36004278
-1.1092126 0.4945366 -0.01845301 1.4878898 -1.1230634 0.26453954 -0.70497847 -0.032602057
0.1775061 -0.7694889 0.34674487 -1.6685555 -0.010961851 -0.8315743 0.121125914 0.6203486
0.22903775 0.23668794 1.2866526 -1.4554338 1.0061215 0.85686934 -0.69247866 -1.1621507
00000000: 718d 68be 7ccd 863f 8416 233f 0a96 b8bf
00000010: 88af ef3e 0e84 8ebf 8627 153f 5d0c 26bf
00000020: f08c 0ebe 2d47 e3be 44f3 8dbf 7104 9240
00000030: 567e 723f 19c5 2fbf 3e6b 4cbf a389 e1be
00000040: 1ee5 b83f c80f ad3e 6942 74bc a68a dc3e
00000050: 04b7 02c0 5757 ff3f 289f 3cbf 5aec 323d
00000060: cd2f fe3f a970 463f 8723 bcbe c538 27bf
00000070: ddfe 913f 669e a9be d501 b7be 73b1 5dbf
00000080: 4eb0 3abf 1178 64c0 5cef fdbe a79e 2abf
00000090: e1d3 8a3f d679 d93f f11e 7b3e c826 363f
000000a0: 1800 18c0 e5e7 0cc0 72cc 46bf e6c5 e8bf
000000b0: 881c 25bf 5c65 d13c 0c3d a33c d424 a23d
000000c0: 790e 56bf 9a40 1c3f 5e03 6b3e 597e 7cbf
000000d0: 3061 d23f d44e 1f3f 85c8 94bf a38f 7cbf
000000e0: e586 d33e f085 6a3f 2b9c d03e 2015 6cbf
000000f0: 317b 8d3f e296 10bf 1561 aebf c69f 37bf
00000100: bba5 a43f 0b9b 513f 3870 c33e 6bbe 703f
00000110: 15ab b1bf 621e 52bd ef35 e83d a244 aebf
00000120: ff61 9f3f ac14 a1bd ea51 4cc0 50ac 1b3d
00000130: 361b a7bf 878c 423f 8e3f 113f 32f6 fabe
00000140: 2b52 003e 4128 a4bf 5757 c13f 39db e73f
00000150: fadb b4bf 43d9 e7bf d203 3f3f b547 cf3e
00000160: 4f75 29bf 80be a23e 7de0 5ebf 20a3 a0bc
00000170: 08dd 9e3e b019 54bf 1e0a 843e 9f66 55bf
00000180: 40b9 353f 6eaa ee3e d9fb 993f c3dc e7bf
00000190: c0f7 27bf de76 8b3c 1cf9 423e 9c78 43bf
000001a0: 571e 32bd 232a fdbf c924 253f 075c 84bf
000001b0: 0e4c fdbe d7f5 603e edb0 2b3f ca99 67bf
000001c0: 170d 043d ec59 0c3f 39c2 bbbf 999c 183e
000001d0: 68dc 15be a5d5 1840 7676 3a3c 8966 2fbf
000001e0: e43a 173f 7259 e2bf bcf5 9abf 7f01 663f
000001f0: f3e4 973f 6fcf 02bf cf8e 60bf 79b6 9b3f
00000200: b054 c1bf 4747 a3be 07c0 01bf c1c8 aebf
00000210: 0e14 49bd 3140 0dbf 4172 35bf b0ca d23f
00000220: 6ef0 abbe 71d7 cf3e 651b 073f 2a61 35bd
00000230: 9508 98bf d9c3 6dbf 982d 6dbf 40d2 02bf
00000240: 6f6c c53f 3da4 71be da78 943f 8510 78bf
00000250: 8910 e7be f2c8 443e 5ba6 913e 6b30 da3d
00000260: 7d54 ce3d 1cd9 f73e cd70 2f40 af78 07c0
00000270: 8a83 1ebf 09c4 743e d251 bbbd 3fe5 aabe
00000280: 45ad b13f 6af8 843c e1fc a43e 1a1b 90bf
00000290: b368 8abf 11ac 823f 480f 0d3c f9a1 473d
000002a0: e1ca 0cbf e705 0cbf f079 1240 4c7c 08c0
000002b0: 9501 83be c6c4 843f 8ab8 333f 302b c3be
000002c0: c0d4 063e 9a18 9dbb 3698 92bc 62d8 983c
000002d0: af98 3bc0 2efc 0c3e 6cb6 88bf b6fb a33e
000002e0: 790f 85bf a3e5 a83f 3194 b3bf fda3 a2bf
000002f0: 0402 77bf abee 92bf 3255 54be 65a9 7fbe
00000300: 16de 1fbe 8f7b 863f 8db5 ba3f e890 eabf
00000310: 6d9d 4ebe 9acb df3e 5350 05bf 1a26 62be
00000320: 8c1a 9c3f e40f 84bf 0d6e 3d3e c1ed b2bf
00000330: 7072 a8bf e994 a9be dafd edbb a74a 493e
00000340: bf90 5ebe b607 1fbe 1846 9bbe 09af e7be
00000350: e51f 4ac0 bf01 f0be bf44 afbe efb9 19bf
00000360: 3b7e 0d3e 19b9 123f d138 e3be c321 adbf
00000370: c3cf 923f 487d 5c3d 2194 903e 9e90 2d3f
00000380: 990f 1abe 6ffc 13c0 f4b0 0640 ae06 ffbf
00000390: c7c4 20bf 2d51 0d3e a431 72be 8757 b83e
000003a0: aefa 8dbf e733 fd3e c42a 97bc 2c73 be3f
000003b0: 8bc0 8fbf ba71 873e 7879 34bf bc89 05bd
000003c0: 29c4 353e 39fd 44bf 8b88 b13e 3a93 d5bf
000003d0: 5699 33bc 0ee2 54bf dd10 f83d 2acf 1e3f
000003e0: df88 6a3e 535e 723e 08b1 a43f a84b babf
000003f0: 97c8 803f ca5b 5b3f 4846 31bf 5bc1 94bf

model.model.model.0.bias f4 [64]
0.54563147 0.45729414 0.5906818 1.0474201 0.64059937 -0.3710044 0.23305431 0.7250769
0.38500014 0.23940268 0.20932324 -0.66945124 0.34435585 0.7304942 0.66368085 0.15310839
0.9909473 0.3485066 -0.23230056 0.41916648 0.49623492 -0.10053645 -0.008816994 -1.2390102
0.5807521 -0.1600534 0.1698652 0.24572027 -0.17059062 -0.4422516 0.5714398 0.35431084
-0.27695844 0.42704216 0.3287624 0.08151149 -0.011549745 0.33147758 0.4212511 0.054154012
0.84282345 0.78835064 0.6911376 -0.18213856 1.0724784 0.6295655 0.3328269 -0.0684586
0.56190455 0.93100697 0.37067652 0.74637526 -0.07625717 0.4792977 0.43877548 -0.05725618
0.29223663 0.5588735 0.056656692 0.17904927 0.28802863 0.9313538 0.41583335 0.5029975
00000000: 81ae 0b3f 7522 ea3e ec36 173f dd11 863f
00000010: 52fe 233f 4af4 bdbe caa5 6e3e a49e 393f
00000020: bd1e c53e fa25 753e d558 563e 2861 2bbf
00000030: 694f b03e ab01 3b3f fde6 293f 72c8 1c3e
00000040: b9ae 7d3f 756f b23e 33e0 6dbe fd9c d63e
00000050: 8112 fe3e 0ee6 cdbd 2775 10bc e397 9ebf
00000060: 2bac 143f 0ae5 23be 25f1 2d3e 189e 7b3e
00000070: 4faf 2ebe cd6e e2be e149 123f 3b68 b53e
00000080: 7fcd 8dbe 45a5 da3e 8c53 a83e 7fef a63d
00000090: 243b 3dbc 6eb7 a93e 39ae d73e 99d0 5d3d
000000a0: 47c3 573f 59d1 493f 65ee 303f 8882 3abe
000000b0: f946 893f 342b 213f 4a68 aa3e 0634 8cbd
000000c0: fad8 0f3f 7956 6e3f 50c9 bd3e 7312 3f3f
000000d0: b82c 9cbd 8266 f53e 2ea7 e03e 7585 6abd
000000e0: 0aa0 953e 5512 0f3f d910 683d b158 373e
000000f0: 7d78 933e 346d 6e3f 1ce8 d43e 72c4 003f

model.model.model.2.weight f4 [64, 64]
-0.037772402 -0.9598105 -0.30916852 -0.4503156 -3.0346477 -0.23017101 0.4119542 -0.39959836
-0.048245657 0.1908768 1.4682866 0.8924612 0.2234609 0.8933901 0.49359438 0.17013343
0.7502268 -0.8720493 1.1791934 0.23891792 0.18278205 0.49402797 1.4882755 0.11562847
-0.7617662 2.4910786 1.0890865 -0.3446281 0.86837035 -0.2869314 0.87074316 0.4110225
0.9203266 0.63953894 -0.31385314 0.40115964 0.08140603 -0.2857466 -0.3501669 0.5007817
-0.07392667 -0.3714702 -2.1895194 -1.6150731 0.6143693 -0.29780737 0.87623096 -0.6460265
-0.7619587 -0.08144764 0.51932305 0.70177084 -0.16124299 0.20199294 0.9629462 0.73241323
-1.4266465 0.0981554 0.8515855 -1.8573439 0.37691608 -0.22889683 -0.7485122 -0.099854164
0.77446204 1.1825482 -0.16827175 0.8209269 2.2079897 -1.2677385 0.9160621 0.0585562
-0.21962155 -0.5580767 -0.75349605 -0.31735218 0.17693824 -1.2783256 -0.15320554 -0.015237613
-0.7716577 -0.6846733 0.03722733 -0.21385051 0.030647237 0.040060073 0.56222034 0.6098101
0.13939314 -1.1651148 1.3420701 0.4474601 -0.23599216 -0.15135388 1.2546471 0.486482
-1.7959014 -0.6364778 0.14242442 0.37552083 -0.27608895 1.0226451 0.2059626 1.4267286
0.48297036 -0.029933427 1.0645561 1.7916367 -0.7560279 0.01502514 -0.1215148 -1.6854204
-0.16246578 0.5287715 -0.34557116 -0.24771325 -1.495804 -0.07056766 -1.0399095 -0.1411838
1.0236285 0.22534311 -1.0943401 -1.9129001 -0.36433592 -0.08073368 0.63088423 0.48425087
-0.35150468 -0.8208928 0.024865339 0.32404295 -0.9890922 0.85453326 0.070850395 0.102202244
1.4041245 0.10735153 -0.8399978 0.207722 0.6560878 -1.7391059 0.21051 0.32091704
-0.6301717 0.5090523 0.751657 0.13026425 0.5067442 0.101746246 -1.8121845 0.3059231
-0.15772264 1.3079458 -0.85627645 0.038212277 0.8407159 -0.35167214 -0.23039113 0.21075879
-1.9029483 0.059254825 -0.015589536 0.5494132 0.28500578 -0.13578546 0.06343324 -0.0032408414
0.34905747 0.071199745 -1.033661 -1.3076878 0.19805034 -0.016278373 0.3686109 0.20880923
-0.33830434 0.19292155 0.19692561 0.010692539 -1.9502151 0.033138078 0.1900247 -0.9233985
0.8050391 0.27213544 0.44958225 1.0453223 0.33627862 0.18654484 0.5981924 0.79854316
-0.03779553 -0.0190808 0.04989735 0.05964539 0.020422067 -0.062668376 0.087710254 -0.03289391
-0.0007834795 -0.021371983 -0.07960482 -0.011085037 -0.15846223 -0.01263169 0.016957555 -0.0771996
-0.039605666 -0.027406221 -0.011628644 -0.13626453 -0.08717662 -0.047004048 -0.08302254 -0.0552869
0.04042623 0.008417387 -0.113371074 -0.0075794505 -0.025795585 0.112981156 0.024826542 0.04968232
-0.021767424 -0.13997187 0.058550585 -0.021498935 -0.12571687 -0.15589416 -0.06375062 -0.013703702
-0.0043780883 -0.11651448 -0.08765244 -0.02075109 0.01318823 -0.060419075 0.03648548 0.020501588
-0.004299571 -0.17275222 -0.012910409 -0.020775344 -0.03753415 -0.015851922 -0.016820958 0.063056886
-0.0033958661 -0.17143609 -0.06226127 -0.009001087 -0.042989112 -0.10513558 -0.02584677 -0.1741917
00000000: 3cb7 1abd 24b6 75bf 564b 9ebe c48f e6be
00000010: ab37 42c0 f3b1 6bbe a9eb d23e 2898 ccbe
00000020: 3d9d 45bd 3575 433e d1f0 bb3f 5678 643f
00000030: efd2 643e 37b5 643f 67b8 fc3e 7537 2e3e
00000040: dd0e 403f 9f3e 5fbf cfef 963f e6a6 743e
00000050: 382b 3b3e 3cf1 fc3e d07f be3f 9fce ec3d
00000060: 1c03 43bf d56d 1f40 3067 8b3f 1873 b0be
00000070: 854d 5e3f ace8 92be 06e9 5e3f 8b71 d23e
00000080: 869a 6b3f d3b8 233f 5cb1 a0be cc64 cd3e
00000090: 34b8 a63d 614d 92be 1349 b3be 3b33 003f
000000a0: de66 97bd 5831 bebe 1621 0cc0 b7ba cebf
000000b0: 4e47 1d3f 357a 98be ac50 603f fe61 25bf
000000c0: ba0f 43bf 05ce a6bd 5bf2 043f 41a7 333f
000000d0: e21c 25be 3dd7 4e3e a483 763f 6f7f 3b3f
000000e0: 5a9c b6bf b305 c93d 8201 5a3f 72bd edbf
000000f0: 25fb c03e ee63 6abe 7f9e 3fbf 5780 ccbd
00000100: 2543 463f bd5d 973f 6e4f 2cbe 4428 523f
00000110: b44f 0d40 4145 a2bf 0c83 6a3f a0d8 6f3d
00000120: 79e4 60be 1dde 0ebf 1ee5 40bf fc7b a2be
00000130: 4c2f 353e 2ca0 a3bf eae1 1cbe 2ea7 79bc
00000140: 5c8b 45bf c046 2fbf af7b 183d a1fb 5abe
00000150: ea0f fb3c 0816 243d aced 0f3f 841c 1c3f
00000160: 13bd 0e3e 7b22 95bf f4c8 ab3f 7d19 e53e
00000170: eea7 71be 83fc 1abe 4798 a03f 2b14 f93e
00000180: 19e0 e5bf 36f0 22bf b5d7 113e 4444 c03e
00000190: 885b 8dbe 09e6 823f dce7 523e 0b9f b63f
000001a0: e447 f73e f236 f5bc 6043 883f 5a54 e53f
000001b0: 0b8b 41bf 012c 763c c0dc f8bd dbbb d7bf
000001c0: 6e5d 26be 925d 073f b4ee b0be 8ba8 7dbe
000001d0: 8176 bfbf c785 90bd c11b 85bf 7c92 10be
000001e0: 4206 833f 58c0 663e 5613 8cbf e9d9 f4bf
000001f0: 3d8a babe b357 a5bd a181 213f bbef f73e
00000200: 6cf8 b3be 0826 52bf 65b2 cb3c f5e8 a53e
00000210: 2535 7dbf b1c2 5a3f 031a 913d 694f d13d
00000220: 5aba b33f 1edb db3d 190a 57bf 13b5 543e
00000230: 5ff5 273f 069b debf ef8f 573e 3d4f a43e
00000240: ef52 21bf 4051 023f 986c 403f fe63 053e
00000250: fdb9 013f 5660 d03d a9f5 e7bf f4a1 9c3e
00000260: 0b82 21be c56a a73f ef34 5bbf 7a84 1c3d
00000270: 2839 573f 5f0e b4be a7eb 6bbe 27d1 573e
00000280: cf93 f3bf 30b5 723d 416b 7fbc 58a6 0c3f
00000290: 47ec 913e 580b 0bbe 49e9 813d 4c64 54bb
000002a0: a9b7 b23e 2cd1 913d 014f 84bf 5062 a7bf
000002b0: b5cd 4a3e 395a 85bc 91ba bc3e 16d2 553e
000002c0: 3a36 adbe 3a8d 453e dea6 493e c22f 2f3c
000002d0: a6a0 f9bf cbbb 073d d695 423e d863 6cbf
000002e0: 0b17 4e3f 5655 8b3e a52f e63e 1fcd 853f
000002f0: b62c ac3e 9c05 3f3e 2323 193f 536d 4c3f
00000300: 7ccf 1abd 564f 9cbc 2a61 4c3d b94e 743d
00000310: 2e4c a73c 4758 80bd 6fa1 b33d c4bb 06bd
00000320: 6b62 4dba 4c14 afbc da07 a3bd 049e 35bc
00000330: ec43 22be 26f5 4ebc 92ea 8a3c d31a 9ebd
00000340: 8d39 22bd 0383 e0bc 1186 3ebc ee88 0bbe
00000350: a889 b2bd 5187 40bd b907 aabd 8474 62bd
00000360: f995 253d 14e9 093c 182f e8bd 0a5d f8bb
00000370: 4351 d3bc aa62 e73d 0861 cb3c b07f 4b3d
00000380: 9951 b2bc c954 0fbe bdd2 6f3d 891e b0bc
00000390: ecbb 00be b8a2 1fbe af8f 82bd 7e85 60bc
000003a0: 1176 8fbb 259f eebd 1f83 b3bd 31fe a9bc
000003b0: 7213 583c fe79 77bd cc71 153d f2f2 a73c
000003c0: 6ae3 8cbb f5e5 30be 2e86 53bc 0e31 aabc
000003d0: 69bd 19bd e4db 81bc 1bcc 89bc f823 813d
000003e0: 2e8d 5ebb f18c 2fbe ac05 7fbd 4c79 13bc
000003f0: 5a15 30bd 5351 d7bd 9bbc d3bc 4f5f 32be

model.model.model.2.bias f4 [64]
0.1759827 0.048828136 0.32407138 0.023585103 0.32140708 -0.3159482 0.64015806 -0.009485121
0.00770173 0.29285467 0.17908736 0.92690676 0.08628101 0.037098907 -0.18233913 0.2140221
0.034356043 0.30429244 0.3664867 0.14422707 0.09920478 0.08901816 -0.008158733 -0.0650907
0.023931345 -0.04838857 0.2688651 0.13951772 0.33255896 0.5654433 0.18464474 -0.005256517
0.24760354 0.28259918 0.0024657077 0.12555034 0.038972095 0.19547884 0.5140291 0.20829196
0.5712391 0.48580718 0.58077615 0.6874035 -0.067880526 0.0011859364 0.15029001 0.23598093
0.087675765 0.31232357 0.120905496 -0.08001693 0.30164587 -0.08692078 0.35117537 0.21113743
0.2289506 -0.03141764 0.5344594 -0.1014822 -0.6413176 0.09496225 0.15363999 0.30834413
00000000: cf34 343e 0300 483d afec a53e 8c35 c13c
00000010: 788f a43e f6c3 a1be 66e1 233f 7b67 1bbc
00000020: cb5e fc3b 0cf1 953e ad62 373e c349 6d3f
00000030: 19b4 b03d 06f5 173d 1cb7 3abe 9c28 5b3e
00000040: ecb8 0c3d 38cc 9b3e 25a4 bb3e 43b0 133e
00000050: e02b cb3d 274f b63d 35ac 05bc 464e 85bd
00000060: ab0b c43c 1833 46bd b0a8 893e bcdd 0e3e
00000070: 2b45 aa3e e4c0 103f 8313 3d3e dc3e acbb
00000080: c88b 7d3e d7b0 903e b697 213b 4590 003e
00000090: 34a1 1f3d 9b2b 483e 6997 033f 7d4a 553e
000000a0: ba3c 123f b8bb f83e bfad 143f adf9 2f3f
000000b0: f204 8bbd 6c71 9b3a a0e5 193e fca4 713e
000000c0: 5a8f b33d e0e8 9f3e 4d9d f73d ebdf a3bd
000000d0: 5471 9a3e 8603 b2bd 42cd b33e 6934 583e
000000e0: 0772 6a3e c9af 00bd 55d2 083f e6d5 cfbd
000000f0: 642d 24bf 917b c23d cd53 1d3e 48df 9d3e

model.model.model.4.weight f4 [4, 64]
-0.8808462 -1.5209136 -1.1202881 0.06786161 0.93665063 -2.5755727 0.521029 -1.0299407
0.33750632 -0.32056352 -0.7333589 1.7606808 -1.3460948 -0.00094078755 -0.005974887 -0.97021776
-1.1917474 -0.30066627 -0.44924888 -1.6361988 -1.8447436 -0.85294646 -0.61713433 0.05098269
-0.0139309345 -0.23346846 -1.8473123 -2.563816 -1.80265 2.046793 -0.96376234 -1.3649881
-2.5034535 -1.2284831 -0.058251776 -1.2090791 0.23505746 -2.6966033 -1.9436821 -1.635436
-2.431082 -0.53379214 2.0456703 2.9359312 -0.91155064 0.0378158 -1.7414775 -1.1498963
-0.73432904 -1.6923274 2.6078553 0.018675521 -1.5720783 -0.2961453 -0.24488342 -1.9867475
-1.8588835 -0.08208368 1.0191586 -0.07297458 0.99347013 0.008991769 -0.5109816 -1.2480185
0.714819 1.440114 -0.7531983 0.020270813 -0.89975846 2.5669572 1.6168922 -0.89554864
-0.17853983 -2.1559827 -0.42736098 0.52113587 -1.0972699 0.04820963 -0.062153343 -1.5016345
-1.015488 -0.7120884 -0.8023098 0.4379271 -1.4750171 -1.4191394 -0.95515996 0.09100501
0.02200966 -0.5082437 -0.52933335 -0.72974014 -0.6854083 1.9923817 -0.7533646 -0.17773488
-0.15440522 -0.752117 -0.82494026 -0.2213075 -0.13791044 -0.870543 -0.46220344 0.31032425
-1.2281716 1.9130069 0.55811167 1.5450773 -1.0160971 0.06714243 -1.138491 -1.4087538
-0.3031102 -0.56495416 0.3401619 0.0788924 -0.34897938 0.03629176 -0.06307355 -0.60855293
-1.6232114 0.07866984 -0.2991685 0.023071919 1.7812667 0.100221395 -0.65934074 -1.1121031
1.5089331 0.65882885 -0.97833914 -0.08710933 -1.5236503 1.3571295 0.7395168 -0.8036456
-0.44529262 0.7672308 -0.58409446 0.89096534 -0.38770345 -0.105837375 -0.05101496 -0.3357562
-0.3499634 -1.6270586 -1.2168081 0.20866503 0.35571298 -0.40322658 -0.6218313 -0.068162434
0.038202293 -0.84051836 -1.9641571 -0.32036516 -1.3490536 1.827633 -0.45817274 -0.34370795
-1.4959524 -1.1007612 -0.57761735 -0.5305616 -0.5517512 -0.6576788 -1.6712623 -1.1493076
-1.4867463 1.2967621 1.7258064 1.0879405 -1.1238693 -0.05634126 -0.46146563 -1.0456499
-0.63654524 -1.0197985 2.0266943 -0.07899277 -1.5564443 -0.44649714 0.95734257 -0.13259931
-0.94595724 0.0046732677 0.77258 0.123870224 1.8056723 0.0031891316 -1.284064 0.17781517
0.45149484 0.13488138 -1.1604009 -0.0036647494 -1.1259816 1.771651 0.51821446 -0.25052345
-0.7610752 -1.6368895 -0.27226242 1.5847546 -0.2885006 0.005311751 0.0006732657 -0.59199506
-0.58771735 -0.39573368 -0.82062423 1.1733483 -0.59122723 -0.582059 -0.4846141 -0.0067839026
0.012537422 -1.4115565 -1.1856875 -1.3393875 -0.86859256 2.5072932 -0.42264274 -0.3641371
-0.6985754 -0.5679682 -1.0202713 -0.6124544 -0.8887669 -1.326855 -1.0125257 -1.0291233
-0.77692443 1.2520738 1.1328357 1.131053 -0.7983442 0.054926306 -0.5408522 -0.17969932
-0.6691856 -0.8641338 0.9323036 0.081431955 -2.248802 -1.5424998 0.01691855 -1.5664796
-1.7085227 -0.042722702 0.17754003 -0.058205515 0.5602292 -0.078318775 -0.43779466 0.017549843
00000000: 237f 61bf 4cad c2bf 9a65 8fbf 07fb 8a3d
00000010: 56c8 6f3f 2fd6 24c0 2862 053f 19d5 83bf
00000020: a1cd ac3e e720 a4be 69bd 3bbf fd5d e13f
00000030: d64c acbf 2f9f 76ba fcc8 c3bb 3160 78bf
00000040: 2e8b 98bf eef0 99be f303 e6be f66e d1bf
00000050: 8f20 ecbf b35a 5abf 84fc 1dbf 3ad3 503d
00000060: 933e 64bc 5b12 6fbe bb74 ecbf 9015 24c0
00000070: 3cbd e6bf a8fe 0240 21b9 76bf eeb7 aebf
00000080: 9538 20c0 ef3e 9dbf 6a99 6ebd 1bc3 9abf
00000090: e7b2 703e 2695 2cc0 93ca f8bf f855 d1bf
000000a0: d996 1bc0 9aa6 08bf 43ec 0240 4ce6 3b40
000000b0: 625b 69bf bee4 1a3d bce8 debf cd2f 93bf
000000c0: fdfc 3bbf 2f9e d8bf 1ae7 2640 68fd 983c
000000d0: dd39 c9bf 5ba0 97be b8c2 7abe be4d febf
000000e0: e5ef edbf 7d1b a8bd ca73 823f b273 95bd
000000f0: 0f54 7e3f 3652 133c b1cf 02bf 12bf 9fbf
00000100: 61fe 363f a855 b83f 9bd1 40bf fa0e a63c
00000110: 9256 66bf 0749 2440 53f6 ce3f ad42 65bf
00000120: 25d3 36be 9ffb 09c0 0fcf dabe 2969 053f
00000130: 5773 8cbf 7677 453d 8194 7ebd 8f35 c0bf
00000140: 83fb 81bf 6d4b 36bf 2d64 4dbf fb37 e03e
00000150: 5ccd bcbf 5ca6 b5bf 5d85 74bf d660 ba3d
00000160: 9a4d b43c 421c 02bf 6482 07bf 40d0 3abf
00000170: eb76 2fbf 5d06 ff3f 81dc 40bf 2200 36be
00000180: 671c 1ebe bd8a 40bf 492f 53bf 6f9e 62be
00000190: 6538 0dbe e8db 5ebf eea5 ecbe d2e2 9e3e
000001a0: ba34 9dbf 69dd f43f 68e0 0e3f 18c5 c53f
000001b0: 780f 82bf f881 893d 13ba 91bf 0b52 b4bf
000001c0: 4331 9bbe d6a0 10bf b329 ae3e 5792 a13d
000001d0: 6dad b2be aba6 143d b52c 81bd 20ca 1bbf
000001e0: 64c5 cfbf a71d a13d 9d2c 99be 5201 bd3c
000001f0: 8c00 e43f e040 cd3d 8eca 28bf 6559 8ebf
00000200: b824 c13f 02a9 283f 6f74 7abf 6066 b2bd
00000210: f906 c3bf 6bb6 ad3f f950 3d3f b8bb 4dbf
00000220: 65fd e3be 3d69 443f 3787 15bf 4e16 643f
00000230: 1181 c6be 44c1 d8bd 10f5 50bd 3de8 abbe
00000240: 672e b3be 7543 d0bf 5ec0 9bbf 49ac 553e
00000250: 0320 b63e b773 cebe 5630 1fbf bf98 8bbd
00000260: 027a 1c3d 362c 57bf 8069 fbbf e706 a4be
00000270: caad acbf e1ef e93f 9e95 eabe 7dfa afbe
00000280: 5e7b bfbf bee5 8cbf bbde 13bf e3d2 07bf
00000290: 913f 0dbf a35d 28bf eceb d5bf 831c 93bf
000002a0: b44d bebf 4dfc a53f 39e7 dc3f a241 8b3f
000002b0: f3da 8fbf 18c6 66bd 3945 ecbe dbd7 85bf
000002c0: a1f4 22bf c288 82bf 5cb5 0140 f6c6 a1bd
000002d0: 9139 c7bf 469b e4be 6714 753f 1dc8 07be
000002e0: 412a 72bf 3622 993b cec7 453f acaf fd3d
000002f0: 4520 e73f c000 513b 365c a4bf 2e15 363e
00000300: 552a e73e 581e 0a3e 0488 94bf 4b2c 70bb
00000310: 2a20 90bf 76c5 e23f b4a9 043f 9c44 80be
00000320: d3d5 42bf 9885 d1bf fb65 8bbe 3dd9 ca3f
00000330: 5ab6 93be 320e ae3b 197e 303a fd8c 17bf
00000340: a574 16bf 9b9d cabe 6e14 52bf 4730 963f
00000350: ab5a 17bf d201 15bf 571f f8be 804b debb
00000360: c269 4d3c e2ad b4bf 9cc4 97bf 0d71 abbf
00000370: 155c 5ebf 7e77 2040 a164 d8be 2e70 babe
00000380: d6d5 32bf 5d66 11bf 4098 82bf d0c9 1cbf
00000390: 3a86 63bf 62d6 a9bf 719a 81bf 50ba 83bf
000003a0: 85e4 46bf f443 a03f c300 913f 58c6 903f
000003b0: 4960 4cbf 68fa 603d 4a75 0abf 1903 38be
000003c0: bf4f 2bbf df37 5dbf 73ab 6e3f ccc5 a63d
000003d0: 5fec 0fc0 a270 c5bf c598 8a3c 6782 c8bf
000003e0: dfb0 dabf 00fe 2ebd 0ecd 353e e868 6ebd
000003f0: 2e6b 0f3f 9865 a0bd 9f26 e0be b0c4 8f3c

model.model.model.4.bias f4 [4]
0.25400198 -0.24321708 0.46599784 0.01680288
00000000: 8c0c 823e e60d 79be 4597 ee3e 32a6 893c

model_old.model.model.0.weight f4 [64, 8]
-0.22565117 1.0536982 0.67056686 -1.4281011 0.50704646 -1.1148814 0.5845005 -0.65513664
-0.10190624 -0.40485024 -1.1297259 4.500806 0.9475064 -0.6635459 -0.87004 -0.4491481
1.4471834 0.33041394 -0.10641315 0.44873834 -2.0166872 2.0181634 -0.76120424 0.032301344
1.9239643 0.7779731 -0.37940297 -0.63012683 1.1694529 -0.33390537 -0.35153773 -0.8580661
-0.72472847 -3.6239595 -0.5235414 -0.64082414 1.0675329 1.6942654 0.251566 0.7168928
-2.2856138 -2.326145 -0.81149393 -1.868034 -0.6877322 0.089017466 0.048501566 0.09479324
-0.84489995 0.6103389 0.17290184 -0.9885082 1.6984416 0.5970764 -1.1255115 -0.98944414
0.38884732 0.9219626 0.37672934 -0.91526335 1.1240612 -0.58813715 -1.3268286 -0.7226513
1.2575414 0.82337385 0.3654503 0.93848723 -1.3905289 -0.027714469 0.11154732 -1.4156318
1.2653371 -0.058657203 -3.2094488 0.03754684 -1.2882063 0.76513237 0.5562747 -0.48713613
0.18600671 -1.2900212 1.5899504 1.8304956 -1.4178064 -1.7879764 0.75094116 0.39267728
-0.5242278 0.30043224 -0.9083411 0.028933534 0.39024758 -0.8362762 0.25363895 -0.7283267
0.7081637 0.4714992 1.1946757 -1.824639 -0.6651323 -0.01671185 0.19344494 -0.74894345
-0.035803273 -2.0396802 0.6463119 -1.0134349 -0.4757751 0.23176903 0.6690119 -0.90829766
0.014883163 0.5492564 -1.4618566 0.15040505 -0.13559169 2.3713417 0.023762671 -0.6892119
0.57021356 -1.6872394 -1.2357934 0.9022466 1.1638703 -0.5186567 -0.86030287 1.222551
-1.5424211 -0.32025215 -0.48600197 -1.3412547 -0.032420695 -0.5711634 -0.70336896 1.6434025
-0.29118395 0.41294843 0.49112052 -0.06639115 -1.1779426 -0.9248654 -0.90636027 -0.51292986
1.5126921 -0.24694695 1.154755 -0.985035 -0.4711451 0.20227626 0.27739915 0.09350636
0.13043019 0.47926524 2.7365828 -2.133653 -0.6417824 0.24670376 -0.08582653 -0.34148014
1.3694727 0.020538563 0.33643338 -1.1337348 -1.0572557 1.006904 0.009897557 0.049585305
-0.4961562 -0.5306238 2.2205431 -2.1460927 -0.21332179 1.0389713 0.6966433 -0.40511957
0.15042616 -0.0062697106 -0.02205539 0.04089015 -2.9208293 0.15385191 -1.0603024 0.3332978
-0.86231637 1.3266451 -1.4664804 -1.3623116 -0.95386744 -1.0562595 -0.25387865 -0.46110252
-0.16846721 1.0600462 1.4953315 -1.8119067 -0.13867666 0.43863884 -0.501408 -0.21345358
1.1929824 -1.0754426 0.20260014 -1.4195566 -1.3395814 -0.34323946 -0.00039715783 0.20822316
-0.17743607 -0.15625782 -0.2826236 -0.43354887 -3.1418679 -0.41764745 -0.34951186 -0.6000204
0.101567745 0.5770037 -0.42515412 -1.3466808 1.1620593 0.06262284 0.28829753 0.6786709
-0.14804234 -2.3616786 2.0625265 -2.020368 -0.65527177 0.11847452 -0.21552178 0.37486607
-1.06129 0.48141178 -0.037191674 1.5692264 -1.0552893 0.25930905 -0.70497847 -0.10739894
0.15643123 -0.75090283 0.3676251 -1.6616405 -0.001470482 -0.83423793 0.12164459 0.6193304
0.22135708 0.26603615 1.2923883 -1.4647729 1.077924 0.8713186 -0.6771258 -1.0385891
00000000: 1a11 67be 95df 863f 45aa 2b3f 04cc b6bf
00000010: cccd 013f 6fb4 8ebf d3a1 153f 09b7 27bf
00000020: 38b4 d0bd 8848 cfbe dc9a 90bf 9a06 9040
00000030: c88f 723f 25de 29bf f1ba 5ebf bdf6 e5be
00000040: 4e3d b93f 042c a93e 23ef d9bd 08c1 e53e
00000050: 6711 01c0 9729 0140 48de 42bf 6a4e 043d
00000060: 7644 f63f 3f29 473f 1b41 c2be fe4f 21bf
00000070: a2b0 953f a5f5 aabe c1fc b3be 38aa 5bbf
00000080: ce87 39bf f4ee 67c0 cf06 06bf 0d0d 24bf
00000090: eba4 883f b0dd d83f 42cd 803e 4986 373f
000000a0: 7f47 12c0 8fdf 14c0 11be 4fbf bd1b efbf
000000b0: 380f 30bf ca4e b63d 94a9 463d f522 c23d
000000c0: 5d4b 58bf 2c3f 1c3f 2e0d 313e e00e 7dbf
000000d0: 8966 d93f 00da 183f c310 90bf 364c 7dbf
000000e0: ff16 c73e be05 6c3f abe2 c03e b34e 6abf
000000f0: 3de1 8f3f 2890 16bf 85d5 a9bf adff 38bf
00000100: 1ef7 a03f a1c8 523f 4d1c bb3e b340 703f
00000110: dafc b1bf 7409 e3bc ec72 e43d 6c33 b5bf
00000120: 91f6 a13f 8942 70bd 9c67 4dc0 b7ca 193d
00000130: f2e3 a4bf b7df 433f 0568 0e3f e869 f9be
00000140: 8b78 3e3e 6a1f a5bf 7f83 cb3f ae4d ea3f
00000150: ae7a b5bf 69dc e4bf ae3d 403f ff0c c93e
00000160: cb33 06bf 41d2 993e 0b89 68bf 0506 ed3c
00000170: 88ce c73e 3216 56bf f7dc 813e 9e73 3abf
00000180: 374a 353f 5868 f13e 22eb 983f c58d e9bf
00000190: 1c46 2abf 4ae7 88bc 6e16 463e c2ba 3fbf
000001a0: 74a6 12bd 1f8a 02c0 b274 253f 3cb8 81bf
000001b0: cb98 f3be dc54 6d3e 5d44 2b3f 3286 68bf
000001c0: 83d8 733c 119c 0c3f 1e1e bbbf c803 1a3e
000001d0: 8cd8 0abe 10c4 1740 efa9 c23c 3170 30bf
000001e0: 84f9 113f 76f7 d7bf 7a2e 9ebf a2f9 663f
000001f0: b4f9 943f afc6 04bf cf3c 5cbf 8d7c 9c3f
00000200: 0e6e c5bf 17f8 a3be 40d5 f8be 3cae abbf
00000210: 90cb 04bd c437 12bf fd0f 34bf 035b d23f
00000220: 1016 95be fa6d d33e 2674 fb3e 15f8 87bd
00000230: d3c6 96bf fbc3 6cbf 3a07 68bf 5f4f 03bf
00000240: e59f c13f a9df 7cbe 03cf 933f 412b 7cbf
00000250: ee39 f1be 8221 4f3e 4307 8e3e 4380 bf3d
00000260: 7e8f 053e 4162 f53e 2c24 2f40 c58d 08c0
00000270: da4b 24bf e99f 7c3e d2c5 afbd 7cd6 aebe
00000280: e24a af3f 7d40 a83c ff40 ac3e 391e 91bf
00000290: 2854 87bf 3be2 803f 5d29 223c f619 4b3d
000002a0: 2f08 febe f6d6 07bf 611d 0e40 9559 09c0
000002b0: 0771 5abe 03fd 843f 3757 323f d56b cfbe
000002c0: 5109 1a3e 2572 cdbb 81ad b4bc 6e7c 273d
000002d0: deee 3ac0 5b8b 1d3e fdb7 87bf 02a6 aa3e
000002e0: c4c0 5cbf 82cf a93f a1b5 bbbf 3a60 aebf
000002f0: a830 74bf 8333 87bf 62fc 81be a115 ecbe
00000300: ab82 2cbe 98af 873f 0667 bf3f 8fec e7bf
00000310: 4101 0ebe 4595 e03e 465c 00bf 9393 5abe
00000320: a6b3 983f 1aa8 89bf 6976 4f3e 08b4 b5bf
00000330: 6777 abbf 15bd afbe 9f39 d0b9 7438 553e
00000340: cdb1 35be 0d02 20be 0ab4 90be 1efa ddbe
00000350: 5d14 49c0 e3d5 d5be 38f3 b2be f09a 19bf
00000360: c002 d03d 84b6 133f cdad d9be 0960 acbf
00000370: 5cbe 943f 6740 803d bc9b 933e 60bd 2d3f
00000380: 6998 17be be25 17c0 6f00 0440 b64d 01c0
00000390: e4bf 27bf c5a2 f23d beb1 5cbe 72ee bf3e
000003a0: 5ad8 87bf 9b7b f63e 4c56 18bd 69dc c83f
000003b0: b813 87bf 28c4 843e 7879 34bf faf3 dbbd
000003c0: 822f 203e 2b3b 40bf 5b39 bc3e a3b0 d4bf
000003d0: 30bd c0ba 9e90 55bf cc20 f93d 708c 1e3f
000003e0: 6eab 623e e435 883e fb6c a53f ae7d bbbf
000003f0: 6af9 893f bc0e 5f3f 1e58 2dbf 7df0 84bf

model_old.model.model.0.bias f4 [64]
0.5382649 0.44184402 0.56531155 1.0495918 0.63339275 -0.36402595 0.2338323 0.7237047
0.39044255 0.2342311 0.23462032 -0.6706841 0.34086508 0.72615206 0.66916835 0.12966567
0.9988527 0.3504828 -0.22045545 0.40145755 0.49236718 -0.09547857 -0.00065351673 -1.2492993
0.5911801 -0.1531791 0.17469871 0.24600957 -0.16891326 -0.4352258 0.57489544 0.33457437
-0.2650043 0.44496143 0.3311289 0.071615 -0.012436592 0.33188048 0.41364613 0.049783804
0.81287414 0.76177126 0.6980695 -0.17086054 1.0667858 0.6334372 0.32805872 -0.08821709
0.5560521 0.9301479 0.37624922 0.75218713 -0.068078235 0.4690444 0.44052035 -0.035871893
0.29050174 0.55064636 0.056480054 0.17045495 0.29380825 0.9290466 0.41672286 0.4959379
00000000: bacb 093f 6139 e23e 42b8 103f 0659 863f
00000010: 0726 223f 9c61 babe bc71 6f3e b644 393f
00000020: 16e8 c73e 47da 6f3e 4f40 703e f4b1 2bbf
00000030: de85 ae3e 1ae5 393f 9e4e 2b3f 14c7 043e
00000040: d0b4 7f3f 7b72 b33e 13bf 61be d88b cd3e
00000050: 8d17 fc3e 458a c3bd c450 2bba 0ae9 9fbf
00000060: 9457 173f fbda 1cbe 38e4 323e efe9 7b3e
00000070: 99f7 2cbe ebd5 debe 592c 133f 554d ab3e
00000080: a5ae 87be fcd1 e33e ba89 a93e e3aa 923d
00000090: d9c2 4bbc 3dec a93e 6dc9 d33e 1aea 4b3d
000000a0: 8518 503f 7103 433f afb4 323f 11f6 2ebe
000000b0: 708c 883f f128 223f 50f7 a73e 29ab b4bd
000000c0: 6e59 0e3f 2c1e 6e3f bda3 c03e 568f 403f
000000d0: 9a6c 8bbd 9626 f03e e28b e13e 68ee 12bd
000000e0: a5bc 943e 29f7 0c3f a157 673d be8b 2e3e
000000f0: 096e 963e ffd5 6d3f b35c d53e 93eb fd3e

model_old.model.model.2.weight f4 [64, 64]
-0.057095274 -1.0212266 -0.28511822 -0.43644014 -3.0041435 -0.226006 0.39005908 -0.40561882
-0.027422402 0.20344152 1.4566815 0.9573265 0.21827534 0.89133596 0.4874498 0.19525306
0.74165696 -0.91664696 1.19991 0.2290959 0.19609867 0.48631194 1.4507564 0.107159294
-0.7767476 2.49194 1.0376645 -0.34483385 0.85096395 -0.42980644 0.864261 0.39534727
0.8915063 0.6269968 -0.32206497 0.4025336 0.07714618 -0.28901476 -0.35278934 0.5212709
-0.08091712 -0.36787903 -2.1792264 -1.6220214 0.61584514 -0.30330154 0.8788853 -0.6754319
-0.7805506 -0.08502602 0.5145806 0.69234973 -0.16027084 0.1995306 0.9470235 0.7349625
-1.4185529 0.114867896 0.83447516 -1.876313 0.37305275 -0.23057891 -0.764925 -0.09350172
0.7701565 1.2025954 -0.1611628 0.81635475 2.1714246 -1.2343521 0.912928 0.0552416
-0.19572099 -0.5444214 -0.7581723 -0.27760655 0.19571637 -1.2832264 -0.14849333 0.02021745
-0.7691816 -0.6654397 0.031420995 -0.22966222 0.035090405 0.00043864694 0.56582093 0.67590725
0.13707636 -1.1518129 1.374047 0.4196565 -0.30722132 -0.22327793 1.244115 0.48787248
-1.7305465 -0.6550733 0.14331535 0.34606424 -0.30172312 1.0295839 0.21484083 1.3571649
0.49014598 -0.044460893 1.030712 1.7776672 -0.7385534 -0.0024833223 -0.12737444 -1.6489893
-0.14399344 0.52829415 -0.360585 -0.2380159 -1.5007281 -0.08091265 -0.94510436 -0.14041008
0.9791053 0.2191428 -1.0231225 -1.906013 -0.38637036 -0.09140293 0.55579853 0.50753415
-0.34575808 -0.77569056 0.0161023 0.31629372 -0.9866753 0.8715597 0.07219081 0.10554042
1.3938429 0.091529615 -0.8379253 0.27219015 0.65655273 -1.7599776 0.20465758 0.2875365
-0.6231848 0.5216136 0.74008965 0.1371381 0.5000445 0.10211067 -1.798116 0.32279015
-0.15448488 1.323665 -0.8329283 0.038850192 0.8814206 -0.374329 -0.2245046 0.21236841
-1.8358709 0.0673042 -0.016036928 0.54056644 0.32297778 -0.13713376 0.06083214 -0.019283867
0.34807536 0.07507878 -1.0132167 -1.3475688 0.19229287 -0.014918058 0.36648703 0.22910045
-0.33927953 0.19247524 0.19861142 0.015616577 -1.931179 0.028878488 0.19695766 -0.9405099
0.8078171 0.26378277 0.46683213 1.0514768 0.34228927 0.18504262 0.6004964 0.7927889
-0.03779553 -0.0190808 0.04989735 0.05964539 0.020422067 -0.062668376 0.087710254 -0.03289391
-0.0007834795 -0.021371983 -0.07960482 -0.011085037 -0.15846223 -0.01263169 0.016957555 -0.0771996
-0.039605666 -0.027406221 -0.011628644 -0.13626453 -0.08717662 -0.047004048 -0.08302254 -0.0552869
0.04042623 0.008417387 -0.113371074 -0.0075794505 -0.025795585 0.112981156 0.024826542 0.04968232
-0.021767424 -0.13997187 0.058550585 -0.021498935 -0.12571687 -0.15589416 -0.06375062 -0.013703702
-0.0043780883 -0.11651448 -0.08765244 -0.02075109 0.01318823 -0.060419075 0.03648548 0.020501588
-0.004299571 -0.17275222 -0.012910409 -0.020775344 -0.03753415 -0.015851922 -0.016820958 0.063056886
-0.0033958661 -0.17143609 -0.06226127 -0.009001087 -0.042989112 -0.10513558 -0.02584677 -0.1741917
00000000: bcdc 69bd 8eb7 82bf 04fb 91be 1575 dfbe
00000010: e343 40c0 1e6e 67be d3b5 c73e 45ad cfbe
00000020: f2a4 e0bc f952 503e 8a74 ba3f 5913 753f
00000030: 9283 5f3e 982e 643f 0593 f93e 6bf0 473e
00000040: 3bdd 3d3f 60a9 6abf a796 993f 1e98 6a3e
00000050: 17ce 483e e1fd f83e 63b2 b93f 5576 db3d
00000060: eed8 46bf f27b 1f40 31d2 843f 108e b0be
00000070: c6d8 593f 970f dcbe 3540 5d3f f56a ca3e
00000080: c239 643f dd82 203f b3e5 a4be e218 ce3e
00000090: d1fe 9d3d bef9 93be cea0 b4be 0272 053f
000000a0: e0b7 a5bd a45a bcbe 7278 0bc0 669e cfbf
000000b0: 07a8 1d3f 574a 9bbe a1fe 603f 1be9 2cbf
000000c0: 2ad2 47bf 1f22 aebd 8ebb 033f d53d 313f
000000d0: 0a1e 24be c051 4c3e 2270 723f 8126 3c3f
000000e0: 2493 b5bf dc3f eb3d 2aa0 553f 062b f0bf
000000f0: c500 bf3e e11c 6cbe 20d2 43bf d47d bfbd
00000100: fa28 453f a5ee 993f dc07 25be a0fc 503f
00000110: 9ff8 0a40 40ff 9dbf a6b5 693f 0445 623d
00000120: 156b 48be 335f 0bbf 9417 42bf 7222 8ebe
00000130: df69 483e c340 a4bf a30e 18be 119f a53c
00000140: 16e9 44bf 425a 2abf 4db3 003d 932c 6bbe
00000150: f5ba 0f3d 32fa e539 a4d9 103f 4208 2d3f
00000160: bf5d 0c3e 9b6e 93bf c6e0 af3f 37dd d63e
00000170: 1d4c 9dbe f8a2 64be 293f 9f3f 6cca f93e
00000180: 8c82 ddbf e2b2 27bf 42c1 123e 552f b13e
00000190: 747b 9abe 68c9 833f 3cff 5b3e 94b7 ad3f
000001a0: 6af4 fa3e a01c 36bd 5fee 833f 998a e33f
000001b0: d611 3dbf 3cbf 22bb 726e 02be 1512 d3bf
000001c0: 0473 13be 493e 073f 999e b8be 71ba 73be
000001d0: dc17 c0bf 88b5 a5bd 5cf2 71bf a9c7 0fbe
000001e0: a5a6 7a3f f866 603e aef5 82bf 3cf8 f3bf
000001f0: 56d2 c5be 7631 bbbd d048 0e3f c2ed 013f
00000200: 3407 b1be a893 46bf f8e8 833c 40f1 a13e
00000210: c196 7cbf 891e 5f3f c7d8 933d 9325 d83d
00000220: 7269 b23f e173 bb3d 4682 56bf 825c 8b3e
00000230: d713 283f f246 e1bf c291 513e fc37 933e
00000240: 0a89 1fbf 7888 053f 8476 3d3f ee6d 0c3e
00000250: eb02 003f 661f d13d aa28 e6bf c044 a53e
00000260: 4931 1ebe db6d a93f ca3a 55bf 6121 1f3d
00000270: c8a4 613f 0da8 bfbe 89e4 65be 1b77 593e
00000280: d1fd eabf c9d6 893d e05f 83bc 9062 0a3f
00000290: 585d a53e cb6c 0cbe 1f2b 793d 33f9 9dbc
000002a0: ef36 b23e e7c2 993d 16b1 81bf 227d acbf
000002b0: 6ce8 443e df6a 74bc 30a4 bb3e 4f99 6a3e
000002c0: 0cb6 adbe 3b18 453e cb60 4b3e acdc 7f3c
000002d0: e030 f7bf 9492 ec3c 45af 493e 42c5 70bf
000002e0: 1acd 4e3f 890e 873e 9f04 ef3e cb96 863f
000002f0: 8a40 af3e d07b 3d3e 22ba 193f 37f4 4a3f
00000300: 7ccf 1abd 564f 9cbc 2a61 4c3d b94e 743d
00000310: 2e4c a73c 4758 80bd 6fa1 b33d c4bb 06bd
00000320: 6b62 4dba 4c14 afbc da07 a3bd 049e 35bc
00000330: ec43 22be 26f5 4ebc 92ea 8a3c d31a 9ebd
00000340: 8d39 22bd 0383 e0bc 1186 3ebc ee88 0bbe
00000350: a889 b2bd 5187 40bd b907 aabd 8474 62bd
00000360: f995 253d 14e9 093c 182f e8bd 0a5d f8bb
00000370: 4351 d3bc aa62 e73d 0861 cb3c b07f 4b3d
00000380: 9951 b2bc c954 0fbe bdd2 6f3d 891e b0bc
00000390: ecbb 00be b8a2 1fbe af8f 82bd 7e85 60bc
000003a0: 1176 8fbb 259f eebd 1f83 b3bd 31fe a9bc
000003b0: 7213 583c fe79 77bd cc71 153d f2f2 a73c
000003c0: 6ae3 8cbb f5e5 30be 2e86 53bc 0e31 aabc
000003d0: 69bd 19bd e4db 81bc 1bcc 89bc f823 813d
000003e0: 2e8d 5ebb f18c 2fbe ac05 7fbd 4c79 13bc
000003f0: 5a15 30bd 5351 d7bd 9bbc d3bc 4f5f 32be

model_old.model.model.2.bias f4 [64]
0.17492178 0.044574264 0.32027414 0.023585103 0.31949842 -0.3038962 0.6344304 -0.020664789
-0.0017591205 0.30681205 0.18131576 0.92476785 0.09209072 0.037098907 -0.18233913 0.22257641
0.032415118 0.30471572 0.34885067 0.14765726 0.10319127 0.103159584 -0.01618948 -0.0650907
0.023931345 -0.047389206 0.26709452 0.14755616 0.3357739 0.5686733 0.16538563 0.008242594
0.25613236 0.26854038 0.007854742 0.12636715 0.043216594 0.20108724 0.5080932 0.19365965
0.5718032 0.49857667 0.5772331 0.6820484 -0.074317835 0.0011859364 0.15054539 0.22867484
0.08830638 0.30912298 0.112088725 -0.08001693 0.30106375 -0.08774241 0.3612763 0.21921533
0.22801708 -0.03141764 0.5348087 -0.1014822 -0.62734395 0.09496225 0.15731527 0.2788773
00000000: b21e 333e 8193 363d f9fa a33e 8c35 c13c
00000010: 4c95 a33e 4898 9bbe 086a 223f 3449 a9bc
00000020: 4a92 e6ba 7816 9d3e d7aa 393e 96bd 6c3f
00000030: 0f9a bc3d 06f5 173d 1cb7 3abe 12eb 633e
00000040: b7c5 043d b303 9c3e 8e9c b23e 7733 173e
00000050: f255 d33d 5545 d33d cd9f 84bc 464e 85bd
00000060: ab0b c43c 2f1b 42bd 9dc0 883e f618 173e
00000070: 8eea ab3e 9394 113f da5a 293e f20b 073c
00000080: c823 833e 207e 893e 2db1 003c 6466 013e
00000090: e203 313d d0e9 4d3e 6512 023f b74e 463e
000000a0: b261 123f 7145 ff3e 8cc5 133f b99a 2e3f
000000b0: f333 98bd 6c71 9b3a 9228 1a3e bd29 6a3e
000000c0: fad9 b43d 5e45 9e3e c68e e53d ebdf a3bd
000000d0: 0725 9a3e 4bb2 b3bd 35f9 b83e fc79 603e
000000e0: 4f7d 693e c9af 00bd 39e9 083f e6d5 cfbd
000000f0: 9d99 20bf 917b c23d 4117 213e 01c9 8e3e

model_old.model.model.4.weight f4 [4, 64]
-0.8725029 -1.4523042 -1.1382676 0.06786161 0.93794036 -2.6336348 0.5166181 -1.044948
0.32830837 -0.32997265 -0.73077375 1.7603887 -1.3384973 -0.00094078755 -0.005974887 -0.97014815
-1.1860573 -0.3019611 -0.47018826 -1.6423583 -1.8837098 -0.85385126 -0.6243756 0.05098269
-0.0139309345 -0.20407185 -1.8729066 -2.5394368 -1.8349766 2.0318272 -0.99369156 -1.3326532
-2.5215561 -1.2517344 -0.04069812 -1.2164836 0.22023317 -2.6965482 -1.9653383 -1.6155111
-2.4155447 -0.54243976 2.0283952 2.9264522 -0.9538174 0.0378158 -1.7068934 -1.154023
-0.7252427 -1.7474058 2.6299033 0.018675521 -1.58485 -0.28582972 -0.24154592 -1.9805077
-1.8361905 -0.08208368 1.0167946 -0.07297458 1.0025028 0.008991769 -0.52249426 -1.2405175
0.71657646 1.4263703 -0.74664223 0.020270813 -0.8898985 2.5456648 1.60364 -0.8899535
-0.17587817 -2.16477 -0.42255905 0.5083364 -1.1602201 0.04820963 -0.062153343 -1.4557371
-1.0261256 -0.7128269 -0.80514383 0.42171043 -1.4220289 -1.4246408 -0.96742165 0.09100501
0.02200966 -0.475757 -0.5156703 -0.6532582 -0.688298 1.9968101 -0.744198 -0.35835928
-0.15940143 -0.7307612 -0.82957083 -0.22249109 -0.13269107 -0.87028044 -0.44027126 0.29322404
-1.181737 1.8985865 0.5631071 1.5375757 -0.983683 0.06714243 -1.1198739 -1.3760659
-0.30646938 -0.563449 0.35047218 0.0788924 -0.32896122 0.024384212 -0.07130435 -0.5927231
-1.5565379 0.07866984 -0.30230996 0.023071919 1.7846825 0.100221395 -0.68089074 -1.0945687
1.4936651 0.6368688 -0.9696835 -0.08710933 -1.5208403 1.373442 0.7415962 -0.8007674
-0.4406747 0.7727003 -0.5930461 0.89626807 -0.4002673 -0.105837375 -0.05101496 -0.34484008
-0.36977583 -1.6250838 -1.2062277 0.20251192 0.3530976 -0.40244347 -0.6179726 -0.068162434
0.038202293 -0.8677268 -1.9367771 -0.28160718 -1.3400897 1.8324759 -0.45023707 -0.35583228
-1.48792 -1.0875213 -0.6085321 -0.52968425 -0.5394162 -0.6508081 -1.6578997 -1.1605456
-1.5078743 1.3002872 1.7246841 1.0928966 -1.1114293 -0.05634126 -0.48610467 -1.0539645
-0.65598345 -0.9830796 2.024372 -0.07899277 -1.5477877 -0.44893163 0.9522451 -0.1529077
-0.9560143 0.0046732677 0.77392244 0.123870224 1.7802522 0.0031891316 -1.2826809 0.1654545
0.3964552 0.14639622 -1.1563715 -0.0036647494 -1.1610808 1.7873082 0.5150278 -0.24204078
-0.76353043 -1.5983645 -0.25755858 1.5860703 -0.26651007 0.005311751 0.0006732657 -0.5855152
-0.6020309 -0.41448376 -0.8274885 1.1839008 -0.60654885 -0.5497356 -0.48370203 -0.0067839026
0.012537422 -1.3581783 -1.23437 -1.3342515 -0.8708065 2.5195436 -0.40228963 -0.37109748
-0.7176304 -0.5665484 -0.98252773 -0.60094917 -0.900454 -1.2313995 -1.0168616 -1.0310583
-0.803701 1.25029 1.1452758 1.1395814 -0.8280758 0.054926306 -0.53389084 -0.17101187
-0.6775863 -0.87670684 0.947654 0.081431955 -2.2747188 -1.5034827 0.0076268497 -1.6224787
-1.691614 -0.042722702 0.17239156 -0.058205515 0.56667554 -0.078318775 -0.43762723 0.0069009177
00000000: 5a5c 5fbf 1be5 b9bf c1b2 91bf 07fb 8a3d
00000010: dc1c 703f 798d 28c0 1541 043f dbc0 85bf
00000020: 0918 a83e 2df2 a8be fd13 3bbf 6b54 e13f
00000030: e153 abbf 2f9f 76ba fcc8 c3bb a15b 78bf
00000040: bad0 97bf a59a 9abe 84bc f0be cc38 d2bf
00000050: 671d f1bf ff95 5abf 14d7 1fbf 3ad3 503d
00000060: 933e 64bc 36f8 50be 67bb efbf 2286 22c0
00000070: 83e0 eabf 7509 0240 9262 7ebf 6194 aabf
00000080: 2d61 21c0 d538 a0bf 12b3 26bd bcb5 9bbf
00000090: ce84 613e 3f94 2cc0 3590 fbbf 11c9 cebf
000000a0: 4998 1ac0 55dd 0abf 3ad1 0140 fe4a 3b40
000000b0: 612d 74bf bee4 1a3d 7c7b dabf 07b7 93bf
000000c0: 81a9 39bf feaa dfbf 5650 2840 68fd 983c
000000d0: 5ddc cabf 4658 92be d057 77be 4781 fdbf
000000e0: 4a08 ebbf 7d1b a8bd 5326 823f b273 95bd
000000f0: 0352 803f 3652 133c 2fc2 05bf 47c9 9ebf
00000100: 8e71 373f 4d93 b63f f223 3fbf fa0e a63c
00000110: 63d0 63bf 2cec 2240 1344 cd3f fed3 63bf
00000120: 6819 34be 978b 0ac0 a959 d8be 5622 023f
00000130: 1882 94bf 7677 453d 8194 7ebd 9855 babf
00000140: 1558 83bf d37b 36bf e81d 4ebf 6eea d73e
00000150: 0b05 b6bf a15a b6bf f2a8 77bf d660 ba3d
00000160: 9a4d b43c 6c96 f3be f802 04bf ee3b 27bf
00000170: 4c34 30bf 7997 ff3f c383 3ebf de7a b7be
00000180: 213a 23be 2a13 3bbf c15e 54bf b4d4 63be
00000190: 2be0 07be b3ca 5ebf 3c6b e1be 7621 963e
000001a0: 2843 97bf e204 f33f c927 103f 48cf c43f
000001b0: a6d2 7bbf f881 893d 0758 8fbf ed22 b0bf
000001c0: 8ee9 9cbe 323e 10bf 1771 b33e 5792 a13d
000001d0: 9b6d a8be 66c1 c73c 0408 92bd b3bc 17bf
000001e0: a23c c7bf a71d a13d 5fc8 9abe 5201 bd3c
000001f0: 7a70 e43f e040 cd3d db4e 2ebf d41a 8cbf
00000200: 6b30 bf3f d509 233f 2e3d 78bf 6066 b2bd
00000210: e5aa c2bf f3cc af3f 40d9 3d3f 18ff 4cbf
00000220: 1da0 e1be b0cf 453f dfd1 17bf d371 653f
00000230: d6ef ccbe 44c1 d8bd 10f5 50bd e18e b0be
00000240: 4253 bdbe bf02 d0bf ab65 9abf 495f 4f3e
00000250: 35c9 b43e 120d cebe 7433 1ebf bf98 8bbd
00000260: 027a 1c3d 5823 5ebf 50e8 f7bf d12e 90be
00000270: 0f88 abbf 928e ea3f 7985 e6be a62f b6be
00000280: 2a74 bebf e633 8bbf c2c8 1bbf 6399 07bf
00000290: 2e17 0abf 5c9b 26bf 0f36 d4bf c28c 94bf
000002a0: 0602 c1bf d06f a63f 73c2 dc3f 09e4 8b3f
000002b0: 5143 8ebf 18c6 66bd b6e2 f8be 4fe8 86bf
000002c0: 88ee 27bf 1bab 7bbf 508f 0140 f6c6 a1bd
000002d0: e81d c6bf 5eda e5be 56c6 733f d693 1cbe
000002e0: 5abd 74bf 3622 993b c81f 463f acaf fd3d
000002f0: 4edf e33f c000 513b e32e a4bf e86c 293e
00000300: 2dfc ca3e e4e8 153e fb03 94bf 4b2c 70bb
00000310: 4c9e 94bf 84c6 e43f ddd8 033f 8ad9 77be
00000320: bb76 43bf 3597 ccbf b8de 83be 5a04 cb3f
00000330: 0274 88be 320e ae3b 197e 303a 53e4 15bf
00000340: b21e 1abf 3737 d4be 49d6 53bf 108a 973f
00000350: c946 1bbf 79bb 0cbf cba7 f7be 804b debb
00000360: c269 4d3c c9d8 adbf d6ff 9dbf c1c8 aabf
00000370: 2ded 5ebf 3440 2140 e8f8 cdbe 7d00 bebe
00000380: a0b6 37bf 5109 11bf f086 7bbf ced7 19bf
00000390: 2784 66bf 809e 9dbf 8528 82bf b8f9 83bf
000003a0: 59bf 4dbf 8109 a03f 6698 923f cedd 913f
000003b0: c7fc 53bf 68fa 603d 12ad 08bf bc1d 2fbe
000003c0: 4c76 2dbf dc6f 60bf 7499 723f ccc5 a63d
000003d0: fe94 11c0 1f72 c0bf a7ea f93b 62ad cfbf
000003e0: cf86 d8bf 00fe 2ebd 6a87 303e e868 6ebd
000003f0: a611 113f 9865 a0bd ad10 e0be 1821 e23b

model_old.model.model.4.bias f4 [4]
0.24594887 -0.2521359 0.47292584 0.024386799
00000000: 05da 7b3e f517 81be 5623 f23e d3c6 c73c

exp_avg f4 [64, 8]
-0.70423996 0.40496665 0.2732158 -0.061282076 0.22102927 -0.4063645 -0.5349764 -0.37376928
-0.17919391 0.083039716 -0.033938162 -0.025537968 0.08566884 0.12752622 -0.044975482 0.07364883
-0.27620807 0.02932793 0.15585673 0.124649495 0.021256587 0.07661161 -0.7969839 -0.66134506
-0.12056468 0.09094804 0.059571538 -0.09205286 0.11374558 -0.11323583 -0.06418157 -0.15594317
-2.2319372 0.021494668 -0.06114042 0.9341848 0.07804836 0.39025843 -2.054653 -1.9047979
0.4880873 -0.11736804 0.4406915 0.1019511 0.008081734 1.5418353 0.025536226 0.44923827
0.078962095 0.44857556 0.16873264 -0.27996787 0.10860143 0.037019335 0.035795115 -0.00976933
-0.108528845 0.28238574 0.16715753 -0.11684834 0.09968198 -0.17284516 -0.024414135 0.09007516
0.102819204 -0.6667009 -0.49613738 0.20734642 -0.11431753 0.15266618 0.26552752 -0.21337727
-0.08590128 -0.10852789 0.025264794 0.005454586 0.12814687 -0.017297769 0.3401126 0.51396954
-0.094103225 0.027802069 -0.008250988 0.113685116 0.031360656 0.20580675 -0.13368008 -0.4027332
0.10984972 0.5579337 -0.1759215 -0.15662865 -0.020504916 0.18622588 -0.3387591 0.0011503765
0.20657785 -0.16297592 -0.14972563 -0.04457913 -0.020933164 -0.03407004 0.20327531 0.08898781
-1.7302095 1.378667 0.07529525 -0.5291833 0.34954953 0.16056187 -1.9137895 -1.7107495
0.3256326 -0.419048 -0.22024438 0.06514996 -0.22075252 -0.12317338 0.58299476 -0.119275
0.25476688 0.0022822716 0.05814723 -0.15169807 -0.063982375 -0.20240627 -0.00012598727 0.31674024
-0.32430834 -0.06725599 -0.111228526 0.21801624 -0.15772371 -0.107474215 -0.18947531 -0.3001455
0.25018066 -0.64821225 -0.5074379 0.24508724 -0.07646685 0.24891235 -0.0674321 0.1479965
0.36801314 -0.79983634 -0.19795269 0.2528974 -0.1702589 0.045351982 0.5574463 0.3779081
0.5741815 -0.17659733 -0.17938739 -0.14252353 0.0028053091 0.2825624 0.69671667 0.04902784
0.21824208 -0.16939631 -0.13088499 -0.017233726 -0.0819055 -0.11443276 0.48362294 0.46247533
0.18358344 0.2997741 0.008535425 -0.27712443 0.22141086 -0.021329077 0.41192746 0.009481443
-0.9826926 -1.6028202 0.80573976 0.8930134 -0.00862325 -0.24218203 0.3222093 1.3048557
0.040815845 0.19807422 -0.11725519 -0.07827284 0.056750502 0.23788272 -0.053351942 -0.1633343
-0.15816589 0.17571999 0.21070473 0.030017616 0.0008606513 -0.1689585 -0.005696956 0.08192109
1.1215469 -1.1532319 -0.26043314 0.38128802 -0.09266543 0.30017486 1.561114 0.9049879
-0.34565902 -0.06857697 0.5185776 -0.021149617 0.027382366 -0.041658152 0.115683235 0.91466093
-0.21087313 0.32061523 0.15559445 -0.14268854 0.10420607 -0.036156166 -0.17011786 -0.10917525
0.7881065 -0.47501606 -0.32759818 -0.14667724 0.155319 0.1435801 0.8194622 0.6024594
0.06244142 -0.097875446 0.050167315 0.038412016 0.044382103 -0.009689648 6e-45 -0.0011142653
-0.52934384 0.24910374 0.16994213 0.04904066 -0.07461178 -0.15095139 -0.5965711 -0.39980713
0.078212015 0.23841318 0.08457437 -0.19776869 -0.021215884 0.012033482 0.06842764 0.007654503
00000000: 1249 34bf ca57 cf3e f1e2 8b3e ea02 7bbd
00000010: 7f55 623e 020f d0be 37f4 08bf b05e bfbe
00000020: 9c7e 37be ba10 aa3d be02 0bbd 0035 d1bc
00000030: 2573 af3d 3c96 023e 3638 38bd 33d5 963d
00000040: 256b 8dbe 2141 f03c e898 1f3e 3c48 ff3d
00000050: 4b22 ae3c 8ce6 9c3d 2307 4cbf e94d 29bf
00000060: 9dea f6bd f742 ba3d 4901 743d 3686 bcbd
00000070: 71f3 e83d 30e8 e7bd a171 83bd 91af 1fbe
00000080: 0fd8 0ec0 9615 b03c 616e 7abd bc26 6f3f
00000090: d2d7 9f3d f4cf c73e 6f7f 03c0 6bd0 f3bf
000000a0: 94e6 f93e a85e f0bd 51a2 e13e bdcb d03d
000000b0: 4069 043c dc5a c53f 5931 d13c 8f02 e63e
000000c0: e1b6 a13d b2ab e53e 40c8 2c3e f357 8fbe
000000d0: 6d6a de3d 96a1 173d e69d 123d 8a0f 20bc
000000e0: 5f44 debd dd94 903e 582b 2b3e 2f4e efbd
000000f0: 1126 cc3d 52fe 30be 2700 c8bc 5379 b83d
00000100: e092 d23d e9ac 2abf b805 febe 9f52 543e
00000110: 4f1f eabd 8654 1c3e 39f3 873e 927f 5abe
00000120: 03ed afbd df43 debd 1df8 ce3c 62bc b23b
00000130: ef38 033e 0db4 8dbc 3d23 ae3e 8293 033f
00000140: 31b9 c0bd 2ac1 e33c 272f 07bc bed3 e83d
00000150: 0874 003d 01bf 523e 6ee3 08be 0c33 cebe
00000160: e4f8 e03d bed4 0e3f c424 34be 4363 20be
00000170: edf9 a7bc ffb1 3e3e d571 adbe 3bc8 963a
00000180: 2589 533e 29e3 26be ad51 19be 9b98 36bd
00000190: 077c abbc 078d 0bbd 6727 503e 3e3f b63d
000001a0: 8177 ddbf 2978 b03f 6534 9a3d 8f78 07bf
000001b0: 28f8 b23e 556a 243e 0ef7 f4bf d7f9 dabf
000001c0: 51b9 a63e 768d d6be be87 61be 586d 853d
000001d0: f30c 62be 5342 fcbd 253f 153f 7446 f4bd
000001e0: ce70 823e 2a92 153b ca2b 6e3d bd56 1bbe
000001f0: 3109 83bd 9743 4fbe 731b 04b9 c72b a23e
00000200: be0b a6be 82bd 89bd c8cb e3bd a63f 5f3e
00000210: 5382 21be 711b dcbd d105 42be acac 99be
00000220: ae17 803e 3df1 25bf 73e7 01bf 26f8 7a3e
00000230: a79a 9cbd e1e2 7e3e d719 8abd 658c 173e
00000240: 386c bc3e 13c2 4cbf 1cb4 4abe c57b 813e
00000250: 5958 2ebe 00c3 393d cdb4 0e3f 2c7d c13e
00000260: 8ffd 123f eed5 34be 54b1 37be b0f1 11be
00000270: 47d9 373b 05ac 903e 065c 323f 6bd1 483d
00000280: da7a 5f3e 3a76 2dbe b706 06be be2d 8dbc
00000290: 12be a7bd b95b eabd 6d9d f73e 91c9 ec3e
000002a0: 4cfd 3b3e fe7b 993e 2bd8 0b3c 41e3 8dbe
000002b0: 87b9 623e 51ba aebc 28e8 d23e 0e58 1b3c
000002c0: be91 7bbf 3629 cdbf f644 4e3f 879c 643f
000002d0: 8848 0dbc 91fe 77be 9ef8 a43e 8305 a73f
000002e0: 842e 273d f8d3 4a3e 7d23 f0bd 834d a0bd
000002f0: 3773 683d 8797 733e 9187 5abd 1b41 27be
00000300: 3df6 21be f1ef 333e fbc2 573e 81e7 f53c
00000310: 559d 613a 7503 2dbe 88ad babb 3fc6 a73d
00000320: d98e 8f3f 1a9d 93bf 7e57 85be 2f38 c33e
00000330: 5fc7 bdbd 85b0 993e 95d2 c73f 49ad 673f
00000340: 38fa b0be 1572 8cbd 80c1 043f f641 adbc
00000350: fc50 e03c bda1 2abd 55eb ec3d 3827 6a3f
00000360: 20ef 57be ae27 a43e 2754 1f3e f21c 12be
00000370: fe69 d53d 7d18 14bd 6033 2ebe 4697 dfbd
00000380: 59c1 493f 4e35 f3be f3ba a7be 8f32 16be
00000390: f20b 1f3e a906 133e 46c8 513f c73a 1a3f
000003a0: 93c2 7f3d ec72 c8bd 3e7c 4d3d eb55 1d3d
000003b0: 02ca 353d 54c1 1ebc 0400 0000 8a0c 92ba
000003c0: 1483 07bf 0d15 7f3e 4f05 2e3e dcde 483d
000003d0: 10ce 98bd 0093 1abe e2b8 18bf 85b3 ccbe
000003e0: 9f2d a03d 9622 743e 5435 ad3d e083 4abe
000003f0: efcc adbc 1528 453c ca23 8c3d a0d2 fa3b
