rl_compexp/save/LunarLander-DQN64/weights.npy (npy, 1152 bytes, 1 tensors)

array (column-major) f4 [64, 4]
0	0xbf865028	-1.0493212
1	0xbfb010ff	-1.3755187
2	0xbf91fda5	-1.1405531
3	0x3d8afb07	0.06786161
4	0x3f6a20d0	0.9145632
5	0xc018ea39	-2.3892958
6	0x3f0b9c8d	0.5453575
7	0xbf75429f	-0.9580478
8	0x3ea41752	0.32049042
9	0xbe5c3b81	-0.21507074
10	0xbf521bc7	-0.82073635
11	0x3fe0a9ed	1.7551857
12	0xbfabd641	-1.342476
13	0xba769f2f	-0.00094078755
14	0xbbc3c8fc	-0.005974887
15	0xbf3eb3d0	-0.7449312
16	0xbf8fa448	-1.122201
17	0xbe6aa41a	-0.22914162
18	0xbef04b0f	-0.46932265
19	0xbfcc3eaf	-1.595663
20	0xc01f3219	-2.4874327
21	0xbfdf363b	-1.7438425
22	0xbf211ede	-0.62937725
23	0x3d50d33a	0.05098269
24	0xbc643e93	-0.0139309345
25	0xbda5bc8b	-0.08092602
26	0xc000a4e4	-2.0100641
27	0xc01d15f2	-2.4544644
28	0xc000f0d2	-2.0146985
29	0x40040f8f	2.0634496
30	0xbf7586f7	-0.95909065
31	0xbf66ddbd	-0.90182096
32	0xc01400d0	-2.3125496
33	0xbf9604b5	-1.1720186
34	0xbd301af2	-0.042994447
35	0xbfb16dff	-1.3861693
36	0x3e493675	0.1964968
37	0xc045f038	-3.0927868
38	0xbfec1817	-1.8444852
39	0xbfcd2fcc	-1.6030211
40	0xc01f0114	-2.4844408
41	0xbee43869	-0.44574288
42	0x400685b4	2.1019106
43	0x40403531	3.0032465
44	0xbebed11a	-0.37268907
45	0x3d1ae4be	0.0378158
46	0xbfd94776	-1.6974933
47	0xbf95f478	-1.1715231
48	0xbf3d4d4b	-0.73946065
49	0xbfeaf3e3	-1.8355678
50	0x401b5d26	2.4275603
51	0x3c98fd68	0.018675521
52	0xc00a59b4	-2.161725
53	0xbec37ceb	-0.38181242
54	0xbe820251	-0.25392392
55	0xc0128200	-2.2891846
56	0xbfe686f5	-1.8009936
57	0xbda81b7d	-0.08208368
58	0x3f7a74bc	0.9783437
59	0xbd9573b2	-0.07297458
60	0x3fb3764a	1.4020474
61	0x3c135236	0.008991769
62	0xbf046beb	-0.5172717
63	0xbfa062ca	-1.2530148
64	0x3f3bf265	0.7341674
65	0x3f9c2ffb	1.2202142
66	0xbf40c686	-0.7530292
67	0x3ca60efa	0.020270813
68	0xbf6a2c69	-0.91474015
69	0x400ec583	2.2308052
70	0x3fd415cb	1.6569151
71	0xbf7e5674	-0.99350667
72	0xbd8abb5b	-0.067740165
73	0xc0080a64	-2.1256342
74	0xbf28354f	-0.6570634
75	0x3f25f9f2	0.6483451
76	0xbfb22ede	-1.3920553
77	0x3d457776	0.04820963
78	0xbd7e9481	-0.062153343
79	0xbfca5058	-1.5805769
80	0xbf867753	-1.0505165
81	0xbf48b298	-0.7839751
82	0xbf5e5cb1	-0.86860186
83	0x3edda713	0.4329153
84	0xbfb0df59	-1.381816
85	0xbfa9fd11	-1.3280355
86	0xbf8be818	-1.0930204
87	0x3dba60d6	0.09100501
88	0x3cb44d9a	0.02200966
89	0xbf0149a7	-0.5050301
90	0xbeb63dee	-0.35594124
91	0xbfb21573	-1.3912796
92	0xbf4dbd74	-0.8036721
93	0x40003929	2.0034888
94	0xbf5fcb0f	-0.8741922
95	0xbf209480	-0.62726593
96	0xbe1b9647	-0.15194045
97	0xbf572320	-0.8403797
98	0xbf401c7e	-0.75043476
99	0xbe82b0d9	-0.2552555
100	0xbdf6a1ad	-0.12042556
101	0xbf89158e	-1.0709703
102	0xbf006b48	-0.501637
103	0x3e90fa8d	0.28316155
104	0xbfab71e4	-1.3394132
105	0x4001be87	2.0272539
106	0x3f059ae5	0.52189475
107	0x3fcd9b5a	1.6063035
108	0xbf911961	-1.133587
109	0x3d8981f8	0.06714243
110	0xbfb532f6	-1.4156177
111	0xbff0d7ea	-1.8815892
112	0xbeba545e	-0.36392492
113	0xbebfdb25	-0.37471882
114	0x3ebfeaff	0.37483975
115	0x3da19257	0.0788924
116	0xbe9ed4dd	-0.31021777
117	0x3d7cf26a	0.06175462
118	0xbd98ad1f	-0.07454895
119	0xbf41bacd	-0.7567566
120	0xc008895e	-2.1333842
121	0x3da11da7	0.07866984
122	0xbe0bb6d4	-0.13643962
123	0x3cbd0152	0.023071919
124	0x3fc84efa	1.5649102
125	0x3dcd40e0	0.100221395
126	0xbf3d39c9	-0.739163
127	0xbf85bebb	-1.0448831
128	0x3fcc848f	1.5977954
129	0x3f676d7f	0.9040145
130	0xbfa548f3	-1.2912887
131	0xbdb26660	-0.08710933
132	0xbfbf99bd	-1.4968792
133	0x3fb80ff8	1.4379873
134	0x3f461a2e	0.773837
135	0xbf804019	-1.0019561
136	0xbef58626	-0.4795391
137	0x3f35aeae	0.70969665
138	0xbf2ea39e	-0.6821841
139	0x3f777a5b	0.96671075
140	0xbe96351b	-0.2933739
141	0xbdd8c144	-0.105837375
142	0xbd50f510	-0.05101496
143	0xbebf0576	-0.37308854
144	0xbecbef57	-0.3983104
145	0xbfe074a2	-1.7535594
146	0xbfa3c48b	-1.2794355
147	0x3e293dd7	0.16527496
148	0x3e989c43	0.29806718
149	0xbeea4fa6	-0.45763892
150	0xbf4eaa2c	-0.8072841
151	0xbd8b98bf	-0.068162434
152	0x3d1c7a02	0.038202293
153	0xbf2ffe2a	-0.687472
154	0xc023bc5a	-2.558371
155	0xbf6a1125	-0.9143241
156	0xbfa80f5a	-1.3129685
157	0x3fe8145c	1.8131213
158	0xbf15f87a	-0.5858227
159	0xbef49b43	-0.47774705
160	0xbfc307cb	-1.5236753
161	0xbf9ddd34	-1.2333131
162	0xbf3cc69d	-0.7374056
163	0xbf3eeb61	-0.7457791
164	0xbf2ab4a9	-0.66681916
165	0xbfa7b1ee	-1.3101175
166	0xbfe5fba4	-1.796742
167	0xbf94db9a	-1.1629517
168	0xbfc6053c	-1.5470347
169	0x3faf9f0e	1.3720415
170	0x3fdb7efd	1.7148129
171	0x3f8b4bf6	1.0882556
172	0xbfbcfef9	-1.4765311
173	0xbd66c618	-0.05634126
174	0xbf268575	-0.6504739
175	0xbfb7fd3a	-1.4374154
176	0xbf42adba	-0.76046336
177	0xbf9e4ea2	-1.2367747
178	0x400c83fc	2.1955557
179	0xbda1c6f6	-0.07899277
180	0xbfcf22c2	-1.6182482
181	0xbf050d15	-0.51973087
182	0x3f8c5669	1.096387
183	0xbe10d53d	-0.14143844
184	0xbfcee1ce	-1.616266
185	0x3b992236	0.0046732677
186	0x3f5f40ec	0.8720844
187	0x3dfdafac	0.123870224
188	0x3fd0d0b4	1.6313691
189	0x3b5100c0	0.0031891316
190	0xbfb52c50	-1.4154148
191	0x3e8d0534	0.27543032
192	0x3f07c8df	0.5304088
193	0x3e09f010	0.13470483
194	0xbfc3bf60	-1.5292778
195	0xbb702c4b	-0.0036647494
196	0xbf919efb	-1.1376642
197	0x3fd3acbf	1.6537093
198	0x3f0db7a8	0.5535836
199	0xbe676acb	-0.22599332
200	0xbf6379b0	-0.88857555
201	0xbfe623b3	-1.7979645
202	0xbecacf93	-0.39611492
203	0x3fc8ec00	1.5697021
204	0xbe9091e7	-0.28236315
205	0x3bae0e32	0.005311751
206	0x3a307e19	0.0006732657
207	0xbf68f53b	-0.9099919
208	0xbf0e859f	-0.5567264
209	0xbed067be	-0.4070415
210	0xbf626901	-0.88441473
211	0x3fa2a0dd	1.2705342
212	0xbf5716d0	-0.84019184
213	0xbf581f17	-0.8442244
214	0xbf0bd44f	-0.5462083
215	0xbbde4b80	-0.0067839026
216	0x3c4d69c2	0.012537422
217	0xbfd90b85	-1.695664
218	0xbfc4125a	-1.53181
219	0xc004ddd7	-2.07604
220	0xbfa0b869	-1.2556278
221	0x401b5dd5	2.427602
222	0xbf05de20	-0.5229206
223	0xbebdf9a0	-0.3710451
224	0xbf33498e	-0.7003411
225	0xbf1082ec	-0.5644977
226	0xbfd12dce	-1.6342103
227	0xbf12c8d6	-0.573377
228	0xbf94f378	-1.1636801
229	0xbfd64225	-1.6738936
230	0xbfa12782	-1.2590182
231	0xbf678a13	-0.9044506
232	0xbfa532d1	-1.2906133
233	0x3fb17cd7	1.3866223
234	0x3f9bec00	1.2181396
235	0x3fae3d09	1.3612376
236	0xbf4a3a9c	-0.7899568
237	0x3d60fa68	0.054926306
238	0xbf0a9c43	-0.54144686
239	0xbe9d1eef	-0.30687663
240	0xbf7fe63f	-0.999607
241	0xbfb725b3	-1.430838
242	0x3f908b59	1.1292526
243	0x3da6c5cc	0.081431955
244	0xc0277d36	-2.6170173
245	0xbfc6a172	-1.5518019
246	0x3dbb299f	0.09138798
247	0xbfc9d03e	-1.5766675
248	0xc0281316	-2.626165
249	0xbd2efe00	-0.042722702
250	0x3e0bece9	0.13664593
251	0xbd6e68e8	-0.058205515
252	0x3e9c157a	0.30485135
253	0xbda06598	-0.078318775
254	0xbee426ee	-0.4456095
255	0xbdf0f3c2	-0.11765243
