rl_compexp/train/lunarlander_continuous/weight.npy (npy, 640 bytes, 1 tensors)

array (column-major) f4 [64, 2]
000000 93 07 60 bc d5 4c 97 3c 04 6d aa 3d 89 49 ab bc
       -0.013673681 0.018469254 0.08321574 -0.020909088
000010 fc 1f 26 3e d8 7f 0e bc cf 83 89 bd 66 9d 03 bd
       0.16223139 -0.0086974725 -0.067145936 -0.03213253
000020 ab 7b f4 bc e0 db e3 3d 5a 2e 3d be 89 f9 e4 3c
       -0.029844126 0.11125922 -0.18474713 0.027951019
000030 30 f0 ae 3d 59 c3 f0 3d 48 dd 14 bc c2 1a 36 bd
       0.08541906 0.117560096 -0.009085961 -0.044459112
000040 30 c2 c9 bd 79 b0 bc bc cb 7b af bd 7f e1 62 bc
       -0.098514915 -0.023033367 -0.085685335 -0.013847708
000050 9f 67 21 be f6 0c 0c 3e e7 45 06 3e 4a 49 de bd
       -0.15762185 0.13676819 0.13112603 -0.108538225
000060 a0 df 80 ba 13 3b b9 bd 1d cf d6 3d 37 6f 96 bd
       -0.000983227 -0.09044471 0.104887225 -0.07345431
000070 18 93 6c bd e7 df 69 3d de f1 d3 bc b6 0b 25 3d
       -0.057757467 0.057098296 -0.025872167 0.04029437
000080 eb be 51 bc 53 a7 ba bc 52 1f 2c be 83 d2 71 bc
       -0.012801866 -0.022784865 -0.16808823 -0.014759663
000090 1d 2c 5b be a2 4a bc 3d 7b 9a 14 be c3 14 bc 3b
       -0.21403547 0.091939226 -0.14512055 0.0057397797
0000a0 47 9a 8e bd a6 a3 53 bd 06 16 ce 3d 68 63 c7 bc
       -0.0696302 -0.05166974 0.100627944 -0.024339393
0000b0 ce b5 5b b9 d3 b7 b7 bd b2 bd 75 bc b7 06 6e 3d
       -0.00020953195 -0.089706086 -0.01499884 0.058111873
0000c0 ef d7 48 3d aa 37 ee 3d 82 7b c8 3c 71 f2 d3 3d
       0.049034055 0.11631711 0.024472956 0.103489764
0000d0 29 f5 0c be c9 fb 0a 3e d4 32 22 3e 0e 98 26 3d
       -0.13765396 0.13572611 0.15839702 0.040672354
0000e0 35 1f 8f bc 5a 61 f0 3d 2f 4a ba bd cb de 05 3e
       -0.017470935 0.11737318 -0.09096181 0.1307327
0000f0 e1 e3 36 be 45 eb 2d bd cc 57 81 bd 4a e9 0b bd
       -0.17860366 -0.0424607 -0.06315574 -0.03415803
000100 f5 f0 f6 3c b2 89 79 3d 66 c8 6f bc 71 13 61 ba
       0.030144194 0.060922332 -0.014635181 -0.0008585966
000110 62 73 89 3d e2 37 c1 be 09 61 b0 bd fc 6a 84 3d
       0.06711461 -0.37737948 -0.08612258 0.06465718
000120 03 f0 af 3e 63 07 8f bb 72 5d 03 3e 58 39 8c 3b
       0.34362802 -0.0043648942 0.12828615 0.004279297
000130 fd 06 41 3b db 81 e2 bc aa 6b 39 bd be 2f 62 bc
       0.0029453628 -0.02764981 -0.045268692 -0.013805328
000140 e5 7c 0c bc 4f 0f ca bc a3 d7 5c bd 25 ae 63 3c
       -0.008574699 -0.024665503 -0.053916585 0.0138965
000150 72 8a 92 3d a0 fd 00 3e ec 9b 8d 3d 9d b1 23 bd
       0.071553126 0.1259675 0.06914505 -0.039964307
000160 e7 7f 71 3c d4 f3 a8 3b bb d3 bb 3c d2 d6 46 bd
       0.014739967 0.0051560197 0.02292811 -0.048544712
000170 fe a1 0c 3d b6 61 36 3d 5d d3 05 3b 3b f2 88 3d
       0.034334175 0.04452678 0.0020420172 0.06686827
000180 6c f1 e4 bd 9d b8 d7 3c 4b 2c bd bd ef 70 a3 bd
       -0.1117886 0.026333148 -0.09236964 -0.07980525
000190 39 51 69 3d 98 93 05 3d ae 85 82 3d 88 e5 b7 bc
       0.056962226 0.03261146 0.063731536 -0.022448316
0001a0 d9 cc c9 3c eb 53 9e 3e 22 2c d8 3d db 9e 85 be
       0.024633812 0.309234 0.10555293 -0.2609776
0001b0 ca c1 03 bd b6 2c 69 3c 79 ca d0 3d 2b a8 16 3c
       -0.032167234 0.014231851 0.101948686 0.009195368
0001c0 d0 a8 d6 3c 84 6e 2b bd 01 ef ae bc 3b 0e 2e 3c
       0.026203543 -0.041853443 -0.0213542 0.01062351
0001d0 a6 0d 41 bd 03 09 be 3d e4 ec 50 be cd 3b 32 bc
       -0.047132157 0.092790626 -0.20402867 -0.010878515
0001e0 f4 bb 35 be 0f 27 d5 bd ee 6e 45 be 66 a3 4e 3d
       -0.1774748 -0.104078405 -0.19280598 0.050448798
0001f0 07 23 79 bd da 41 96 bc 22 c7 75 bc e0 29 d1 bd
       -0.06082442 -0.018341947 -0.01500109 -0.10213065
