rl_compexp/save/Blackjack-DQN256/dqn_best.pth (torch, 543618 bytes, 12 tensors)

model.model.model.0.weight f4 [256, 3]
00000000: 7292 58bd 18ec ac3d 8b33 26bf c022 ecbe
00000010: 087b 3b3e 86b4 c0be d6c5 cfbd 5fbe 6fbe
00000020: d8b2 f1bd 417b d7be e2c2 1d3e baa4 6dbe
00000030: f7c5 03bf 2cb2 07be 85a5 a73e 919c c4bd
00000040: 1def 66be 39c0 8abe d3c4 e8bd 47b0 d2bd
00000050: d0ff ca3e 8c38 a03d a594 6c3d 4feb 2b3e
00000060: e01e 73be 86e3 e03d 9ebc 7a3f 431a 12bf
00000070: 4e5e 813e de15 4cbd 2f2d f63b f4e0 3c3d
00000080: a050 56be 3ae2 753a aafa 89be c4bf f53e
00000090: e161 fdbd 6d44 d8bc afa5 323e 15de 9fbe
000000a0: 2521 0e3f 3934 24bc 43d4 5abe 877e fb3c
000000b0: a097 8cbd 638d 3dbe 217a 15bd 7898 d93e
000000c0: c561 07bd 866c bcbe 167d b53e e674 ad3c
000000d0: 7b82 aa3b b3e3 bebe 87b1 383e ae8d 47be
000000e0: 51a9 a23d f470 21be 3636 9cbe 5e55 dbbd
000000f0: a158 b2be 0e7b 1d3e 912f 70be 6bf3 4c3d
00000100: e94d 3fbe 5507 e33e 0684 8dbe 0936 97be
00000110: ad1f 5cbe 1ba4 ca3c 36a1 753c afa6 e2be
00000120: 2c77 07bf 77ec b43e af34 12bf 5ee0 993b
00000130: 10f3 e2be 4f07 a83e 5efa 03bf c6a6 093e
00000140: a8ba 0bbf 71b3 41bd d61f f9be 4e66 823e
00000150: 4ce7 093d 6fb7 f2bc 8565 0f3f d89e 803e
00000160: 3b22 48bd e08e 953e b25d 81be 7e98 613d
00000170: 62e9 f9be a0da 39bf 9eec b13e c7eb 063f
00000180: 6aa8 283d be51 183d 838e 3dbd 5a86 ad3d
00000190: 3110 66bf 7314 0ebf 9c2e babe afa4 c4be
000001a0: c6ec f8be 90f3 ecbc 92ab e7be 6228 523f
000001b0: ca41 8ebd a5be 21bf 5a43 b73f 2bb6 d9bc
000001c0: 9d76 ff3d 318e 793e c87c 44bc 288d 03bf
000001d0: 4b29 69bf 52cb cabd e5c2 b1bd 431f 0e3f
000001e0: d651 3e3d f657 7ebe 6f39 1dbf da6c c4be
000001f0: ece3 84be 819b 17be cdcd b7be 51ba 8c3d
00000200: 938a 3b3e f3d2 48be 14b7 36be e4be ab3e
00000210: 10b9 b7be 085d 1fbe 4541 a9bd 5220 14bf
00000220: 442f 463e 307c ccbe 59d4 0cbd 4835 8abe
00000230: 160c 14bf 5f17 20bf e8df 253e 15c3 d2be
00000240: c05a 30bd fe5f e0be 44f7 b23e 886c 073c
00000250: 02fe 18bf 295e f9be db34 9d3d b113 44be
00000260: 8322 16bf c6d8 11be 7f05 28be 2934 a3be
00000270: d0e3 a93d ed5e 25bf 5de3 ecbd 4ddb 37be
00000280: 077c 683e c8d9 d9bd b871 be3d 2ddf 1ebf
00000290: f484 ac3d ff75 33be 72ca 8d3d 2f71 e8bd
000002a0: 35e6 1abf a6ce 593e 9c98 12bf 0755 83be
000002b0: 4b82 80be 7355 7ebd 426f 7fbc 8dbd 1cbf
000002c0: 6f04 55be 13e1 d43c 5642 233d edee 853c
000002d0: 9865 dfbe eed4 103d b004 dfbe da43 74be
000002e0: 75f3 9cbe 8c32 d83e 3dca b3be 0c0b 693d
000002f0: eb9f e4be c2ab dabd 8c6e b6be b356 19bf
00000300: 6501 143e 9a0b 11be 3253 67bf 6b78 acbe
00000310: d4c8 4d3d 448d 9dbe 7fc3 afbe eff6 0bbf
00000320: 5dc8 683c 65e7 083e 0dde c83c e0b6 83be
00000330: 2e56 06bf aa71 5a3e 9521 d4bd 8691 78bc
00000340: 5a9d 37be b116 b4be fd12 2e3e 04d1 20bf
00000350: e816 093f 103a 5b3d bba1 abbe b011 3ebf
00000360: 880a 70be c07a b4bb 8790 c23e 6f3b c23d
00000370: 8f88 b13c 9b1d 83bd 50e3 9f3d 420d 93bd
00000380: e1d9 f7be 6db6 32bf af0b 633e 89fa 17bf
00000390: 3180 4f3e 2317 64be 2166 f33d 0ea2 913d
000003a0: a47b 65be f506 36bf 0715 31be e70d d2bd
000003b0: 204c 283f 0426 10bd cfec 94bd 7951 c63f
000003c0: 707f 423d d400 64be 828d 7bbf 1629 d23d
000003d0: 5aec 723b 4e09 d8bb 7603 8cbe 9ec1 a63d
000003e0: 2926 133f 8ad7 0dbf 5fee c7be 8114 543d
000003f0: b2d0 1d3d 431b 88be b4c7 54bf 380e c73d
-0.052874036 0.08443469 -0.649224 -0.46120262 0.18308651 -0.37637728 -0.10145156 -0.23412465
-0.1180169 -0.42086223 0.15406373 -0.2320737 -0.51473945 -0.13251561 0.3274347 -0.09600175
-0.22552152 -0.2709978 -0.11365666 -0.102875285 0.39648294 0.078232855 0.057758946 0.16788982
-0.23742247 0.10980897 0.97944057 -0.5707132 0.2526726 -0.04982554 0.0075127105 0.04611297
-0.20929193 0.00093797187 -0.26949054 0.47997868 -0.123721845 -0.026399815 0.17446016 -0.31224123
0.55519325 -0.0100222165 -0.21370034 0.030699981 -0.06864858 -0.18510966 -0.036493424 0.42499137
-0.033052225 -0.36801547 0.35446995 0.021173906 0.0052035428 -0.37283096 0.18036471 -0.1948764
0.07942451 -0.15765744 -0.3051011 -0.10709642 -0.34833243 0.15378973 -0.23455645 0.05003683
-0.18682064 0.4434153 -0.27639788 -0.29533413 -0.21496458 0.024736455 0.014992049 -0.44267794
-0.52916217 0.35336658 -0.5711164 0.004695936 -0.44326067 0.32818076 -0.51553905 0.13442525
-0.5458169 -0.04729027 -0.486571 0.25468677 0.033667848 -0.029628484 0.5601428 0.25121188
-0.04886077 0.29210567 -0.25266796 0.05507707 -0.4881087 -0.7259922 0.34750837 0.5270352
0.041176237 0.03718733 -0.046278488 0.08472891 -0.89868456 -0.55499953 -0.36363685 -0.38406894
-0.48618144 -0.028924733 -0.45248085 0.8209287 -0.06946142 -0.63181525 1.4317429 -0.026576122
0.124737956 0.24370648 -0.011992641 -0.5138726 -0.91078633 -0.099020615 -0.08679751 0.5551645
0.046464764 -0.24838242 -0.6141576 -0.38364297 -0.2595514 -0.14805414 -0.358992 0.068714745
0.1831458 -0.1961172 -0.17843276 0.33544075 -0.3588338 -0.15562832 -0.08264402 -0.57861817
0.19353968 -0.39938498 -0.034382198 -0.26993775 -0.5783094 -0.6253566 0.16198695 -0.4116446
-0.043055296 -0.43823236 0.34954274 0.008265622 -0.59762585 -0.4870465 0.07676097 -0.19148137
-0.5864641 -0.14242849 -0.16408347 -0.31875733 0.08295405 -0.6459797 -0.115668036 -0.1795475
0.22703563 -0.106372416 0.09299034 -0.6205929 0.08423796 -0.1752548 0.06923379 -0.11349713
-0.6050752 0.21270236 -0.57264113 -0.25650808 -0.25099406 -0.06209321 -0.015590491 -0.6122673
-0.20802473 0.02598623 0.039858185 0.01634928 -0.43632197 0.035359316 -0.43558264 -0.23854008
-0.30654493 0.42226064 -0.35115233 0.0568953 -0.44653258 -0.106772915 -0.35631216 -0.5989792
0.14453657 -0.14164582 -0.9036132 -0.33685622 0.050240353 -0.3077184 -0.3432884 -0.54673666
0.014207927 0.1336952 0.024519945 -0.2572546 -0.5247525 0.21332422 -0.10357968 -0.015171414
-0.17931119 -0.35173562 0.16999431 -0.6281893 0.5355058 0.05352217 -0.33521828 -0.7424574
-0.23441517 -0.005507797 0.3800089 0.09483992 0.021671562 -0.06402131 0.07807028 -0.07180263
-0.48408416 -0.6980961 0.22172426 -0.5936666 0.20263745 -0.22274451 0.11884714 0.071109876
-0.22410446 -0.71104366 -0.17293178 -0.10256558 0.6574116 -0.035192505 -0.0727173 1.5493613
0.047484815 -0.22265941 -0.982628 0.10261743 0.0037067146 -0.006592906 -0.2734639 0.08142398
0.574801 -0.5540701 -0.3904905 0.051777367 0.038529105 -0.265833 -0.8311722 0.09719509

model.model.model.0.bias f4 [256]
00000000: 3c55 22bf fa62 de3b 20f9 a4be f315 053e
00000010: 5682 f1be 4043 eb3e aae1 a53d f88d c9bf
00000020: c496 26be 1ee0 82be 6fab 1ebf 5754 80be
00000030: 4bf1 2dbd 48b0 a93f 9e49 0a3f 8055 453f
00000040: 6d8c 9a3f 881d 01bf c72d cfbf 3852 6e3f
00000050: 8ab8 22be 4713 a9bf c34d 0dbf 9bcd 2bbf
00000060: 1c30 723f e4d5 713c 1482 07bf ac9c 2c3f
00000070: 9d43 9fbf f327 bfbf be48 2e3e 79af 13bf
00000080: 6c24 9fbf 595a 113f 662b 09bf 1b48 c6bc
00000090: 37d2 e13c 376f 96bf c16b 0f3f cd81 ee3e
000000a0: 8ff2 3ebf e73c fe3e 11b5 3e3f cf2f 463c
000000b0: 951c 83bd 660d bd3e 028b d03e 0a11 5d3f
000000c0: de49 193f a5b7 7f3f 4429 b7bf d221 3f3e
000000d0: 0dff 8cbf 816d d93f 06e4 b6bf 9b17 92be
000000e0: e46c 893e 76f7 dbbd 947e 2c3f 946e 77bf
000000f0: 92cb efbe 0b24 dbbe fa66 cdbe 9646 483f
00000100: ca11 aabf 00a8 d93e 45cb 89be bc48 cdbf
00000110: e779 32bd 915b c2be c0e7 993f 3610 bd3f
00000120: f74a 713f 88db c3bf 6eee c8bf 9555 0f3f
00000130: 11d1 f1bf db1d a3bf 3f18 4a3f ba8e 083f
00000140: b2be 47bf af93 d0bf bcbc 8e3e 5826 063f
00000150: 84b9 0bbf 3c2b b1bf 2c7b 023f 893a e0be
00000160: 89e5 5cbe a6a6 b53e d7eb 593d 9ac2 a9bf
00000170: 73e8 9b3e bf09 90bf bd7d cbbc 8024 e4bf
00000180: 26a8 cd3f 2fa3 aa3f 093a a13f 2f61 aebe
00000190: 3be6 a2be 8da5 92bf f1b1 0dbe 2d60 a83f
000001a0: 1d6d 99bf ae3b cdbf a915 d43e 1256 903f
000001b0: 866a 8cbf 2967 883f 3c69 323c a46d 9abf
000001c0: f3e3 8c3d 27b9 79be fdcc c6bf 7026 84bf
000001d0: 4492 15bf 3b5f 9a3f f28d b13e e363 bcbf
000001e0: cb69 27bf 37d6 cc3e 1ad1 e4be a6cf 823d
000001f0: a218 bfbf 7268 8abe 5be2 c6be 3580 883f
00000200: ab5a 3bbe aaa8 3e3f a9ad 64bd a6cb bfbf
00000210: cb6c b6bf 97c8 86bf 24d2 af3e ecf1 24bf
00000220: 2c8e cb3e 7148 1bbd 1abc 9c3e ae84 01bf
00000230: 9cc4 e5bf c80c 8abf 2a92 91be 0770 eb3e
00000240: 7f50 46bf 1b21 a03e cb5e cdbe aedd a1bf
00000250: da26 c1be ae8b 88bf 371b 76bf d8ec b6be
00000260: 8f9c 86be 5f47 d63e 1634 7abe c76a d4be
00000270: 7f34 d03f 8d05 033f e5af 223e 3856 edbd
00000280: b910 123e 87ca 89bf 49e9 cc3e c696 113f
00000290: 3558 d83e 52fd 9d3f 7431 5cbd 8f26 01bf
000002a0: ac4b cfbe d863 a8bf 0939 5fbf bf07 473f
000002b0: 60d5 703e 54ea 383f e84a 133e a0a6 923f
000002c0: aae3 f13e 4ebd 223f f7b5 9cbe b55b c03e
000002d0: 0f92 a13e a89e 473e 11a3 ef3e 418f 99bf
000002e0: aee8 013f f890 c83d 2e25 133e b101 b23f
000002f0: b784 133e 3a00 68bf 21c7 82bc d28b c43e
00000300: f9bd 213f fdd3 80bf ed0d 83bf e451 9fbf
00000310: 0096 a23e c1df ac3f b7d1 a6be 7d66 7a3f
00000320: d720 c03e cad9 c73d 463a f0be c303 a83f
00000330: 3a99 d1be b54a bdbe b153 273e 9f92 b03f
00000340: bcfa 02bf 6d6e 3bbd 409c 97bf de52 edbe
00000350: 7037 91bf 007a e03e c214 353f 00f0 353c
00000360: 41d4 90bf 5707 c53d d049 82bf ddb0 2ebf
00000370: 7759 9cbe 6869 b2bf 69e2 b5bf b458 0fbf
00000380: 4a4f 8a3f f895 69be 8c8e 89bf 49d5 88bc
00000390: 7b61 15be 0aae d8be 7a34 8d3b f99f 3dbf
000003a0: 34ca 02bf eb1c 5d3e ccfb e13d 2dbc e13e
000003b0: b1e7 803e f7bb e5bd 6b74 a73f c255 c53f
000003c0: bf04 e3bd 3f8a d4bd 8887 1cbf d946 79be
000003d0: c683 5e3f 2e4b 693e 4dcd 94be b8d2 233f
000003e0: 06f2 86bc 19c3 d3bd 3a67 a5be ac16 563f
000003f0: f1bf 84bf d05d 5dbe fa5f 983f b2b4 273c
-0.6341131 0.0067867013 -0.32221317 0.12996654 -0.4716975 0.45949745 0.08099683 -1.574645
-0.1626845 -0.25561613 -0.61980337 -0.25064346 -0.042466443 1.3256922 0.5401858 0.7708359
1.2074105 -0.50435686 -1.6185845 0.93094206 -0.15890709 -1.3209008 -0.5519678 -0.67110604
0.9460466 0.014760468 -0.5293286 0.6742656 -1.2442509 -1.4934067 0.17019936 -0.57689625
-1.243299 0.56778485 -0.53581846 -0.024204304 0.027566059 -1.175269 0.56023794 0.46583405
-0.74588865 0.4965584 0.74495035 0.012096359 -0.06401936 0.36924285 0.40731055 0.86354125
0.5987834 0.99889594 -1.4309468 0.18665245 -1.1015335 1.6986543 -1.4288337 -0.28533635
0.2684089 -0.10740559 0.6738064 -0.96653104 -0.46835 -0.42800936 -0.40117627 0.78232706
-1.3286679 0.42510986 -0.26912895 -1.6037822 -0.043573286 -0.37960485 1.202385 1.4770572
0.9425501 -1.5301371 -1.5697763 0.5598996 -1.8891927 -1.2743486 0.78943247 0.53342783
-0.7802535 -1.629507 0.27878368 0.5240226 -0.5457995 -1.3841319 0.50969195 -0.4379466
-0.21571936 0.35478705 0.05320343 -1.3262513 0.30450782 -1.1252974 -0.02484023 -1.7823639
1.606694 1.333105 1.2595836 -0.3405852 -0.31816277 -1.1456772 -0.1383741 1.315435
-1.1986424 -1.6033838 0.41422775 1.1276267 -1.0970008 1.0656482 0.010889348 -1.206471
0.06879415 -0.24387036 -1.5531307 -1.032423 -0.5842631 1.2060312 0.34678608 -1.4717983
-0.653958 0.40007183 -0.44690782 0.06387262 -1.4929392 -0.2703281 -0.3884457 1.0664126
-0.18296306 0.7447611 -0.055829678 -1.4984024 -1.4251951 -1.0529965 0.34340012 -0.64431643
0.39756906 -0.037910882 0.3061226 -0.5059308 -1.7950625 -1.078515 -0.28431827 0.45983908
-0.7746658 0.31275257 -0.40111384 -1.2645776 -0.37724954 -1.0667627 -0.96135277 -0.35727572
-0.2629132 0.41851327 -0.24433932 -0.41487715 1.626602 0.51180345 0.15887411 -0.115887105
0.14264192 -1.0764931 0.40021732 0.56870687 0.42254797 1.2342932 -0.0537581 -0.5044946
-0.4048742 -1.315547 -0.87196404 0.77746195 0.23518896 0.72232556 0.14384043 1.14571
0.47244006 0.63570106 -0.30607578 0.37569967 0.31556746 0.19494116 0.46804097 -1.1996843
0.50745666 0.097932756 0.14369652 1.3906766 0.14406095 -0.90625346 -0.015964093 0.38387924
0.631805 -1.0064694 -1.0238625 -1.2446866 0.31755066 1.3505784 -0.32581875 0.97812635
0.37525055 0.09758337 -0.4691946 1.3126148 -0.40937215 -0.3697106 0.1634052 1.3794745
-0.5116384 -0.045759607 -1.1844559 -0.46352285 -1.1345043 0.4384308 0.707348 0.011104584
-1.1314775 0.096205406 -1.0178776 -0.6823862 -0.30537006 -1.3938417 -1.420972 -0.55994725
1.0805447 -0.22811115 -1.0746627 -0.016703265 -0.14587967 -0.4232028 0.004309234 -0.74072224
-0.5108979 0.21593063 0.110343546 0.4408888 0.25176767 -0.11217492 1.3082403 1.5416796
-0.110848896 -0.10377931 -0.61144304 -0.24343432 0.8691982 0.22782585 -0.29062882 0.63993406
-0.016472828 -0.10339946 -0.32305318 0.83628345 -1.0371076 -0.21617818 1.190429 0.010235952

model.model.model.2.weight f4 [256, 256]
00000000: 8142 95bc 707c 14bc 1c89 b43c c382 69bd
00000010: 0c8c 52bd a0bd c6bc f08d 09bc 8e2a 0cbd
00000020: dd64 99bc 2072 d73b a247 52bd 804d 1aba
00000030: c801 443c fb2b 21bd 3ded 5a3d efa6 7e3c
00000040: c2ac d9bc a373 6ebd 094f f33a e240 973c
00000050: 20b4 3fbd 2265 2ebd 941e 0abd 3b12 e93c
00000060: 97d1 903c bc14 9bbc e620 6dbd fc2f c8bc
00000070: 7527 7dbd aef9 35bc d06e 3b3d 4bad ed3c
00000080: 0fde 36bc a0b6 45bc e827 433c 6604 733d
00000090: b089 5a3d e542 c33c b7d4 2abc c44e b43c
000000a0: 3062 babb 40d6 66bd 5167 693c c077 633b
000000b0: 8020 99ba 1842 64bc a0aa 09bd 4861 033d
000000c0: 2ccd 8bbc 1ebf 05bd a0be 48bd 4078 9e3c
000000d0: 4ed8 193d da01 38bd 5621 21bd 6896 e5bc
000000e0: aa65 e4bc 5864 32bd dcb2 3f3d 8c03 babc
000000f0: 92e0 0e3d 7e04 003d a845 fabc 9552 94bc
00000100: d55e 5fbb e0c5 b63c 7811 223d 25e7 b5bc
00000110: 138c 21bd 5849 513c 961a 3bbd 58e2 64bc
00000120: f82c 05bd 5758 e8bc 26ea 493d ae8b 5abd
00000130: 185b 203c ba0d 143d 1220 37bd 1c18 193d
00000140: f648 113d e039 7bbd 7c6f b2bc 6278 123d
00000150: a4b8 183d 1c98 5abd 3c1b e1bc 127d 82bd
00000160: dc84 de3c 486c 98bc 4046 843a 2090 5d3c
00000170: d4ff 26bd fb93 9cbd c883 1b3c 7208 30bd
00000180: d9e4 373d 3942 89bd ba83 41bd 04f8 b33c
00000190: 4871 4ebc 0ce3 a8bc 74c6 923c 8059 3fbd
000001a0: 1c8d a93c 3fe8 8bbd 304a bb3b 22ad 77bd
000001b0: 6800 1dbd 227d 813c 6c59 263c 1852 0fbd
000001c0: f858 14bc b48c a53c 760b f03c a23a 7e3d
000001d0: 4c09 4fbd cb3a 5bbc 90f9 a4bb d8ca 23bc
000001e0: 8805 3ebd 50b4 d33b d075 1b3c 5892 12bc
000001f0: 8549 c53c ba6d 73bd a45d a7bc 1649 62bd
00000200: 2095 a8bc 79d0 383d 401a 79bd dafb e73c
00000210: bab2 06bd 06b3 723d d0c9 3ebd cafc ed3b
00000220: d0aa 2a3d ec93 993c a639 373d 3051 403c
00000230: 44af 7cbd 8c2c 0cbd e2da 2fbd 8838 a4bc
00000240: c9ee 52bd 4cf0 2dbd 6eda 56bd c987 f53a
00000250: 8ab5 b63b 9c68 d23c fa74 4cbd 402d b8bc
00000260: 7098 90bb 9868 2b3c d41e c03c 703e 2b3c
00000270: f681 37ba 2eaf 603d 4806 ff3b 7047 423c
00000280: 247a 303d c5eb b83c b8da 543c 46d9 36bc
00000290: 2b80 1bbd 6034 bb3b aa78 f23c bae6 64bd
000002a0: c691 0f3d 2017 d5bb 4855 a93c f30d 01bd
000002b0: 70f1 3dbd c4f4 2dbd 7856 463c 6e22 77bd
000002c0: 90a6 79bc e054 023c 0e50 e43c 8fed aabb
000002d0: 8804 f93c 9827 40bc e279 7dbd ead6 193d
000002e0: e4c2 08bd a43e 7b3d 5050 63bc a090 71bd
000002f0: c0d8 debb e287 15bc c43d d5bc cad5 1abd
00000300: ba8b 54bd 84bb ffbc f8ef 80bc e4dc 29bd
00000310: d013 78bd 8842 4fbc 0803 0c3d 9c0f 213d
00000320: 5841 49bd 2500 5e3d ff7d cc3b e591 32bd
00000330: c8f8 4cbd 0ef4 2bbd f831 ef3c b60e aa39
00000340: e7ab 9c3b 8004 723c 905d 0a3c d85c 7abc
00000350: 5432 413b 8074 bcbc 7470 523d e67f 5cbd
00000360: 3c57 cdbb 6c8c 4e3d 7eaf 05bd 404d c7ba
00000370: 9029 a73c b8a3 453c 80ad 48bc 0a2f 173d
00000380: f529 ac3c c0b2 6abb 95f9 86bc e055 e03c
00000390: 58c8 e2bc 60ce 2fbd aa5c 79bd 0e3f 83bd
000003a0: 78fe 54bc 8049 ae3c d8f5 003c 0e89 7ebd
000003b0: 50b4 d7bb 7203 07bc a005 133b 9865 883c
000003c0: 7ece 79bd 6a0a 36bd cab6 223d e0ce 72bc
000003d0: a263 63bc 94c1 703d 28c2 2abc f76c f9bc
000003e0: 943d e23c 90cc 903b fe53 33bd 5f56 093d
000003f0: eafc f2bc c041 7dbc 8798 99bd 945d 603d
-0.018220188 -0.009062871 0.022038035 -0.05700947 -0.05140309 -0.024260342 -0.008395657 -0.03422027
-0.018724853 0.006574884 -0.051337846 -0.0005886182 0.011963315 -0.039348584 0.053448904 0.01554273
-0.026571635 -0.05821575 0.0018562983 0.018463556 -0.04680264 -0.042576917 -0.033720568 0.028451076
0.017678065 -0.018930785 -0.057892703 -0.024436943 -0.061805207 -0.011106892 0.045759976 0.029013297
-0.011161341 -0.012067467 0.01191137 0.059330367 0.053353965 0.023835609 -0.010426692 0.022010215
-0.0056879744 -0.05635667 0.014245824 0.0034708828 -0.0011682659 -0.013931774 -0.033609986 0.032075197
-0.017065607 -0.032652967 -0.04900992 0.019344449 0.0375598 -0.04492364 -0.039338432 -0.02802582
-0.027880508 -0.043552727 0.046801433 -0.02270677 0.034882136 0.031254284 -0.030550793 -0.018105784
-0.0034083624 0.022311151 0.03956744 -0.022204945 -0.039440226 0.012773834 -0.04567965 -0.01396998
-0.03251359 -0.028362436 0.049295567 -0.053355865 0.009787343 0.036145903 -0.04470832 0.037376508
0.03546997 -0.06133449 -0.021781676 0.035759337 0.037285462 -0.05336772 -0.027478807 -0.063715115
0.027162962 -0.01860632 0.0010091737 0.013523132 -0.04077132 -0.076454125 0.009491868 -0.042976804
0.04489598 -0.06702084 -0.047244765 0.021968849 -0.012600251 -0.020616077 0.017916895 -0.046716213
0.020697169 -0.06831407 0.005715631 -0.060467847 -0.038330466 0.015806738 0.010153156 -0.0349904
-0.009054415 0.020208694 0.02930234 0.062067635 -0.050545976 -0.013380717 -0.005034633 -0.009997092
-0.046391994 0.006460704 0.009488538 -0.008946024 0.024082908 -0.059430815 -0.020430394 -0.05524548
-0.02057892 0.04512069 -0.06081605 0.028318334 -0.03288529 0.05925276 -0.046579182 0.007262801
0.041666806 0.018747292 0.044732712 0.011738107 -0.061690584 -0.03422217 -0.042933352 -0.020046487
-0.051497255 -0.042465493 -0.052454405 0.0018732484 0.0055758404 0.025684647 -0.049916245 -0.022482514
-0.004412703 0.010461949 0.0234522 0.010451898 -0.00070002617 0.054854564 0.007782731 0.011857852
0.043085232 0.022573361 0.0129916 -0.0111602 -0.037964027 0.0057130307 0.029598553 -0.0558841
0.03505113 -0.006503001 0.020670548 -0.031507444 -0.04637283 -0.042469755 0.012105577 -0.06033557
-0.0152374655 0.007954806 0.027870204 -0.0052163075 0.030397668 -0.01172819 -0.061883815 0.037558474
-0.033388987 0.061339036 -0.013874128 -0.058975816 -0.006800741 -0.009126635 -0.026030429 -0.03780154
-0.051891066 -0.031217344 -0.015739426 -0.041470423 -0.06056577 -0.01265014 0.03418258 0.039321527
-0.049134582 0.054199357 0.006240606 -0.043596167 -0.050041944 -0.041980796 0.029198632 0.00032435887
0.0047812345 0.014771581 0.008445159 -0.015280925 0.002947946 -0.02300477 0.051376775 -0.05383291
-0.0062665027 0.050426885 -0.032638066 -0.0015205517 0.02040556 0.012062959 -0.012248397 0.036910094
0.0210161 -0.003581211 -0.016476432 0.027384698 -0.027683422 -0.042921424 -0.060879387 -0.06408511
-0.013000123 0.021275282 0.007871114 -0.062142424 -0.006582774 -0.0082405675 0.0022433773 0.016650006
-0.060987942 -0.044443525 0.039725102 -0.014819831 -0.013878735 0.05877836 -0.010422267 -0.030447466
0.027617253 0.004418917 -0.043781273 0.033529636 -0.029661614 -0.015457571 -0.074997954 0.054776743

model.model.model.2.bias f4 [256]
00000000: 2ade 56bc dd8b 51bc edf1 95bb aa69 2fbd
00000010: 0e29 093d d344 8ebd 7bcb e8bc 8e9e bc3c
00000020: 114e ad3d ea1f ee3c 3857 393d eec6 de3c
00000030: 3c28 5bbe 60b2 c5bc 7f7a b5bc f208 28be
00000040: 048e 71bd 90d8 1ebc 2bff 44bd 30ef edbb
00000050: a2a6 56bc e346 353e d535 743d 89e6 20be
00000060: 7950 65bd 3ec5 2c3d 5754 78bd 716e 09bf
00000070: e8e8 0ebd 5696 f4bd dcb3 233f 6f6d 7bbd
00000080: 98b6 73bb a4af 67bd f224 8ebd 2ff9 4d3c
00000090: 05bd 733c 27c5 be3d 10f5 163c 9b8d f53c
000000a0: 0a95 f7bd 10fd 2ebc b102 39bd 6165 50bb
000000b0: 0f4c 0f3d c081 95bd 04a8 d83c d3ff e03c
000000c0: 895b 52bc 1070 c8bb e58e aebc 9722 ffbd
000000d0: ef3e eabc 83ae 1cbd 83e3 163d 775a 72bd
000000e0: 111e adbd 285b 81bc 1952 d13c 2072 133d
000000f0: ac84 263c 29c0 273e c143 e8bb 833e 9ebd
00000100: 4476 30be 2aa5 01be 545f 1d3c c61e e4bc
00000110: e529 b4b9 9d76 353a 7f0f 9bbd 3d7d f23c
00000120: 3aa0 bc3b d171 0bbe 91d0 abbd 580d 483c
00000130: 4e02 72bc 050a 3bbe e7bd 0bbe 52c2 62bd
00000140: 614b 8bbf 5d59 37bd 9051 23bd fa6f a0bd
00000150: 425c fabc 0063 36be a47f 37be 618c 9fbd
00000160: 8d58 b0bd 9de1 fc3c bfc6 35bf 46a7 c13d
00000170: 9271 23bd db8d 81bc 2aec 92bc c361 aa3c
00000180: 60df 20be fca2 9f3c 18a3 d8bd eb94 d13b
00000190: 365f 7eb8 5cb7 633c 108b a03c 1a74 3d3c
000001a0: 8716 873c fd91 23bd 130a 92bd c01a d83c
000001b0: be72 a8bd f4f0 b4bd a0a4 54bd c883 a5bd
000001c0: c1ea 31be e719 873d 7bbc 13bd 921e 093d
000001d0: e150 ffbc 05b4 51bd 54e9 8dbd 9125 1dbd
000001e0: 6b05 0dbd 2e4e 4dbd bc23 85be a5c6 85bc
000001f0: 3e34 50bd 25b8 d9bc abc6 85bf cbda 41bb
00000200: 5bf9 3dbd 22ea ccbd 15e0 79bd fa7a 9f3d
00000210: 2fa3 3dbd efd4 4d3d 9d6c 1cbd c353 033d
00000220: d16b 5fbf 2a66 1abe abbc a7bc d326 8e3c
00000230: 0358 b73d 3572 76bc 6b79 a7bc 5f53 d03d
00000240: ad91 29bd 6373 04bd c031 39bb 5dbc 0d3d
00000250: 3476 60bc dbf4 94bd 0478 393d b2dc 75bb
00000260: 002e 2fbd 6c41 57bd f208 d5bb f100 37bd
00000270: 5df6 ccbc 8ef6 30be b552 10be 9c3f 483d
00000280: bf20 d93a e9fa bbbd ea62 b1bb 0be6 4dbe
00000290: bd1a ed3b 33c8 9bbb e918 afbb 19ea c0bb
000002a0: 82a7 71bd 5680 433e 95aa 40bd ecfa 40bd
000002b0: d03e 1cbd 4b31 9f3c ddab f73c f3a7 ad3c
000002c0: c35f fbbc be04 5dbd 1c78 97bd 3573 3dbc
000002d0: 5583 8c3d 4046 f6bd 0224 1a3d 0a33 b4bd
000002e0: 9e26 a7bc 21f6 55be 9d47 60bd 4d39 87bc
000002f0: 0777 863c ee87 ab3c 7e16 093d 7875 843c
00000300: ba03 0bbe 2fd2 e03c 88d6 783d 7ef5 183d
00000310: 4d67 ba3c 6331 dabd 4ed1 f4bd 95d5 9e3c
00000320: e00c f1bd 4eb1 eb3c d408 dabb 0a7f abbc
00000330: 332d 66be c437 2fbe 45fa e8bd 3582 d53c
00000340: a85a 38be 36c8 0dbe 1845 53bd 8138 89bd
00000350: 7d6e 2d3c 748f e13c c0a1 c9bc 85c4 c5bd
00000360: 3ba8 793b de8e 7fbd 4cf1 9bbd b48f 35bb
00000370: 7a9f 16bd 7753 6bbd e176 98bc ad2a 54bd
00000380: fe2b 7fbd e33f e9bc ec40 773c 9f0c 95bc
00000390: 999b aa3c 2768 8fbc c777 40bd db19 05be
000003a0: 0af1 b0bc 73f1 6abd 16d2 24bd 7ea5 6f3d
000003b0: f0ac 163c 41e4 dc3b 1a0b 2fb9 1333 2e3d
000003c0: a4b4 093d c2af 9abd f935 60bd cae7 7bbc
000003d0: d58f b4bd 2f76 72bd 5797 0fbc 9eca 32bc
000003e0: 2179 b3bd bb50 81bd ed80 16be cd9f 9dbd
000003f0: ca93 3fbd 6184 72bd e87f 43be ee9c 70bb
-0.0131144915 -0.012789694 -0.004575959 -0.04282538 0.03348642 -0.06946721 -0.02841734 0.023024824
0.084621556 0.029067952 0.045249194 0.027194466 -0.21402067 -0.024132907 -0.022153137 -0.16409662
-0.058973327 -0.009695187 -0.04809491 -0.0072611794 -0.013101252 0.17702822 0.05962165 -0.15712942
-0.055984948 0.042180292 -0.060627308 -0.53684145 -0.034890085 -0.11942737 0.6394632 -0.06138366
-0.0037187692 -0.05656399 -0.069406405 0.012571617 0.014876609 0.093149476 0.009213701 0.02997475
-0.12088974 -0.010680452 -0.045168582 -0.0031798708 0.034984645 -0.073001385 0.026447304 0.027465736
-0.0128392065 -0.0061168745 -0.021308372 -0.12457769 -0.028594462 -0.038252365 0.036838066 -0.059168305
-0.08453 -0.015790537 0.025551843 0.03599751 0.010163467 0.16381897 -0.007088155 -0.07726767
-0.17232615 -0.12660661 0.0096052475 -0.027846705 -0.0003436349 0.0006922277 -0.07571315 0.029600734
0.005756405 -0.13617636 -0.0838939 0.012210213 -0.014771057 -0.18265541 -0.13646661 -0.0553611
-1.0882379 -0.044762958 -0.039872706 -0.07833858 -0.03056157 -0.17811203 -0.17919785 -0.07790447
-0.0861064 0.0308693 -0.7100639 0.09455733 -0.03990323 -0.015814712 -0.017934877 0.02079857
-0.15710211 0.019486897 -0.10577983 0.0063959262 -6.064699e-05 0.013898697 0.01959756 0.011563325
0.016490234 -0.039934147 -0.07130828 0.026379943 -0.0822501 -0.08835021 -0.05191481 -0.08081776
-0.17374708 0.06596737 -0.03606842 0.03347642 -0.031166496 -0.05119707 -0.069292694 -0.038365904
-0.034428995 -0.050123386 -0.26003826 -0.016330073 -0.050831072 -0.026577065 -1.0451254 -0.0029579874
-0.046380382 -0.10005595 -0.061004717 0.07787128 -0.046298202 0.050251897 -0.03818952 0.032062303
-0.8727389 -0.15078035 -0.020475706 0.017352497 0.08952334 -0.0150418775 -0.020443639 0.10172152
-0.041398693 -0.032336604 -0.0028258413 0.034603465 -0.013700057 -0.07273265 0.04528047 -0.0037515578
-0.04276848 -0.052552626 -0.0065013105 -0.044678632 -0.025019819 -0.17281553 -0.1409405 0.048888788
0.0016565545 -0.09178717 -0.005413403 -0.20107286 0.0072358535 -0.00475409 -0.0053435457 -0.0058872816
-0.05899764 0.19091925 -0.04703768 -0.047114298 -0.03814584 0.019432684 0.030233318 0.021198248
-0.030685311 -0.0539596 -0.07395956 -0.011563112 0.06860987 -0.12025118 0.037631996 -0.087987974
-0.020404156 -0.20894672 -0.054755796 -0.016506815 0.016414179 0.02093884 0.033468716 0.016169295
-0.1357564 0.027443973 0.060751468 0.037343495 0.022754336 -0.10653951 -0.11953984 0.019388953
-0.11770034 0.028771069 -0.0066538844 -0.0209346 -0.2247818 -0.17111117 -0.1137586 0.026063064
-0.18003333 -0.13845906 -0.051579565 -0.067002304 0.0105854245 0.027534224 -0.024613261 -0.09656624
0.0038094658 -0.06239211 -0.07614383 -0.0027704062 -0.036773182 -0.057452645 -0.018611373 -0.05179851
-0.062297814 -0.028472846 0.015091162 -0.018194495 0.020826148 -0.017505718 -0.04698923 -0.12998144
-0.021599311 -0.05735917 -0.040239416 0.058507435 0.009196505 0.006741077 -0.00016693436 0.042529177
0.033619538 -0.075530544 -0.054738972 -0.015375087 -0.08816496 -0.05919474 -0.00876411 -0.0109125655
-0.08763338 -0.06314226 -0.14697619 -0.07696495 -0.046771802 -0.059208278 -0.19091761 -0.003671463

model.model.model.4.weight f4 [2, 256]
00000000: 5c76 b9bc 8ebc 26bc 9105 e7bb 58d7 66bd
00000010: 5a8d b4bc ae66 b33c 568c 9dbc 9176 af3c
00000020: 6f1a 88be 2908 1ebc 00bd a739 2995 96bc
00000030: df3a 1a3d 153b bd3b 003d cfba 019f d3ba
00000040: 75d3 973d 410d 82bc f529 c53b 8ce9 593d
00000050: f011 3c3c 78c8 b3be 10f1 7f3b 3f0a fcbd
00000060: 7dac 193c f8a7 f8bc 9efb 8eba 5e76 80bf
00000070: 347f a7bb 640d a2ba 74d2 37be e646 083d
00000080: f961 57bd 0d0d dcbc 4f48 22bd 8b5a 6fbd
00000090: 08b0 8dbc 987e 23bd 626e 12bd 5b40 1bbd
000000a0: 3934 b2bd 8b30 f13c e679 0fbd c5de b83c
000000b0: b44f 74bd ff62 64bd 8910 8b3c 68f4 14bd
000000c0: 688c 09bb dc00 a0bc 0257 4d3c b4e6 0eb9
000000d0: e100 9cbb 29c8 ffb9 0981 94be 7407 273d
000000e0: 6b46 ad3b 5e43 833c 25ca 35bd db5c 4dbc
000000f0: 465a 353d 30d1 1dbe 54aa 89bc 7262 45bd
00000100: 03ce b1bb 5335 863c 52b0 9ebc 3e60 c5bb
00000110: 6786 92bc c019 313b 657c 043d fe49 68bd
00000120: 691e 1d3d 1296 223d 62f5 6f3c 18bb 34bc
00000130: e6db a03c 90f4 4dbd 8391 62bd 743a 373d
00000140: daf9 b93d 2df7 9d3b 67b6 1a3c 9638 963c
00000150: 8fe6 01bd 8660 063c 0ae7 cfbb 7aa1 a5bc
00000160: ab65 353d 96c5 d7bb b211 36be 7979 1039
00000170: 3297 bb3c c17c cfb8 3bfb f33c ea79 fe3c
00000180: abed 29bb dd2e 3f3b f65a f23c 81f5 f5bc
00000190: 93f4 323d 5a23 39bd 41b2 b1bc 505f a93c
000001a0: ffe8 dbbc 7f26 ad3b a641 bebb c4ff 88bc
000001b0: 56ba 933e a039 abbc ce15 763d f426 cf3c
000001c0: 1994 273d 8581 bbbd 6487 793d 3a4a 54bc
000001d0: 7ae6 2ebd c393 4cbb 7cbc d7bb e65c 843a
000001e0: 0905 03bd 0815 f03c 5dac 583a b815 f9bc
000001f0: 5492 1f3d db25 933c 9752 f93d d8d9 c0bc
00000200: 6945 52bd 82ae 3a3c 31b2 34bd 6b8a 543c
00000210: 7a10 063d 4ffb 1d3d 85d7 f3bc 3fba 243d
00000220: d500 2b3e 9adb a73c de6d 603b 98b3 ecbc
00000230: 03ba 39be d2ef 2e3d 1ce3 0a3d a45e 03bd
00000240: efb4 943c 64fd b13c 4320 81bc 2988 39be
00000250: 2815 4cbc fc9d 9cbc c41f b33c 0014 8d39
00000260: 186e 5fbd 5238 8abb 9fdf 613c aa92 dbbc
00000270: 9580 4e3d 19f0 f8b9 56b0 283d 93d1 aa3c
00000280: bfe3 f33c 307a 41bb 40cd 933c 93c7 04bd
00000290: 07a3 b0bb c6e5 133d 2c27 1c3d 7438 e33c
000002a0: 70af 943b 22a9 893e 8e2e b4bc 36da 783d
000002b0: b0b3 8e3c 0238 a63d dee3 f53b 1390 cb3c
000002c0: 642c a53c 2793 47bb a3c9 cbba bd06 e9bb
000002d0: 5620 61bd 0c11 1ebc 1224 17bc b9ac 80bc
000002e0: 4aa4 1fbc 0121 013c 4e27 1bbc 2cb6 a23c
000002f0: 669b adbc 381a 1a3d 9b10 c43c 5257 54ba
00000300: 5fa5 ad3a 6a38 a8bc 5a41 09be d032 debd
00000310: 4c76 84bd 5d83 15bd 6a51 a83c 62eb 1b3c
00000320: 2e51 b0bb aed0 58bd 4e30 9abe ca27 4a3d
00000330: f863 493b 785a d1bb b90e 183c 1a03 a03b
00000340: 263c e73d 3a1a ca3c 3001 303b d61d b3bc
00000350: 9c86 333b d2fa 9dbb 54bd 873a cf43 283d
00000360: 5dea 0ebb 0a3b babb 2675 373d be2d c6bb
00000370: 0ca4 c9bb 082b 38bd a0f9 e4b8 9398 4ebc
00000380: d6e5 59bd d8d1 533d 3598 5abc da10 7f3b
00000390: fd2b 57ba 3d58 3f39 0639 9cbc 596f 3fbd
000003a0: 1d33 d43d 4d6c a73c 958e f7bc 4f93 27bb
000003b0: 30eb ec3c f72b 803c 4410 14bd 33ce a93b
000003c0: 14c5 5cbc 2183 2cbc 2b5a bbbe dc1b 273b
000003d0: 241e ba3b c47f 1ebd 1851 f53b 966d 343d
000003e0: c137 213d 2b13 c3bc 6d43 99ba a81c 1f3c
000003f0: c294 4dbd 4fa5 3e3d 9d96 913d 0158 803c
-0.022639446 -0.010176791 -0.007050224 -0.05635771 -0.022040058 0.021899547 -0.019231956 0.021418842
-0.26582667 -0.0096455 0.00031993538 -0.018381672 0.0376538 0.0057748654 -0.0015811026 -0.0016145409
0.07413379 -0.01587546 0.0060169646 0.053201243 0.011478886 -0.35113883 0.0039053597 -0.12306642
0.009379503 -0.030353531 -0.0010908728 -1.0036123 -0.0051115993 -0.001236361 -0.17951375 0.03327074
-0.05258367 -0.026861692 -0.03961974 -0.058435958 -0.017295852 -0.03991565 -0.0357498 -0.03790317
-0.08701367 0.029442092 -0.03502836 0.022567162 -0.059646323 -0.055758473 0.016975658 -0.036365896
-0.002098823 -0.01953166 0.012532951 -0.00013628119 -0.004760847 -0.0004878652 -0.29004696 0.040778592
0.0052879355 0.016023334 -0.044382233 -0.0125343455 0.044275545 -0.1541183 -0.016804852 -0.048189588
-0.00542617 0.016382849 -0.019371185 -0.006023436 -0.017886354 0.0027023405 0.032345194 -0.05671119
0.03835908 0.0396939 0.014645906 -0.011030935 0.019636106 -0.05028206 -0.055314552 0.04473348
0.090808585 0.0048207254 0.009442902 0.01833753 -0.03171402 0.008201724 -0.0063446807 -0.0202186
0.04428641 -0.0065848334 -0.17780188 0.00013778162 0.022899244 -9.8937664e-05 0.029782882 0.031063993
-0.0025929015 0.002917222 0.02958439 -0.030024292 0.043690275 -0.04519973 -0.021691443 0.020675331
-0.0268445 0.00528413 -0.0058061657 -0.016723521 0.288531 -0.020901501 0.06007939 0.025287129
0.04091272 -0.09155563 0.060920134 -0.01295715 -0.04270027 -0.0031216003 -0.0065837484 0.0010098487
-0.031987224 0.029306903 0.000826543 -0.030405864 0.03895791 0.017962387 0.12173956 -0.023541376
-0.051335726 0.011394145 -0.04411525 0.012972455 0.032730557 0.038569745 -0.029765854 0.04021668
0.16699536 0.020490456 0.0034245173 -0.02889423 -0.18137364 0.04270918 0.033907995 -0.03207268
0.018152682 0.021727271 -0.015762454 -0.18118347 -0.012456216 -0.019118302 0.021865733 0.00026908517
-0.054548353 -0.0042181397 0.013786226 -0.026803333 0.050415594 -0.00047481133 0.041183792 0.020851886
0.029771684 -0.0029522292 0.018042207 -0.03241689 -0.005390528 0.0361078 0.038123295 0.02773688
0.0045375153 0.2688685 -0.021994855 0.060754977 0.017419666 0.081161514 0.0075039705 0.024848973
0.020162769 -0.00304527 -0.0015547763 -0.007111399 -0.05496248 -0.009647619 -0.009224908 -0.01570736
-0.009743759 0.007881404 -0.00946982 0.019862257 -0.021192264 0.03762266 0.0239337 -0.000810017
0.0013248137 -0.020534713 -0.13403836 -0.108495355 -0.06467876 -0.03650223 0.020546634 0.009516569
-0.005380771 -0.052933387 -0.3011498 0.049354352 0.0030729752 -0.0063889585 0.009280854 0.0048831822
0.11290769 0.024670709 0.0026856177 -0.021864813 0.0027393466 -0.00482116 0.0010356107 0.041080292
-0.0021807172 -0.0056833075 0.044789456 -0.0060479334 -0.006153589 -0.044962913 -0.000109183835 -0.012609619
-0.053197704 0.051713794 -0.013341953 0.0038919956 -0.0008208154 0.00018248051 -0.01907016 -0.04673705
0.103613116 0.020437384 -0.030219356 -0.002556998 0.02892074 0.015645964 -0.036148325 0.0051820516
-0.013474721 -0.01052931 -0.3659223 0.0025498783 0.0056798626 -0.038696066 0.007486474 0.04404982
0.03935981 -0.023812851 -0.0011693068 0.009711422 -0.050190695 0.04654437 0.07108805 0.015666964

model.model.model.4.bias f4 [2]
00000000: 0496 81be 485d 2a3e
-0.25309765 0.16637146

model_old.model.model.0.weight f4 [256, 3]
00000000: 7292 58bd 18ec ac3d 8b33 26bf c022 ecbe
00000010: 087b 3b3e 86b4 c0be d6c5 cfbd 5fbe 6fbe
00000020: d8b2 f1bd 417b d7be e2c2 1d3e baa4 6dbe
00000030: f7c5 03bf 2cb2 07be 85a5 a73e 919c c4bd
00000040: 1def 66be 39c0 8abe d3c4 e8bd 47b0 d2bd
00000050: d0ff ca3e dd1d 9e3d 3757 5d3d 71d0 2f3e
00000060: e01e 73be 86e3 e03d 9ebc 7a3f 431a 12bf
00000070: 4e5e 813e de15 4cbd 2f2d f63b f4e0 3c3d
00000080: a050 56be 3ae2 753a aafa 89be c4bf f53e
00000090: e161 fdbd 6d44 d8bc afa5 323e 154c a1be
000000a0: f85d 0d3f 9f09 a63a 43d4 5abe 877e fb3c
000000b0: a097 8cbd 638d 3dbe 217a 15bd 7898 d93e
000000c0: e1e7 fabc 48f3 b9be 6b00 b43e e674 ad3c
000000d0: 7b82 aa3b b3e3 bebe 8ab9 393e 7aff 47be
000000e0: 357d 983d f470 21be 3636 9cbe 5e55 dbbd
000000f0: a158 b2be 0e7b 1d3e 912f 70be 6bf3 4c3d
00000100: e94d 3fbe 5507 e33e 0684 8dbe 0936 97be
00000110: ad1f 5cbe 1ba4 ca3c 36a1 753c afa6 e2be
00000120: dc22 08bf f4b3 b33e af34 12bf 5ee0 993b
00000130: 10f3 e2be 4f07 a83e 5efa 03bf c6a6 093e
00000140: a8ba 0bbf 71b3 41bd d61f f9be 4e66 823e
00000150: 4ce7 093d 6fb7 f2bc 8565 0f3f e901 813e
00000160: 4f11 3abd 386f 953e b25d 81be 7e98 613d
00000170: 62e9 f9be a0da 39bf 9eec b13e c7eb 063f
00000180: 6aa8 283d be51 183d 838e 3dbd d1d4 b93d
00000190: 9a7b 64bf cb13 0ebf 9c2e babe afa4 c4be
000001a0: c6ec f8be 90f3 ecbc 92ab e7be 6228 523f
000001b0: ca41 8ebd a5be 21bf 5a43 b73f 2bb6 d9bc
000001c0: 9d76 ff3d 318e 793e c87c 44bc 288d 03bf
000001d0: 4b29 69bf 52cb cabd e5c2 b1bd 431f 0e3f
000001e0: d651 3e3d f657 7ebe 6f39 1dbf da6c c4be
000001f0: ece3 84be 819b 17be cdcd b7be 51ba 8c3d
00000200: 938a 3b3e f3d2 48be 14b7 36be e4be ab3e
00000210: 10b9 b7be 085d 1fbe 4541 a9bd 5220 14bf
00000220: 442f 463e 307c ccbe 59d4 0cbd 4835 8abe
00000230: 160c 14bf 5f17 20bf e8df 253e 15c3 d2be
00000240: c05a 30bd fe5f e0be 44f7 b23e 481e 343c
00000250: 1c59 18bf 680a fabe db34 9d3d b113 44be
00000260: 8322 16bf c6d8 11be 7f05 28be 2934 a3be
00000270: d0e3 a93d ed5e 25bf 5de3 ecbd 07c4 34be
00000280: caa8 6a3e b946 cabd b871 be3d 2ddf 1ebf
00000290: f484 ac3d ff75 33be 72ca 8d3d 2f71 e8bd
000002a0: 35e6 1abf a6ce 593e 9c98 12bf 0755 83be
000002b0: 4b82 80be 7355 7ebd 426f 7fbc 8dbd 1cbf
000002c0: 6f04 55be 13e1 d43c 5642 233d edee 853c
000002d0: 9865 dfbe eed4 103d b004 dfbe da43 74be
000002e0: 75f3 9cbe 8c32 d83e 3dca b3be 0c0b 693d
000002f0: eb9f e4be c2ab dabd 8c6e b6be b356 19bf
00000300: 414e 143e af18 0fbe 982a 68bf 6b78 acbe
00000310: d4c8 4d3d 448d 9dbe 7fc3 afbe eff6 0bbf
00000320: 5dc8 683c 7803 073e 401f b83c 9165 83be
00000330: 2e56 06bf aa71 5a3e 9521 d4bd 8691 78bc
00000340: 5a9d 37be b116 b4be f7b4 2c3e 682b 21bf
00000350: 706f 0a3f cfc1 523d d6b5 acbe 68b3 3ebf
00000360: 880a 70be c07a b4bb 8790 c23e 71e3 c13d
00000370: 2065 a83c 82a3 8dbd 50e3 9f3d 420d 93bd
00000380: e1d9 f7be 6db6 32bf af0b 633e 89fa 17bf
00000390: 0015 4f3e f9ed 65be c9d4 e03d 0ea2 913d
000003a0: a47b 65be f506 36bf 0715 31be e70d d2bd
000003b0: 204c 283f e021 17bd 4efa 9abd dd96 c53f
000003c0: 707f 423d d400 64be 828d 7bbf 06a0 cd3d
000003d0: dc90 e639 e325 4abc 7603 8cbe 9ec1 a63d
000003e0: 2926 133f 8ad7 0dbf 5fee c7be 8114 543d
000003f0: b2d0 1d3d 431b 88be b4c7 54bf 380e c73d
-0.052874036 0.08443469 -0.649224 -0.46120262 0.18308651 -0.37637728 -0.10145156 -0.23412465
-0.1180169 -0.42086223 0.15406373 -0.2320737 -0.51473945 -0.13251561 0.3274347 -0.09600175
-0.22552152 -0.2709978 -0.11365666 -0.102875285 0.39648294 0.0772054 0.054038253 0.17169358
-0.23742247 0.10980897 0.97944057 -0.5707132 0.2526726 -0.04982554 0.0075127105 0.04611297
-0.20929193 0.00093797187 -0.26949054 0.47997868 -0.123721845 -0.026399815 0.17446016 -0.31503358
0.5522151 0.0012667662 -0.21370034 0.030699981 -0.06864858 -0.18510966 -0.036493424 0.42499137
-0.030628147 -0.3631842 0.3515657 0.021173906 0.0052035428 -0.37283096 0.18137184 -0.1953105
0.07445756 -0.15765744 -0.3051011 -0.10709642 -0.34833243 0.15378973 -0.23455645 0.05003683
-0.18682064 0.4434153 -0.27639788 -0.29533413 -0.21496458 0.024736455 0.014992049 -0.44267794
-0.5317819 0.3509823 -0.5711164 0.004695936 -0.44326067 0.32818076 -0.51553905 0.13442525
-0.5458169 -0.04729027 -0.486571 0.25468677 0.033667848 -0.029628484 0.5601428 0.2519677
-0.045426663 0.29186416 -0.25266796 0.05507707 -0.4881087 -0.7259922 0.34750837 0.5270352
0.041176237 0.03718733 -0.046278488 0.09073795 -0.892511 -0.5549895 -0.36363685 -0.38406894
-0.48618144 -0.028924733 -0.45248085 0.8209287 -0.06946142 -0.63181525 1.4317429 -0.026576122
0.124737956 0.24370648 -0.011992641 -0.5138726 -0.91078633 -0.099020615 -0.08679751 0.5551645
0.046464764 -0.24838242 -0.6141576 -0.38364297 -0.2595514 -0.14805414 -0.358992 0.068714745
0.1831458 -0.1961172 -0.17843276 0.33544075 -0.3588338 -0.15562832 -0.08264402 -0.57861817
0.19353968 -0.39938498 -0.034382198 -0.26993775 -0.5783094 -0.6253566 0.16198695 -0.4116446
-0.043055296 -0.43823236 0.34954274 0.010993548 -0.5951097 -0.48836064 0.07676097 -0.19148137
-0.5864641 -0.14242849 -0.16408347 -0.31875733 0.08295405 -0.6459797 -0.115668036 -0.17652903
0.2291595 -0.098767705 0.09299034 -0.6205929 0.08423796 -0.1752548 0.06923379 -0.11349713
-0.6050752 0.21270236 -0.57264113 -0.25650808 -0.25099406 -0.06209321 -0.015590491 -0.6122673
-0.20802473 0.02598623 0.039858185 0.01634928 -0.43632197 0.035359316 -0.43558264 -0.23854008
-0.30654493 0.42226064 -0.35115233 0.0568953 -0.44653258 -0.106772915 -0.35631216 -0.5989792
0.14482976 -0.1397426 -0.9068999 -0.33685622 0.050240353 -0.3077184 -0.3432884 -0.54673666
0.014207927 0.13184917 0.022475839 -0.25663427 -0.5247525 0.21332422 -0.10357968 -0.015171414
-0.17931119 -0.35173562 0.16865908 -0.6295686 0.5407629 0.05145436 -0.3373248 -0.744925
-0.23441517 -0.005507797 0.3800089 0.09467209 0.020556033 -0.06915952 0.07807028 -0.07180263
-0.48408416 -0.6980961 0.22172426 -0.5936666 0.20222855 -0.2245406 0.109780855 0.071109876
-0.22410446 -0.71104366 -0.17293178 -0.10256558 0.6574116 -0.03689754 -0.07567273 1.5436665
0.047484815 -0.22265941 -0.982628 0.10040288 0.00043976947 -0.012338134 -0.2734639 0.08142398
0.574801 -0.5540701 -0.3904905 0.051777367 0.038529105 -0.265833 -0.8311722 0.09719509

model_old.model.model.0.bias f4 [256]
00000000: 3c55 22bf fa62 de3b 20f9 a4be f315 053e
00000010: 5682 f1be 4043 eb3e aae1 a53d 59b5 c9bf
00000020: c496 26be 1ee0 82be 6fab 1ebf 5754 80be
00000030: 4bf1 2dbd be4e a93f 9e49 0a3f 8055 453f
00000040: 5827 9b3f 881d 01bf b006 cfbf 3852 6e3f
00000050: 8ab8 22be 4713 a9bf c34d 0dbf 9bcd 2bbf
00000060: 1f6c 713f e4d5 713c 1482 07bf ac9c 2c3f
00000070: 9d43 9fbf 91e7 bebf be48 2e3e 79af 13bf
00000080: 6c24 9fbf 82a8 123f 662b 09bf 1b48 c6bc
00000090: 37d2 e13c 376f 96bf c16b 0f3f cd81 ee3e
000000a0: 8ff2 3ebf e73c fe3e 11b5 3e3f cf2f 463c
000000b0: 951c 83bd 660d bd3e 028b d03e 0a11 5d3f
000000c0: de49 193f d837 803f 4429 b7bf d221 3f3e
000000d0: 0dff 8cbf ebc3 d93f 06e4 b6bf 9b17 92be
000000e0: e46c 893e 76f7 dbbd 947e 2c3f 946e 77bf
000000f0: 92cb efbe 0b24 dbbe fa66 cdbe 9646 483f
00000100: d71f aabf 00a8 d93e 45cb 89be 8d8a cdbf
00000110: e779 32bd 915b c2be b6b0 993f 32c5 bc3f
00000120: f74a 713f d8dc c3bf 6eee c8bf 9555 0f3f
00000130: 28e1 f1bf db1d a3bf 3f18 4a3f 19bb 083f
00000140: b2be 47bf 3cdc d0bf bcbc 8e3e 5826 063f
00000150: 84b9 0bbf 3c2b b1bf 2c7b 023f 2b3f e0be
00000160: 89e5 5cbe a6a6 b53e d7eb 593d 9ac2 a9bf
00000170: 73e8 9b3e bf09 90bf bd7d cbbc 171b e4bf
00000180: 00a6 cd3f f809 ab3f 492e a13f 2f61 aebe
00000190: 3be6 a2be 8da5 92bf f1b1 0dbe 820e a83f
000001a0: 1d6d 99bf 3952 cdbf a915 d43e 97a3 8f3f
000001b0: 866a 8cbf 2967 883f 3c69 323c a46d 9abf
000001c0: f3e3 8c3d 27b9 79be fdcc c6bf 6a9b 83bf
000001d0: 4492 15bf 3b5f 9a3f f28d b13e e363 bcbf
000001e0: cb69 27bf 37d6 cc3e 1ad1 e4be a6cf 823d
000001f0: 7974 bfbf 7268 8abe 5be2 c6be 7de6 883f
00000200: ab5a 3bbe aaa8 3e3f a9ad 64bd 8599 bfbf
00000210: 53cb b5bf 97c8 86bf 24d2 af3e ecf1 24bf
00000220: 2c8e cb3e 7148 1bbd 1abc 9c3e ae84 01bf
00000230: 5da5 e5bf c80c 8abf 2a92 91be 0770 eb3e
00000240: 7f50 46bf 1b21 a03e cb5e cdbe b6a1 a1bf
00000250: da26 c1be c550 88bf 371b 76bf d8ec b6be
00000260: 8f9c 86be 5f47 d63e 1634 7abe c76a d4be
00000270: a91a d03f 8d05 033f f139 1e3e 3856 edbd
00000280: b910 123e 87ca 89bf 49e9 cc3e c696 113f
00000290: 3558 d83e 404f 9e3f 7431 5cbd 8f26 01bf
000002a0: ac4b cfbe d863 a8bf 0939 5fbf bf07 473f
000002b0: 8034 733e 54ea 383f e84a 133e 7387 923f
000002c0: aae3 f13e 4ebd 223f f7b5 9cbe b55b c03e
000002d0: 0f92 a13e a89e 473e 11a3 ef3e 418f 99bf
000002e0: aee8 013f f890 c83d 2e25 133e a188 b13f
000002f0: b784 133e 3a00 68bf 21c7 82bc 7cde c03e
00000300: f9bd 213f fdd3 80bf ed0d 83bf 56f0 9ebf
00000310: 0096 a23e c2fc ab3f b7d1 a6be 7d66 7a3f
00000320: d720 c03e cad9 c73d 354c f0be 5b22 a83f
00000330: 3a99 d1be b54a bdbe b153 273e 8836 b03f
00000340: 921c 03bf 6d6e 3bbd aa33 97bf de52 edbe
00000350: 4d99 91bf 007a e03e c214 353f 00f0 353c
00000360: 41d4 90bf 5707 c53d d049 82bf ddb0 2ebf
00000370: 7759 9cbe 1cbc b2bf d50d b6bf b458 0fbf
00000380: 5d6e 893f f895 69be 8c8e 89bf 49d5 88bc
00000390: 7b61 15be 0aae d8be 7a34 8d3b f99f 3dbf
000003a0: 34ca 02bf eb1c 5d3e ccfb e13d 2dbc e13e
000003b0: b1e7 803e f7bb e5bd 2ea6 a73f 428b c43f
000003c0: bf04 e3bd 3f8a d4bd 8887 1cbf d946 79be
000003d0: c683 5e3f 2e4b 693e f8f9 94be b8d2 233f
000003e0: 06f2 86bc 19c3 d3bd 3a67 a5be ac16 563f
000003f0: f1bf 84bf d05d 5dbe 11d4 983f b2b4 273c
-0.6341131 0.0067867013 -0.32221317 0.12996654 -0.4716975 0.45949745 0.08099683 -1.5758468
-0.1626845 -0.25561613 -0.61980337 -0.25064346 -0.042466443 1.3227155 0.5401858 0.7708359
1.2121382 -0.50435686 -1.6173916 0.93094206 -0.15890709 -1.3209008 -0.5519678 -0.67110604
0.94305605 0.014760468 -0.5293286 0.6742656 -1.2442509 -1.4914418 0.17019936 -0.57689625
-1.243299 0.5728837 -0.53581846 -0.024204304 0.027566059 -1.175269 0.56023794 0.46583405
-0.74588865 0.4965584 0.74495035 0.012096359 -0.06401936 0.36924285 0.40731055 0.86354125
0.5987834 1.0017042 -1.4309468 0.18665245 -1.1015335 1.7012914 -1.4288337 -0.28533635
0.2684089 -0.10740559 0.6738064 -0.96653104 -0.46835 -0.42800936 -0.40117627 0.78232706
-1.3290967 0.42510986 -0.26912895 -1.6057907 -0.043573286 -0.37960485 1.2007053 1.4747679
0.9425501 -1.5301771 -1.5697763 0.5598996 -1.8896837 -1.2743486 0.78943247 0.5341049
-0.7802535 -1.631721 0.27878368 0.5240226 -0.5457995 -1.3841319 0.50969195 -0.43798193
-0.21571936 0.35478705 0.05320343 -1.3262513 0.30450782 -1.1252974 -0.02484023 -1.7820767
1.6066284 1.3362417 1.259225 -0.3405852 -0.31816277 -1.1456772 -0.1383741 1.3129427
-1.1986424 -1.6040717 0.41422775 1.1221799 -1.0970008 1.0656482 0.010889348 -1.206471
0.06879415 -0.24387036 -1.5531307 -1.0281804 -0.5842631 1.2060312 0.34678608 -1.4717983
-0.653958 0.40007183 -0.44690782 0.06387262 -1.495742 -0.2703281 -0.3884457 1.069534
-0.18296306 0.7447611 -0.055829678 -1.4968725 -1.4202675 -1.0529965 0.34340012 -0.64431643
0.39756906 -0.037910882 0.3061226 -0.5059308 -1.794109 -1.078515 -0.28431827 0.45983908
-0.7746658 0.31275257 -0.40111384 -1.2627475 -0.37724954 -1.0649649 -0.96135277 -0.35727572
-0.2629132 0.41851327 -0.24433932 -0.41487715 1.6258136 0.51180345 0.1545179 -0.115887105
0.14264192 -1.0764931 0.40021732 0.56870687 0.42254797 1.2367935 -0.0537581 -0.5044946
-0.4048742 -1.315547 -0.87196404 0.77746195 0.23750496 0.72232556 0.14384043 1.1447586
0.47244006 0.63570106 -0.30607578 0.37569967 0.31556746 0.19494116 0.46804097 -1.1996843
0.50745666 0.097932756 0.14369652 1.3869821 0.14406095 -0.90625346 -0.015964093 0.37669742
0.631805 -1.0064694 -1.0238625 -1.2417095 0.31755066 1.343651 -0.32581875 0.97812635
0.37525055 0.09758337 -0.4693314 1.3135484 -0.40937215 -0.3697106 0.1634052 1.3766642
-0.5121547 -0.045759607 -1.1812642 -0.46352285 -1.1374909 0.4384308 0.707348 0.011104584
-1.1314775 0.096205406 -1.0178776 -0.6823862 -0.30537006 -1.3963656 -1.4222971 -0.55994725
1.0736805 -0.22811115 -1.0746627 -0.016703265 -0.14587967 -0.4232028 0.004309234 -0.74072224
-0.5108979 0.21593063 0.110343546 0.4408888 0.25176767 -0.11217492 1.3097589 1.5354998
-0.110848896 -0.10377931 -0.61144304 -0.24343432 0.8691982 0.22782585 -0.2909696 0.63993406
-0.016472828 -0.10339946 -0.32305318 0.83628345 -1.0371076 -0.21617818 1.1939718 0.010235952

model_old.model.model.2.weight f4 [256, 256]
00000000: 8142 95bc 707c 14bc 1c89 b43c c382 69bd
00000010: 0c8c 52bd a0bd c6bc f08d 09bc 8e2a 0cbd
00000020: dd64 99bc 2072 d73b a247 52bd 804d 1aba
00000030: c801 443c fb2b 21bd 3ded 5a3d efa6 7e3c
00000040: c2ac d9bc a373 6ebd 094f f33a e240 973c
00000050: 20b4 3fbd 2265 2ebd 941e 0abd 3b12 e93c
00000060: 97d1 903c bc14 9bbc e620 6dbd fc2f c8bc
00000070: 7527 7dbd aef9 35bc d06e 3b3d 4bad ed3c
00000080: 0fde 36bc a0b6 45bc e827 433c 6604 733d
00000090: b089 5a3d e542 c33c b7d4 2abc c44e b43c
000000a0: 3062 babb 40d6 66bd 5167 693c c077 633b
000000b0: 8020 99ba 1842 64bc a0aa 09bd 4861 033d
000000c0: 2ccd 8bbc 1ebf 05bd a0be 48bd 4078 9e3c
000000d0: 4ed8 193d da01 38bd 5621 21bd 6896 e5bc
000000e0: aa65 e4bc 5864 32bd dcb2 3f3d 8c03 babc
000000f0: 92e0 0e3d 7e04 003d a845 fabc 9552 94bc
00000100: d55e 5fbb e0c5 b63c 7811 223d 25e7 b5bc
00000110: 138c 21bd 5849 513c 961a 3bbd 58e2 64bc
00000120: f82c 05bd 5758 e8bc 26ea 493d ae8b 5abd
00000130: 185b 203c ba0d 143d 1220 37bd 1c18 193d
00000140: f648 113d e039 7bbd 7c6f b2bc 6278 123d
00000150: a4b8 183d 1c98 5abd 3c1b e1bc 127d 82bd
00000160: dc84 de3c 486c 98bc 4046 843a 2090 5d3c
00000170: d4ff 26bd fb93 9cbd c883 1b3c 7208 30bd
00000180: d9e4 373d 3942 89bd ba83 41bd 04f8 b33c
00000190: 4871 4ebc 0ce3 a8bc 74c6 923c 8059 3fbd
000001a0: 1c8d a93c 3fe8 8bbd 304a bb3b 22ad 77bd
000001b0: 6800 1dbd 227d 813c 6c59 263c 1852 0fbd
000001c0: f858 14bc b48c a53c 760b f03c a23a 7e3d
000001d0: 4c09 4fbd cb3a 5bbc 90f9 a4bb d8ca 23bc
000001e0: 8805 3ebd 50b4 d33b d075 1b3c 5892 12bc
000001f0: 8549 c53c ba6d 73bd a45d a7bc 1649 62bd
00000200: 2095 a8bc 79d0 383d 401a 79bd dafb e73c
00000210: bab2 06bd 06b3 723d d0c9 3ebd cafc ed3b
00000220: d0aa 2a3d ec93 993c a639 373d 3051 403c
00000230: 44af 7cbd 8c2c 0cbd e2da 2fbd 8838 a4bc
00000240: c9ee 52bd 4cf0 2dbd 6eda 56bd c987 f53a
00000250: 8ab5 b63b 9c68 d23c fa74 4cbd 402d b8bc
00000260: 7098 90bb 9868 2b3c d41e c03c 703e 2b3c
00000270: f681 37ba 2eaf 603d 4806 ff3b 7047 423c
00000280: 247a 303d c5eb b83c b8da 543c 46d9 36bc
00000290: 2b80 1bbd 6034 bb3b aa78 f23c bae6 64bd
000002a0: c691 0f3d 2017 d5bb 4855 a93c f30d 01bd
000002b0: 70f1 3dbd c4f4 2dbd 7856 463c 6e22 77bd
000002c0: 90a6 79bc e054 023c 0e50 e43c 8fed aabb
000002d0: 8804 f93c 9827 40bc e279 7dbd ead6 193d
000002e0: e4c2 08bd a43e 7b3d 5050 63bc a090 71bd
000002f0: c0d8 debb e287 15bc c43d d5bc cad5 1abd
00000300: ba8b 54bd 84bb ffbc f8ef 80bc e4dc 29bd
00000310: d013 78bd 8842 4fbc 0803 0c3d 9c0f 213d
00000320: 5841 49bd 2500 5e3d ff7d cc3b e591 32bd
00000330: c8f8 4cbd 0ef4 2bbd f831 ef3c b60e aa39
00000340: e7ab 9c3b 8004 723c 905d 0a3c d85c 7abc
00000350: 5432 413b 8074 bcbc 7470 523d e67f 5cbd
00000360: 3c57 cdbb 6c8c 4e3d 7eaf 05bd 404d c7ba
00000370: 9029 a73c b8a3 453c 80ad 48bc 0a2f 173d
00000380: f529 ac3c c0b2 6abb 95f9 86bc e055 e03c
00000390: 58c8 e2bc 60ce 2fbd aa5c 79bd 0e3f 83bd
000003a0: 78fe 54bc 8049 ae3c d8f5 003c 0e89 7ebd
000003b0: 50b4 d7bb 7203 07bc a005 133b 9865 883c
000003c0: 7ece 79bd 6a0a 36bd cab6 223d e0ce 72bc
000003d0: a263 63bc 94c1 703d 28c2 2abc f76c f9bc
000003e0: 943d e23c 90cc 903b fe53 33bd 5f56 093d
000003f0: eafc f2bc c041 7dbc 8798 99bd 945d 603d
-0.018220188 -0.009062871 0.022038035 -0.05700947 -0.05140309 -0.024260342 -0.008395657 -0.03422027
-0.018724853 0.006574884 -0.051337846 -0.0005886182 0.011963315 -0.039348584 0.053448904 0.01554273
-0.026571635 -0.05821575 0.0018562983 0.018463556 -0.04680264 -0.042576917 -0.033720568 0.028451076
0.017678065 -0.018930785 -0.057892703 -0.024436943 -0.061805207 -0.011106892 0.045759976 0.029013297
-0.011161341 -0.012067467 0.01191137 0.059330367 0.053353965 0.023835609 -0.010426692 0.022010215
-0.0056879744 -0.05635667 0.014245824 0.0034708828 -0.0011682659 -0.013931774 -0.033609986 0.032075197
-0.017065607 -0.032652967 -0.04900992 0.019344449 0.0375598 -0.04492364 -0.039338432 -0.02802582
-0.027880508 -0.043552727 0.046801433 -0.02270677 0.034882136 0.031254284 -0.030550793 -0.018105784
-0.0034083624 0.022311151 0.03956744 -0.022204945 -0.039440226 0.012773834 -0.04567965 -0.01396998
-0.03251359 -0.028362436 0.049295567 -0.053355865 0.009787343 0.036145903 -0.04470832 0.037376508
0.03546997 -0.06133449 -0.021781676 0.035759337 0.037285462 -0.05336772 -0.027478807 -0.063715115
0.027162962 -0.01860632 0.0010091737 0.013523132 -0.04077132 -0.076454125 0.009491868 -0.042976804
0.04489598 -0.06702084 -0.047244765 0.021968849 -0.012600251 -0.020616077 0.017916895 -0.046716213
0.020697169 -0.06831407 0.005715631 -0.060467847 -0.038330466 0.015806738 0.010153156 -0.0349904
-0.009054415 0.020208694 0.02930234 0.062067635 -0.050545976 -0.013380717 -0.005034633 -0.009997092
-0.046391994 0.006460704 0.009488538 -0.008946024 0.024082908 -0.059430815 -0.020430394 -0.05524548
-0.02057892 0.04512069 -0.06081605 0.028318334 -0.03288529 0.05925276 -0.046579182 0.007262801
0.041666806 0.018747292 0.044732712 0.011738107 -0.061690584 -0.03422217 -0.042933352 -0.020046487
-0.051497255 -0.042465493 -0.052454405 0.0018732484 0.0055758404 0.025684647 -0.049916245 -0.022482514
-0.004412703 0.010461949 0.0234522 0.010451898 -0.00070002617 0.054854564 0.007782731 0.011857852
0.043085232 0.022573361 0.0129916 -0.0111602 -0.037964027 0.0057130307 0.029598553 -0.0558841
0.03505113 -0.006503001 0.020670548 -0.031507444 -0.04637283 -0.042469755 0.012105577 -0.06033557
-0.0152374655 0.007954806 0.027870204 -0.0052163075 0.030397668 -0.01172819 -0.061883815 0.037558474
-0.033388987 0.061339036 -0.013874128 -0.058975816 -0.006800741 -0.009126635 -0.026030429 -0.03780154
-0.051891066 -0.031217344 -0.015739426 -0.041470423 -0.06056577 -0.01265014 0.03418258 0.039321527
-0.049134582 0.054199357 0.006240606 -0.043596167 -0.050041944 -0.041980796 0.029198632 0.00032435887
0.0047812345 0.014771581 0.008445159 -0.015280925 0.002947946 -0.02300477 0.051376775 -0.05383291
-0.0062665027 0.050426885 -0.032638066 -0.0015205517 0.02040556 0.012062959 -0.012248397 0.036910094
0.0210161 -0.003581211 -0.016476432 0.027384698 -0.027683422 -0.042921424 -0.060879387 -0.06408511
-0.013000123 0.021275282 0.007871114 -0.062142424 -0.006582774 -0.0082405675 0.0022433773 0.016650006
-0.060987942 -0.044443525 0.039725102 -0.014819831 -0.013878735 0.05877836 -0.010422267 -0.030447466
0.027617253 0.004418917 -0.043781273 0.033529636 -0.029661614 -0.015457571 -0.074997954 0.054776743
